assets/section_1/actor_critic/acrobot/models/episode_best/actor.pth (torch, 220054 bytes, 18 tensors)

0.weight f4 [128, 6]
0	0x3e2d22fd	0.16907878
1	0x3e8745bb	0.26420388
2	0xbdc699e2	-0.096973196
3	0xbeb26d8d	-0.34849206
4	0xbe708789	-0.23489203
5	0x3de845a5	0.11341409
6	0x3d578925	0.052621026
7	0x3e0c9cf8	0.13731754
8	0x3e8ca55c	0.2746991
9	0x3e5e6d05	0.21721275
10	0xbe850b16	-0.2598502
11	0x3c11717e	0.008877156
12	0x3c00ddb9	0.007865363
13	0x3e2f675e	0.17129275
14	0x3e89ab6f	0.26888606
15	0x3e45dc13	0.19322233
16	0x3c2ffe76	0.010741821
17	0x3e88a5b8	0.26688933
18	0xbea990f7	-0.33118412
19	0x3eab492a	0.33454257
20	0xbe78b6fb	-0.24288552
21	0x3e5f7cd5	0.21824963
22	0xbe67ac55	-0.22624333
23	0x3c3251ec	0.0108837895
24	0x3e89ecf8	0.26938605
25	0xbde04f9b	-0.109526835
26	0x3e9005ce	0.2812943
27	0xbe1b0fd6	-0.1514276
28	0xbe462c24	-0.19352776
29	0x3ea7b442	0.32754713
30	0xbdd5cf4c	-0.10439929
31	0xbe61ef24	-0.22063881
32	0xbe3b31ef	-0.18280767
33	0xbe6313bf	-0.22175501
34	0xbe994c6d	-0.2994112
35	0x3e81505e	0.25256628
36	0x3edbe51c	0.42948234
37	0x3e044f08	0.12920773
38	0x3e63035a	0.22169247
39	0x3ddd9636	0.10819666
40	0x3df5c879	0.12001128
41	0xbea338c1	-0.31879237
42	0x3e93f9be	0.28901476
43	0x3da1b08e	0.07895003
44	0x3e869069	0.2628205
45	0xbdbe9d14	-0.09307304
46	0x3e65679a	0.22402802
47	0x3e96dc84	0.29465115
48	0x3e032890	0.12808442
49	0x3e285be5	0.16441305
50	0x3d2bd210	0.041948378
51	0xbee70760	-0.45122814
52	0xbd8619de	-0.065479025
53	0x3dd68bff	0.10475921
54	0xbccec36a	-0.025239665
55	0xbdffed25	-0.124964036
56	0x3ec6ed38	0.3885286
57	0xbe3933f0	-0.18086219
58	0x3cc2ff1e	0.02380329
59	0x3d8c389a	0.068467334
60	0xbe27028c	-0.16309565
61	0x3ca7c082	0.020477537
62	0x3edfb3d4	0.43691885
63	0x3d5cb113	0.05387981
64	0xbc73fe6f	-0.014892205
65	0x3e91e92e	0.28498214
66	0xbea41ef8	-0.32054877
67	0x3dda1e2a	0.106502846
68	0x3ea8b6b1	0.32951882
69	0x3d5f8cdc	0.054577693
70	0xbeeff966	-0.46869963
71	0xbe065600	-0.13118744
72	0x3dfb08a0	0.122575045
73	0xbe22c9c5	-0.15897281
74	0xbe929567	-0.2862961
75	0x3dce46d7	0.100721054
76	0xbe6c2c16	-0.23063692
77	0x3dd398f9	0.103319116
78	0xbe8b5110	-0.27210283
79	0x3e1fdcff	0.15611647
80	0xbe4ac747	-0.19802581
81	0x3e11df03	0.14245228
82	0xbe5e8a77	-0.21732508
83	0xbd27ef7d	-0.04099988
84	0x3ebb79d9	0.366164
85	0x3d3cf9f5	0.046136815
86	0xbd80b889	-0.06285197
87	0x3efb5525	0.49088398
88	0x3dccb43e	0.09995316
89	0xbe7374ce	-0.23775026
90	0x3ebaf0fb	0.36511979
91	0x3ea1b748	0.31585145
92	0xbd772fa0	-0.060348153
93	0xbe7c2d52	-0.24626663
94	0xbdde0b34	-0.108419806
95	0x3d282252	0.041048355
96	0xbe8979d9	-0.26850775
97	0x3ec0a31e	0.3762445
98	0xbe727c6a	-0.23680273
99	0xbe959513	-0.29215297
100	0xbdf30a64	-0.11867216
101	0x3e979ac5	0.29610267
102	0xbe49c429	-0.19703735
103	0x3e275cf1	0.16344048
104	0x3dd0a126	0.101869866
105	0xbdb167c0	-0.08662367
106	0x3dca8c3e	0.0989003
107	0xbe8f8f3b	-0.28038964
108	0x3e963f5b	0.2934521
109	0xbb8ea321	-0.0043529426
110	0x3ef77f32	0.4833923
111	0x3d9e2daf	0.07723557
112	0xbe8501e5	-0.25978008
113	0x3ed6366e	0.41838402
114	0x3e854010	0.26025438
115	0xbe4cbdd1	-0.19994284
116	0xbe29ed7f	-0.16594504
117	0x3e21cd8a	0.15801063
118	0x3d183731	0.03716201
119	0x3d2c0e11	0.042005602
120	0x3ea31772	0.31853825
121	0x3d7bb1de	0.061448924
122	0xbe73585a	-0.23764172
123	0xbd833f09	-0.064085074
124	0x3e2e6925	0.17032297
125	0xbca37354	-0.019952454
126	0x3e25efb4	0.1620472
127	0x3d8d5726	0.06901388
128	0xbeabc64d	-0.3354973
129	0xbcf2e2be	-0.029649135
130	0x3e269c5a	0.16270581
131	0xbe4d7523	-0.20064215
132	0x3e5fd96f	0.21860288
133	0x3e6d9847	0.2320262
134	0x3ea1fb8b	0.31637225
135	0x3d911ede	0.070859656
136	0x3e3f5a5d	0.18686815
137	0x3e8bc5da	0.27299386
138	0xbe8d3496	-0.27579182
139	0x3e9ff091	0.31238225
140	0xbe5cd31f	-0.21564911
141	0xbd17089c	-0.036873445
142	0x3ec965b1	0.39335397
143	0x3eb2d51f	0.34928223
144	0x3e8d60fa	0.2761305
145	0xbe0c442d	-0.13697882
146	0xbe54c44e	-0.2077801
147	0x3ed383e1	0.41311553
148	0xbee26270	-0.44215727
149	0xbe527b53	-0.20554857
150	0xbe4ac460	-0.19801474
151	0x3e430acd	0.19047089
152	0x3edc0bee	0.42977852
153	0xbe3dc0c5	-0.18530567
154	0x3ea889e5	0.32917705
155	0xbd8098e8	-0.062791646
156	0xbe4205e9	-0.18947567
157	0xbeb99bce	-0.36251682
158	0x3ed9ad5f	0.42515084
159	0xbcdcdfaa	-0.02696212
160	0x3e994ec8	0.29942918
161	0xbd2634c7	-0.040577676
162	0x3dbeea6f	0.093220584
163	0x3e00f721	0.12594272
164	0xbd8bd443	-0.06827595
165	0xbc34956b	-0.011021952
166	0x3e8c166f	0.27360865
167	0xbcb930e2	-0.022606317
168	0x3e90fdc5	0.2831861
169	0x3edc2ad0	0.43001413
170	0x3ed1fd53	0.41013584
171	0xbed0eade	-0.4080419
172	0xbe9f328d	-0.31093255
173	0x3f02790f	0.5096597
174	0x3d6491c3	0.05580307
175	0x3ed8e105	0.42359176
176	0xbd3f0b1e	-0.04664146
177	0xbe708a9a	-0.23490372
178	0x3e54db43	0.20786767
179	0x3d9d059d	0.07667086
180	0xbd993bc6	-0.07482104
181	0xbdd9b20a	-0.106296614
182	0xbe16a5fe	-0.14711758
183	0x3e144cd3	0.14482431
184	0x3c19bc61	0.009383292
185	0x3e1321a2	0.14368299
186	0x3e1ceebd	0.15325446
187	0x3d171867	0.036888506
188	0x3e55f801	0.20895387
189	0xbe3a4c20	-0.18193102
190	0x3daa5015	0.08316056
191	0x3ec7cc35	0.39022985
192	0x3df71b5e	0.12065767
193	0x3e943680	0.2894783
194	0x3e39f4e6	0.18159828
195	0x3f005705	0.5013278
196	0x3d80bf5f	0.06286501
197	0xbe82309e	-0.25427717
198	0xbe2e06cc	-0.1699478
199	0x3ea39682	0.31950766
200	0x3f05f85c	0.5233209
201	0xbf0421b6	-0.5161394
202	0xbe6067d9	-0.21914615
203	0x3e223471	0.15840317
204	0xbebd7f40	-0.37011147
205	0x3e8c2ea8	0.27379346
206	0x3d63a564	0.05557765
207	0xbd666ec6	-0.056257986
208	0x3e998613	0.29985103
209	0x3e07bbe0	0.13255262
210	0x3d695ef4	0.05697532
211	0x3e2058fb	0.15658943
212	0x3eac1812	0.33612114
213	0xbeb8a11b	-0.36060414
214	0x3dde8bac	0.10866484
215	0x3ef36b9f	0.47543046
216	0xbec44dc3	-0.38340577
217	0x3e5ed543	0.2176104
218	0x3d833455	0.06406466
219	0x3b23b9be	0.0024982537
220	0xbea214e1	-0.31656554
221	0x3df68272	0.12036599
222	0x3ef9926c	0.48744524
223	0x3e0d381e	0.13790938
224	0xbdaf0154	-0.08545175
225	0xbeeff8f0	-0.46869612
226	0xba0f5575	-0.0005467751
227	0x3cfe2e88	0.031028047
228	0xbdddaadc	-0.108236045
229	0xbdb79392	-0.08963694
230	0xbd458461	-0.04822195
231	0xbe4684ae	-0.19386551
232	0xbda0de18	-0.07854861
233	0x3e664021	0.224854
234	0xbe5fb8a5	-0.2184778
235	0x3e295ae8	0.16538584
236	0xbe55653a	-0.20839396
237	0xbeade6d1	-0.3396516
238	0x3ea8b96f	0.32953975
239	0x3e5a7221	0.21332599
240	0x3e87d3d9	0.26528814
241	0x3e7911fa	0.24323264
242	0xbe1ee323	-0.15516333
243	0x3ebc802f	0.36816546
244	0xbe288c00	-0.16459656
245	0xbf004896	-0.5011076
246	0x3ddeba70	0.10875404
247	0x3e85b2bf	0.26112935
248	0xbd7ece47	-0.06220844
249	0xbe389976	-0.1802729
250	0x3cb60a1b	0.022221616
251	0x3ea46a8e	0.32112545
252	0x3e2ef7b8	0.17086685
253	0x3dc2588e	0.09489547
254	0xbea28a83	-0.317463
255	0xbe456bda	-0.19279423

0.bias f4 [128]
0	0x3b81173b	0.003939537
1	0xbec7b69d	-0.3900651
2	0xbeb92938	-0.3616426
3	0x3defcec1	0.11709357
4	0xbef4dc03	-0.47824106
5	0x3ec0dbe3	0.3766776
6	0xbdda7762	-0.10667302
7	0xbe7b8237	-0.24561392
8	0xbd6aad8b	-0.05729441
9	0xbe66c79a	-0.2253708
10	0xbec1dded	-0.37864628
11	0xbeb99678	-0.3624761
12	0xbecedfa2	-0.40404993
13	0xbd955aef	-0.07292735
14	0x3e45526a	0.1926972
15	0xbe6674fd	-0.22505565
16	0xbf0c08ea	-0.547011
17	0x3ea4d350	0.3219247
18	0x3e244716	0.16042742
19	0x3e125892	0.142916
20	0xbe9ca0c5	-0.30591407
21	0xbec58819	-0.38580397
22	0x3ea21c4b	0.3166221
23	0xbdd90767	-0.10597115
24	0xbe868bb3	-0.26278457
25	0xbe4ef4b0	-0.20210528
26	0xbe7bf12e	-0.24603721
27	0xbe809fbc	-0.25121868
28	0x3ec80286	0.39064425
29	0xbe3baefa	-0.18328467
30	0xbea04120	-0.31299686
31	0x3df39c4a	0.11895044
32	0x3e0693d6	0.13142332
33	0xbe53b2c6	-0.20673665
34	0x3d019a32	0.031641193
35	0xbc163803	-0.009168628
36	0x3ea8127c	0.32826602
37	0xbe816d27	-0.2527859
38	0x3debc0ea	0.11511405
39	0xbe53119a	-0.20612183
40	0x3e5b50e0	0.2141757
41	0x3dfeacdf	0.12435316
42	0xbe6e2aca	-0.2325851
43	0x3e9ecb36	0.31014413
44	0xbe228375	-0.1587046
45	0xbe84f235	-0.2596604
46	0x3dc756af	0.097333305
47	0x3e3997e7	0.18124352
48	0x3ece0431	0.40237573
49	0x3ee029a1	0.4378176
50	0xbd8f8367	-0.07007485
51	0xbdf2f919	-0.11863918
52	0x3e66a5c4	0.22524172
53	0x3e8ee8df	0.27912042
54	0x3e4afa0a	0.19821945
55	0xbe987180	-0.29774094
56	0xbed7b1ad	-0.42127743
57	0x3e2429f0	0.16031623
58	0x3eb148ab	0.34625754
59	0x3e797273	0.24360065
60	0xbedc9299	-0.43080595
61	0x3ed88748	0.4229071
62	0xbedeb298	-0.4349563
63	0x3e05654b	0.13026921
64	0xbecc4c36	-0.39901894
65	0x3dd47566	0.103739545
66	0xbe9b1a70	-0.30293608
67	0xbdcebab2	-0.10094203
68	0x3e2790ef	0.16363882
69	0x3e3a8e2a	0.18218294
70	0x3d2c0c1f	0.042003747
71	0xbeb51778	-0.35369468
72	0x3eb6bdc4	0.35691655
73	0xbecf7398	-0.4051788
74	0x3e03f827	0.12887631
75	0x3dd712b7	0.105016164
76	0xbda8ef19	-0.08248729
77	0x3dc9765e	0.0983703
78	0x3e71f4fc	0.2362861
79	0x3ea5711c	0.32312858
80	0x3e452448	0.19252121
81	0x3e00aebb	0.12566654
82	0xbed59a38	-0.41719222
83	0x3eb0c57a	0.34525663
84	0xbee7ac9e	-0.45248884
85	0x3ed21843	0.41034135
86	0xbdb2ff2e	-0.08740078
87	0x3e986e3f	0.2977161
88	0xbd336eaf	-0.043806728
89	0x3d387a0f	0.04503828
90	0x3e863fde	0.26220602
91	0xbad34acb	-0.0016120313
92	0xbde7f7b0	-0.113265395
93	0x3eba01d2	0.36329514
94	0x3e97981c	0.29608238
95	0x3cda5d32	0.026655767
96	0xbdf6ccc7	-0.12050777
97	0xbe8d7d35	-0.27634588
98	0xbe8ad38f	-0.2711453
99	0xbecad408	-0.39614892
100	0x3ed614b0	0.41812658
101	0xbc8f9494	-0.017526902
102	0xbe27bba1	-0.16380168
103	0x3dfb0f85	0.122588195
104	0x3ead7539	0.33878496
105	0x3e36d90d	0.17856236
106	0xbea59251	-0.32338193
107	0xbea2e99e	-0.3181886
108	0x3ea07ad1	0.313437
109	0xbe5f76c1	-0.21822645
110	0x3ebf5c9f	0.37375352
111	0x3bc911e9	0.0061361683
112	0xbec13094	-0.37732375
113	0xbebe7c3e	-0.37204164
114	0x3eebc9f1	0.46052507
115	0x3e512160	0.20422888
116	0x3dbee1d2	0.093204156
117	0x3ec5e74c	0.38653028
118	0xbf008b1a	-0.5021225
119	0xbe04fd29	-0.12987198
120	0x3d620715	0.055182535
121	0xbee60552	-0.44925934
122	0xbec6d37c	-0.38833225
123	0xbef826e0	-0.4846716
124	0xbe63e22e	-0.2225425
125	0x3e19ac6e	0.15007183
126	0xbecb22fe	-0.39675134
127	0x3dca531b	0.09879132

2.weight f4 [128, 128]
0	0xbd83cf9e	-0.06436084
1	0x3d49a12c	0.04922597
2	0xbda43f84	-0.08019927
3	0xbd1b85c5	-0.03796937
4	0x3d1acc63	0.037792575
5	0xbdd38806	-0.10328679
6	0x3b343366	0.0027496456
7	0xbdb204cd	-0.08692322
8	0xbdb6108f	-0.08889877
9	0x3c10bb18	0.008833669
10	0x3d52108a	0.051285304
11	0xbb28ccc9	-0.0025756827
12	0x3cc9d285	0.024636516
13	0x3dc401df	0.095706694
14	0xbdbb7b66	-0.09154396
15	0x3c9c4b11	0.019078763
16	0xbc5db0bb	-0.013530905
17	0xbd212d70	-0.039349973
18	0x3aa386a0	0.0012476034
19	0xbc2c2401	-0.010506631
20	0xbdd4887c	-0.10377595
21	0x3aed5b0f	0.0018108803
22	0xbdcbbb67	-0.099478535
23	0xbda134cc	-0.07871398
24	0x3cd2df91	0.02574137
25	0xbd9653b5	-0.073401846
26	0xbc52b05b	-0.012859429
27	0x3d3d7ca1	0.046261434
28	0x3ce4dc6f	0.027937142
29	0x3d940d38	0.07229084
30	0xbb780336	-0.003784371
31	0x3b68ba52	0.0035511446
32	0xbd718083	-0.05896045
33	0xbb718c08	-0.0036857147
34	0x3d69d77e	0.057090275
35	0x3c97e2b9	0.018540727
36	0x3ce0ada8	0.027426556
37	0x3c3c32e9	0.011486747
38	0xbdf8d85b	-0.121506415
39	0x3cbe19de	0.023205694
40	0x3d8399a5	0.0642579
41	0xbce5bfcd	-0.02804556
42	0x3cc950a5	0.024574587
43	0xbcc714c3	-0.024301892
44	0x3d5dd539	0.054158423
45	0xbd4867fa	-0.048927285
46	0x3c86c63b	0.016451946
47	0x3d7be614	0.061498716
48	0x3d151ce9	0.036404524
49	0xbcb73a5e	-0.022366699
50	0xbd4eca05	-0.05048563
51	0x3d7c6759	0.061621998
52	0x3bce1c9b	0.006290031
53	0xbc30d4a8	-0.010792889
54	0x3c6c7047	0.014431066
55	0xbdb2982e	-0.08720432
56	0x3b756d06	0.0037449016
57	0x3d74354e	0.059621148
58	0xbc530e17	-0.012881777
59	0xbdb004cc	-0.08594665
60	0x3d94fbe4	0.07274607
61	0xbdc3acc9	-0.095544405
62	0x3cfd5070	0.030922145
63	0xbd21511a	-0.039383985
64	0xbd14de3a	-0.036344744
65	0x3c635ed1	0.013877586
66	0xbd8b0012	-0.06787123
67	0xbd7bfab3	-0.061518382
68	0xbc3d44e1	-0.011552067
69	0xbdba9bb3	-0.091117285
70	0xbdb655f1	-0.08903111
71	0xbc779917	-0.015112183
72	0xbdc513e8	-0.096229374
73	0x3d536577	0.051610436
74	0x3db1ca07	0.08681112
75	0xbcd24fe3	-0.025672859
76	0xbb71fd52	-0.0036924672
77	0xbd7437cc	-0.059623525
78	0xbd848dbe	-0.06472348
79	0x3d16bed2	0.036803074
80	0x3d8e7398	0.069556415
81	0x3d16b345	0.03679206
82	0x3d9323ff	0.071846
83	0x3ce17e13	0.027525937
84	0xbd9d2207	-0.07672506
85	0xbcb39aa6	-0.021924328
86	0xbca89023	-0.020576542
87	0xbdafbc15	-0.08580796
88	0xbc02173d	-0.007940111
89	0xbd678bf5	-0.056529958
90	0x3d0c8686	0.03430798
91	0x3d8a9103	0.0676594
92	0x3d9a5e83	0.07537558
93	0xbd2f1647	-0.042745855
94	0xbd0af81d	-0.033928026
95	0xbd7fae1a	-0.062421896
96	0x3bcfd63a	0.0063426765
97	0xbd9954ff	-0.07486915
98	0x3d5bf9a2	0.053704865
99	0x3cecfa77	0.028928025
100	0xbd26fd3c	-0.040768847
101	0xbdb2a98f	-0.08723747
102	0xbda0d592	-0.07853235
103	0xbd3108e2	-0.043221362
104	0x3d4fdcca	0.05074767
105	0xbd983305	-0.07431606
106	0xbc5c1763	-0.01343331
107	0x3c9c1908	0.019054905
108	0xbc6298ac	-0.013830345
109	0x3d743116	0.059617124
110	0xbd324946	-0.04352691
111	0xbcd44187	-0.025910152
112	0x3d03ac87	0.032146957
113	0x3d2a68e7	0.04160395
114	0x3cdae439	0.026720153
115	0x3ca2a75d	0.019855196
116	0x3d03ad3b	0.032147627
117	0x3d47dbf1	0.048793737
118	0x3c85ee84	0.016349085
119	0x3c99e115	0.018784085
120	0xbd5d3e58	-0.054014534
121	0x3cb2cd96	0.021826547
122	0xbc54bf54	-0.012985069
123	0x3d15ec3c	0.036602244
124	0x3d8a1caf	0.06743752
125	0xbdbe1700	-0.09281731
126	0x3d58455e	0.05280053
127	0xbc9501d5	-0.01818935
128	0x3cabee60	0.02098769
129	0xbd058351	-0.032595936
130	0x3dce00ae	0.100587234
131	0x3c15ef13	0.009151238
132	0x3db513a3	0.08841636
133	0x3d192a39	0.037393782
134	0x3dcb15ee	0.09916292
135	0xbe1f16fb	-0.1553611
136	0xbd6aaba0	-0.05729258
137	0xbd044875	-0.032295663
138	0x3dc88397	0.09790724
139	0xbddc3f08	-0.1075421
140	0xbc301e1e	-0.010749368
141	0xbdc9a8c9	-0.09846646
142	0x3d9a2545	0.0752664
143	0x3d8c84bc	0.068612546
144	0x3e25c08c	0.16186732
145	0x3e0664ee	0.13124439
146	0xbb4c4bd8	-0.0031173136
147	0xbd126778	-0.035743207
148	0xbe088a9a	-0.13334122
149	0xbca2c6db	-0.019870212
150	0xbe0982ef	-0.13428853
151	0x3d19d100	0.037552834
152	0x3c360beb	0.01111124
153	0xbddac7fb	-0.106826745
154	0xbd587a14	-0.052850798
155	0xbe00c62d	-0.12575598
156	0xbdcd2821	-0.100174196
157	0xbda3c256	-0.07996051
158	0xbc4d40c5	-0.012527649
159	0xbd7310c5	-0.059342165
160	0x3e051968	0.12997973
161	0xbd8b24e4	-0.06794146
162	0xbda5c82f	-0.080948226
163	0xbdcad4bb	-0.09903856
164	0x3d11260b	0.03543667
165	0xbd720b8a	-0.059093036
166	0x3cb182f7	0.021668894
167	0xbd154f75	-0.03645273
168	0x3dfb58ae	0.12272774
169	0xbaf70abb	-0.0018847802
170	0xbdd58326	-0.10425405
171	0xbdd96dcb	-0.106166445
172	0x3dc59610	0.09647763
173	0xbdb29e8a	-0.08721645
174	0x3e0474f1	0.12935235
175	0x3d8115b6	0.06302969
176	0x3e18b3c4	0.14912325
177	0x3d03ec27	0.032207634
178	0xbce44d0d	-0.027868772
179	0x3d924880	0.071427345
180	0x3e310473	0.17286853
181	0xba1391d5	-0.00056293356
182	0x3d84923b	0.06473204
183	0x3d0973bf	0.03355765
184	0x3bcbcde1	0.006219611
185	0xbda486e0	-0.08033538
186	0x3e10c356	0.14137015
187	0x3b91a6e4	0.0044449437
188	0x3d14b4a9	0.036305103
189	0x3b22e9b6	0.002485854
190	0xbdc91a70	-0.09819496
191	0x3ccb1a64	0.024792857
192	0x3d4f7ec9	0.05065802
193	0xbbf9ce16	-0.0076234443
194	0xbd9c35c0	-0.076274395
195	0x3d537ced	0.05163281
196	0x3e2a8dc1	0.16655637
197	0x3e1a36e9	0.15060009
198	0xbdbfee10	-0.09371579
199	0x3dc9f4ec	0.09861168
200	0x3cfe1cfe	0.031019684
201	0xbda02559	-0.078196235
202	0xbd3e104a	-0.046402253
203	0xbd12b4ab	-0.03581683
204	0xbd39a5d3	-0.045324158
205	0x3c0155c0	0.00789398
206	0x3d608669	0.054815684
207	0x3c6e6cc6	0.014552301
208	0xbc3022a1	-0.010750444
209	0x3d35acc1	0.044354204
210	0x3e3c93cd	0.18415757
211	0x3dc4c3e1	0.096076734
212	0xbc59db73	-0.01329695
213	0xbd3e9a08	-0.046533614
214	0xbabd401a	-0.001443866
215	0xbbc908b9	-0.006135073
216	0x3d51de3f	0.05123734
217	0x3e0a6f1b	0.13518946
218	0xbc36d62b	-0.01115946
219	0x3e008e08	0.1255418
220	0xbd40ce2c	-0.04707162
221	0xbd47c6d2	-0.048773594
222	0x3d80b0f2	0.0628375
223	0x3c0ac45a	0.008469665
224	0x3d1e0225	0.038576264
225	0x3d981e89	0.07427699
226	0x3ceaada9	0.02864726
227	0xbe064b42	-0.13114646
228	0x3cf8f3e6	0.030389737
229	0x3e068f16	0.1314052
230	0x3d31c353	0.043399166
231	0xbd16ce69	-0.03681794
232	0xbdb12938	-0.0865044
233	0x3da40d2b	0.08010324
234	0xbe663bf6	-0.22483811
235	0xbae049cb	-0.0017111836
236	0x3dc8378e	0.09776221
237	0x3e16db0d	0.14731999
238	0xbd281996	-0.041040026
239	0xbe889c5f	-0.26681802
240	0xb9840b3d	-0.00025185375
241	0x3d951e35	0.07281152
242	0xbc3dd599	-0.01158657
243	0x3d77d0a0	0.060501695
244	0x3d37f311	0.04490954
245	0xbd96f61a	-0.07371159
246	0xbe0d09a1	-0.13773204
247	0x3d5751b8	0.052568167
248	0x3cab653f	0.020922301
249	0x3d57fa29	0.052728806
250	0xbdb710db	-0.08938762
251	0x3d98a69d	0.07453654
252	0xbd63e6f1	-0.055640165
253	0xbd93b17d	-0.072115876
254	0x3bf68384	0.007523002
255	0x3cbfb1d6	0.023400228

2.bias f4 [128]
0	0xbd9209e3	-0.07130792
1	0x3d1b8b82	0.037974842
2	0xbdbb47db	-0.09144565
3	0xbcae3cff	-0.02126932
4	0xbdbc6c6c	-0.09200367
5	0x3d861b64	0.06548193
6	0x3def030b	0.11670502
7	0xbc24d7b5	-0.010061194
8	0xbd94ad2f	-0.07259595
9	0xbe47abaa	-0.19499078
10	0x3d6872fb	0.05675028
11	0xbd6e6bf8	-0.058208436
12	0xbb5b2dda	-0.0033444078
13	0x3e2bb71f	0.16769074
14	0x3e0149d7	0.12625824
15	0xbcd02acf	-0.025411038
16	0x3e329151	0.17438246
17	0x3d26766f	0.04064029
18	0xbd284c38	-0.041088313
19	0xbd367ae7	-0.044550803
20	0xbc4f9f76	-0.012672296
21	0xbd1b11e4	-0.03785886
22	0xbd5abaa1	-0.05340064
23	0x3d648006	0.055786155
24	0xbccdd7fe	-0.025127407
25	0xbe83a3b9	-0.25710848
26	0x3e22f589	0.15913977
27	0xbd7c3b72	-0.06158013
28	0xbd2a40d6	-0.04156574
29	0x3c5cd3df	0.013478248
30	0x3c06091c	0.008180883
31	0x3d9c29f8	0.076251924
32	0x3d00de8f	0.03146225
33	0xbcc6bf41	-0.024261119
34	0xbdd275a4	-0.102763444
35	0x3dea59cf	0.11442911
36	0x3d6db771	0.05803627
37	0xbd74380c	-0.059623763
38	0xbe0cb995	-0.13742669
39	0x3b689e9a	0.0035494925
40	0x3e52446c	0.20533913
41	0x3e050f52	0.12994125
42	0xbda975b1	-0.08274401
43	0x3d092441	0.03348184
44	0x3d83a205	0.06427387
45	0xbc9901f1	-0.018677684
46	0xbc8c56a6	-0.017131161
47	0x3e3c42f4	0.18384916
48	0x3e0715dc	0.13191932
49	0x3e0a4393	0.1350234
50	0x3e11e9d2	0.14249352
51	0xbd54ec70	-0.051983297
52	0xbd9065f8	-0.07050699
53	0x3d689614	0.05678375
54	0x3ac519ca	0.0015037593
55	0xbd41f1ef	-0.047349866
56	0x3c8e39a9	0.017361479
57	0xbe42766b	-0.18990485
58	0xbd8cbcc8	-0.06871945
59	0x3e21601d	0.1575932
60	0x3d6edbf3	0.05831523
61	0xbbdfb1e7	-0.0068266275
62	0xbd930404	-0.071785
63	0x3e62a249	0.2213222
64	0xbdc7a262	-0.09747769
65	0x3e249278	0.16071498
66	0x3d65222a	0.055940785
67	0x3e07d0a9	0.13263191
68	0x3de9847d	0.11402223
69	0x3d0e667b	0.0347657
70	0x3ca6a573	0.020342564
71	0x3d057144	0.03257872
72	0xbdeb5466	-0.11490707
73	0xbde47e50	-0.11156905
74	0xbd8718c6	-0.06596522
75	0x3d00c519	0.031437967
76	0x3dee8430	0.116463065
77	0xbd104116	-0.03521832
78	0x3d6618f9	0.05617616
79	0x3e12f8fa	0.1435279
80	0xbdc9afc0	-0.09847975
81	0xbe568bb8	-0.20951736
82	0xbc439498	-0.011937283
83	0x3dd44a1e	0.10365699
84	0xbe69f99b	-0.22849123
85	0xbe04475c	-0.12917846
86	0xbddc50bb	-0.107575856
87	0xbd9bfd25	-0.07616643
88	0xbd3375c2	-0.043813474
89	0x3e0ecb52	0.13944748
90	0x3c669ba6	0.014075195
91	0x3e5d51bc	0.2161321
92	0xbd8f14bb	-0.06986376
93	0x3d0c5fe2	0.03427113
94	0x3d59e784	0.053199306
95	0xbdb407ae	-0.08790527
96	0x3e14681f	0.14492844
97	0xbc27876f	-0.010225161
98	0xbc9e6044	-0.019333012
99	0x3c364c47	0.011126584
100	0x3e65b906	0.22433862
101	0xbbc044a9	-0.00586756
102	0xbdb0fdfc	-0.08642194
103	0xbde18f76	-0.11013691
104	0xbd0f837f	-0.035037514
105	0x3c7e899c	0.015535738
106	0xbdbb27a2	-0.09138419
107	0x3ce3aec5	0.027793298
108	0x3deb9d51	0.11504615
109	0x3bc4d0a7	0.0060063186
110	0x3acea8ae	0.0015766823
111	0xbd9050a4	-0.07046631
112	0x3d21b8ac	0.039482757
113	0xbd4c2c3a	-0.049846865
114	0x3cec5cff	0.028852938
115	0xbd4719a1	-0.048608426
116	0x3c4c3b66	0.012465334
117	0x3e0c5bb3	0.13706855
118	0x3cee82da	0.02911513
119	0xbd9cde30	-0.076595664
120	0x3d8da32a	0.06915887
121	0xbe0f267d	-0.13979526
122	0xbc6c569e	-0.014424948
123	0x3d7e3841	0.062065367
124	0xbe207f22	-0.15673497
125	0x3c9324d0	0.01796189
126	0xbe3b77f6	-0.1830748
127	0xbdb445a1	-0.08802343

4.weight f4 [3, 128]
0	0x3cdbdfb1	0.026840063
1	0x3d2950ff	0.04133701
2	0x3dd1d31a	0.102453426
3	0xbd876dff	-0.06612777
4	0x3c9e26da	0.019305635
5	0x3e40118f	0.18756698
6	0x3e1926b2	0.14956167
7	0x3cde66d0	0.027148634
8	0xbca61332	-0.020272825
9	0x3d5fe3ae	0.05466049
10	0x3e37b764	0.17941052
11	0x3bb7f0d4	0.0056134257
12	0xbcfa7496	-0.03057317
13	0x3e10e720	0.14150667
14	0xbdb27a6d	-0.08714757
15	0x3cad2c55	0.021139303
16	0xbdd79adf	-0.10527586
17	0xbdae00a8	-0.08496219
18	0x3d5b0161	0.053468112
19	0xbd0d8e5a	-0.034559585
20	0xbce32569	-0.0277278
21	0xbd44067c	-0.047857746
22	0x3ca85710	0.020549327
23	0x3da2654f	0.07929479
24	0xbc08fbc5	-0.008360808
25	0xbc88bbdb	-0.016691139
26	0x3dd8c31e	0.10584091
27	0x3d2dc8e5	0.042427916
28	0xbd8afd3c	-0.06786582
29	0x3cff6970	0.031178206
30	0x3e324836	0.17410359
31	0x3d9e71ec	0.077365726
32	0x3d3f0130	0.046631992
33	0x3c75d116	0.015003463
34	0x3c9d3fb7	0.01919542
35	0xbb5730e6	-0.0032835542
36	0x3e2f5276	0.171213
37	0xbe34063d	-0.17580505
38	0x3d9f77a0	0.077864885
39	0xbd8529e9	-0.06502134
40	0x3de72787	0.11286836
41	0x3e3d4461	0.18483116
42	0xbd29acdf	-0.04142463
43	0xbc8980f2	-0.016785119
44	0xbbe1d293	-0.0068915575
45	0x3d55e0c0	0.05221629
46	0xbd3f1b27	-0.046656754
47	0xbde42644	-0.11140111
48	0xbdbc1b6d	-0.091849186
49	0x3e21b7ac	0.15792722
50	0xbdaf9a6a	-0.08574374
51	0xbc4fc34d	-0.012680841
52	0xbd99b816	-0.07505815
53	0x3c1327ae	0.008981628
54	0x3b9e3e61	0.0048292135
55	0x3cb2c655	0.021823088
56	0xbd04da3f	-0.0324347
57	0x3c6572a1	0.01400438
58	0x3d029575	0.031880815
59	0xbc0868d0	-0.0083257705
60	0x3c600e73	0.01367532
61	0x3c3e1783	0.011602285
62	0xbc10b051	-0.0088311
63	0xbdb9233f	-0.09039926
64	0xbd653046	-0.05595424
65	0xbe03b8a4	-0.12863404
66	0xbd454915	-0.0481654
67	0x3e676d9f	0.22600411
68	0xbde9ec6f	-0.11422049
69	0x3dd4268d	0.103589155
70	0xbb2416b6	-0.002503795
71	0xbd2e395e	-0.04253518
72	0xbce025dc	-0.027361803
73	0xbb62599a	-0.003453827
74	0xbd5ad658	-0.05342707
75	0x3d834224	0.064091
76	0x3dc20c2d	0.094749786
77	0xbc101727	-0.008794582
78	0x3d1d8a02	0.038461693
79	0x3e0a4067	0.1350113
80	0x3d9ad90a	0.07560928
81	0x3a19b8f0	0.00058640447
82	0xbbd4745e	-0.0064835986
83	0x3e4c83ff	0.19972228
84	0x3c921a19	0.01783471
85	0x3d720d5b	0.059094768
86	0x3d1a0a18	0.037607282
87	0x3d4d06e2	0.050055392
88	0x3d16ed00	0.036847115
89	0xbd900bed	-0.07033525
90	0x3d60d857	0.054893818
91	0x3e299433	0.1656044
92	0xbc003b8c	-0.007826697
93	0x3e07ed53	0.13274126
94	0xbd15879f	-0.03650629
95	0x3d6c08ec	0.057625696
96	0x3e160560	0.14650488
97	0xbd81cce7	-0.0633791
98	0x3d1af078	0.037826985
99	0x3ce545ba	0.02798735
100	0x3e40b4d2	0.18818977
101	0xbc1fb511	-0.009747759
102	0xbd2001ed	-0.039064337
103	0xbc0ec2f0	-0.008713469
104	0xbd8f4149	-0.06994874
105	0x3d085e91	0.03329331
106	0xbd6b556b	-0.057454508
107	0x39c368dd	0.00037271428
108	0x3e234caf	0.15947221
109	0xbd058537	-0.032597747
110	0xbcf6781b	-0.030086568
111	0x3c99b98d	0.018765235
112	0x3e110996	0.14163813
113	0xbd899930	-0.06718671
114	0x3d6c31a7	0.05766454
115	0x3da012ca	0.07816084
116	0xbad2baa8	-0.0016077356
117	0x3d641dd3	0.055692505
118	0xbd291890	-0.04128319
119	0x3cd32942	0.02577651
120	0x3e14bf3b	0.14526074
121	0x3db95c06	0.09050755
122	0x3ad8746c	0.0016514189
123	0x3d563073	0.0522923
124	0x3d0c2a94	0.034220293
125	0x3c5e1724	0.013555322
126	0x3cf20245	0.029542098
127	0x3d901de9	0.07036955
128	0x3da5c671	0.0809449
129	0xbce23bdf	-0.02761644
130	0x3dab24b1	0.08356608
131	0x3cd0e7d6	0.025501173
132	0x3c64ac17	0.013957045
133	0xbdb84fc3	-0.08999588
134	0x3cd6d33e	0.026223775
135	0xbc7bf23a	-0.0153775755
136	0xbca91f37	-0.020644767
137	0x3db65809	0.0890351
138	0x3d83c46d	0.064339496
139	0x3d604cb5	0.054760654
140	0xbcbd41dc	-0.023102693
141	0x3d37abf8	0.044841737
142	0xbcb8f62c	-0.022578321
143	0xbceaf898	-0.028682992
144	0x3d8707ca	0.065932825
145	0x3df2cc20	0.1185534
146	0xbc7a52f6	-0.0152785685
147	0x3d641f5a	0.05569396
148	0x3a40eeab	0.0007359783
149	0x3deabfe6	0.11462383
150	0x3ddcd77e	0.107832894
151	0x3c426939	0.011865907
152	0xbcdaa7c8	-0.026691332
153	0x3d919241	0.07107974
154	0xbd942c53	-0.07235017
155	0xbc410859	-0.011781775
156	0xbc62bd0e	-0.013839019
157	0x3ce128d0	0.027485281
158	0x3d8920a5	0.066956796
159	0xbd445937	-0.047936644
160	0x3d0359c2	0.03206802
161	0xbd93e2eb	-0.072210155
162	0xbcd5f81c	-0.026119284
163	0x3c9635e7	0.01833625
164	0xbcca41aa	-0.024689514
165	0x3d9c858d	0.0764266
166	0x3d9160b3	0.07098522
167	0x3c805994	0.015667714
168	0xbcf39f41	-0.029739024
169	0x3cefa7f5	0.029254893
170	0xbcf0bb68	-0.029386237
171	0x3dc580e8	0.096437275
172	0x3cdda463	0.027055925
173	0x3b6d25c4	0.003618584
174	0x3ccfa7e0	0.025348604
175	0x3ca84359	0.020539926
176	0x3d75913c	0.05995296
177	0xbccb480c	-0.024814628
178	0xbcc6be20	-0.02426058
179	0x3d8ca583	0.06867506
180	0xbd98f9b8	-0.07469505
181	0x3cc19b96	0.02363376
182	0x3d16e506	0.036839508
183	0x3c1b5e49	0.009482929
184	0xbd5d641d	-0.054050554
185	0x3d3d543e	0.046222918
186	0x3d88cf90	0.066802144
187	0x3d032863	0.032020938
188	0x3d074d5f	0.03303277
189	0x3d2865d8	0.04111275
190	0xbc28f781	-0.010312916
191	0xbcc34d55	-0.023840586
192	0x3d48f05d	0.049057353
193	0x3d122fa3	0.03568996
194	0x3d214cb7	0.0393798
195	0x3dfd59b5	0.12370626
196	0xbcefb3e1	-0.029260578
197	0x3dcbf461	0.09958721
198	0x3e271ebf	0.16320322
199	0x3d8b481d	0.06800864
200	0xbc4f0d66	-0.012637472
201	0xbcbed894	-0.023296632
202	0x3d8a7f16	0.06762521
203	0x3d90b4d5	0.07065741
204	0x3ce3e867	0.027820779
205	0xbc85d3dd	-0.016336376
206	0x3d84570d	0.06461916
207	0xbd0c5fad	-0.03427093
208	0xbd9ec2d1	-0.07752002
209	0x3ddd3866	0.10801773
210	0x3cd8bae5	0.026456306
211	0x3cda86c1	0.026675584
212	0x3d69bab6	0.057062827
213	0x3e56d76b	0.20980613
214	0x3cc4ddca	0.024031539
215	0x3d09f2ac	0.033678696
216	0x393c9fa4	0.00017988548
217	0x3b3e7c41	0.002906576
218	0xbd99c930	-0.075090766
219	0x3d41f158	0.047349304
220	0xbd77f0ce	-0.060532384
221	0x3dbad59d	0.09122775
222	0xbd600f71	-0.054702226
223	0xbcd4bc32	-0.025968645
224	0x3dd94c45	0.106102504
225	0x3cb629ee	0.02223679
226	0x3cf5e4f5	0.030016402
227	0xba03de54	-0.0005030383
228	0x3cf29cc6	0.029615771
229	0xbdb05491	-0.0860988
230	0xbcd83a7d	-0.026395077
231	0x3dd53350	0.10410178
232	0xbc96dc53	-0.018415606
233	0xbd3444ec	-0.04401104
234	0x3e0af3ed	0.13569613
235	0x3d7659dd	0.060144294
236	0x3c73d70e	0.014882816
237	0xbc820a08	-0.015873924
238	0xbc3ad98a	-0.011404404
239	0x3d1886df	0.037237998
240	0xbcf02e0c	-0.029318832
241	0xbd528176	-0.051392995
242	0x3ca80ed5	0.020514885
243	0x3caa5966	0.020794582
244	0x3e2eb487	0.17061053
245	0x3ca2df40	0.019881845
246	0x3cceab19	0.02522807
247	0x3c295f8e	0.010337723
248	0x3d14dcbf	0.036343332
249	0x3dbff3ae	0.0937265
250	0xbd943728	-0.07237083
251	0xbccc7286	-0.024956953
252	0x3dd79ff2	0.10528554
253	0xbcf2dce6	-0.029646348
254	0x3dae6d4f	0.08516943
255	0x3d8196b9	0.06327576

4.bias f4 [3]
0	0x3dc7525d	0.097325064
1	0xbdc9afe1	-0.09847999
2	0x3e4bde47	0.19909011

exp_avg f4 [128, 6]
0	0x3b3dfbc9	0.0028989187
1	0xbbac721c	-0.0052626263
2	0x3b8d2141	0.0043069427
3	0xbb84e09c	-0.004055096
4	0x3c3d8000	0.011566162
5	0xbb29f212	-0.0025931639
6	0xbb28bdc2	-0.002574787
7	0x3b3af7f4	0.002852914
8	0xbaec5fbb	-0.0018033901
9	0x3b1c0744	0.0023808042
10	0xba317d66	-0.00067707
11	0xbb89149c	-0.004183365
12	0x39aafbe6	0.00032612606
13	0xba5c84d0	-0.00084121246
14	0x3b3a07de	0.0028386037
15	0xba933852	-0.0011231995
16	0x3c1b6231	0.00948386
17	0xbc57d5fc	-0.013173576
18	0x3ad69574	0.0016371445
19	0xbb6dc334	-0.003627968
20	0x3b0b21ed	0.0021229938
21	0xbb3f9eeb	-0.002923901
22	0x3bf4354e	0.0074526435
23	0xbb2ab648	-0.002604859
24	0xb8139079	-3.518208e-05
25	0xb969a1f5	-0.00022280945
26	0x39a75410	0.00031915354
27	0xb9858c18	-0.00025472115
28	0x3af5ad9e	0.0018743759
29	0xbafefe9a	-0.0019454539
30	0x3b6f7b40	0.0036541969
31	0xbbe1c779	-0.006890234
32	0x3b754c95	0.003742968
33	0xbb93eb88	-0.0045141615
34	0x3c41e7f0	0.011835083
35	0x3b4cd1cd	0.003125298
36	0x3b4711c5	0.0030375582
37	0xbaeb73a7	-0.0017963544
38	0x3b535e12	0.0032252115
39	0xba7d80b9	-0.0009670365
40	0x3a94ecf9	0.0011362127
41	0x3be8a533	0.0070997714
42	0xba0da713	-0.0005403619
43	0xbab53c31	-0.0013827143
44	0xba1e93bc	-0.0006049236
45	0x3a3de46c	0.00072438153
46	0x3a58b4b0	0.00082666706
47	0x3ba95442	0.005167515
48	0xb93ea7ab	-0.00018182273
49	0xb9c721f1	-0.00037981526
50	0x39d4e5a2	0.0004060688
51	0xb8d9c294	-0.00010383609
52	0x3afa44d9	0.0019094005
53	0xbab5f612	-0.0013882539
54	0x388e2146	6.777285e-05
55	0x3917a4ba	0.00014461848
56	0xb87ed45a	-6.0756087e-05
57	0xb8ebab8d	-0.00011237627
58	0x39b462e7	0.00034405963
59	0xba74d939	-0.000934023
60	0x39ef870f	0.0004568626
61	0x3a5b31d6	0.0008361613
62	0x3a909f77	0.0011033852
63	0x38471a35	4.7469704e-05
64	0x3b0b27d1	0.002123345
65	0xbbf1637b	-0.0073665953
66	0xbbdaff17	-0.006683241
67	0x3b87af52	0.004140773
68	0xbb86d46f	-0.0041146795
69	0x3b85c34a	0.004082118
70	0x3b3e5535	0.0029042487
71	0xbc544be4	-0.012957547
72	0xbb734cc8	-0.0037124623
73	0x3bd2f906	0.0064383773
74	0xbb2a1a75	-0.002595571
75	0x3b8efd97	0.0043637264
76	0xbb9e221b	-0.004825843
77	0xbc20b908	-0.00980974
78	0xba441aae	-0.0007480782
79	0x39a257fd	0.00030964604
80	0xba69afca	-0.0008914439
81	0xb9c10327	-0.00036814177
82	0x3ad7a0b9	0.0016451097
83	0xbb95c9f1	-0.0045711924
84	0xbb4d46f6	-0.0031322814
85	0x3bf87b96	0.007583092
86	0xbb843737	-0.0040349024
87	0x3ba81082	0.005128921
88	0xbc9321ce	-0.017960455
89	0x3c10af70	0.00883089
90	0xba202580	-0.00061091036
91	0xba7a8035	-0.00095558475
92	0x3a90eb6b	0.0011056488
93	0xb851beb1	-5.000708e-05
94	0x3b9ed9dd	0.0048477487
95	0xbb65988d	-0.0035033554
96	0xb91bd2cb	-0.00014860478
97	0x3b1cd79a	0.002393222
98	0x3974c8c6	0.00023344447
99	0x3a701425	0.0009158275
100	0x39f2bac7	0.00046296997
101	0xbc17e298	-0.009270333
102	0x3a96f2aa	0.0011516411
103	0x39970080	0.00028801337
104	0x3ac3aed8	0.0014929427
105	0x3ac1e074	0.0014791624
106	0xbb4f73e3	-0.0031654767
107	0x3c07b1fa	0.008282179
108	0x3b2c20a5	0.0026264575
109	0xbbe4f5c2	-0.0069873044
110	0x3b2a664d	0.0026000917
111	0xbb6e0fdb	-0.0036325369
112	0x3c2e296b	0.010629992
113	0x3bb6176f	0.0055569927
114	0x3a0824be	0.00051934633
115	0x39aab294	0.00032557978
116	0x39f6d3c0	0.00047078542
117	0xb9d9ead9	-0.0004156444
118	0xba312df3	-0.0006758861
119	0xbab8ead0	-0.0014108066
120	0xb8d07b3b	-9.941166e-05
121	0x391b498c	0.0001480935
122	0x38b6eb60	8.722278e-05
123	0xb92437cc	-0.00015661045
124	0xba573f04	-0.0008210989
125	0x39ade886	0.00033170375
126	0xbad62279	-0.0016337178
127	0x3a81142b	0.000984793
128	0xbad820c2	-0.0016489255
129	0x39f473e4	0.00046625652
130	0xba86f06d	-0.0010295041
131	0xbb630b77	-0.0034644285
132	0x3b61c4a4	0.0034449482
133	0xbc01491b	-0.007890965
134	0x3b4b68c2	0.0031037782
135	0xbb93f2e6	-0.0045150397
136	0x3c369045	0.011142795
137	0x3bdb988c	0.0067015346
138	0x3a828218	0.0009956984
139	0x3ae5b1ca	0.0017524299
140	0x3a89c639	0.0010511345
141	0xb9eda5c3	-0.00045327665
142	0xbaa7d6bc	-0.0012805085
143	0xbbe99d3e	-0.0071293404
144	0xbbfbc7e0	-0.007683739
145	0x3bd1cdc4	0.006402703
146	0xbbc57e66	-0.0060270308
147	0x3bc097f3	0.0058774888
148	0xbba7d59f	-0.005121901
149	0xbbf1a986	-0.007374945
150	0xb75cc262	-1.315828e-05
151	0x37c3d901	2.3346862e-05
152	0x384aaf04	4.832355e-05
153	0xb7e7c089	-2.7627002e-05
154	0xb9d2683e	-0.00040131988
155	0x3993cdb5	0.0002819129
156	0x39826b13	0.0002487531
157	0x3a48ac80	0.0007655099
158	0x39d9f4b9	0.00041571798
159	0xb90acf9a	-0.00013238043
160	0xbabd5c84	-0.0014447127
161	0xbaea0d20	-0.0017856695
162	0xb894b9bf	-7.091788e-05
163	0xb9cc3e7a	-0.0003895646
164	0xb8751a9c	-5.8437334e-05
165	0x39bf4f95	0.00036489652
166	0x39b17bf6	0.0003385243
167	0x3a885cb8	0.0010403609
168	0x3c0acde3	0.008471939
169	0xbc7b2f2a	-0.015331069
170	0x3c144407	0.009049422
171	0xbc4230b6	-0.011852434
172	0x3cc51c00	0.024061203
173	0x3c07dbc4	0.008292142
174	0x382edff7	4.1693416e-05
175	0xb8211303	-3.8403097e-05
176	0x37a83b29	2.005471e-05
177	0x3844e6be	4.6944937e-05
178	0xb92b5602	-0.00016339871
179	0x3964979b	0.00021800252
180	0x3a02e77a	0.0004993599
181	0x3a8f44ba	0.0010930516
182	0x3a8e9a92	0.0010879806
183	0xba442a54	-0.0007483114
184	0x37b9d2b9	2.2151844e-05
185	0xbbc01b6f	-0.0058626453
186	0xba12605d	-0.0005583817
187	0xba7b886e	-0.000959522
188	0xbb48d716	-0.003064578
189	0x3aa43e24	0.0012530726
190	0xbb8b5369	-0.0042518866
191	0x3c59f20c	0.013302337
192	0xbaed70d7	-0.0018115294
193	0x3bbd0a79	0.0057690707
194	0xbb2d7e0d	-0.0026472837
195	0x3b9c034f	0.0047611366
196	0xbc77bdc0	-0.0151209235
197	0x3c35f5f1	0.011106
198	0x3b21e33c	0.0024702093
199	0xbbbe092c	-0.005799433
200	0x3ba86722	0.0051392475
201	0xbb832934	-0.0040027145
202	0x3c7a6bdc	0.015284505
203	0xbbfa8680	-0.007645428
204	0xba0f3e8c	-0.00054643373
205	0x3a7af367	0.0009573013
206	0xba159f1e	-0.0005707609
207	0x3a01ecd5	0.000495625
208	0xba364393	-0.00069528184
209	0xbb95ab6c	-0.004567554
210	0xba7c7bf1	-0.0009631506
211	0xbb092a95	-0.0020929922
212	0xbb404c10	-0.0029342212
213	0x3ae0d404	0.0017153029
214	0xbae61ad9	-0.0017555609
215	0x3c709220	0.014683276
216	0x3aa946da	0.0012914792
217	0xbb974f69	-0.0046176207
218	0x399ba5f4	0.00029687549
219	0xbb70e726	-0.003675887
220	0x3bae5fbe	0.005321472
221	0x3bbcea7c	0.0057652574
222	0xb87a615a	-5.969531e-05
223	0xb80b38d2	-3.31931e-05
224	0x3889b9b9	6.5672626e-05
225	0xb6c38e1c	-5.8279966e-06
226	0x39af62d5	0.00033452237
227	0xb9a7f949	-0.00032038454
228	0x3b01d963	0.001981341
229	0xbb93ae6d	-0.004506877
230	0x3add5914	0.0016887509
231	0xbb3713c5	-0.0027935368
232	0x3bc48716	0.005997549
233	0x3b750380	0.003738612
234	0x39d68cff	0.0004092231
235	0x3a0a04cf	0.0005264999
236	0x3a03f213	0.0005033325
237	0x391c0778	0.00014880102
238	0xba3a146a	-0.0007098379
239	0xbb117fc5	-0.00222014
240	0xbb69052d	-0.0035556064
241	0x3be31bb4	0.0069307927
242	0xbba1db58	-0.004939478
243	0x3bd404cd	0.006470299
244	0xbc882bf3	-0.01662252
245	0x3c2c8a9e	0.010531096
246	0x3bf8e557	0.007595699
247	0xbc75d38a	-0.015004048
248	0x3c05c1ea	0.0081639085
249	0xbc16927c	-0.009190198
250	0x3cd1fe22	0.025633875
251	0x3bc2bce2	0.0059429267
252	0xb717dd91	-9.051889e-06
253	0x37e2fed5	2.7059965e-05
254	0x3872b95d	5.786993e-05
255	0xb8385ad0	-4.3953594e-05

exp_avg_sq f4 [128, 6]
0	0x38f9c0d0	0.000119091594
1	0x380ecd03	3.404637e-05
2	0x38fd0668	0.00012065173
3	0x38084201	3.2486398e-05
4	0x38fcb088	0.00012049178
5	0x38bc2fd5	8.973448e-05
6	0x37982264	1.8135826e-05
7	0x384ec86c	4.9300885e-05
8	0x37ecf33c	2.8246657e-05
9	0x38246009	3.9190087e-05
10	0x39c8fbf6	0.00038334698
11	0x39ebb272	0.00044955645
12	0x37e7d448	2.7636197e-05
13	0x3878b329	5.9294664e-05
14	0x37fac6cb	2.9894893e-05
15	0x386f39c8	5.7035853e-05
16	0x39a30fab	0.00031101456
17	0x3a655da4	0.000874961
18	0x3790d91c	1.7267237e-05
19	0x386041db	5.3467094e-05
20	0x380eb2d0	3.402197e-05
21	0x3819fba2	3.6712394e-05
22	0x3921efbe	0.00015443467
23	0x3941602b	0.0001844174
24	0x368e86fd	4.2476445e-06
25	0x361e4f9d	2.3590176e-06
26	0x3690ae9c	4.3118616e-06
27	0x361a0068	2.2948025e-06
28	0x373864fb	1.0990766e-05
29	0x37c54169	2.3514689e-05
30	0x383d88ee	4.5188637e-05
31	0x389c84c4	7.463389e-05
32	0x3894c95e	7.0946975e-05
33	0x384cffb2	4.8875525e-05
34	0x39aeed95	0.0003336488
35	0x39871d9e	0.00025771273
36	0x39155647	0.00014241888
37	0x38ae2d89	8.305448e-05
38	0x39220ca1	0.00015454229
39	0x3894c0e6	7.09312e-05
40	0x3a025091	0.0004971112
41	0x3a03e4ad	0.0005031329
42	0x39333cf2	0.00017093474
43	0x3899a9b0	7.327215e-05
44	0x39358ae6	0.00017313249
45	0x38950de6	7.1074624e-05
46	0x39fece05	0.00048600152
47	0x39e6a7eb	0.00043994127
48	0x39378082	0.00017500113
49	0x383e46c6	4.5365443e-05
50	0x393268b6	0.0001701441
51	0x3852a5ee	5.0222436e-05
52	0x3944c870	0.00018766685
53	0x3921c9a7	0.00015429278
54	0x37617d96	1.3440285e-05
55	0x35148f75	5.5343054e-07
56	0x375d0cb0	1.31755805e-05
57	0x355b9dd1	8.181351e-07
58	0x369b764f	4.633133e-06
59	0x372232a9	9.667748e-06
60	0x37929922	1.7475864e-05
61	0x37a2014f	1.9312514e-05
62	0x378ebfae	1.7016977e-05
63	0x37a5dacf	1.9771423e-05
64	0x38d7106d	0.000102550584
65	0x39b499be	0.00034446822
66	0x38ea1f5a	0.00011163829
67	0x392ab483	0.00016279709
68	0x3944fae8	0.00018785486
69	0x38b59285	8.658044e-05
70	0x3adc52fa	0.0016809397
71	0x3a911679	0.001106932
72	0x387dd777	6.0520568e-05
73	0x39457fb9	0.00018834964
74	0x38ea3c14	0.0001116918
75	0x390fd790	0.00013717846
76	0x3a8378c4	0.0010030498
77	0x3ad311ad	0.001610329
78	0x37a98407	2.020785e-05
79	0x37bb6c8d	2.2342685e-05
80	0x37c34797	2.3279148e-05
81	0x37a1a901	1.9271394e-05
82	0x38e321b4	0.00010830481
83	0x3932cbea	0.00017051367
84	0x39b90e7a	0.00035296736
85	0x39ab773f	0.00032704507
86	0x39e1c7ef	0.00043064306
87	0x3982bdc4	0.0002493692
88	0x3ae71f7e	0.0017633287
89	0x3aa9199b	0.0012901308
90	0x38fe4822	0.000121250996
91	0x37f5137f	2.9215355e-05
92	0x390281dc	0.00012446143
93	0x37da254e	2.6004996e-05
94	0x39282286	0.0001603459
95	0x38fcdbc7	0.00012057233
96	0x37eb38f4	2.8040704e-05
97	0x38852113	6.348095e-05
98	0x380c4d09	3.3450346e-05
99	0x38739184	5.8071237e-05
100	0x397c27b0	0.00024047378
101	0x3a770fd7	0.00094246626
102	0x38fbc7d5	0.00012005834
103	0x3913f4a1	0.00014110144
104	0x392451cf	0.00015670735
105	0x38db0d88	0.00010445254
106	0x3a7c41be	0.00096228335
107	0x3a5dc1ba	0.00084593485
108	0x38b89438	8.8014116e-05
109	0x390653ab	0.00012810405
110	0x38f67136	0.00011751281
111	0x38ceca4d	9.860527e-05
112	0x3a0f52d2	0.0005467358
113	0x3a34fce9	0.00069041416
114	0x38142891	3.532373e-05
115	0x383a57b4	4.4427536e-05
116	0x386835a6	5.5363074e-05
117	0x37cc9573	2.4388288e-05
118	0x3993aa60	0.00028164964
119	0x392836b2	0.00016042104
120	0x381a3a7a	3.677092e-05
121	0x38d73672	0.0001026214
122	0x38cdf38c	9.820526e-05
123	0x382cbfe7	4.118672e-05
124	0x3a3b5ab8	0.0007147002
125	0x39b5e25d	0.00034691664
126	0x387a18b8	5.9627666e-05
127	0x38ffc711	0.000121964265
128	0x38dbe582	0.00010485483
129	0x38a0ede2	7.673704e-05
130	0x3a916a1f	0.0011094249
131	0x3a29537b	0.0006459278
132	0x38d07e2c	9.941714e-05
133	0x392fbc19	0.00016759372
134	0x390b7c0c	0.00013302284
135	0x390c7f28	0.0001339881
136	0x3a825b5d	0.0009945441
137	0x3a8204af	0.0009919609
138	0x37fd3313	3.0183734e-05
139	0x389f0e52	7.584378e-05
140	0x3845f637	4.7197766e-05
141	0x3876bff6	5.8829748e-05
142	0x39c4daa7	0.00037546942
143	0x3a2052d9	0.0006115861
144	0x38c31b6b	9.3034316e-05
145	0x39627d5e	0.00021599742
146	0x3924b547	0.0001570779
147	0x391f55ce	0.00015195386
148	0x3ac0d9c1	0.0014713333
149	0x3aefeb5b	0.0018304394
150	0x38b69257	8.705694e-05
151	0x38598bbe	5.1866977e-05
152	0x38acbfe0	8.2373386e-05
153	0x386d30a6	5.655051e-05
154	0x3a19cf76	0.0005867401
155	0x39cff29c	0.00039662875
156	0x3730ad07	1.0530704e-05
157	0x37ce979a	2.4627709e-05
158	0x37953361	1.778611e-05
159	0x3791badc	1.737236e-05
160	0x39438331	0.00018645522
161	0x38f5275e	0.00011689843
162	0x3812a603	3.4963723e-05
163	0x3884463b	6.307332e-05
164	0x386b4261	5.6090186e-05
165	0x382ff025	4.1946903e-05
166	0x3a0eba03	0.0005444588
167	0x39a0dc1d	0.00030681575
168	0x39f6d79e	0.00047081424
169	0x3a076f62	0.00051664386
170	0x3a1130ab	0.0005538563
171	0x39e35529	0.00043360263
172	0x3b0c4ff5	0.0021409963
173	0x3b202653	0.0024436906
174	0x38475880	4.752772e-05
175	0x3876d87b	5.8852584e-05
176	0x381d89ea	3.756016e-05
177	0x3890538f	6.882019e-05
178	0x3a2940b4	0.000645648
179	0x39f51f32	0.00046753284
180	0x3743a7bc	1.1661959e-05
181	0x383c766f	4.4932993e-05
182	0x37d4a980	2.5351299e-05
183	0x38030baa	3.1243697e-05
184	0x38f4b8e1	0.00011669263
185	0x3994fdea	0.0002841794
186	0x392ed449	0.00016673015
187	0x394e1de2	0.00019656823
188	0x395b4501	0.00020911173
189	0x3921ad2f	0.00015418672
190	0x3a56be2a	0.0008191789
191	0x3a64c4b7	0.00087268226
192	0x3991bb1b	0.0002779596
193	0x395738e6	0.00020525194
194	0x399dfe4a	0.00030134834
195	0x393eb2b9	0.00018186391
196	0x3ad108b4	0.0015948028
197	0x3a94776b	0.0011327093
198	0x3927f820	0.00016018795
199	0x3885aa82	6.373694e-05
200	0x392b5b99	0.00016341954
201	0x387dc750	6.0505525e-05
202	0x39975850	0.00028866762
203	0x39236232	0.00015581472
204	0x374e3eaf	1.22931515e-05
205	0x37931d9a	1.753755e-05
206	0x37938553	1.758585e-05
207	0x374d6f27	1.2244832e-05
208	0x38f9044a	0.00011874044
209	0x38ec3230	0.00011262705
210	0x39d9d609	0.00041548934
211	0x39a456ef	0.00031345288
212	0x39ef41ea	0.00045634742
213	0x398eeb05	0.00027259454
214	0x3a900c11	0.0010989924
215	0x3acd9baf	0.0015686656
216	0x391e129d	0.00015074988
217	0x391d051f	0.00014974595
218	0x39351ac5	0.00017271478
219	0x3905fcfe	0.00012778115
220	0x39ec3d25	0.00045058984
221	0x3a74c7d9	0.0009337641
222	0x3968d1a5	0.00022203343
223	0x38930835	7.011035e-05
224	0x39590a0a	0.00020698473
225	0x38b29766	8.5159016e-05
226	0x3a2487f4	0.0006276362
227	0x3a1ad02e	0.0005905655
228	0x37c78b6e	2.3787576e-05
229	0x388408e1	6.295904e-05
230	0x3846e32f	4.741846e-05
231	0x3824f454	3.9328195e-05
232	0x39bea441	0.00036362003
233	0x3988db28	0.00026103226
234	0x36edf064	7.0911356e-06
235	0x378464a9	1.57825e-05
236	0x373bff74	1.1205546e-05
237	0x3743c225	1.16681085e-05
238	0x38a7913f	7.990235e-05
239	0x38a75e40	7.980736e-05
240	0x39aab1d6	0.00032557425
241	0x39312053	0.00016892077
242	0x39a7ef60	0.0003203107
243	0x3936a552	0.00017418459
244	0x3a9dccf1	0.0012039227
245	0x3a552b8b	0.00081317936
246	0x39d509d2	0.00040633843
247	0x39f68c14	0.00047025143
248	0x3a07c723	0.0005179515
249	0x39bc07a0	0.00035863835
250	0x3b052568	0.0020316485
251	0x3ad35989	0.0016124706
252	0x379ed9a7	1.893642e-05
253	0x381ee2b5	3.7881273e-05
254	0x38062cf9	3.1989974e-05
255	0x37d044fb	2.4827654e-05

exp_avg f4 [128]
0	0xbbbc37e4	-0.0057439674
1	0x3afbbea1	0.0019206592
2	0xbb83d114	-0.004022727
3	0xbb4dbcfd	-0.0031393163
4	0xba15f228	-0.0005719983
5	0xbb9bcfde	-0.0047550043
6	0xbb56a74d	-0.0032753528
7	0x3ad4cf1c	0.001623604
8	0xb9f70b82	-0.00047120085
9	0xb934f1b7	-0.00017256183
10	0xbaf3d472	-0.0018602742
11	0x3b94a9b6	0.0045368327
12	0x3b4e6a8c	0.0031496612
13	0x39ddab35	0.00042279964
14	0x3bc55378	0.006021913
15	0xba9cbae4	-0.0011957553
16	0xba883e5d	-0.0010394562
17	0xb9e8ede3	-0.00044427728
18	0xbb371848	-0.0027938057
19	0xba4dc2bd	-0.00078491477
20	0xb985fc67	-0.0002555579
21	0x3acd8dc4	0.0015682508
22	0xbb6a56bc	-0.0035757264
23	0xbb0c0ffd	-0.0021371834
24	0x3bff6142	0.0077935765
25	0xb912702a	-0.0001396543
26	0xba6371f9	-0.0008676346
27	0x39892c03	0.00026163468
28	0xbc43e253	-0.011955815
29	0xb896986c	-7.180948e-05
30	0xbb05df06	-0.0020427122
31	0x3b9e0836	0.004822756
32	0x3b9ad160	0.0047246665
33	0xbbdd563d	-0.006754665
34	0x39df628f	0.00042607306
35	0x3babbebd	0.0052412436
36	0xba47d3f4	-0.0007622831
37	0xb86df910	-5.673716e-05
38	0xbaff5d0d	-0.0019482687
39	0xba346050	-0.0006880807
40	0x3bfd18ae	0.0077238893
41	0xbc24904a	-0.010044167
42	0xb9095d70	-0.00013100146
43	0xbb7a5b9d	-0.0038201578
44	0xba9fb930	-0.0012185927
45	0xbad69092	-0.001636999
46	0x3c155f7f	0.009117006
47	0xb6ace595	-5.1527263e-06
48	0x39d66806	0.00040894764
49	0x3b7b639c	0.0038358932
50	0x3ba84739	0.0051354435
51	0xbaa03a61	-0.001222443
52	0x3b4853ed	0.0030567602
53	0xbb9ee419	-0.0048489687
54	0xbb86027f	-0.004089653
55	0xbb03d720	-0.0020117238
56	0xbb2b489a	-0.0026135803
57	0xbc090e28	-0.0083651915
58	0xba0521bb	-0.00050785736
59	0x3c7fa1f0	0.015602574
60	0x38e89363	0.00011090075
61	0xbb3763e6	-0.0027983128
62	0x395f0642	0.00021269268
63	0xbb05e5f4	-0.0020431252
64	0x3b136dea	0.0022495934
65	0xbac2ea43	-0.0014870841
66	0x396bdc47	0.00022493406
67	0xbadcf7b5	-0.001685849
68	0xbb83e92c	-0.004025599
69	0xbbdfd06d	-0.006830266
70	0xbbf76482	-0.0075498233
71	0xba00c1da	-0.00049116986
72	0xbad22708	-0.0016033361
73	0x3b8c7a36	0.0042870296
74	0xbac3bbde	-0.0014933308
75	0xbb48e485	-0.0030653786
76	0xbb04c6b3	-0.0020260036
77	0x3994820c	0.00028325652
78	0xbb31cb3a	-0.002712919
79	0xbb8866f6	-0.0041626645
80	0x3b8f856b	0.0043799183
81	0xbb4c202b	-0.0031147103
82	0x38fd3325	0.000120735065
83	0x3c3ec298	0.011643074
84	0x3acee370	0.0015784334
85	0xbb2ee18c	-0.002668473
86	0x3aa840be	0.0012836677
87	0xbb552118	-0.0032520946
88	0xba6280e5	-0.00086404226
89	0xbb568125	-0.0032730785
90	0xbb337c3d	-0.0027387284
91	0xbb817991	-0.0039512594
92	0x3ae94f72	0.0017800166
93	0x3b55830c	0.003257933
94	0xbc240dfb	-0.010013099
95	0xba5e18b4	-0.0008472309
96	0x3b24ddc6	0.0025156601
97	0x3a5e07e4	0.0008469804
98	0xbb8fc462	-0.0043874243
99	0xba38124d	-0.000702177
100	0x3bda12f4	0.0066550914
101	0xbb583d9c	-0.0032995706
102	0xbb09ea2c	-0.0021044118
103	0xbb8951c4	-0.0041906554
104	0xbbaf7770	-0.005354814
105	0x3a2a8e6d	0.00065062084
106	0xba94df42	-0.001135804
107	0xbb517b3f	-0.003196433
108	0x39e24eca	0.00043164782
109	0xbada5bbb	-0.0016659418
110	0xb9cf2a0b	-0.0003951344
111	0x3b93b195	0.0045072534
112	0xb94146d7	-0.00018432304
113	0xbbb1f35b	-0.0054306216
114	0x3b55009d	0.0032501586
115	0xbb0b1c20	-0.002122648
116	0xbb3e8d5b	-0.0029075954
117	0xbc07b88c	-0.0082837455
118	0xbab6b718	-0.0013940064
119	0xbadfc833	-0.0017073214
120	0x3b8bc5cf	0.004265524
121	0x3a816ce1	0.0009874367
122	0xb93101fd	-0.00016880776
123	0xbbe9456d	-0.007118872
124	0xb99143d1	-0.00027707082
125	0xbc524653	-0.012834149
126	0x3a90468f	0.0011007356
127	0xba8a5a02	-0.0010555389

exp_avg_sq f4 [128]
0	0x392093b3	0.00015313811
1	0x388d6cd0	6.743672e-05
2	0x38b64ea1	8.693082e-05
3	0x38945741	7.073442e-05
4	0x36ddaed5	6.6066664e-06
5	0x38fb493f	0.00011982256
6	0x396c6cf8	0.00022547308
7	0x398008e0	0.00024420675
8	0x39671216	0.00022036614
9	0x376ac698	1.3993726e-05
10	0x381a4d39	3.678838e-05
11	0x398fe214	0.00027443527
12	0x39827acd	0.00024887026
13	0x38327849	4.255053e-05
14	0x3a3242de	0.0006800125
15	0x391dc694	0.00015046663
16	0x38bfef46	9.152158e-05
17	0x3988ec4a	0.0002611599
18	0x39629dd7	0.0002161184
19	0x38a7401d	7.9751226e-05
20	0x391229cd	0.00013939217
21	0x393e69b5	0.00018159191
22	0x398bfd92	0.0002670107
23	0x38de5b08	0.00010602741
24	0x39a2058b	0.00030903178
25	0x3911ac12	0.00013892379
26	0x38137718	3.5158446e-05
27	0x38cd9943	9.803709e-05
28	0x3a816da0	0.000987459
29	0x38df187c	0.00010638029
30	0x386d606e	5.659501e-05
31	0x39be7918	0.00036329846
32	0x39fd5778	0.0004832109
33	0x396acd80	0.00022392534
34	0x37fa3ce4	2.9830677e-05
35	0x3a3f166e	0.0007289414
36	0x399d8be8	0.00030049612
37	0x39992ade	0.00029214373
38	0x38b5ebc9	8.674671e-05
39	0x37bfe0c5	2.287364e-05
40	0x3a01a102	0.00049449515
41	0x3a65caea	0.0008765893
42	0x386e4f77	5.681763e-05
43	0x3908051f	0.00012971878
44	0x371a9b53	9.2152795e-06
45	0x390f1ae3	0.00013647559
46	0x3992d730	0.00028007617
47	0x38823724	6.209154e-05
48	0x3926e01c	0.00015914481
49	0x39654133	0.0002186343
50	0x38c0e634	9.198152e-05
51	0x39d476d7	0.00040524334
52	0x3ac821a0	0.001526881
53	0x39c82e4c	0.00038181467
54	0x38bab50d	8.9028945e-05
55	0x396bf6c7	0.00022503278
56	0x386427be	5.439645e-05
57	0x38b6a6b5	8.709488e-05
58	0x3b3c82af	0.0028764417
59	0x3a8c5d03	0.0010708872
60	0x39115e88	0.00013863493
61	0x394f95a6	0.00019796807
62	0x39195346	0.00014622239
63	0x389b3a89	7.401879e-05
64	0x38d30b03	0.00010063315
65	0x38254c71	3.9410257e-05
66	0x381fa26b	3.8059818e-05
67	0x38cae513	9.674779e-05
68	0x3a8d37be	0.0010774059
69	0x3b1ebad1	0.0024220238
70	0x39906bff	0.00027546284
71	0x373bb644	1.1188506e-05
72	0x396dbd74	0.00022672658
73	0x396db2c0	0.00022668671
74	0x37a4e8af	1.9658675e-05
75	0x391b5e92	0.00014817182
76	0x3897631f	7.218704e-05
77	0x396abf77	0.00022387305
78	0x3880575e	6.119789e-05
79	0x3a0252f7	0.0004971469
80	0x38c26629	9.26967e-05
81	0x38deeae7	0.00010629539
82	0x395a8540	0.0002083974
83	0x3a95ce26	0.0011429235
84	0x385564a7	5.0876897e-05
85	0x3975b4a8	0.0002343232
86	0x388b4d16	6.642395e-05
87	0x39860963	0.00025565465
88	0x389414f9	7.0610964e-05
89	0x39e2c53d	0.00043253033
90	0x39e25301	0.00043167922
91	0x3a20374c	0.00061117555
92	0x38223793	3.8675567e-05
93	0x39a87107	0.0003212767
94	0x3a5f088e	0.00085080497
95	0x38a325b0	7.7794655e-05
96	0x39041ed3	0.00012599984
97	0x38a6faa4	7.962182e-05
98	0x394bbc51	0.00019429742
99	0x38a4d6d4	7.860144e-05
100	0x3a8117a5	0.0009848966
101	0x39434fb6	0.00018626344
102	0x3883f449	6.2920684e-05
103	0x38249eee	3.924866e-05
104	0x396a6e71	0.00022357122
105	0x38cd6cec	9.79545e-05
106	0x38bd8210	9.036448e-05
107	0x38f1bf68	0.00011527428
108	0x3909fd1e	0.00013159632
109	0x3940c249	0.00018382924
110	0x388ecc0f	6.8090965e-05
111	0x3a6e4564	0.00090893195
112	0x391c0f21	0.00014882955
113	0x3967e248	0.00022114173
114	0x39111078	0.00013834413
115	0x383e4ace	4.5369197e-05
116	0x399a7cac	0.00029466057
117	0x399ebb26	0.00030275545
118	0x385b2f68	5.225782e-05
119	0x387bbbe8	6.0018065e-05
120	0x39bf2072	0.00036454533
121	0x38827f94	6.222646e-05
122	0x381513cd	3.554281e-05
123	0x3a2d1a51	0.0006603348
124	0x38bea4ff	9.090639e-05
125	0x3a6f7450	0.00091344584
126	0x39074570	0.00012900471
127	0x37d4f395	2.5385796e-05
