assets/section_1/actor_critic/acrobot/models/episode_best/critic.pth (torch, 217010 bytes, 15 tensors)

0.weight f4 [128, 6]
00000000: 494a 73be 3f63 c23d 23b0 513e 72ff bebe
00000010: 21f1 c53e 6517 91bc bdea 6abe 51e6 7abd
00000020: 7638 633e 5ff9 8bbe bc0b 99be 609b 22be
00000030: c0a0 573e 6694 debe a5ba eb3e 935c 7d3e
00000040: 6f49 853c 65b3 32bc b004 a03d a717 27bf
00000050: 0213 5b3e d8c9 53be e6b9 d3be 3f6a 56be
00000060: 16aa e9be a552 24bf 1ebe d83b b285 113e
00000070: 9818 b8be 7b7b 103e 760d febd b64f eabd
00000080: 7ad2 c8be b0f0 5f3e a672 ae3d d5f8 1abe
00000090: f9e9 f43d 4042 d43e 35f1 36be 49dc 49be
000000a0: 91d9 873c 80bb a43d 4518 93be d8a6 c3be
000000b0: e07c 243e 5022 c4be d25b 81be 10f5 f9bd
000000c0: 5d3f 913d 86fa 673e b50a 043e c877 3fbd
000000d0: 7630 ea3e ae0a 913e 892d ff3e 99af fd3e
000000e0: b024 9d3e 92dc f9be 7069 933d bee8 cb3d
000000f0: 22c1 cb3e f484 723e 2a48 5dbe 5b72 7abe
00000100: 597a 85bd de49 b73d 40b7 1a3f d354 2b3e
00000110: 82aa be3e f9f7 a4be a93d 3e3e 1ed9 ed3d
00000120: 1997 d1bd 474a aabd 62c4 133e 0559 03be
00000130: 2cca 933e 2819 1f3c edf9 26be 43b3 173f
00000140: 30a0 4abc 354c e43e 04ac 5ebe ec95 3ebd
00000150: e443 96be 755c 3ebd 9b1e bf3e 5877 9a3e
00000160: 9a1c a33e a5b9 293e 8657 bd3d 381f d5be
00000170: 0904 c5be 7abf d0be 2217 043e 04f4 2f3d
00000180: 0d2f f7be cab7 f1bc f610 e4be 3888 45be
00000190: 5eda aa3e 4ba1 8dbd a2bd 4cbe 25fe ae3e
000001a0: 410b 653d 89ae be3e 4dac 49bd fc22 023e
000001b0: 7bc7 333e 595f 153f 43e3 25bd b4f8 bc3d
000001c0: aa65 61be 0ce3 a13e 34f6 43be 090a bb3e
000001d0: d644 24be 918a 773e 677a a63c bccd 4a3e
000001e0: 0d7d 8c3e d4d8 c3bd 10ce 3bbd 1b5b 8cbe
000001f0: aded b43e 381e 013e 88af f43e 035a d23d
00000200: 07a6 9f3e ffed e03c 26a7 cbbd 7262 9abc
00000210: 568a 9fbe 4a14 e03e 68ff fd3e 1db5 9e3e
00000220: 4aca 613d 700f 2e3e 046b bb3e 2b9e 7c3e
00000230: 4533 57be da0b a2be 16fc e6be dfd8 82bc
00000240: 5089 c53e 2cc0 1abe ded6 98be 7cb0 3b3e
00000250: d1ae ddbd ce95 fdbd 9cbf a63e 4996 f03e
00000260: 14e7 f83e 5e2e b9be ae68 81be 7180 c2bd
00000270: 7fe4 8abe 23d7 873e 9c37 6e3e cdb0 babe
00000280: 777f 25be 208d 083e 1229 31bd c5e1 ba3e
00000290: 9aad ea3b 381c 453e d39c 3d3e 13cb c03d
000002a0: 79d8 debe 4f3d 533e ceb2 1bbf 3d17 c4be
000002b0: e00a ac3d 7f88 3e3e d91c 87be fbb1 c23d
000002c0: 1e38 e13e f86c a0be 83a6 8c3e fd1a ab3e
000002d0: acf5 143e cc2c 0abf 4fc7 383e ea4b 073f
000002e0: ef9e d1bc cb7d afbc 679a a23e dfc3 203d
000002f0: 4fd8 c8bd a702 023e 9b18 f0bc 8b7c c5bb
00000300: 6686 37be cf6f b13d 56d5 69bd 145e 2bbe
00000310: 3ead 993e 6c68 7b3e fc6f 0f3f f7a8 a33e
00000320: 37af ad3e 99bb bb3d 5a19 85be 5f54 2fbe
00000330: 377a 333e 4586 ccbe 0b91 c8bd 9fa9 d9be
00000340: 7c2c 643e 3649 1fbd d282 f73e c4fb 04bf
00000350: a884 f4bd d745 903c b86e b93d 03ac 223e
00000360: c27f e3be 2135 e63d 5724 163e 4b88 e33d
00000370: 68f1 cb3e 1a43 bd3e 3bb1 92bd 664c 8d3e
00000380: 9273 d1be 76ef 523e 2361 e33c b044 b5bd
00000390: 176a 01bf d8a0 c43c b804 abbe b7ce b33e
000003a0: e854 5fbe dbe4 4ebe 8914 e1be 831e e9bc
000003b0: 7ec3 e4bd 1b14 d23d a4e1 88be 94d3 51be
000003c0: 9b3b e4be fc7a ce3e 396c 993e 5b75 a63e
000003d0: 0192 78be 001c 67be 588e 48be 8015 86be
000003e0: 036e 4ebe bf34 e93c 224e f83e 84a5 753e
000003f0: 672c 98bc 048c 1abf b13f eabe 4be9 e33d
-0.23758806 0.09491586 0.20477347 -0.37304264 0.3866053 -0.01771135 -0.22941108 -0.061254803
0.22189507 -0.27338693 -0.29891765 -0.15879583 0.21057415 -0.43472594 0.46040836 0.24742346
0.016270367 -0.010907029 0.07813394 -0.65270466 0.2139397 -0.20682466 -0.41352767 -0.20938967
-0.45637578 -0.64188606 0.0066144606 0.14211157 -0.35956264 0.14109604 -0.12404911 -0.11440985
-0.3922308 0.21869159 0.08517961 -0.15133984 0.11958689 0.41456795 -0.1786545 -0.19712938
0.016583236 0.08043575 -0.28729454 -0.3821323 0.16063261 -0.38307428 -0.25265366 -0.12204945
0.07092164 0.22654161 0.1289471 -0.04674509 0.45740098 0.2832846 0.49839428 0.49548033
0.30692053 -0.48801094 0.07197845 0.099565014 0.39795786 0.2368353 -0.2160956 -0.24457686
-0.065174766 0.08949636 0.6043587 0.16731577 0.37239462 -0.32220438 0.18578209 0.116136774
-0.10233898 -0.083149485 0.14430383 -0.12826927 0.28865182 0.009710588 -0.16306277 0.59257907
-0.012367293 0.4458939 -0.21745306 -0.046529695 -0.2934867 -0.046474893 0.37328038 0.30169177
0.3185776 0.16574724 0.092452094 -0.4162538 -0.3847964 -0.40771085 0.1289945 0.04295732
-0.48278084 -0.029506583 -0.4454419 -0.19290245 0.33369726 -0.0691553 -0.19994214 0.34178272
0.055918936 0.37242535 -0.049236584 0.12708658 0.17556565 0.58348614 -0.040499937 0.09227124
-0.22011438 0.31618536 -0.19136888 0.36531094 -0.16041884 0.24173953 0.020322038 0.19805044
0.27439156 -0.09562841 -0.045850813 -0.27413258 0.35337582 0.12609184 0.4779017 0.102710746
0.31181356 0.027457235 -0.099439904 -0.01884577 -0.3116023 0.4376548 0.49608922 0.30997553
0.05512456 0.16998076 0.36605084 0.24669711 -0.21015652 -0.31649667 -0.451142 -0.015972553
0.38581324 -0.1511237 -0.2985143 0.18329042 -0.10824359 -0.123820886 0.3256806 0.46989658
0.486138 -0.36168188 -0.25275177 -0.094971545 -0.27127454 0.26531324 0.23263401 -0.36463013
-0.16161905 0.13335085 -0.04325206 0.36500373 0.007161808 0.19249046 0.18516855 0.09413733
-0.4352453 0.20628856 -0.6081971 -0.3829898 0.08400512 0.18606757 -0.26389197 0.09506603
0.43988127 -0.31333137 0.27470788 0.33419028 0.14546841 -0.53974605 0.1804478 0.5285021
-0.02558848 -0.021422287 0.31758425 0.039249297 -0.098068826 0.12696324 -0.029308608 -0.0060268096
-0.17922363 0.08663904 -0.05708822 -0.16735107 0.30014986 0.24551553 0.5603025 0.31964847
0.3392274 0.09166641 -0.25995904 -0.17122029 0.1752709 -0.3994619 -0.0979329 -0.42512223
0.22282594 -0.03888818 0.48341995 -0.51946664 -0.11939365 0.017611427 0.09054321 0.1588593
-0.4443341 0.11240602 0.146623 0.1110998 0.39832616 0.36965257 -0.0716271 0.2759735
-0.40908486 0.2059916 0.02775628 -0.08850992 -0.50552505 0.024002478 -0.33402038 0.35118648
-0.21809733 -0.20204489 -0.4396098 -0.028456932 -0.111701 0.10257741 -0.2673465 -0.20490867
-0.44576725 0.40328205 0.2996538 0.3251141 -0.24274446 -0.22569275 -0.1958555 -0.26188278
-0.20159154 0.028467534 0.4849711 0.2398892 -0.01857586 -0.60369897 -0.45751718 0.111284815

0.bias f4 [128]
00000000: c98d 4dbe e25a 52be ca28 9e3e 145c 76be
00000010: cd9e 453b f5b5 4d3e e2ec 9a3e ba5f 98be
00000020: 15bb e2be 7d3b e5bd 59df ac3e 2855 bc3d
00000030: 85bc 14bf d59a 30be f043 bebe 91f7 863d
00000040: 7253 0e3e 63c4 0a3e 4a87 46be a6fc aa3e
00000050: 75c9 ccbe ee25 813d 72c3 e43e d0df edbe
00000060: d50b 8d3c e0d7 c83e ee6d 9e3c 8e70 8cbe
00000070: d377 6f3e 4693 17be 30b1 4b3d a8d7 8f3f
00000080: ee58 873e a07a 003f ece3 ebbd 09ef 573e
00000090: 160f f7be 4198 54bd 6697 693e f49d 0d3f
000000a0: 7894 e3bc 9972 d13e 3e7d cabe d1e5 5fbe
000000b0: 59d3 bbbd 06e1 2b3e 37a8 fdbd 3d06 cc3d
000000c0: 42fd 4b3f d58c a1bd c24f 02be 729b 68be
000000d0: a014 acbd 651a 2d3e b057 763e 2ece 0abf
000000e0: e303 133e 3799 ab3e 2bfe 97bd a035 03bf
000000f0: 67e0 1bbb 08a0 a8bd b0da 3abe a470 d9be
00000100: a5e6 36be a2bc 883d 588c c6be 4820 aa3e
00000110: 987b 7abe 797f c3be b6ed bdbe fc2f 5fbe
00000120: 9d97 153f 0d7b c5be fa61 d03e 379c aebd
00000130: 8245 2e3b 07ab 03be 8c7e 0cbf 1cfa cf3e
00000140: a4d4 833d 83ec c9be f25a 91be 9ae5 8f3d
00000150: d61b f8bd 2f65 16bf a119 c93e ed4b 44bd
00000160: 6f74 2f3e ca76 953d 7218 13bf bed0 24bf
00000170: cf63 133e 7b6d 0a3f 0c34 36bf 960e 75be
00000180: 208e 2ebc f8bb a43e 809a ddbe f7f3 593e
00000190: fd12 c5be 19cb 27bd 4d5e ef3d 516c 1d3f
000001a0: 28c7 ebbd dfcb a73e 4720 09bf 895b dabc
000001b0: f8c0 333e b467 8c3c 0234 2fbe 56cc 243d
000001c0: abe9 02be 2a1b 9dbe 975e 00bf 452a 913e
000001d0: 6a7a bc3e 067b b23d ff5e 6d3d d5cd 9ebe
000001e0: 0276 0fbf a4c4 4bbd b005 523e 549a 8b3c
000001f0: 9c3a d2be 1591 1d3e 548f 913e cb33 a53e
-0.20073618 -0.20542482 0.30890495 -0.24058563 0.0030154467 0.20088942 0.30258852 -0.29760534
-0.44283357 -0.11192987 0.3376415 0.0919593 -0.5810016 -0.17246564 -0.37161207 0.06590188
0.1389902 0.13551478 -0.19387546 0.3339588 -0.3999745 0.06306063 0.44680363 -0.46459818
0.017217556 0.392272 0.019339528 -0.27429622 0.23385553 -0.14802274 0.049729526 1.1237688
0.26435035 0.5018711 -0.11518082 0.21087278 -0.48253697 -0.051903013 0.2281166 0.5531914
-0.027780756 0.40907744 -0.39548677 -0.21865012 -0.09171171 0.16785058 -0.123856 0.09962127
0.79683316 -0.0788819 -0.12725738 -0.22715548 -0.084023714 0.169046 0.24056888 -0.54220855
0.14356951 0.3351533 -0.074215256 -0.512537 -0.0023784877 -0.082336485 -0.18247485 -0.4246875
-0.17861421 0.06676604 -0.3877895 0.33227754 -0.2446121 -0.3818319 -0.37095422 -0.21795648
0.5843447 -0.38570443 0.4069975 -0.08525889 0.0026591723 -0.1285821 -0.54880595 0.40620506
0.06437042 -0.39438257 -0.28389698 0.07026215 -0.12114684 -0.58748144 0.39277366 -0.04792397
0.1713426 0.07298048 -0.57459176 -0.64381015 0.14393543 0.54073304 -0.7117317 -0.23931345
-0.010654002 0.3217466 -0.43281937 0.21284471 -0.3849105 -0.040965173 0.11687908 0.614934
-0.115125954 0.3277273 -0.53564876 -0.026654975 0.1755408 0.017139293 -0.17109683 0.040233932
-0.1278445 -0.30684787 -0.5014433 0.28352562 0.36812145 0.08714871 0.057951923 -0.31016412
-0.5603944 -0.049748078 0.20509982 0.017041363 -0.4106034 0.15387376 0.28429663 0.32266077

2.weight f4 [128, 128]
00000000: 007d 66bd ef07 35bd 1d49 32bd 1b1d 7a3d
00000010: e35a 103a 383c 073d f348 dbbb eecf d2bd
00000020: 90f8 783d dd40 293d 0694 b5bd a95a 543c
00000030: 76c2 203d 4aae 923d 6944 9abc f842 413d
00000040: 6e10 84bd e66a 8cbd 8cac b8bc b188 1bbc
00000050: 927c cc3c a7db 75bd 992d 0bbd cada d0bc
00000060: 53c9 093d 7074 a8bd bf88 5dbd 22cb 26bd
00000070: 97fa 9abd a6fe a3bd 4aea 4ebd e257 bfbd
00000080: ef80 713d 9814 b8bd 7989 38bd e4a5 38bd
00000090: 1fb6 dfbc eb30 1bbd af2b b2bc f235 ca3c
000000a0: a890 943c 93b8 ab3c 4100 303d 8de5 733d
000000b0: 513d 173d de68 dc3b 4bff 45bd f5c1 0dbd
000000c0: 4070 a4bd 2f2c 2dbc bb41 2fbd 0260 0e3d
000000d0: b0c1 893d fcbd cfbd 5af5 9fbb f4d9 a6bd
000000e0: 9062 883d 89c1 6d3d bcd1 2fbd b9f0 de3c
000000f0: 313c db3b f1bb ffbc 2235 21bd b607 32bd
00000100: 20ce 4dbd 4993 95bd 7c08 5c3d b3d1 053d
00000110: 735b d5bc f64a 813c 0723 abbb 989b 9bbd
00000120: 7f73 783c b0b3 253d 8464 c83c f28d 2b3d
00000130: 3c68 693d 05c2 403d 8bef ce3c 7f52 9cbd
00000140: 6c6c 9abc 0843 4e3d cc5e 823d 1720 6cbd
00000150: 8be9 05bc 24d0 803d 0f37 a2bd 8560 523d
00000160: da25 543c 7613 63bd 8caa a0bd edfc b3bd
00000170: a76f ac3c f594 c0bd ff79 65bd 615c cebc
00000180: 9192 f8bc 1a49 bf3c 6197 e2bb 4caf 18bd
00000190: d701 1cbd eb80 893b e227 c7bc c6b8 953d
000001a0: a404 a7bd b3ee 873c 1d3c 9abd c9a7 8c3d
000001b0: 6797 83bd 1e97 52bd f439 c5bd 72cb 453d
000001c0: 1a8a b7bd 2194 96bd 1bfe 83bd 79b8 353d
000001d0: d8bd 8ebd 8892 1a3c 6457 343d 6628 2ebd
000001e0: 3f46 193b f767 ccb9 a0a4 81bd a270 c3bd
000001f0: 4467 8fbc a549 9f3c 2c26 823d 97f9 8bbd
00000200: c51d 293d 8bd4 103d 1c29 8dbd 12f9 55bd
00000210: ced8 e23c 0a6f 483d 50c8 803d f494 4c3c
00000220: 7e64 4bbd 9a80 edbc 252d 8dbd c85f ba3c
00000230: b276 2bbb c400 2dbd 3f52 d2bc 7fa2 5bbd
00000240: a190 6ebc b871 09bd c1ab 57bd 36b5 983c
00000250: b927 8b3c e939 8f3c 8d5b 80bd b500 6abd
00000260: aa6a a83d a6db 7cbc 25f1 ae3c 18bf 033d
00000270: 64fc 7f3c 9b67 aabd d6ac 9fbd 4ffa b5bd
00000280: 0b47 903d e51d 233c d265 b83c b169 f9bc
00000290: 24cd 32bd 5d35 703d 1aa3 93bd 47b7 c0bd
000002a0: 81b7 adb9 11be 9cbd a7c8 9cbd 527d 8b3b
000002b0: 000a 99bd 0fea 3c3d e544 41bd 4aa6 533d
000002c0: ead6 d6bc b1f4 503d f1fb ad3d dcb7 ecbc
000002d0: 2927 9a3d 16cd 91bb 015b 6fbd 9817 a73d
000002e0: 5a9c e8bc 7e33 fd3c 7646 2dbd 0518 78bd
000002f0: a5cb e8bc 8983 acbd 5628 b0bd 71a6 adbd
00000300: 3a1b 4dbd 47d2 b0bd ff53 bfbc a86f acbd
00000310: dadd 063d 0915 803b f649 843d 7361 53bd
00000320: ec76 8cbd d73f 183d 9f5e a5bd 739d 18bd
00000330: 17de 1a3c 815b 06bc edde 4a3d e6bb 65bc
00000340: 3dd2 abbd ab8e 7bbd 192e 9fbd 0c5f 9abd
00000350: 74ca 5a3c 4537 d23b 85ba 81bd 5b63 b6bb
00000360: 251d 0cbc 5539 d0bb 680e 1a3c 02bc b93d
00000370: 5d70 123d 5be2 b2bd 6115 323d 9a45 0ab9
00000380: bc81 11bd 53c0 723d d95f c6bc 6185 89bc
00000390: 5c6d 41bc ce1d 4dbd 5bad b5bd b7a5 d83c
000003a0: b5a7 213d 5c57 12bd b22b 5abc 0030 ad3d
000003b0: 736c a1bd 0cac aabd 3afd 27bd 2aa7 07bd
000003c0: 4cd4 4f3d 01f2 883d 1c1e 65ba 77ce 6bbd
000003d0: ec24 973d f6fc 0fbd ac5f 24bd 2c6c e6bb
000003e0: 64d1 22bd 0d72 34bd 48c6 c93c b0a8 b93c
000003f0: 79fa 98bd b51b 853d b32c 8e3d 5c2a 8f3d
-0.056271553 -0.04419702 -0.043526758 0.061062913 0.0005506707 0.033016413 -0.006692046 -0.10293566
0.060783923 0.041321624 -0.08866124 0.012961068 0.039247952 0.07162149 -0.018831449 0.047183007
-0.06448446 -0.06856327 -0.022543214 -0.009493039 0.024961744 -0.06002393 -0.033979032 -0.025494952
0.033639263 -0.08225334 -0.05408549 -0.040721066 -0.075673275 -0.08007555 -0.050516404 -0.09342934
0.05896085 -0.08988303 -0.04505298 -0.04508008 -0.027308522 -0.03788845 -0.021749346 0.024683926
0.018135384 0.020962035 0.042968992 0.05954509 0.03692371 0.0067263683 -0.04833917 -0.0346088
-0.080292225 -0.010569616 -0.042787295 0.03475953 0.06726396 -0.101436585 -0.004881543 -0.0814704
0.06659424 0.058045898 -0.042924628 0.027214395 0.006690525 -0.031217547 -0.039357312 -0.043464385
-0.050245404 -0.07303483 0.05371903 0.032670688 -0.026044583 0.015782814 -0.0052226814 -0.075980365
0.015164255 0.040454566 0.024461992 0.041883416 0.05698417 0.04706003 0.025260707 -0.076329224
-0.018850528 0.050356895 0.06365737 -0.05764779 -0.008173357 0.062897 -0.07920658 0.05136158
0.012948478 -0.05543848 -0.07845029 -0.08788476 0.021049334 -0.09403411 -0.056024548 -0.025190534
-0.030343326 0.023350287 -0.0069150184 -0.03727655 -0.038087692 0.0041962764 -0.02431101 0.07310633
-0.08155182 0.016593313 -0.07530997 0.0686794 -0.06425362 -0.051413648 -0.09630194 0.048289724
-0.08961888 -0.07352472 -0.06444951 0.04436538 -0.069698036 0.00943435 0.044028655 -0.042518996
0.0023387817 -0.00038987372 -0.06330228 -0.095429674 -0.017505296 0.019444296 0.06354937 -0.06834715
0.041288156 0.035358947 -0.068926066 -0.052239485 0.027691271 0.04893402 0.062882066 0.012486685
-0.049656384 -0.028991986 -0.06893376 0.02275075 -0.0026163277 -0.04223706 -0.025673984 -0.053621765
-0.014560849 -0.033555716 -0.05265403 0.018641096 0.016986715 0.017483668 -0.06267462 -0.05712958
0.082234696 -0.015433228 0.021355221 0.032164663 0.015624139 -0.083205424 -0.07796638 -0.08885633
0.070448 0.009955858 0.02250949 -0.030445905 -0.04365267 0.05864464 -0.072088435 -0.094099574
-0.00033133852 -0.0765344 -0.07655459 0.0042568827 -0.074726105 0.046121653 -0.047184844 0.051672257
-0.026225526 0.051014606 0.0849532 -0.028896265 0.075270005 -0.004449497 -0.058436397 0.08158797
-0.028394867 0.030908342 -0.042303525 -0.06056978 -0.028417418 -0.08423526 -0.086014435 -0.08479012
-0.050074793 -0.08633857 -0.023355482 -0.08419734 0.032926418 0.0039087576 0.064594194 -0.051606607
-0.0685862 0.037170257 -0.08074688 -0.03725953 0.009452364 -0.008200527 0.049529005 -0.014021849
-0.08389709 -0.061415356 -0.07772464 -0.0753766 0.013353933 0.00641528 -0.06334404 -0.0055660433
-0.0085518705 -0.0063544908 0.009402849 0.09069063 0.03575169 -0.0873458 0.04347742 -0.00013186634
-0.035524115 0.059265446 -0.024215626 -0.016787233 -0.011805858 -0.050077252 -0.088709556 0.026446206
0.03946658 -0.035727844 -0.013316082 0.08456421 -0.07882013 -0.083335966 -0.04101298 -0.033118404
0.05073957 0.066867836 -0.00087401434 -0.057569947 0.07380089 -0.03515335 -0.040130302 -0.007031938
-0.03975047 -0.04405408 0.02463068 0.022663444 -0.07469649 0.06499425 0.069421194 0.06990501

2.bias f4 [128]
00000000: 130b 4f3d 2c36 343d 3c41 fb38 eb65 b23e
00000010: 635b 563d 14f8 debd dd6f a4bd 9f52 873e
00000020: fadf b73b 876a 4b3e 423d 403e 7a0d 073d
00000030: 1a65 6a3f 5028 9cbd 02f1 98bd c3e8 563b
00000040: 4b40 8e3d 16a5 863c 22c5 01be 8d76 c9bd
00000050: 772e a9bc 23ff 893f 40e1 a5bd 5039 503d
00000060: 8a33 b23b 6dfc b73c e515 1dbd b188 003f
00000070: 8061 13bb 4477 54bc 92fd 353c 5be6 99bc
00000080: 9eaa 833f d029 c43d bb65 e1bb 4333 2bbd
00000090: 345d 6a3e 6520 c9bc e7f0 7a3d 14d7 a0bd
000000a0: 0eac 1d3e 1f6f ea3d d1b8 a0bb 927e 253f
000000b0: 5a29 ca3c d396 2abe 3711 c93d 33ef a73f
000000c0: 3622 9abd fbb5 913e 3517 093f 1899 d7bd
000000d0: c00f aebd 794b 1e3f 0912 873e 4330 cdbd
000000e0: 3240 9fbd a7b9 e03d 8523 33be d039 04be
000000f0: 6a0f 11be 86dd f0bc 8cbc 6d3e 061b d23e
00000100: b39a 14bd f824 263e 06fa 3b3e 82cd a73c
00000110: 93a9 0abe 7a58 9b3d 14a5 3f39 fbe6 6f3b
00000120: 4464 ba3d 3d2a b6bd 22fa 89bd 1068 80bd
00000130: 9f5e 4cbe ff6f 993f c90d 4bbd 0735 cebd
00000140: 7d61 143e caa0 da3c 910e da3e 09a3 8e3f
00000150: 1915 dfbc 2cfb cbbd 0221 a1bd f2f8 7b3d
00000160: 5ae7 39be 51a6 1ebd eeab 863f 5a4b 64be
00000170: 0fbd 1abc 4a26 d7bd 2455 e5b8 3c03 273f
00000180: 16ac 6ebd dfb1 d1bd d9a4 a1bd 5a86 37bd
00000190: 5979 b9bd 083a 973f 5957 213d 556d b03f
000001a0: 5ce7 17bd 6446 ccbc d963 83bc c6a4 58bd
000001b0: 627c ad3f 42d2 5a3d 8be8 ccbd 4b3b 54bd
000001c0: 5b04 9c3d 3927 803d e120 88bd 975b dfbd
000001d0: d773 45be 1dbb a0bd a4bd 3bbd 6ba2 10be
000001e0: 88c8 2c3d 011b 533e 380e 8dbc 86d7 813f
000001f0: 85f2 c4bd 5063 38bd 5d6d f0bd ad7c 6fbd
0.05054767 0.043996975 0.000119807635 0.34843382 0.052333247 -0.10887161 -0.08029149 0.26430222
0.005611417 0.19864856 0.18773368 0.032971837 0.9156052 -0.076248765 -0.074678436 0.0032792545
0.06945857 0.016436141 -0.12672856 -0.09837065 -0.020652039 1.0780987 -0.08099604 0.050835907
0.005438273 0.022459233 -0.03835096 0.50208575 -0.0022488534 -0.012967888 0.011107819 -0.0187866
1.0286443 0.095782876 -0.0068785823 -0.041796934 0.22887117 -0.02455158 0.0612649 -0.07853523
0.15397665 0.11446976 -0.0049048443 0.64646256 0.024677921 -0.16659097 0.098177366 1.3119873
-0.075260565 0.28459153 0.53551036 -0.10527247 -0.08499098 0.6183391 0.26380947 -0.10018971
-0.07775916 0.109729104 -0.17494018 -0.12912679 -0.14166036 -0.029402506 0.23216456 0.41036242
-0.036280345 0.1622504 0.18357095 0.020483736 -0.1354125 0.07585235 0.00018276676 0.003660618
0.091011554 -0.08894775 -0.06737162 -0.06269848 -0.1995797 1.1987303 -0.049573693 -0.10068708
0.14490314 0.026687998 0.42589238 1.1143504 -0.02723174 -0.099600166 -0.07867624 0.06151671
-0.1815466 -0.03873283 1.0521219 -0.2229437 -0.009444489 -0.1050535 -0.000109354296 0.6523931
-0.058269583 -0.10239004 -0.0789277 -0.044805862 -0.09056348 1.1814585 0.03938994 1.3783365
-0.037085876 -0.024935909 -0.016038822 -0.052891515 1.3553584 0.053423174 -0.100052916 -0.05181436
0.07618018 0.06257481 -0.06646896 -0.10906141 -0.1928247 -0.07848189 -0.045835152 -0.14124458
0.04218343 0.2061577 -0.017218694 1.0143898 -0.096165694 -0.045016587 -0.117396094 -0.05846851

4.weight f4 [1, 128]
00000000: 15a7 84bd e611 1dbc 0945 d3bb 71a1 adbe
00000010: 5dca e53a a8b0 13ba c1f9 f5bc 50d6 02bf
00000020: 434d a23a a77d adbe e1c5 2bbf b9b7 0bbd
00000030: 08e6 3bbf a1e8 b93b 3f0c 9b3d 4043 05bc
00000040: ef5c 72be 1096 803e 6f7a 393e a356 393b
00000050: beb9 a13a 16fd 45bf 312f e03d f780 1dbd
00000060: bcd7 d63d e708 7b3d 5aa3 e5bb fbdd 22bf
00000070: 051a 193b f97b 063e e26e 68bb f189 b03a
00000080: 3d51 02bf c5cb 88be c909 72bd df4c 93bb
00000090: 8b96 04bf 5e53 393e 71f2 32bd 3340 2f3d
000000a0: 280e d7be d66d b63e ffc3 f3bc dbc3 e9be
000000b0: e8fb 853b d9ed 0b3d 6ad9 0a3e 1cc6 0bbf
000000c0: 40c0 02bd 819a aebe dab0 febe 0f43 8dbc
000000d0: 277e 7b3b f614 dfbe 19e7 ccbe c7ef 1a3c
000000e0: ed77 4dbd 635a d43d a58c 143d 146f d93c
000000f0: 0a72 143c fab4 dd3b 9fe2 02bf 7733 01bf
00000100: 564a 04bc 8484 01be 060a 97be 039e e0bb
00000110: 1da7 153d 5b50 62be ef2e e73d 0ea1 1ebd
00000120: a33f 893d 6acd e0bb 3142 9bbb e44d d33d
00000130: f7f1 3d3e 740e e7be 7c67 233c 667c 173c
00000140: 5c82 483e 8b86 cb3b f2d0 08bf 184b 00bf
00000150: 3203 613a 7128 33b9 f8e1 6b3b 52d2 ff3c
00000160: efaa 3b3e d6c8 09bc f190 17bf ab4b ee3b
00000170: 323f a03a fa01 0f3c fbcd 84bb 9598 1cbf
00000180: eeb0 ea3b 0298 443d 869a 1cbd b278 113d
00000190: 41da eabc 51af c7be bca3 973e c5ec 32bf
000001a0: d5d3 a2bb 8c8d 82bd acd3 84bc e560 45bc
000001b0: e26c 75be 5610 163c 5bf9 5fbd bd7d 383d
000001c0: f950 f23d f554 68bc 5572 3a3b 0357 ef3d
000001d0: 9090 263d 7d55 853d 6743 09ba 76e5 3fba
000001e0: 1bce f23d 162f aabe dce3 febb e791 4fbf
000001f0: d672 f53a 9a9b 973d 81df 0b3e dfbc 04bc
-0.06477181 -0.009586787 -0.0064474386 -0.33912233 0.0017531622 -0.0005633929 -0.030026319 -0.51108265
0.0012382645 -0.33884928 -0.67098814 -0.03411076 -0.73397875 0.0056734835 0.07570695 -0.008133709
-0.23668264 0.2511449 0.18113111 0.00282804 0.0012338681 -0.77339303 0.10946501 -0.03845307
0.10490367 0.061287787 -0.0070079984 -0.63619965 0.0023361456 0.1313323 -0.0035466482 0.0013468844
-0.5090521 -0.26717964 -0.059091363 -0.0044952477 -0.5179221 0.18098208 -0.04368824 0.042785835
-0.42002988 0.35630673 -0.029756544 -0.45657238 0.0040888675 0.034162376 0.135595 -0.54599166
-0.031921625 -0.34102252 -0.49744302 -0.01724389 0.0038374753 -0.4357068 -0.40020064 0.009456581
-0.0501632 0.103688024 0.03626694 0.026542224 0.009060392 0.006765959 -0.51127046 -0.50469154
-0.008074364 -0.12648207 -0.29499835 -0.006854774 0.036536325 -0.22100966 0.11288249 -0.038727812
0.06701591 -0.0068604248 -0.0047381152 0.10317591 0.18549334 -0.45128214 0.009973403 0.0092459675
0.19580978 0.006211107 -0.53443825 -0.50114584 0.0008583545 -0.00017085836 0.0035992842 0.031228218
0.18326925 -0.008409699 -0.5920554 0.007272204 0.0012225865 0.008728499 -0.004052875 -0.6117032
0.007162205 0.04799653 -0.038233303 0.035515495 -0.028668525 -0.39000943 0.29617107 -0.6989253
-0.0049691 -0.06374654 -0.016214214 -0.012047027 -0.23967317 0.009159168 -0.054681163 0.04504179
0.118318506 -0.014180412 0.0028449495 0.11686518 0.04066521 0.06510446 -0.0005236179 -0.0007320264
0.11855718 -0.3323905 -0.007778628 -0.81082004 0.001872624 0.074027255 0.13659479 -0.008101671

exp_avg f4 [128, 6]
00000000: ec8a 4fbc 0fb6 8dbc 823b 34bc 4123 10bb
00000010: 63b0 04bc 6b32 9e3d f34c 10bd 49eb 8c3b
00000020: c59e d1bb 8b58 8b3c ab7f a43d 980d 05be
00000030: 0442 213d 6526 a8bb 624c 843c 4095 34bd
00000040: 752f cebd 5037 f63d 9cce c6bb 2707 6c3b
00000050: f58c b13b 8e91 20bc db97 193e ceda 54be
00000060: e406 8bbc 3371 e2bb e27a 25bb 1c3b 5c3c
00000070: 808f 133d 8268 25bc 56d3 e23a 2a8a 19bb
00000080: 81ca c63b 0c5e 09bb 1f38 a9bc c52a 963c
00000090: 21d0 f0ba a1c4 b13b 7aea 78bc 571b 383c
000000a0: 9eec 6bbc 227a de3a a086 8b3c 7c29 753c
000000b0: 1292 babc c7ca 58bb dfb9 4d3c da11 a3bd
000000c0: 803f 70bd 5463 cdbd 0202 aabd df66 263d
000000d0: e981 33be 6953 0a3f 7f8b c23c 9515 123c
000000e0: 9a91 dfbb ecd7 913c eb49 98bc 3c01 d93b
000000f0: 8a2b 913c e63f 97bb 5af8 ab3b f113 b5bb
00000100: 88c7 f43b 537f 153c c57b 073b d80a 40bc
00000110: f1fc ed3c fee2 bc3c 48ae 293d edcf dd3b
00000120: bfa0 0ebd 16c7 1ebc 3bbf c2bc 88e1 0abd
00000130: 039d 2ebd 81b8 d23d c148 01be 546a 8dbc
00000140: 7bd8 98bd 65cc e73d dcd9 79be af78 ba3e
00000150: a4ec ffbc 863b 14bd 26eb 93bd a31b 943c
00000160: 8cb0 21bd 4b20 313e d81a 833b e4c5 ecbb
00000170: c704 cdbb 0e4a 31bc 984e e7bc a2af 8e3d
00000180: 0714 64bc b661 b93a 073c d5bb b98e a4bb
00000190: 5b4a a7bc 1c31 463c d932 00bd 7b92 a43c
000001a0: c908 1bbd e306 bd3c b092 143a 6941 9bbd
000001b0: 6d2f 50bc c285 d43b da9b 40b9 848e 713c
000001c0: 47bd 063d e296 56bd 42d0 683b 8e80 52b9
000001d0: 7a1c c6bb 37a5 6a3c 35b2 313d abea 8cbd
000001e0: aa11 3dbd fd9e 3fbd 8571 4ebd 7f9d cfbb
000001f0: 78b1 2abd 1b86 853e cbc1 df3c c424 2939
00000200: 06f2 ad3b 070a 063d 6ee0 da3c 9b8a 1ebc
00000210: d91d 8dbd 9f77 363c cd2a 9ebd 1dc0 f83c
00000220: 34eb 71bc 4ba8 3c3c 470d d9bb b3a3 893c
00000230: ad38 66bc 99e2 023c 5f71 963d b228 0bbe
00000240: 985b 103c aa70 b93b 6373 703c be3b 38bc
00000250: 71f5 233c ea8c ffbc 85ac b03d 8030 3ebd
00000260: e3ce 893d be44 65bc 7baf 103c b946 193e
00000270: c14f bfbc e7f7 ef3a 2b74 87bc 3ae6 c63c
00000280: 21cc 0e3d 5c5f 7fbb f814 9c3b 4287 8bbc
00000290: 5252 73bb f502 2abc a370 cf3c c7b5 72bc
000002a0: c8c8 243d 3c0b 25bc 2ec9 573c 364b 6abc
000002b0: dd0c ad3d 0a45 4bbd c293 ebbb e1e4 e8bb
000002c0: e026 ccbb a420 213c ee78 5a3c b65c e73c
000002d0: c03e bd3c ebd5 ca3c 2639 de3c a5e0 d1bc
000002e0: 0f4f 043d dd2e a9bd 6a1a 283e 64d1 bebb
000002f0: 5283 0c3e ebd5 82bd d6eb 42bd d343 283c
00000300: ee32 d2ba c494 343b 6335 69bc 6726 d93b
00000310: b1af 473d 39cc 05bd b01c 213d 6988 84bc
00000320: 3fe4 aa3c a527 ff3b 3b48 b13c a89d 0e3d
00000330: a5a4 6abc 92f6 5ebc f1d7 41bc 4b17 d9bb
00000340: d4f8 fdbb 5322 9c3d a8b9 d43b a8af c2bb
00000350: 4641 9c3c d647 aabc 1778 e8bd f637 033e
00000360: 4be7 433b dc3f 2fbc 2941 80bb df74 553c
00000370: 0b20 af3c 88f7 903c b84c a9bc 05df 123c
00000380: eb26 29bc d284 003c 8c12 713c ac96 3ebd
00000390: 2c27 54ba 02a4 813c 0afb f5ba abe8 64bc
000003a0: 35ad 513d 0a22 afbd ea22 54bd 4d5f be3b
000003b0: c869 36bd 70e7 0ebd 1b13 f4bd 0fe6 053e
000003c0: 720f 53bd 2c35 333d 5db6 6dbd 3827 643c
000003d0: 89fa e2bd edd6 3b3b 127f 1abd ec2d a539
000003e0: a437 00bd c46b 423c a061 093c fcc7 943c
000003f0: 1ae9 2fbc ac5e 1c3c b4a9 49bc 3178 2c3c
-0.012667399 -0.017298726 -0.011000516 -0.002199367 -0.0080986945 0.0772446 -0.035229634 0.004300509
-0.0063971006 0.017009994 0.08032163 -0.12993467 0.039369598 -0.00513153 0.016149703 -0.04408765
-0.100676455 0.12022269 -0.00606711 0.0036015005 0.0054184147 -0.009800328 0.14999335 -0.20786592
-0.01697106 -0.006910467 -0.0025250246 0.013441827 0.036025524 -0.010095717 0.0017305415 -0.00234283
0.006066621 -0.0020960597 -0.020656643 0.018330941 -0.0018372574 0.0054250513 -0.015192622 0.011236987
-0.014399676 0.0016973654 0.017031968 0.014963504 -0.02277473 -0.003307985 0.012556522 -0.07962389
-0.05865431 -0.10028711 -0.08301164 0.04062545 -0.17530026 0.54033524 0.023748158 0.008916278
-0.006822777 0.017803155 -0.018589934 0.0066224616 0.017720956 -0.0046157716 0.0052481117 -0.005526059
0.007470075 0.009124595 0.0020673138 -0.011721335 0.029051276 0.023057457 0.041425973 0.0067691715
-0.03482127 -0.0096910205 -0.023772826 -0.03390649 -0.042630207 0.102890976 -0.1262541 -0.017262615
-0.074631654 0.11318282 -0.24399513 0.364202 -0.031240769 -0.03618958 -0.072225854 0.018079584
-0.03947501 0.17297475 0.0040010028 -0.007225739 -0.006256673 -0.010820879 -0.028235719 0.06967093
-0.0139207905 0.00141435 -0.0065074 -0.0050218967 -0.020421198 0.0120966695 -0.031298492 0.020089379
-0.037850175 0.023074573 0.000566761 -0.07580835 -0.01270662 0.0064856717 -0.00018368606 0.014743451
0.032895353 -0.052389987 0.0035524522 -0.00020075051 -0.006045875 0.014321617 0.043382842 -0.06880697
-0.046159424 -0.046782482 -0.05040123 -0.0063359137 -0.041673154 0.26078877 0.027314087 0.00016130792
0.0053083925 0.032724407 0.026718345 -0.009676601 -0.068904586 0.011136918 -0.07723007 0.030365044
-0.014765549 0.011514734 -0.0066238972 0.01680169 -0.0140515985 0.007988595 0.073458426 -0.13589743
0.0088109 0.0056591826 0.014675948 -0.011244712 0.010007248 -0.031195123 0.086266555 -0.046432972
0.06728914 -0.01399344 0.0088309 0.14968385 -0.02335346 0.0018308134 -0.016534885 0.024279702
0.03486264 -0.003896675 0.004763242 -0.01703227 -0.0037127924 -0.010376682 0.025322264 -0.014813847
0.040230542 -0.010073479 0.013170524 -0.014300158 0.08449719 -0.049626388 -0.007189245 -0.0071073626
-0.00623022 0.009834442 0.013334496 0.02824245 0.02310121 0.024760207 0.02712686 -0.025619814
0.03230196 -0.082608916 0.16416326 -0.005823301 0.1372197 -0.06388458 -0.047588192 0.010270077
-0.0016036907 0.0027554492 -0.01423392 0.0066268924 0.048751537 -0.032665465 0.039334 -0.016178327
0.02086079 0.0077867084 0.021640887 0.03481832 -0.014321481 -0.013608592 -0.01183127 -0.006625091
-0.00775061 0.07623734 0.0064918585 -0.00594135 0.019074094 -0.020786207 -0.1135103 0.12814316
0.00298925 -0.010696378 -0.0039140177 0.0130283525 0.021377584 0.017696157 -0.020666465 0.008964305
-0.01032422 0.007844167 0.014713895 -0.04653041 -0.0008092995 0.015825275 -0.0018766832 -0.013971488
0.051190574 -0.08551414 -0.05179111 0.0058097006 -0.044534475 -0.034888685 -0.119177066 0.13076042
-0.0515284 0.04375188 -0.058035243 0.013925366 -0.11082942 0.0028662041 -0.03771884 0.00031505467
-0.031303063 0.011866514 0.008385092 0.018161766 -0.010736728 0.009544056 -0.012308527 0.010526703

exp_avg_sq f4 [128, 6]
00000000: 81d8 183d 1a8f 443d 2a40 263d 2fe7 813d
00000010: 710d ad3e fd3d 223f ed7c 903d ac00 2e3e
00000020: 6842 d83d 1c6b 1c3e ae38 8c3f ccf7 2040
00000030: b066 233e 481f 9a3e 913e 463e 16f4 d63e
00000040: 3862 3c40 bd47 a040 9d9d d93d 57b6 6e3e
00000050: a61f 163e 1ca4 823e 2fd2 b83f 895a 1c40
00000060: 4e7f 123d b53b 6f3d cce3 293d 2a6d 903d
00000070: 7a6e d63e 8363 103f 09d9 263b bfd0 693b
00000080: 855b 673b d43e 9e3b acd7 173d ea1b 903d
00000090: 22f5 e33b 4a0e e03b 0c2a df3b 96dc 083c
000000a0: 8edf 043e d802 523e 90f0 193e 6b01 a63e
000000b0: b236 3c3e 8525 a73e 31ca 3340 59b0 9140
000000c0: 0395 4c3e 1c17 d53e 97e0 863e 133c a63e
000000d0: cd1e 7040 ee36 e640 70ed 993d d370 9e3d
000000e0: 8f3d d53d 3bdb b63d fc73 943f 6702 2a40
000000f0: e711 253c 1fb5 bb3c 4f6c 473c 5987 cd3c
00000100: 7b0c 393e a768 b53e 0621 c43d 2fac 4e3e
00000110: 88e1 123e dd0d 813e 9004 db3f f0a0 4940
00000120: 4f97 183e 55ad 413e 118c 373e 9309 643e
00000130: fab4 e93f 4ea8 5340 d564 843e 39af 8f3e
00000140: ba3e 4b3e 4d66 d53e dd08 8540 ec87 c940
00000150: eb45 033e f8d1 3e3e d752 0c3e 3714 453e
00000160: 57d3 ed3f 9282 8040 92a9 363d 87d1 683d
00000170: b688 143d 4182 943d 5ec3 413f 70b1 963f
00000180: c3b2 083c 2831 583c 63db 5d3c 4926 953c
00000190: e405 e23d 78e1 853e 6891 313d dd26 a43d
000001a0: d107 623d c52b c13d 44de 093f f518 563f
000001b0: 3034 503c 3931 a23c d4e5 923c 2591 c13c
000001c0: 56b3 033e c6ad 6c3e df33 8c3c c901 123d
000001d0: 8343 9d3c 0446 213d 5119 803e bb6c a43e
000001e0: c4bd e03d b53e 113e c150 f73d 2a4a 203e
000001f0: 75f6 983f 8fe8 3440 df03 923d aa45 003e
00000200: 19b2 d23d 6b58 2b3e 72ce b43f 40b0 1b40
00000210: efcd 953d 34fb e63d aa4b c63d ffc6 263e
00000220: ed60 8b3f de42 f13f e3d2 073d 6f07 c43d
00000230: 9dd4 4f3d 19ac b93d 6235 013f 9ac0 973f
00000240: 22b7 013c 27f5 6e3c 3032 193c 8912 823c
00000250: 648c 073e ffee 533e 5654 363e 610f 9f3e
00000260: aca4 6b3e 99ef cf3e 78fe 4640 4eac c040
00000270: db41 3d3d c6dc e13d a716 863d 69b6 f83d
00000280: 63dc f83e 7967 853f e1be 973d 871b ec3d
00000290: 5cf7 8f3d be04 f63d f375 9c3f 8727 1040
000002a0: ac37 b13c 11d5 c33c a116 923c 7a32 f53c
000002b0: 2180 d63e 5ae6 303f 024d 623c f3a7 ce3c
000002c0: f8f2 4c3c deea 153d 050d 513e cf0b 8c3e
000002d0: bb2e c23d 326f 393e f11c 013e 1234 543e
000002e0: 2705 ec3f 1449 5c40 bce6 e03e 6eae 733f
000002f0: 16c7 313f ecbf 9e3f 158c c540 06f5 2c41
00000300: d55d 623c 5fe1 bf3c a314 553c 896b 023d
00000310: 8ab6 673e adb6 b33e a564 2c3d 130a c33d
00000320: 2b62 883d 50e0 f23d b537 3f3f 1faa ab3f
00000330: 1724 be3c 93e2 593d 7328 e23c e223 7f3d
00000340: d133 793e 99da 063f 957b 143d bc26 793d
00000350: 00da 1f3d caf9 a53d c014 243f 31ce 8b3f
00000360: 557b a43b acd2 0d3c 7f38 143c 74fa 0d3c
00000370: f78b 003e 1b2c 6e3e 91dc 023b 9fe3 193b
00000380: 9c6d 393b ce9d 333b c335 0a3d 23a0 5a3d
00000390: 2d8a 5c3c 1d6c ba3c 9712 8b3c ee76 033d
000003a0: 4485 733e a1bb c03e a36c 203e 2c31 8c3e
000003b0: aec3 423e 32bc bb3e 3207 0e40 9289 8c40
000003c0: ad80 723d 21dc 4e3d bd9b 7a3d c725 a93d
000003d0: d3ae 603f 91cd a23f d3e9 8e3d 79ec df3d
000003e0: a439 c43d 465d 063e 4ea1 5e3f e182 0a40
000003f0: dc06 1a3d 5878 363d d45c 2b3d fc44 693d
0.03731585 0.047988035 0.040588535 0.06342923 0.33799317 0.63375837 0.07055078 0.16992444
0.10559541 0.15275234 1.0954797 2.5151243 0.15957141 0.3010199 0.19359805 0.41983098
2.9434948 5.008757 0.106257655 0.23311745 0.1466051 0.2551583 1.4439143 2.4430258
0.03576594 0.05840655 0.04147701 0.070520714 0.41881162 0.5640184 0.0025458953 0.00356774
0.0035302353 0.004829267 0.037070915 0.07036574 0.0069567123 0.006837641 0.0068104323 0.008353373
0.12975904 0.20508897 0.15033174 0.32422957 0.1838024 0.32645813 2.8092158 4.552777
0.19978718 0.41619194 0.26343223 0.32467708 3.75188 7.1942053 0.07515991 0.07736363
0.10412132 0.08928534 1.1597896 2.6563966 0.010075069 0.022913514 0.012171819 0.025088953
0.18071167 0.35431406 0.09576611 0.2018287 0.14343846 0.2520589 1.7110767 3.1504478
0.1490147 0.18913777 0.17924525 0.22269277 1.8258355 3.3071475 0.2585818 0.28063372
0.19848147 0.41679612 4.157332 6.297842 0.1281964 0.18634784 0.13703476 0.19245993
1.8580121 4.0159388 0.04459531 0.056840446 0.03626319 0.072514065 0.7568873 1.17729
0.008343401 0.0131953135 0.013541075 0.018206732 0.1103628 0.26148582 0.04335156 0.08015225
0.055183236 0.094321765 0.53854775 0.8363183 0.012707755 0.019798862 0.017931856 0.02362878
0.1286138 0.23113164 0.017114578 0.035646234 0.019197231 0.039373413 0.25019315 0.32114205
0.10973695 0.14184077 0.120759495 0.15653291 1.1950213 2.8266943 0.071296446 0.12526575
0.10287876 0.16732948 1.4125502 2.4326324 0.07314669 0.11278382 0.096824005 0.16286848
1.0888954 1.8848531 0.0331601 0.0957173 0.050739873 0.09066028 0.5047208 1.1855652
0.007917197 0.014584816 0.009350345 0.015877979 0.13237149 0.20696639 0.17805609 0.3106642
0.23012036 0.40612486 3.1092815 6.0210333 0.046205383 0.11028437 0.06547289 0.12144167
0.48605642 1.0422202 0.07409454 0.11528688 0.07029602 0.12012623 1.2223495 2.2524126
0.021632992 0.023905309 0.017833056 0.029931296 0.4189463 0.6910149 0.013812305 0.025226569
0.0125091 0.03660094 0.20415123 0.2735276 0.094815694 0.18108824 0.12608697 0.20722988
1.8439072 3.4419603 0.43926036 0.95188034 0.69444406 1.240232 6.17335 10.80982
0.013816317 0.023422895 0.013005408 0.031840835 0.22628227 0.35100308 0.04208817 0.09523406
0.06659349 0.118591905 0.7469438 1.3411292 0.023210568 0.053194594 0.027607178 0.06229008
0.24336173 0.52677304 0.03625067 0.060827956 0.03902626 0.08104284 0.6409416 1.09223
0.005019585 0.008656185 0.009046673 0.00866567 0.12553392 0.23259012 0.0019967894 0.002348162
0.0028294092 0.0027407291 0.033742677 0.053375375 0.013460678 0.02275663 0.016976638 0.032095842
0.23781306 0.3764315 0.15666442 0.27381265 0.19019958 0.3666702 2.2191892 4.3917933
0.059204746 0.0505029 0.06118368 0.082591586 0.8776676 1.2718984 0.06978192 0.109337755
0.095813066 0.13121518 0.8696488 2.1642382 0.037604198 0.044548362 0.041836575 0.056950554

exp_avg f4 [128]
00000000: 9f7e bd3b 638d 7e3c 1f56 093d 25df 0bbd
00000010: e93a 3a3c b40d 14bc fde2 84bb 69c4 dfba
00000020: 6fe8 9a3c 64f6 063c 0adc 8ebc 9e4f 743b
00000030: 6264 963b 43fe 423e 74b6 84bc f314 7f3c
00000040: ab86 2a3b 0c86 363d 8dd9 3ebb 80d8 073b
00000050: 1a53 ad3c 50d8 203d 8ca4 b33d 1d22 11bc
00000060: 667d 53bc d1af 0cbd caa3 3f3c 11a4 43bb
00000070: c97f 7fbd eff3 383c cad8 ab3c a770 e3bd
00000080: 9a2b 573c 7413 9d3b 7b6e 013c febb 6c3c
00000090: 6d1b 623c 3cc7 663c c9ba 5c3b 4923 ec3c
000000a0: c37c 6a3d d2c6 08bb 971f 603c 69f8 63bb
000000b0: f425 963c 951f c43c 6abf 1b3d 1fb0 e53c
000000c0: 27ab a6bd 61fe f73a 228c 223d f551 3e3d
000000d0: edaf 2f3c 13b1 a33c f35d 603c fcf2 0ebb
000000e0: 40e0 48ba 6b0d 513c 4516 503d 51c7 bc3c
000000f0: 8679 b53c 3a9d d0bc 7c75 263d 4269 563d
00000100: c1a7 adbb d0bd e13c 3cf9 c7bb 63a3 39bd
00000110: caf6 f33c 91b3 0bbc 096c 0b3d c455 b63c
00000120: e3c4 043c 1cb5 7a3b f171 06bc 8069 863c
00000130: 513f 1fbd 0e0e 263d 311e d03b aee0 0bbc
00000140: 9a00 bb3c 0efd 1b3c 2f6d ad3a 6141 b73c
00000150: f661 45bc afae eebb 7d5c 2b3c f1c9 443c
00000160: 3259 8d3c cc54 98bb 445e 2bbd 7c42 0a3d
00000170: ac64 d8bd daf2 38bd 8f33 10bc 12cd b8bd
00000180: 8836 5d3d ae0d a43c 111a 3cbd 37eb ad3c
00000190: 2a8f 30ba 3f3e 4b3c a838 413c 625a 353c
000001a0: 8459 93bd d988 513c b2a4 f0bc 6a8b 8c3c
000001b0: ead6 833c 1992 5cb9 7277 31bc 5257 19bd
000001c0: e117 c93c 5bd0 843c 81b9 96bc d154 0a3d
000001d0: 0f62 663b 505b 8b3d 5c94 9e3b 969b 5b3d
000001e0: ddfa 223d 6242 923c d566 da3c ea9d 713c
000001f0: 440d 90bc c63f c23c 8d97 2b3d 296f 803c
0.0057829167 0.015536639 0.033529397 -0.034148354 0.011366584 -0.00903647 -0.0040553794 -0.0017072085
0.018909661 0.008237455 -0.017438907 0.00372789 0.0045896033 0.19042306 -0.016200282 0.0155689595
0.002602021 0.04456143 -0.002912137 0.002072841 0.02115779 0.03926879 0.08771619 -0.008858231
-0.012908315 -0.03434736 0.011696765 -0.002985243 -0.062377725 0.011288627 0.020977397 -0.11105471
0.013132954 0.0047935788 0.007899876 0.014449118 0.013800484 0.014085587 0.0033680669 0.028825419
0.05724789 -0.002087046 0.013679407 -0.0034785515 0.018328644 0.02394084 0.038024344 0.028038083
-0.081381135 0.0018920415 0.039684422 0.04646488 0.010723096 0.019981897 0.013694274 -0.002181231
-0.00076628104 0.012759547 0.050802488 0.02304426 0.022152673 -0.025465596 0.040639386 0.052346475
-0.005299539 0.02755633 -0.006102709 -0.045321833 0.029780764 -0.008526699 0.034038577 0.022257693
0.008103582 0.0038254922 -0.008205877 0.016407728 -0.038878743 0.040540747 0.0063512553 -0.0085374545
0.022827435 0.009520782 0.0013231392 0.022370042 -0.0120472815 -0.0072840075 0.010459063 0.012011037
0.017254446 -0.0046487805 -0.041837946 0.03375481 -0.10566077 -0.045153476 -0.008801355 -0.09023489
0.054007083 0.020026054 -0.045923296 0.021230323 -0.00067352003 0.012404977 0.011793293 0.011068912
-0.07194808 0.012788975 -0.029375408 0.017156322 0.01609369 -0.0002103526 -0.010831701 -0.03743679
0.02454752 0.016212633 -0.018399002 0.033772293 0.0035153662 0.06804526 0.004839463 0.053615175
0.039790023 0.01785392 0.026660362 0.014747122 -0.01758445 0.02371205 0.041892577 0.015678005

exp_avg_sq f4 [128]
00000000: 5f58 483d 3ddb 3b3e 7a66 953e 1af1 6e3e
00000010: b02d 783d ff73 783b 742f 133c 60ea c63e
00000020: 39fd d13e da0c c93d e1cf ba3c ab8b 333e
00000030: 0477 343e d6ed d63e bff1 5f3e c3ca b03d
00000040: b8db 2e3c 6ac4 aa3d a4ce 973c 4781 183d
00000050: acd0 003e 2f37 e23d 6630 c63d 3362 bb3d
00000060: 069c 833c c2f9 9f3e 403f ed3d 0045 ee3d
00000070: 3966 103d 3daf 053d 5511 4a3e ae41 113f
00000080: 6c7f dd3c b78f 9a3d 7fcf 533d 8604 843d
00000090: c8fb 3c3c 0710 3d3b 15e7 d13c 1339 9f3e
000000a0: 9a95 a43d e0d6 f53d c9f8 833d 60ea 053c
000000b0: ee0d 613c 932d a23b 68a7 d53d 850e 2e3e
000000c0: e6c9 9e3e e3b8 f03b 98ec 093d a1b4 933d
000000d0: bcb9 ef3d b137 433d 6f4b cb3c 19b1 ab3d
000000e0: 9b22 5a3b 60f1 653d fa92 873d d69a 163d
000000f0: a6da de3d 5811 b83c cf89 973e 4a44 8a3d
00000100: 015a 123b 9d67 043e ffd3 7c3d dda9 b43c
00000110: fc90 733f 2da7 d53d 4c63 3d3d cc38 993d
00000120: 2da1 0a3d aa69 143d 3a24 6d3d 2d61 023e
00000130: 7287 0c3d 814e e93e d8ae 6b3d e2f7 d13d
00000140: f8a4 f43b 995c 8a3d 4653 f83a c179 9d3c
00000150: cd18 cb3b e4c5 b23e f20d 3c3d f455 7f3d
00000160: 407b 2f3c f883 3d3b 76be c33e 65a8 183e
00000170: 2a0b 6e3e 0c60 f53d ba0d 213d 5db0 903e
00000180: 8595 f03d dd9f 023c bc94 893c 63f3 f83c
00000190: 8606 4c3e fbbf 1f3d 1457 aa3c f85b 583e
000001a0: d2c5 fd3d c86b 823d fb2e 573e f702 143d
000001b0: 1714 133c 345e 873b 1557 b63d c04a 493c
000001c0: 8559 7b3c 1600 f03d 9c6b 2e3d 42ee 4a3e
000001d0: 1f97 803e a69a 353f 0f17 d63b 6be3 cd3d
000001e0: eaf8 713e 63c2 ef3d f18a b23d ab5a d83d
000001f0: a8ab b43c c65a d63d 7305 0a3e 7a48 a13d
0.048912402 0.18345352 0.29179746 0.2333416 0.060590446 0.0037910936 0.008983482 0.3885069
0.41013506 0.09816904 0.022804203 0.17533748 0.17623526 0.4197833 0.21869563 0.08632424
0.010672502 0.08338244 0.018531151 0.037232663 0.12579602 0.11045682 0.096772 0.091495894
0.016065609 0.31245238 0.115843296 0.116342545 0.035253737 0.032637823 0.19733174 0.56740844
0.027038299 0.07546943 0.051711556 0.06446175 0.011534639 0.0028848664 0.025622884 0.31098232
0.08036347 0.12003875 0.064439364 0.008173555 0.013736231 0.0049492805 0.10432321 0.16997726
0.3101341 0.007346259 0.0336729 0.072121866 0.11705348 0.047660533 0.024816243 0.08383388
0.0033284787 0.056138396 0.066198304 0.036768757 0.10881548 0.022469208 0.29597327 0.06751306
0.0022331479 0.1293015 0.061725613 0.022053653 0.95143104 0.10432277 0.046237275 0.07481536
0.033845115 0.03623358 0.057895876 0.12732382 0.03430886 0.45567706 0.05753979 0.10252358
0.007465955 0.06755943 0.0018945716 0.019223096 0.006198025 0.34916604 0.045911737 0.06233783
0.010710537 0.002891777 0.38231248 0.14907987 0.23246446 0.1198121 0.03931973 0.28259555
0.117472686 0.007972685 0.016794555 0.030389493 0.19924363 0.039001446 0.020793475 0.21128833
0.12391247 0.06368214 0.21014015 0.03613564 0.008976958 0.004131103 0.08903328 0.012285888
0.015341167 0.117187664 0.042583093 0.1981745 0.25115296 0.709391 0.0065335105 0.10053142
0.2363011 0.11706998 0.08717907 0.105641685 0.022054508 0.104665324 0.13478641 0.07875152

exp_avg f4 [128, 128]
00000000: 0400 0000 0400 0000 0400 0080 0400 0000
00000010: 0400 0000 0400 0000 0400 0000 0400 0000
00000020: 0400 0000 0400 0000 0400 0000 0400 0000
00000030: 0400 0080 0400 0000 0400 0000 0400 0000
00000040: 0400 0000 0400 0000 0400 0000 0400 0000
00000050: 0400 0000 0400 0000 0400 0000 0400 0000
00000060: 0400 0000 0400 0000 0400 0000 0400 0000
00000070: 0400 0000 0400 0000 0400 0080 0400 0000
00000080: 0400 0000 0400 0000 0400 0000 0400 0000
00000090: 0400 0000 0400 0000 0400 0080 0400 0080
000000a0: 0400 0000 0400 0000 0400 0080 0400 0000
000000b0: 0400 0000 0400 0000 0400 0000 0400 0000
000000c0: 0400 0000 0400 0000 0400 0080 0400 0080
000000d0: 0400 0000 0400 0000 0400 0000 0400 0080
000000e0: 0400 0000 0400 0000 0400 0000 0400 0000
000000f0: 0400 0080 0400 0000 0400 0000 0400 0000
00000100: 0400 0000 0400 0000 0400 0000 0400 0000
00000110: 0400 0000 0400 0000 0400 0000 0400 0000
00000120: 0400 0000 0400 0000 0400 0000 0400 0000
00000130: 0400 0000 0400 0000 0400 0000 0400 0000
00000140: 0400 0000 0400 0000 0400 0000 0400 0000
00000150: 0400 0000 0400 0000 0400 0000 0400 0000
00000160: 0400 0000 0400 0000 0400 0000 0400 0080
00000170: 0400 0080 0400 0000 0400 0000 0400 0000
00000180: 0400 0000 0400 0000 0400 0000 0400 0000
00000190: 0400 0000 0400 0000 0400 0000 0400 0000
000001a0: 0400 0000 0400 0000 0400 0000 0400 0000
000001b0: 0400 0000 0400 0000 0400 0000 0400 0000
000001c0: 0400 0000 0400 0000 0400 0080 0400 0000
000001d0: 0400 0080 0400 0000 0400 0000 0400 0000
000001e0: 0400 0000 0400 0000 0400 0000 0400 0000
000001f0: 0400 0000 0400 0000 0400 0000 0400 0000
00000200: 0400 0000 0400 0000 0400 0080 0400 0080
00000210: 0400 0000 0400 0000 0400 0000 0400 0080
00000220: 0400 0000 0400 0000 0400 0000 0400 0000
00000230: 0400 0000 0400 0080 0400 0000 0400 0000
00000240: 0400 0000 0400 0000 0400 0000 0400 0000
00000250: 0400 0000 0400 0080 0400 0000 0400 0080
00000260: 0000 0000 0400 0000 0400 0000 0400 0000
00000270: 0400 0000 0400 0000 0400 0000 0400 0000
00000280: 0400 0000 0400 0000 0400 0000 0400 0000
00000290: 0400 0000 0400 0000 0400 0000 0400 0000
000002a0: 0400 0000 0400 0000 0400 0000 0400 0000
000002b0: 0400 0000 0400 0000 0400 0000 0400 0080
000002c0: 0400 0000 0400 0000 0400 0000 0400 0000
000002d0: 0400 0000 0400 0000 0400 0000 0400 0000
000002e0: 0400 0000 0400 0000 0400 0000 0000 0000
000002f0: 0400 0000 0400 0000 0400 0000 0400 0000
00000300: 0400 0000 0400 0000 0400 0000 0400 0000
00000310: 0400 0080 0400 0080 0400 0000 0400 0000
00000320: 0400 0000 0400 0000 0400 0000 0400 0080
00000330: 0400 0000 0400 0000 0400 0000 0400 0000
00000340: 0400 0000 0400 0000 0400 0000 0400 0000
00000350: 0400 0000 0400 0000 0400 0000 0400 0000
00000360: 0400 0000 0400 0000 0400 0000 0400 0080
00000370: 0400 0000 0400 0000 0400 0000 0400 0000
00000380: 0400 0000 0400 0000 0400 0080 0400 0000
00000390: 0000 0000 0400 0000 0400 0000 0400 0000
000003a0: 0400 0000 0400 0000 0400 0000 0400 0000
000003b0: 0400 0000 0400 0000 0000 0000 0400 0000
000003c0: 0400 0000 0400 0000 0400 0000 0400 0000
000003d0: 0400 0000 0400 0000 0400 0000 0000 0000
000003e0: 0000 0000 0400 0080 0400 0000 0400 0000
000003f0: 0400 0000 0400 0000 0400 0000 0400 0000
6e-45 6e-45 -6e-45 6e-45 6e-45 6e-45 6e-45 6e-45
6e-45 6e-45 6e-45 6e-45 -6e-45 6e-45 6e-45 6e-45
6e-45 6e-45 6e-45 6e-45 6e-45 6e-45 6e-45 6e-45
6e-45 6e-45 6e-45 6e-45 6e-45 6e-45 -6e-45 6e-45
6e-45 6e-45 6e-45 6e-45 6e-45 6e-45 -6e-45 -6e-45
6e-45 6e-45 -6e-45 6e-45 6e-45 6e-45 6e-45 6e-45
6e-45 6e-45 -6e-45 -6e-45 6e-45 6e-45 6e-45 -6e-45
6e-45 6e-45 6e-45 6e-45 -6e-45 6e-45 6e-45 6e-45
6e-45 6e-45 6e-45 6e-45 6e-45 6e-45 6e-45 6e-45
6e-45 6e-45 6e-45 6e-45 6e-45 6e-45 6e-45 6e-45
6e-45 6e-45 6e-45 6e-45 6e-45 6e-45 6e-45 6e-45
6e-45 6e-45 6e-45 -6e-45 -6e-45 6e-45 6e-45 6e-45
6e-45 6e-45 6e-45 6e-45 6e-45 6e-45 6e-45 6e-45
6e-45 6e-45 6e-45 6e-45 6e-45 6e-45 6e-45 6e-45
6e-45 6e-45 -6e-45 6e-45 -6e-45 6e-45 6e-45 6e-45
6e-45 6e-45 6e-45 6e-45 6e-45 6e-45 6e-45 6e-45
6e-45 6e-45 -6e-45 -6e-45 6e-45 6e-45 6e-45 -6e-45
6e-45 6e-45 6e-45 6e-45 6e-45 -6e-45 6e-45 6e-45
6e-45 6e-45 6e-45 6e-45 6e-45 -6e-45 6e-45 -6e-45
0.0 6e-45 6e-45 6e-45 6e-45 6e-45 6e-45 6e-45
6e-45 6e-45 6e-45 6e-45 6e-45 6e-45 6e-45 6e-45
6e-45 6e-45 6e-45 6e-45 6e-45 6e-45 6e-45 -6e-45
6e-45 6e-45 6e-45 6e-45 6e-45 6e-45 6e-45 6e-45
6e-45 6e-45 6e-45 0.0 6e-45 6e-45 6e-45 6e-45
6e-45 6e-45 6e-45 6e-45 -6e-45 -6e-45 6e-45 6e-45
6e-45 6e-45 6e-45 -6e-45 6e-45 6e-45 6e-45 6e-45
6e-45 6e-45 6e-45 6e-45 6e-45 6e-45 6e-45 6e-45
6e-45 6e-45 6e-45 -6e-45 6e-45 6e-45 6e-45 6e-45
6e-45 6e-45 -6e-45 6e-45 0.0 6e-45 6e-45 6e-45
6e-45 6e-45 6e-45 6e-45 6e-45 6e-45 0.0 6e-45
6e-45 6e-45 6e-45 6e-45 6e-45 6e-45 6e-45 0.0
0.0 -6e-45 6e-45 6e-45 6e-45 6e-45 6e-45 6e-45

exp_avg_sq f4 [128, 128]
00000000: f401 0000 f401 0000 f401 0000 f401 0000
00000010: f401 0000 f401 0000 f401 0000 f401 0000
00000020: f401 0000 f401 0000 f401 0000 f401 0000
00000030: f401 0000 f401 0000 f401 0000 f401 0000
00000040: f401 0000 f401 0000 f401 0000 f401 0000
00000050: f401 0000 f401 0000 f401 0000 f401 0000
00000060: f401 0000 f401 0000 f401 0000 f401 0000
00000070: f401 0000 f401 0000 f401 0000 f401 0000
00000080: f401 0000 f401 0000 f401 0000 f401 0000
00000090: f401 0000 f401 0000 f401 0000 f401 0000
000000a0: f401 0000 f401 0000 f401 0000 f401 0000
000000b0: f401 0000 f401 0000 f401 0000 f401 0000
000000c0: f401 0000 f401 0000 f401 0000 f401 0000
000000d0: f401 0000 f401 0000 f401 0000 f401 0000
000000e0: f401 0000 f401 0000 f401 0000 f401 0000
000000f0: f401 0000 f401 0000 f401 0000 f401 0000
00000100: f401 0000 f401 0000 f401 0000 f401 0000
00000110: f401 0000 f401 0000 f401 0000 f401 0000
00000120: f401 0000 f401 0000 f401 0000 f401 0000
00000130: f401 0000 f401 0000 f401 0000 f401 0000
00000140: f401 0000 f401 0000 f401 0000 f401 0000
00000150: f401 0000 f401 0000 f401 0000 f401 0000
00000160: f401 0000 f401 0000 f401 0000 f401 0000
00000170: f401 0000 f401 0000 f401 0000 f401 0000
00000180: f401 0000 f401 0000 f401 0000 f401 0000
00000190: f401 0000 f401 0000 f401 0000 f401 0000
000001a0: f401 0000 f401 0000 f401 0000 f401 0000
000001b0: f401 0000 f401 0000 f401 0000 f401 0000
000001c0: f401 0000 f401 0000 f401 0000 f401 0000
000001d0: f401 0000 f401 0000 f401 0000 f401 0000
000001e0: f401 0000 f401 0000 f401 0000 f401 0000
000001f0: f401 0000 f401 0000 f401 0000 f401 0000
00000200: f401 0000 f401 0000 f401 0000 f401 0000
00000210: f401 0000 f401 0000 f401 0000 f401 0000
00000220: f401 0000 f401 0000 f401 0000 f401 0000
00000230: f401 0000 f401 0000 f401 0000 f401 0000
00000240: f401 0000 f401 0000 f401 0000 f401 0000
00000250: f401 0000 f401 0000 f401 0000 f401 0000
00000260: 0000 0000 f401 0000 f401 0000 f401 0000
00000270: f401 0000 f401 0000 f401 0000 f401 0000
00000280: f401 0000 f401 0000 f401 0000 f401 0000
00000290: f401 0000 f401 0000 f401 0000 f401 0000
000002a0: f401 0000 f401 0000 f401 0000 f401 0000
000002b0: f401 0000 f401 0000 f401 0000 f401 0000
000002c0: f401 0000 f401 0000 f401 0000 f401 0000
000002d0: f401 0000 f401 0000 f401 0000 f401 0000
000002e0: f401 0000 f401 0000 f401 0000 0000 0000
000002f0: f401 0000 f401 0000 f401 0000 f401 0000
00000300: f401 0000 f401 0000 f401 0000 f401 0000
00000310: f401 0000 f401 0000 f401 0000 f401 0000
00000320: f401 0000 f401 0000 f401 0000 f401 0000
00000330: f401 0000 f401 0000 f401 0000 f401 0000
00000340: f401 0000 f401 0000 f401 0000 f401 0000
00000350: f401 0000 f401 0000 f401 0000 f401 0000
00000360: f401 0000 f401 0000 f401 0000 f401 0000
00000370: f401 0000 f401 0000 f401 0000 f401 0000
00000380: f401 0000 f401 0000 f401 0000 f401 0000
00000390: 0000 0000 f401 0000 f401 0000 f401 0000
000003a0: f401 0000 f401 0000 f401 0000 f401 0000
000003b0: f401 0000 f401 0000 0000 0000 f401 0000
000003c0: f401 0000 f401 0000 f401 0000 f401 0000
000003d0: f401 0000 f401 0000 f401 0000 0000 0000
000003e0: 0000 0000 f401 0000 f401 0000 f401 0000
000003f0: f401 0000 f401 0000 f401 0000 f401 0000
7e-43 7e-43 7e-43 7e-43 7e-43 7e-43 7e-43 7e-43
7e-43 7e-43 7e-43 7e-43 7e-43 7e-43 7e-43 7e-43
7e-43 7e-43 7e-43 7e-43 7e-43 7e-43 7e-43 7e-43
7e-43 7e-43 7e-43 7e-43 7e-43 7e-43 7e-43 7e-43
7e-43 7e-43 7e-43 7e-43 7e-43 7e-43 7e-43 7e-43
7e-43 7e-43 7e-43 7e-43 7e-43 7e-43 7e-43 7e-43
7e-43 7e-43 7e-43 7e-43 7e-43 7e-43 7e-43 7e-43
7e-43 7e-43 7e-43 7e-43 7e-43 7e-43 7e-43 7e-43
7e-43 7e-43 7e-43 7e-43 7e-43 7e-43 7e-43 7e-43
7e-43 7e-43 7e-43 7e-43 7e-43 7e-43 7e-43 7e-43
7e-43 7e-43 7e-43 7e-43 7e-43 7e-43 7e-43 7e-43
7e-43 7e-43 7e-43 7e-43 7e-43 7e-43 7e-43 7e-43
7e-43 7e-43 7e-43 7e-43 7e-43 7e-43 7e-43 7e-43
7e-43 7e-43 7e-43 7e-43 7e-43 7e-43 7e-43 7e-43
7e-43 7e-43 7e-43 7e-43 7e-43 7e-43 7e-43 7e-43
7e-43 7e-43 7e-43 7e-43 7e-43 7e-43 7e-43 7e-43
7e-43 7e-43 7e-43 7e-43 7e-43 7e-43 7e-43 7e-43
7e-43 7e-43 7e-43 7e-43 7e-43 7e-43 7e-43 7e-43
7e-43 7e-43 7e-43 7e-43 7e-43 7e-43 7e-43 7e-43
0.0 7e-43 7e-43 7e-43 7e-43 7e-43 7e-43 7e-43
7e-43 7e-43 7e-43 7e-43 7e-43 7e-43 7e-43 7e-43
7e-43 7e-43 7e-43 7e-43 7e-43 7e-43 7e-43 7e-43
7e-43 7e-43 7e-43 7e-43 7e-43 7e-43 7e-43 7e-43
7e-43 7e-43 7e-43 0.0 7e-43 7e-43 7e-43 7e-43
7e-43 7e-43 7e-43 7e-43 7e-43 7e-43 7e-43 7e-43
7e-43 7e-43 7e-43 7e-43 7e-43 7e-43 7e-43 7e-43
7e-43 7e-43 7e-43 7e-43 7e-43 7e-43 7e-43 7e-43
7e-43 7e-43 7e-43 7e-43 7e-43 7e-43 7e-43 7e-43
7e-43 7e-43 7e-43 7e-43 0.0 7e-43 7e-43 7e-43
7e-43 7e-43 7e-43 7e-43 7e-43 7e-43 0.0 7e-43
7e-43 7e-43 7e-43 7e-43 7e-43 7e-43 7e-43 0.0
0.0 7e-43 7e-43 7e-43 7e-43 7e-43 7e-43 7e-43
