assets/section_1/actor_critic/acrobot/models/acrobot_exp/episode_best/actor.pth (torch, 828098 bytes, 18 tensors)

base.0.weight f4 [256, 6]
000000 c0 67 60 3e c6 9b ca bc 55 84 ab 3e 1c 0c b7 be
       0.21914577 -0.024732482 0.334994 -0.35751426
000010 0a db b4 be 0d da 60 bd b5 d4 12 be 69 9d 49 3e
       -0.35323364 -0.05489545 -0.14338954 0.19688953
000020 9e 05 6b be 92 2b 20 3e 53 fa ac be e1 b7 8b 3e
       -0.22951362 0.15641621 -0.33784732 0.27288726
000030 dc 53 0d 3e 37 a2 82 bd 1b ac a7 3d 73 f1 49 3e
       0.13801521 -0.06378596 0.081871234 0.19721012
000040 80 30 a8 3e 7f c2 3a 3e 6e cd 0f 3e fb bc 53 3e
       0.32849503 0.18238257 0.14043209 0.20677559
000050 ec 14 c3 3e a6 6f 13 be 4e e4 a6 bd 32 47 6e 3e
       0.381019 -0.14398059 -0.081490144 0.23269346
000060 6e cf ae 3e b0 9f b4 be cb 3e 6d 3e 7a d7 00 be
       0.3414263 -0.35278082 0.23168485 -0.12582198
000070 b0 d5 78 3d 67 9b 68 3e 46 d3 b6 be d8 75 f8 3d
       0.060750663 0.22715531 -0.35708064 0.12131852
000080 83 f0 ac be 78 ec 17 3e 8c 52 26 be 97 ef 1a be
       -0.33777246 0.148363 -0.16242427 -0.15130459
000090 0a 99 43 3e 04 f2 da bd 34 97 0c be c0 a4 0a 3e
       0.19101349 -0.10690692 -0.13729554 0.1353941
0000a0 3a e6 e3 bd 85 eb 46 3e b1 12 c0 be f7 cc 65 3d
       -0.111278966 0.19425781 -0.3751426 0.056103673
0000b0 fb c2 45 be 0e 52 de 3d de 1f c8 be 26 44 e8 3d
       -0.1931266 0.108554944 -0.39086813 0.11341123
0000c0 7d 98 a4 3e 7b 7a 42 3e 5b b4 c6 3e 4f a6 28 3e
       0.3214759 0.18992035 0.38809475 0.16469692
0000d0 71 22 0a bd 7e 69 83 be 70 95 98 be 26 55 fb 3d
       -0.033724252 -0.25666422 -0.29801512 0.122721
0000e0 cc 97 ab 3e 54 cf 63 3d d1 4d 08 be eb ec c2 3e
       0.3351425 0.055617645 -0.13310935 0.3807138
0000f0 52 71 13 3e 23 94 b3 3e 41 8c 85 be 4e f8 b9 3d
       0.14398697 0.35073957 -0.26083568 0.090805635
000100 cf e0 cd 3d b5 d5 5f be 07 46 96 be fc d3 ac bc
       0.100526445 -0.21858867 -0.29350302 -0.021097176
000110 67 5a 9b bd e4 82 21 3e 08 ec 9e 3e 5b cb af 3e
       -0.07585602 0.15772587 0.31039453 0.34334835
000120 f0 ea 02 3e bb 5b 96 3e 17 97 d1 3e b1 01 d1 bd
       0.12784934 0.2936686 0.40935585 -0.10205401
000130 2b d2 d0 be b9 6f 5e 3e 08 6d 75 3e c5 e0 b8 be
       -0.40785345 0.21722306 0.23967373 -0.36108986
000140 d3 80 3f 3d 5f e3 cd 3e c6 4c 69 3e 6e e2 c0 be
       0.046753716 0.40212533 0.22783193 -0.37672752
000150 fa 29 b7 3e 33 14 cd be 5f 35 30 bd 39 c4 49 bd
       0.35774213 -0.40054473 -0.04301965 -0.049259398
000160 79 d4 4f 3e 34 d6 10 3c dc 8a 5f be 42 d3 5d be
       0.20295896 0.0088401325 -0.21830314 -0.2166262
000170 fe 92 6f 3e 66 72 5c 3e a0 0d 5b bd 12 68 72 be
       0.23395917 0.21528015 -0.05347979 -0.23672512
000180 7b 85 93 bd 9f ab 25 be a9 8a ab be ac 9b 81 bd
       -0.07203194 -0.1617875 -0.33504227 -0.0632852
000190 8f 8a 8b 3e 72 a5 36 3e a2 47 c8 3e a9 c3 98 bc
       0.2725415 0.1783655 0.39117151 -0.018647986
0001a0 2e 3c 7f be 42 4d ae be 2d c6 95 be b4 f3 7d be
       -0.249253 -0.34043318 -0.2925276 -0.24799997
0001b0 48 e3 bf be 91 56 d4 be 97 88 b6 3e 3e 80 9e 3e
       -0.3747809 -0.41472295 0.35651085 0.30957216
0001c0 aa c0 94 3e 9f 94 df 3d 10 98 eb 3d 1a e6 6a 3e
       0.2905324 0.10917019 0.11503613 0.2293934
0001d0 e0 84 e4 bc b3 f0 ad 3e f1 77 17 3e 18 e1 75 3e
       -0.027895391 0.339727 0.14791848 0.24011648
0001e0 7e f6 70 bd 06 8e a7 3e 09 96 85 be 1b 9f b5 be
       -0.058828823 0.32725543 -0.2609103 -0.3547295
0001f0 09 69 af 3e 19 fd 41 be ed ca e8 3d ed 17 57 3e
       0.34259823 -0.18944205 0.1136683 0.2100522
000200 5b 1f b4 3e 64 df c7 be 80 08 93 3e 9d 2e 3e 3e
       0.35180172 -0.3903762 0.28717422 0.18572469
000210 3f 65 93 be c9 ad 43 3e 22 e6 a4 be d6 31 81 3e
       -0.28788182 0.19109263 -0.32206827 0.25233334
000220 17 53 51 3e ca ed 53 be d6 19 fa bd 8d a7 89 be
       0.20441853 -0.20696178 -0.12211959 -0.26885644
000230 ab aa a6 be df e9 0d be b9 5b d8 be 46 99 04 3d
       -0.32552084 -0.13858746 -0.4225748 0.032372735
000240 10 1e 2a 3e f6 63 48 be be a3 d2 3e d5 6b 4e 3e
       0.1661303 -0.19569382 0.4114055 0.20158322
000250 c3 31 33 be 25 a7 86 be fb e7 e7 3d 3f e5 b6 3e
       -0.17499451 -0.26299396 0.11323544 0.35721776
000260 2c 03 25 be d6 4a 71 3d 60 ba 97 3e 03 37 6a 3c
       -0.16114491 0.05890926 0.2963438 0.014295342
000270 dc 1f 43 be 61 86 8f be 35 fd 79 3e 6d 3f 22 3d
       -0.19055122 -0.2803221 0.24412997 0.03961127
000280 ef 05 bc 3e c5 06 33 bd f6 2c b1 3e 5d a4 34 be
       0.36723277 -0.043707628 0.34604615 -0.17640825
000290 4d 17 52 be 0a cb 4c 3e 58 de 84 be eb e2 81 be
       -0.20516701 0.19999328 -0.25950885 -0.25368437
0002a0 30 29 0f 3e 8a 91 76 3e a9 58 a7 be 1a fe a0 be
       0.13980556 0.24078956 -0.3268483 -0.31443864
0002b0 c6 26 63 3e 1e 44 c8 3e 73 ed 14 3d 15 71 bd 3d
       0.2218276 0.3911447 0.03635926 0.09250084
0002c0 35 23 e5 bd 28 3d 45 3e 9a 6f 33 be 98 dd e5 bd
       -0.11188356 0.1926161 -0.17523041 -0.11223906
0002d0 8c ed a4 3e b4 00 02 be f7 66 fb 3d 92 4f bc be
       0.32212484 -0.1269558 0.12275498 -0.36779457
0002e0 9a f7 3f 3e a6 fa 94 be 1f 4b 17 be 0c 9e 88 3e
       0.18746796 -0.2909748 -0.1477475 0.2668308
0002f0 90 dd 51 3e a3 55 bd 3e 80 76 86 3e af 2c 5b be
       0.20494676 0.36979398 0.26262283 -0.21403764
000300 f6 b9 63 3e 7b b3 64 3e 64 53 e8 bc 47 59 a8 3e
       0.22238907 0.22334091 -0.028360076 0.32880613
000310 27 e2 94 3e fa 60 cd be 66 cd da 3d 95 1b 31 be
       0.2907879 -0.4011305 0.10683708 -0.17295678
000320 28 5b a5 3e bd 39 a6 3d 9c f0 8b bd 3c 68 aa 3d
       0.3229611 0.081164815 -0.06833002 0.083206624
000330 3a 5c c5 be 4e 2f a3 be 9d f8 41 be 99 c7 35 3c
       -0.38546926 -0.31872028 -0.18942495 0.011094951
000340 a0 19 9c 3e 10 f5 87 3d ea 16 bb be 9c 57 11 bc
       0.304883 0.06638539 -0.3654092 -0.008870985
000350 4c 31 b1 be f9 19 0e 3d a9 f9 df bd b4 1e 06 3e
       -0.34607923 0.03469274 -0.10936291 0.1309765
000360 ba c8 b3 3d 45 c0 ce 3e 7e db 92 3e b7 73 82 3e
       0.0877852 0.40381065 0.28683084 0.25478908
000370 d9 d5 47 3b 35 c8 61 3e bc de 65 be de 81 85 3e
       0.0030492453 0.22049029 -0.22448248 0.26075643
000380 bb f9 8d be f3 e4 59 3d ca 16 cd be c1 33 84 3e
       -0.27729592 0.05319686 -0.4005645 0.25820735
000390 27 b3 8e 3e 15 8a b5 be 38 fa a6 3e d9 7d a4 3d
       0.27871057 -0.3545691 0.32612777 0.08031816
0003a0 da 4a b1 3e c8 c0 3a be 0f 7e 53 bd 9e c8 be 3e
       0.3462742 -0.18237603 -0.05163389 0.37262434
0003b0 40 b8 04 be ae f3 07 3e 40 a7 6e 3e c0 99 ca be
       -0.12960911 0.1327655 0.23305988 -0.39570427
0003c0 39 63 5e 3e 5b 65 c5 be df cf d3 bd 96 12 03 bd
       0.21717538 -0.3855389 -0.10342383 -0.032000147
0003d0 3b 25 9f be 07 a2 b6 be 35 c2 50 3e 10 84 2a bd
       -0.31083092 -0.35670492 0.20386584 -0.04162985
0003e0 61 f0 17 3e 74 d1 26 3d b3 b9 8a 3e 3c 15 7d be
       0.14837791 0.040727094 0.27094802 -0.24715132
0003f0 b7 22 13 3e 18 d2 d9 3e 70 7c ba 3e 18 61 0e 3e
       0.14368711 0.425431 0.36423063 0.13904226

base.0.bias f4 [256]
000000 40 c0 ae 3d 9d 44 1b be c1 13 32 be 47 2e 15 3d
       0.085327625 -0.15162893 -0.17390348 0.036421087
000010 6c 49 a1 3e 78 1b de bd 8a c5 51 3e 3a 1a fb 3d
       0.3150133 -0.10845083 0.20485511 0.12260862
000020 96 a2 83 be 05 3c 5b bd 8e cf 00 be 9b fc 80 be
       -0.2570998 -0.053524036 -0.12579176 -0.25192723
000030 d1 5f 30 3d af 43 96 3e 2f aa c2 3e 94 ba 75 3e
       0.043060128 0.29348513 0.38020465 0.23996955
000040 95 cc fe bd f2 18 11 3e 39 37 65 be df 4a b6 be
       -0.12441365 0.14169672 -0.22384347 -0.35603997
000050 f9 66 dd 3c 79 0a 33 3e 97 0e 50 3e 91 1e 8e 3e
       0.02702664 0.17484464 0.20318066 0.27757695
000060 dc 52 5b 3e 3a 1b df 3d 94 1f b1 3d b6 ba f3 3d
       0.21418327 0.10893865 0.08648601 0.11900847
000070 16 7f ae 3e 5d e9 af be a6 9c 5f 3e 1e e9 cf 3e
       0.34081334 -0.3435773 0.218371 0.40607542
000080 b8 99 95 bd d8 ff 20 3e 03 e6 4c 3e 53 d8 b7 be
       -0.0730471 0.15722597 0.20009618 -0.3590723
000090 8c cf 5f be be 20 c7 bd dd d6 14 be d4 cb ce 3e
       -0.21856517 -0.09723042 -0.14535089 0.40389884
0000a0 5f 31 9b 3e b5 7c bb bd 30 d0 e7 3c e1 89 19 be
       0.30311105 -0.09154645 0.028297514 -0.14994003
0000b0 3e cf cf 3e c9 ae 8e 3d 4f 1f bc 3d 50 df 0b be
       0.405878 0.069669314 0.09185659 -0.13659406
0000c0 9f 78 09 3e cd 75 b1 3d b7 b6 96 be 12 5c b9 bc
       0.1342492 0.08665047 -0.29436275 -0.02262691
0000d0 29 ee 5d be 16 d2 70 be b6 3c 42 be 73 c8 97 3e
       -0.21672882 -0.23517641 -0.18968472 0.29645118
0000e0 54 fd c2 3e bf d4 99 3e 62 8d 88 be 45 93 91 be
       0.380839 0.30045125 -0.26670367 -0.2843267
0000f0 af 94 b1 bd e7 3a c7 3e 66 62 3a 3d ff ab f8 3d
       -0.08670937 0.38912126 0.045503996 0.12142181
000100 e4 c2 1e 3d 07 bf 6e 3e 72 b6 89 be a3 39 a1 be
       0.03876008 0.23315059 -0.26897007 -0.31489286
000110 ed 4a ae 3e 7c a1 89 be 38 94 a6 3d 1d 27 1e 3e
       0.3404154 -0.26881015 0.08133739 0.15444608
000120 9d 1c a3 be 9e 63 34 bd 17 52 a7 be 2c ba e9 3d
       -0.31857768 -0.044040315 -0.32679817 0.114124626
000130 ea ea 56 be d4 5f f0 bd d9 4b b9 3e 33 70 86 3e
       -0.2098805 -0.11737028 0.3619068 0.26257476
000140 d8 32 0a 3d 40 36 18 bd d4 88 c0 be 88 92 33 3e
       0.033739895 -0.03716111 -0.37604392 0.17536366
000150 17 b0 5b be 4e b1 c5 3e e3 75 bb 3e 26 bc 0f 3e
       -0.21453892 0.38611835 0.36613378 0.14036617
000160 a1 13 4c 3e 0e de d5 3e 28 dd eb 3d e9 9a 18 bd
       0.19929363 0.41770977 0.115167916 -0.03725711
000170 34 c8 c1 bd 7b 5e 06 3e 43 c0 a6 be 51 cb cb be
       -0.09462014 0.13121979 -0.3256856 -0.39803556
000180 bf 15 68 3e 96 08 3a 3e 06 bc 8f bd 58 9c 48 3e
       0.22664545 0.18167338 -0.070182845 0.1959089
000190 f0 de 7d 3e 4e ad df bc 63 ac b5 bc e8 e2 c2 3e
       0.24792075 -0.027304318 -0.022176927 0.3806374
0001a0 7a 1a a5 3d a8 35 b8 3e dc 37 f4 3c 00 51 3c bd
       0.08061691 0.35978436 0.029811792 -0.045975685
0001b0 38 ca 87 3e b5 f3 a8 3e 6c f0 a2 be cd ff a8 be
       0.26521468 0.32998434 -0.31824052 -0.3300766
0001c0 2a 61 e9 bd e2 1a 9a 3e dd 1b 32 3e 03 14 ed bd
       -0.11395486 0.30098635 0.17393441 -0.115760826
0001d0 3e 58 a8 be 8d 5c 9c 3e 5a 7c 47 be 68 3d a8 bd
       -0.32879823 0.3053936 -0.1948103 -0.08214837
0001e0 2e 7d a8 3e 62 d0 ba be ec 67 b2 be 13 1d 39 be
       0.32908005 -0.36487108 -0.3484491 -0.18077497
0001f0 6e 0b b8 be 42 97 7a 3e 4a d1 79 3d e1 cd 3a be
       -0.3594622 0.24471763 0.06099061 -0.18242599
000200 89 df d1 3e ef 0a a2 be f0 3f 90 bc a0 98 bb bd
       0.40990856 -0.31648967 -0.017608613 -0.0915997
000210 cd 05 c4 be 53 40 89 be 85 bd d5 3b 3d 19 81 3e
       -0.38285676 -0.26806888 0.0065228366 0.25214568
000220 15 0f 62 3d 98 f2 99 3e 9d ff de bc 20 f3 33 3e
       0.055190165 0.30067897 -0.027221495 0.17573214
000230 0f 22 a9 b9 2c 88 35 be 2d bf c6 3e 35 0e d4 3d
       -0.00032259568 -0.17727727 0.3881773 0.10354272
000240 b3 38 be be 31 ed 74 3e 11 0b 24 3e d5 e8 dd bc
       -0.37152633 0.23918606 0.16019846 -0.027088562
000250 de 3c c7 3c 4c c5 b1 3e ea 7b ac 3d bc 69 ca 3d
       0.024321016 0.34720838 0.08422072 0.098834485
000260 88 fd 76 3e 3f b1 b8 be ec c3 38 be 5a 97 ae 3e
       0.24120152 -0.36072728 -0.18043488 0.34099847
000270 81 9e c8 3d 48 7d c8 3e 7c 01 82 be 8e d7 88 be
       0.09795857 0.39158082 -0.25391757 -0.26726955
000280 1f a1 07 be 68 b8 27 be 30 83 13 3e f7 31 c3 be
       -0.13245057 -0.16378939 0.14405513 -0.38124058
000290 21 4d 97 3e 19 33 b3 be 50 ad 72 3d 8e c3 2f be
       0.29551032 -0.34999922 0.059247315 -0.17164442
0002a0 85 e9 64 be de e5 b6 3d 7a df 66 3e ce 36 91 bd
       -0.22354706 0.089305624 0.22546187 -0.07090531
0002b0 fd 04 6c be 18 19 cb be 6b 30 69 3e 8f 7e 14 3c
       -0.23048778 -0.39667583 0.22772376 0.009063377
0002c0 89 c2 cf 3d 6c 90 aa 3e ec 5b 01 be 11 2d 49 3e
       0.101445265 0.3331331 -0.12632722 0.19646098
0002d0 af 8c 11 3e 68 c2 b5 be 80 a9 bf be 4d 0f 37 3e
       0.14213823 -0.35499883 -0.37434006 0.1787693
0002e0 ec 71 5c bd c4 b8 88 3d 6b 1d 5d be 2b 2d 41 3e
       -0.053819582 0.06675866 -0.21593253 0.18864886
0002f0 44 d6 d1 3e 21 f7 bf 3e 2c 61 5d 3e d6 f7 46 be
       0.40983784 0.37493232 0.216191 -0.1943048
000300 74 30 af be 5e dc 19 be 3e b6 79 bd 2a d5 af 3e
       -0.34216654 -0.1502547 -0.060964815 0.3434232
000310 e5 6f b4 be 37 6e b0 3d 91 c9 b3 be 15 35 6e be
       -0.3524162 0.08614772 -0.3511472 -0.23262437
000320 6e 3b a1 bb fc 22 b9 3c 62 c3 a3 be a3 24 86 3e
       -0.0049204146 0.02259969 -0.31985003 0.26199827
000330 ee 5e 22 3e 38 24 aa be 40 d9 fa bd 43 76 c6 3e
       0.15856525 -0.33230758 -0.122484684 0.38762102
000340 42 c9 16 be cf 48 94 be 2f e0 cf bd 51 c8 1f ba
       -0.14725211 -0.289618 -0.101501815 -0.0006095218
000350 2d a2 82 be e0 61 84 3d 7c 31 ce bc a1 e4 cb 3e
       -0.25514355 0.06463981 -0.02517008 0.39822868
000360 64 a6 06 3e 9a 2f 9f 3e f6 6b d3 3e ce 13 bb be
       0.1314941 0.31091005 0.41293305 -0.36538547
000370 83 59 be bd 56 0d 61 3e 06 8b 6b be df 2f f8 3c
       -0.09294417 0.21977744 -0.23002252 0.030296264
000380 d8 68 cc 3e 4a b1 96 be 66 cd af 3e 49 0c 07 be
       0.3992374 -0.29432136 0.34336394 -0.1318828
000390 e9 bc 86 be f2 2c c7 3e 95 39 8b be 6d 72 a6 3e
       -0.26316002 0.38901478 -0.2719237 0.32509175
0003a0 07 db 59 3e c3 2e ad be fc 12 3e be cb 3a f2 bd
       0.21274959 -0.3382474 -0.1856193 -0.1182762
0003b0 00 fc 1c be 1b 6c 79 3e 2a b0 19 3d 55 19 b1 bd
       -0.15330505 0.24357645 0.03752152 -0.0864741
0003c0 9f 20 90 be 15 5e 5d 3e 99 81 ad be ef 3a 8c 3e
       -0.28149888 0.2161792 -0.33887938 0.27388713
0003d0 49 1f 52 be 41 9c 56 3e 98 f9 19 be dc 95 26 be
       -0.20519747 0.20958044 -0.15036619 -0.16268104
0003e0 04 75 a6 be 5c 69 28 be 3b 34 88 3e 77 09 97 be
       -0.3251115 -0.16446441 0.2660235 -0.2949941
0003f0 55 87 cd be de b3 e5 bb 15 17 7a bc d1 fa a8 bd
       -0.40142313 -0.007009967 -0.015264292 -0.082509644

base.2.weight f4 [256, 256]
000000 3f f9 01 bd 68 72 3c 3d ed dd 8d bd 93 c8 65 bd
       -0.03173184 0.046007544 -0.069270946 -0.056099486
000010 21 a9 d1 3c 43 fe 0f 3d 11 59 f6 bc b3 9f 5a bb
       0.025593342 0.035154592 -0.030071767 -0.0033359348
000020 02 1d 1f bd f7 b6 c0 3b 4a af 02 bd 4b b0 d3 3c
       -0.038846023 0.005881186 -0.03190545 0.025840899
000030 8e 25 da bc 4f 68 32 bd 7e 41 78 3d 31 24 39 bd
       -0.026629236 -0.043556508 0.060609333 -0.04520053
000040 50 55 96 3c 4c 74 fa 3c ed 9b 06 bd b5 13 c3 bc
       0.018351227 0.030573033 -0.032863546 -0.023813108
000050 12 fc d8 bc bc 4a 19 bd fb e4 12 ba f1 eb a0 bc
       -0.026487384 -0.037424788 -0.0005603579 -0.019643756
000060 53 f7 45 3d 3e 74 01 3d 42 3c 46 bd 68 3f e4 3c
       0.04833157 0.031604998 -0.04839731 0.027862266
000070 5b 34 84 bd 43 57 66 3c 0a dd 5f bd 7a a8 01 bd
       -0.064552985 0.014058891 -0.05465416 -0.031654812
000080 85 f2 92 3b ce ea 70 bd 27 2a 66 bd 82 72 f8 3c
       0.004484477 -0.058817677 -0.056192543 0.03032804
000090 53 04 49 3c cd af 2c bd 05 4b 80 bb eb 97 34 3d
       0.012269097 -0.042159844 -0.003915193 0.044090193
0000a0 1f 47 60 3d 47 91 00 3d 0d 48 7f 3c 70 78 a9 3c
       0.054755326 0.031388547 0.015581143 0.020687312
0000b0 3b a3 88 3c 17 b2 30 3d 63 27 3b bb 19 cf 3f bd
       0.016679397 0.04313859 -0.0028557412 -0.046828363
0000c0 32 97 80 3d 68 ec 57 3d 44 5e 6a 3d ca 16 b0 3c
       0.06278838 0.05271569 0.057218805 0.021495242
0000d0 30 24 0f bc 28 66 d6 bc e9 db b0 3b 34 67 91 bb
       -0.008736655 -0.026171759 0.005397309 -0.0044373516
0000e0 9d f6 06 3c d2 c8 20 3d a1 ff 1b 3d c5 e0 c4 bc
       0.008237508 0.039254017 0.038085584 -0.02403296
0000f0 1e 8a d7 b9 f7 8a 2e 3d 92 ab 73 bc 89 41 22 3d
       -0.000411109 0.042612996 -0.0148724485 0.03961328
000100 d0 cc 8f 3c 92 2f 33 bd 3c 82 5d bd 04 1d 41 bc
       0.017553717 -0.04374654 -0.05407928 -0.011786703
000110 d4 73 2a 3d a7 9d 09 ba b0 e7 02 bc 3a fe 5c 3c
       0.04161437 -0.0005249627 -0.007989809 0.013488347
000120 84 47 38 bd 95 7d 9e 3c 61 63 36 3d 54 59 2a 3d
       -0.044990078 0.019346992 0.04452837 0.041589096
000130 2f b1 a9 bc 32 6a e7 bc 14 aa 02 3c e0 93 3c bd
       -0.02071437 -0.02824888 0.00797512 -0.046039462
000140 e7 7b 9b 3c 18 48 0b bc e2 6d 56 bd 29 f1 65 bc
       0.01897998 -0.008501075 -0.052350886 -0.014034548
000150 6a 6f db bb da 08 97 3c 13 b4 77 bd 6d 80 25 3d
       -0.006696631 0.018436838 -0.060474467 0.04040568
000160 cf 81 4b bd 7e 28 35 3d 59 85 5c bd a1 ac 1f 3d
       -0.049684342 0.04422807 -0.053838108 0.03898299
000170 40 36 97 bc 34 d8 0a bb 05 dd 82 3d 2c dd ec 3c
       -0.018458486 -0.0021185996 0.063898124 0.028914057
000180 d5 75 7a bd de 60 c1 3b c4 ff 73 bc 1b 3e a6 3c
       -0.06114753 0.00590144 -0.014892522 0.020293286
000190 9e ee 9e bb bf 84 62 bd fe f9 ab bc 05 c3 69 bc
       -0.0048502227 -0.055302378 -0.020993229 -0.014267688
0001a0 41 30 dd 3b 26 1f 39 3d b3 5e b4 bb 85 03 75 3d
       0.006750137 0.04519572 -0.005504453 0.05981781
0001b0 61 0a 09 3d b1 eb 2b 3c 48 82 e5 3c 55 4f 56 3d
       0.033457164 0.010493205 0.028016225 0.05232175
0001c0 6e a6 48 bd 2b 12 12 3c 98 fa 42 3d 2e eb 9a bc
       -0.048986845 0.008915464 0.047602266 -0.01891097
0001d0 ff b1 35 3c ea b7 29 3d cc 65 12 bc a5 d3 23 3d
       0.011089801 0.04143516 -0.008935403 0.03999676
0001e0 00 76 4a bd 6f c9 e2 3c 39 8f 57 3d e6 44 82 bd
       -0.04942894 0.027683942 0.052626822 -0.063607976
0001f0 be 86 9e bc 74 f4 2b 3c a8 75 bf bb 92 98 5d 3c
       -0.01935136 0.010495294 -0.005842883 0.013525145
000200 b4 6a 7d bd e1 82 c2 3b a9 29 3c bc 6d 47 06 bd
       -0.06186934 0.005936012 -0.011484542 -0.03278296
000210 6d 48 50 bd cb 44 bf 3c 10 db dd 3c 74 1a 00 bc
       -0.05085032 0.023348233 0.027081996 -0.007818807
000220 46 64 1a bd ac 9a 0a 3d 29 4b 5f 3d f7 18 01 3d
       -0.037693284 0.033838913 0.054515038 0.03151795
000230 eb 87 c6 bb f3 f1 2f bd 3f b0 3e bc ad a7 77 bd
       -0.006058683 -0.04295535 -0.0116387 -0.060462642
000240 e7 5d c1 3c c8 47 da bc 75 53 0a 3d bd b9 37 bc
       0.023604346 -0.026645556 0.033770997 -0.011213717
000250 ee 73 25 bc f0 37 22 3c b1 94 86 bd 0c f2 12 3c
       -0.010098441 0.009901032 -0.065713294 0.008968841
000260 9f 7f bb 3c 96 a5 61 3d 6f 3b 33 bd 8f 83 80 3d
       0.022888003 0.055089556 -0.043757852 0.06275093
000270 0a e8 21 3d c5 63 8f bc bb 5f 2b 3d 06 9d 8e 3c
       0.03952793 -0.017503629 0.041839343 0.017408859
000280 6d 99 54 3c b2 29 1d 3c c0 0b 5a 3d 54 13 89 3c
       0.012976033 0.0095924605 0.053233862 0.01673285
000290 d2 b4 0b bc 90 ff d9 bb 09 9b 24 bd c3 df 84 3d
       -0.008526998 -0.00665278 -0.040186916 0.06487992
0002a0 ca 1d 89 3d 0a 9a 53 bd 38 a4 8f b9 2c a8 78 bc
       0.06695135 -0.051660575 -0.00027397438 -0.015176814
0002b0 17 98 3d 3d 09 0a db 3b f2 05 c0 bc 96 f4 88 3d
       0.046287622 0.006684546 -0.023440335 0.06687276
0002c0 c6 f8 8c 3b 8d 9b 16 3b 50 fa 22 3d 80 02 5d 3d
       0.004302117 0.00229809 0.039789498 0.053957462
0002d0 59 78 d3 3b b6 8c 12 3b 05 e9 62 3d 3a 35 75 bd
       0.0064535555 0.0022361702 0.055398006 -0.059865214
0002e0 02 6e 5e 3d 75 b1 87 bd 40 b7 96 3b 5d ed 74 bd
       0.05430413 -0.06625644 0.004599482 -0.05979668
0002f0 fa 91 97 bc 93 36 5b bc a9 4b 4b bd 91 7b 53 3d
       -0.018502224 -0.013379711 -0.049632702 0.051631514
000300 eb 60 cf 3b b0 b5 84 3d dd 1a c3 bc fd d0 f5 3c
       0.006328692 0.06479967 -0.02381652 0.03000688
000310 09 42 53 bd f0 68 a9 3c d0 60 4c bd 63 ce ed 3c
       -0.051576648 0.02067992 -0.049897015 0.029029077
000320 c7 93 e5 3c 18 91 94 bc 32 1b 2e bd c6 c8 fd bc
       0.028024567 -0.018135592 -0.042506404 -0.030979525
000330 89 37 83 bd af 54 dc bb ba de 63 bd 45 65 4f 3d
       -0.06407077 -0.0067239623 -0.05563233 0.050633688
000340 da 3e 92 3c 62 c3 0a 3d 34 4c bd 3c 20 36 d9 bc
       0.017852236 0.033877738 0.023107626 -0.026515067
000350 a5 b7 08 bd 34 3f fe bc d1 5c 14 bb e2 d7 69 3d
       -0.033378262 -0.031035997 -0.002263833 0.057090648
000360 a5 ef e0 bb 38 9e 4b bc 9d f9 b3 3c a7 ec 22 bd
       -0.0068645054 -0.012427859 0.02196961 -0.03977647
000370 94 bb 94 3b 5a 32 5d 3d fc 2b ab bd 4b 8d e1 bb
       0.0045389626 0.054003097 -0.08357999 -0.0068832985
000380 ec 19 90 bc fc 06 d2 3c ce 91 f9 3a 5c 1d 88 bc
       -0.017590486 0.025638096 0.0019040646 -0.016615562
000390 31 ed dd ba 15 a1 3b bd b9 78 85 bd e0 b7 11 bc
       -0.001693165 -0.045807917 -0.06517167 -0.008893937
0003a0 02 5d 41 bd d4 7c 79 3d 0c 8e 31 3d 92 28 18 bd
       -0.04720784 0.06091006 0.043348357 -0.037148066
0003b0 3b a9 9f bc 7c 5e 41 bd fb 92 4b bd ec 5d ca 3c
       -0.019489875 -0.047209248 -0.04970072 0.024702989
0003c0 e9 9b 25 3c 65 34 0d 3d 9e 57 96 bc 6e 73 30 3b
       0.010107973 0.034473795 -0.018352326 0.002692427
0003d0 fc 59 eb bb 63 b9 7d 3c e5 6f 6f 3d da 3d 86 bd
       -0.007182358 0.015486094 0.05845632 -0.06554766
0003e0 76 c4 25 bd 9d ff 66 3d d2 54 48 3d 2d e3 28 bc
       -0.040470563 0.056396116 0.048909016 -0.010308069
0003f0 ec 04 d2 bc 4d b1 e8 bc e0 de 43 bd 21 51 c6 bb
       -0.025637113 -0.028404856 -0.047819972 -0.006052152

base.2.bias f4 [256]
000000 35 e5 35 3d 68 d7 1c bd 40 d4 6c 3c 0f 62 60 3d
       0.044408042 -0.038291365 0.014454901 0.054781016
000010 41 76 4e 3c a3 b3 d4 bb 19 36 16 bd 3f f2 69 bd
       0.012601436 -0.006491141 -0.036672685 -0.05711579
000020 79 ac 2f bd a0 d1 c9 bc 17 7c f7 3c 19 fc 50 bd
       -0.042889092 -0.02463609 0.030210538 -0.05102167
000030 4f 73 22 3d ce 6e 7f 3d e3 6e 27 bd e9 20 2f bd
       0.039660748 0.06236153 -0.040877234 -0.042755995
000040 4f 59 5f bc 00 65 82 3d ad a7 31 bc b7 f3 d2 bb
       -0.013632133 0.063669205 -0.0108432 -0.0064377445
000050 5e 7c 05 bd 5a cc 93 3d 7d 36 38 bd 68 6b 30 3c
       -0.03258931 0.07216711 -0.04497384 0.010767795
000060 c2 bd 5c bd 58 92 bb 3c 9e 0d c5 bb 81 4b 7f 3d
       -0.053891905 0.02289693 -0.006013586 0.062327866
000070 d0 fa 11 3c ed 23 41 3d 5f d1 0b bd a8 dc f1 3c
       0.008909896 0.047153402 -0.03413522 0.029524162
000080 87 1a b1 b9 a5 a7 d3 3c 97 a3 97 3c b7 41 89 3d
       -0.00033779835 0.025836775 0.018510623 0.06701987
000090 4a 8b 26 bd 4b fc 51 bd f3 3a 22 bc bd a9 20 3d
       -0.04066018 -0.051265996 -0.00990175 0.039224375
0000a0 1d 64 17 3d b0 0a 06 3d 45 d4 93 3d b2 6c f5 3c
       0.03696071 0.032725036 0.072182216 0.029959057
0000b0 28 c4 81 3d 6f 34 a0 bb ce c7 33 3d 48 99 b8 bc
       0.06336242 -0.004889063 0.04389172 -0.022534028
0000c0 62 f3 9c 3d 4a 92 97 3b 8a c6 fd 3b 5c 44 53 bc
       0.07663609 0.0046255933 0.007744615 -0.012894716
0000d0 8b 28 6e bd 4e 3d 87 3d 4c 80 f3 3c 1c e6 7f 3d
       -0.058144134 0.0660349 0.029724263 0.06247531
0000e0 64 af 7c bd 9b b2 8d bc c5 e1 73 3d bd 7c 1b bd
       -0.061690703 -0.01729708 0.059541482 -0.037960757
0000f0 fd 05 9b 3c 27 71 6b 3d db 60 7a bc 63 65 cb bc
       0.018923754 0.057480957 -0.015281881 -0.024828618
000100 b7 8c 41 3d 7d cb 53 bd 94 b6 40 3d 45 25 ba bb
       0.047253337 -0.051707733 0.04704912 -0.0056807124
000110 8a 9e 5b bc 9e 36 0a bd 63 9e 4c 3d 50 e7 18 3d
       -0.013404498 -0.033743493 0.049955737 0.03732997
000120 fc 0d 52 bb a1 09 91 3d 87 a4 2c 3d 9f 05 1d 3d
       -0.0032051792 0.07081915 0.042149093 0.03833544
000130 c9 22 89 3b 00 dd fb bc 52 cb 75 3d f4 18 e1 3c
       0.004185055 -0.03074503 0.060008354 0.027477719
000140 a6 26 82 3b f7 83 70 3c 6a 17 01 bd 7c c2 ab 3b
       0.0039718924 0.0146799 -0.03151647 0.00524169
000150 01 a9 83 3b 60 e7 12 3d 47 44 5a 3d 0c af 15 3d
       0.0040179496 0.035865188 0.05328777 0.03654389
000160 84 44 45 bc 4f 47 1e bb a6 89 8c bc c3 66 29 3d
       -0.012040261 -0.002415139 -0.01715548 0.041357767
000170 17 d1 02 3b cc 55 17 3d 9a 2e d3 bc 56 44 93 bc
       0.0019961053 0.036947057 -0.025779057 -0.017976921
000180 72 c3 ee bc d2 39 e5 3c 8b af 22 3d 4c e6 1d 3c
       -0.02914593 0.027981672 0.039718192 0.009637427
000190 ba cf 80 3d bf 2f a2 3c fe 48 71 3d fe 20 50 3c
       0.06289621 0.019798158 0.0589075 0.012703178
0001a0 93 d8 82 3d 1b 36 d2 bc 75 94 a5 bb d8 fc 02 bd
       0.063889645 -0.025660565 -0.005053098 -0.03197941
0001b0 3b 03 63 3c f1 ea 78 bd 10 b8 0e 3d 67 a2 f2 bc
       0.013855751 -0.060770933 0.034843504 -0.029618455
0001c0 7a da 46 bd c6 41 96 bc d1 3f 7e bc 5e 69 0c bd
       -0.0485482 -0.01834191 -0.015518145 -0.034280173
0001d0 9d 1e 8e 3d 91 32 8d bd 68 ae 03 bd 37 84 5e 39
       0.06939433 -0.068944104 -0.03214875 0.00021220824
0001e0 3a 65 aa bc 78 d1 3d bd 1e 6b 76 3c c6 64 ad bc
       -0.020800222 -0.046342343 0.015040187 -0.021166217
0001f0 47 57 e9 3c 84 7e 22 3d f9 c9 10 3d e2 2a 28 bd
       0.028484 0.039671436 0.035348866 -0.04105652
000200 59 4e 29 bc 92 7d b3 3c db 87 6b 3c dd 1f a7 bc
       -0.010333621 0.021910463 0.014375652 -0.020400936
000210 ce f9 7e bd 0f 77 07 bb 48 25 e7 bc 03 d2 4b 3d
       -0.06224995 -0.002067033 -0.02821602 0.04976083
000220 3b 2b 4c bb ff 59 75 bc 0b 7a 53 bd e6 85 0f bd
       -0.0031153697 -0.01497507 -0.05163006 -0.035039805
000230 0b 48 6f 3d 8d 21 89 3d 54 ff a9 bc 67 4c f9 bb
       0.058418315 0.066958524 -0.020751633 -0.007607985
000240 cb 49 52 bd 97 0a 6c bd 4f a6 17 3c 6c d8 10 bb
       -0.051339906 -0.057627287 0.00925596 -0.0022101654
000250 81 e8 82 3d 1c e9 f8 ba 90 c3 49 bc 6b 4b ac bc
       0.06392003 -0.001899037 -0.012314692 -0.021032056
000260 ec 93 97 bb 90 fb 09 bd 6d 83 ac bc 59 d9 1b bd
       -0.004625788 -0.033687174 -0.021058762 -0.038049076
000270 b2 51 3d 3d 21 fe 05 bd 7a 8d d5 39 2f 07 23 3b
       0.04622049 -0.03271306 0.00040731934 0.0024876108
000280 50 b9 86 bb bd a2 9b 3d 12 32 2d bd a7 96 0e 3c
       -0.0041114464 0.07599399 -0.04228408 0.0087029105
000290 1a 8c 85 3c 80 de 12 3c 46 4f 34 3d 5a 58 3d 3d
       0.016302157 0.008964181 0.044020914 0.046226837
0002a0 53 c9 02 bc a3 bc 77 3d 52 97 40 3d c6 d2 84 3c
       -0.00798257 0.060482632 0.04701931 0.016213786
0002b0 22 4b de bc 82 69 f9 bc c9 a9 47 3c 47 3a 95 3d
       -0.027135435 -0.030445818 0.012186476 0.07286506
0002c0 28 e9 37 bd f7 40 33 3d 2d 1f 03 3d b2 3e 29 3d
       -0.04490009 0.043763127 0.032012153 0.041319557
0002d0 29 d2 9b 3d ff 6a ec 3c a2 a0 b7 3c b6 d7 18 3d
       0.07608444 0.028859613 0.022415463 0.037315093
0002e0 f7 b7 3f 3d 7e 90 5c bd d3 ac 33 3d f0 c2 20 3d
       0.046806302 -0.053848736 0.04386599 0.039248407
0002f0 66 d1 55 3c 0f 92 11 bd a0 70 3e bd 3e f6 b4 bc
       0.013050413 -0.035539683 -0.046494126 -0.022090074
000300 cb e3 36 3c 33 c8 c9 3b da be 39 bc f8 fe 5d 3d
       0.0111627085 0.006157899 -0.011337006 0.054198235
000310 9c 72 32 3d e1 50 f2 bc 24 f9 80 bb 6f 59 4f 3d
       0.04356633 -0.029579582 -0.00393595 0.0506224
000320 c2 96 b9 bc 04 87 16 bd 7f 41 af bc 08 11 d3 ba
       -0.022654895 -0.036749855 -0.021393536 -0.0016103098
000330 b9 eb 80 bb 26 7d 68 3d 17 d5 01 3d 60 eb 2f bd
       -0.0039343503 0.056759976 0.03169736 -0.04294908
000340 0e 41 85 3d 3f 56 39 3d cd 96 92 3d 44 2d 6f bc
       0.06506549 0.045248266 0.07157669 -0.0145981945
000350 9b f2 0d 3d f6 04 18 bd 07 25 85 3d 17 8b 63 3d
       0.034655195 -0.037114106 0.06501203 0.05555257
000360 ae e0 71 3b f1 2b cb 3c bf 79 55 3c 9c 54 dd 3c
       0.0036907601 0.024801226 0.013029515 0.027017884
000370 61 d6 88 bc 66 d8 d7 3c a8 f1 6b 3c a6 a1 fb bb
       -0.016703786 0.026348304 0.014400877 -0.007679182
000380 53 eb d6 3b bb b7 8d 3c 6b bc 51 3c 1f 33 65 3d
       0.0065588146 0.017299524 0.01280127 0.055956956
000390 d5 12 a0 3d ab 67 03 3d 76 d7 26 3d 45 3a d8 3c
       0.07816092 0.032081287 0.040732823 0.026394973
0003a0 52 54 92 3d b4 fd 66 bd 01 75 f2 3a 9f 94 51 bd
       0.07144989 -0.056394294 0.0018498005 -0.051167127
0003b0 1c 92 0a bd 51 ee 42 3d 9b 08 83 3d 94 7b c7 bc
       -0.033830747 0.047590557 0.06398126 -0.024350919
0003c0 8c 06 30 3d 26 09 34 bd dc a7 1b 3d 2a 04 e2 bb
       0.042974994 -0.043954037 0.03800188 -0.006897469
0003d0 ff 49 f4 3c 73 9e e1 3c 0d 2b 83 3d 9f 1f 4c 3d
       0.02982044 0.027541375 0.06404696 0.049834844
0003e0 c3 4d 5b 3d 01 4c 0f bc 0b 37 39 bd a5 92 74 3d
       0.053540956 -0.008746148 -0.04521851 0.059710164
0003f0 5c ab 67 3d ec 06 89 bd d9 17 a2 3d 8a 5b c6 3c
       0.056559905 -0.06690773 0.07914705 0.024213571

base.4.weight f4 [3, 256]
000000 63 cb 84 3d 79 19 0e bd 1b c3 1e 3d f5 81 82 3c
       0.064841054 -0.03469226 0.038760286 0.015931109
000010 77 ee 9f bd 1c 55 ab bd 0f 56 98 3d 5e 75 58 3d
       -0.078091554 -0.08365843 0.074382894 0.052846305
000020 bd 59 64 bd 8a be 55 3d 4e ea 19 3d 7a 59 89 bd
       -0.055749644 0.052183665 0.037576966 -0.067065194
000030 31 d2 0d 3d 98 5b 8f 3c e2 42 a6 bc de ce 36 bc
       0.034624282 0.01749973 -0.020295564 -0.011157719
000040 f7 60 49 bd 2b 0c 40 bd c8 6b 8a 3d ae 5f d3 bc
       -0.04916474 -0.046886604 0.06758839 -0.02580246
000050 54 ef 3d 3c ce 5b 8f bd 20 cb 83 bd 75 db 44 bd
       0.011592705 -0.06999932 -0.064352274 -0.048060853
000060 e9 b0 2e 3c fa a6 9e bd 6a ed 9f bd 75 8b 0c bd
       0.010662296 -0.07746692 -0.07808955 -0.034312684
000070 0e 37 2c 3b 3c 80 6d bd 79 dc 72 3d 9b 66 62 bd
       0.0026277932 -0.057983622 0.05929229 -0.055273633
000080 8c a3 92 3d 31 16 a5 3d d1 92 9b bb 38 63 2f bd
       0.071601 0.08060873 -0.0047477265 -0.04281923
000090 38 be 48 ba b1 7e 5f 3d 2b 92 73 3c b9 12 2b 3d
       -0.00076577393 0.05456418 0.014866392 0.041765902
0000a0 ce 95 89 3d ab 1b 48 3d 13 75 2b bd 7c 7c 05 bd
       0.06718026 0.04885451 -0.041859698 -0.03258942
0000b0 8d f9 93 3d c9 b6 87 bc 36 e0 1f 3c 75 ac 04 3d
       0.072253324 -0.016566651 0.009758046 0.03239103
0000c0 8c 46 a6 bd 24 2e f8 3c 02 d4 85 3c 4e 07 5e 3d
       -0.081189245 0.030295439 0.016336445 0.054206185
0000d0 f5 be 69 3c b7 33 9c bd 3c 94 81 3c 1b f9 86 bd
       0.014266719 -0.07627051 0.015817754 -0.06590482
0000e0 2f da e7 3c b9 75 4a bc 8d d4 2d 3d 4d 99 b9 bd
       0.02830228 -0.012357169 0.042439032 -0.09062443
0000f0 2d b7 83 3d 75 0a 46 3d 2e 4f 38 3d ec e9 89 bd
       0.064314224 0.048349816 0.044997387 -0.0673407
000100 4f b5 3b bb 7b ad 0b bb 87 86 84 3d f5 5f 15 3c
       -0.0028642004 -0.002131312 0.064709716 0.009117116
000110 03 9c a7 bd 80 fd 82 bc 31 fb b1 3d 28 64 58 bd
       -0.08184054 -0.015990019 0.08690489 -0.05282989
000120 8f b7 23 3c 58 44 5b bd 58 62 20 3c b5 fb 8d bc
       0.009992494 -0.053531975 0.009789072 -0.017331937
000130 0e 99 09 bc a6 6c d9 3c 5e 11 2d 3d 16 a3 7e 3d
       -0.0083983075 0.026541065 0.04225289 0.06216725
000140 ff a2 60 bd 0a 2e 64 bd b1 95 40 3d 48 e6 86 3a
       -0.054842945 -0.05570797 0.047017757 0.0010292018
000150 a7 e0 66 3d 86 38 91 bd 6e 52 e1 3c 58 cc 9d 3c
       0.05636659 -0.07090859 0.027505126 0.019262478
000160 c7 04 56 bd 42 ff b7 3d b6 a1 82 bd 0c e4 87 bb
       -0.05225065 0.089842334 -0.063785 -0.0041470584
000170 39 56 11 3d 8d 90 1f 3d b6 f5 8b 3c cc 05 b9 bc
       0.03548262 0.038956214 0.017084938 -0.022585772
000180 88 a3 bd 3a f3 d4 2e bd 60 ef 67 bd 70 cb 67 3d
       0.0014468292 -0.042683553 -0.05662477 0.056590497
000190 4d 98 b3 3c 11 0b d1 3c 1b d7 ab ba 44 f6 88 3d
       0.021923209 0.025517972 -0.0013110371 0.066875964
0001a0 8c 98 ea 3c 1c 6f 12 3d ad 4a 9c 3c 9d f0 ae bc
       0.028637193 0.035750493 0.019078577 -0.021354968
0001b0 fa 65 4a bd 57 30 6d ba 70 af 19 3d 09 ee 10 3d
       -0.04941366 -0.0009048036 0.037520826 0.035383258
0001c0 67 71 97 3d a9 58 89 bd 3c 0b a9 3d 43 4d ba bc
       0.07394677 -0.06706364 0.08254096 -0.02274192
0001d0 d0 83 a5 3d 4e 35 07 bd 79 99 a5 3c 09 40 e3 ba
       0.08081782 -0.03300982 0.020214783 -0.001733781
0001e0 12 a4 c1 bc da d1 1a 3d 0e a9 13 bd 6c 1d 78 bd
       -0.023637805 0.037797786 -0.036049895 -0.060574934
0001f0 86 69 b2 3d 16 40 02 3d 55 6c 24 3c 11 a2 ad 3c
       0.08711533 0.0317994 0.010035594 0.021195443
000200 96 f9 04 bd 0f 7e 99 bd 24 3c 06 bd fd 30 8e 3d
       -0.032464586 -0.07494747 -0.0327722 0.069429375
000210 e9 ff 73 bd 04 70 3f 3d 3a 00 a5 bd dc e0 6c bd
       -0.059570227 0.046737686 -0.08056684 -0.05783163
000220 2d 9f 90 3d d1 ca a6 bc 3c 26 3e bd 34 ae ae 3d
       0.0706161 -0.020360382 -0.046423182 0.0852932
000230 6f ee 54 3c b6 1e 37 3d e5 6d e0 bc 2d 1a cd 3c
       0.0129963 0.044707023 -0.027396152 0.025036896
000240 d2 ac 12 3d fa b8 a9 bc 09 70 aa bd d4 61 8f 3d
       0.035809346 -0.020718087 -0.0832215 0.07001081
000250 c3 ee 93 bd cb 34 0e bd 12 cd 25 bd a5 2e 76 bd
       -0.072232746 -0.034718316 -0.040478773 -0.060103077
000260 37 c9 ac bc c0 91 20 bc af dd 26 bd bd 1c 97 bb
       -0.02109204 -0.0098003745 -0.040738758 -0.00461158
000270 6e 60 6b 3d 6f d3 93 bc 0b 9d 7f 3c 74 ea a1 bc
       0.05746501 -0.018045155 0.015601407 -0.019765116
000280 40 db ac bd b9 8c 81 3c 1c a1 8c bd 70 05 de bc
       -0.08440256 0.015814172 -0.06866667 -0.027102202
000290 e2 9f c3 bc 93 54 b1 3d ae 25 95 bd bc 58 6a 3d
       -0.023879949 0.086587094 -0.072825775 0.05721353
0002a0 88 b2 95 3d d8 9c 10 bd ea 92 03 bd 89 b0 09 3d
       0.07309443 -0.035305828 -0.03212253 0.033615623
0002b0 b2 10 59 bc 62 84 46 3c 00 dc 17 bd 49 b5 ce 3c
       -0.013248609 0.012116523 -0.037075043 0.025232928
0002c0 46 38 8c bd a6 0d 35 bd ac c4 c8 bd 23 6d 1d ba
       -0.06846671 -0.04420247 -0.09803137 -0.00060053373
0002d0 a8 28 f4 3c 63 cd 41 3d 3c 7f b2 3d 3a 44 27 bd
       0.029804543 0.047315013 0.08715674 -0.04083655
0002e0 dd 87 55 3d 43 32 5b bd 2c 48 94 3d eb b9 6c bd
       0.052131522 -0.05351473 0.07240328 -0.057794493
0002f0 b1 87 9b bd 8a b9 a1 3d a0 d4 75 3d 87 f8 90 bd
       -0.075942405 0.07896717 0.060017228 -0.07078653
000300 5d 17 b4 3d 58 81 e0 bc d7 8b d8 bc b1 ee 98 3d
       0.08793519 -0.027405426 -0.026433868 0.07467402
000310 db 1f a8 bd 0e a5 1e 3b 87 2b 40 3d 5f 5d 29 3c
       -0.08209201 0.0024207267 0.04691651 0.010337203
000320 26 6d 98 3c ea 4c c7 3c d4 56 2e bd 18 33 34 3d
       0.018606734 0.024328668 -0.042563275 0.04399404
000330 f3 ed 10 bd ed 97 b2 3d e3 1f 1d 3d fe 4a 64 bd
       -0.035383176 0.08720384 0.038360488 -0.05573558
000340 34 81 1d 3d f4 ae 04 3d 05 a7 4a bd 5d 4d aa bc
       0.038453296 0.03239341 -0.04947569 -0.020788843
000350 c4 b4 84 bd 13 3f bf bd e6 4e 42 bd cf 4e 83 bc
       -0.06479791 -0.09338202 -0.047438525 -0.01602879
000360 42 10 da 3c 54 1d 9f 3d ea 1e 26 bd c5 3c cd 3c
       0.02661908 0.07769266 -0.040556826 0.025053391
000370 f6 12 ad bc d6 dd ac 3d ff 16 1e bd 6e b7 2f 3d
       -0.021127205 0.08440749 -0.03859615 0.04289954
000380 b9 cd b7 bc fd 86 60 3d 88 db f9 3c 5d 37 37 3d
       -0.022436963 0.054816235 0.030500188 0.044730533
000390 a2 4b 35 3d 04 84 34 bd 47 c7 97 3d 35 f6 8b 3d
       0.044261582 -0.044071212 0.07411056 0.0683407
0003a0 da 65 38 3c b0 0d 18 bd 1e 19 9f 3d 52 92 89 3d
       0.011254752 -0.03712243 0.077684626 0.067173615
0003b0 27 91 15 3d 33 40 af 3d 7f 53 2a 3c 8f 09 bc 3d
       0.03651538 0.08557167 0.010395884 0.09181511
0003c0 c3 f2 a2 3d 07 fa 8a bd e2 56 99 3d 6a 24 f3 bc
       0.079564594 -0.0678597 0.07487275 -0.02968045
0003d0 ae b5 a7 3c 34 a0 50 3c 05 d1 93 bd 5d 79 90 3d
       0.020472374 0.012733508 -0.07217602 0.07054398
0003e0 eb 6d 98 bd ff a9 04 3d 53 c3 87 bd 55 a1 9b bd
       -0.0744284 0.032388683 -0.06629052 -0.07599131
0003f0 8f 4a cc 3b e1 1e e8 bc 2e 55 11 bd be 45 4a 3d
       0.006234474 -0.028335037 -0.035481624 0.049382918

base.4.bias f4 [3]
000000 f9 39 fa 3c 12 09 f3 bc b6 11 78 3c
       0.030545222 -0.029667411 0.015140941

exp_avg f4 [256, 6]
000000 f8 58 ca 38 b7 09 ef 37 1a 2a 06 b7 58 57 0f b8
       9.648682e-05 2.8495544e-05 -7.996825e-06 -3.4175202e-05
000010 67 ba e5 b8 89 d3 1d 38 fa ce 9f b7 6d a6 1e 39
       -0.00010954291 3.7628724e-05 -1.9050658e-05 0.00015130053
000020 f0 37 d1 b7 70 e6 c2 b8 da 69 3d 38 e1 b4 32 b9
       -2.494079e-05 -9.293563e-05 4.5159693e-05 -0.00017042785
000030 e5 d0 0e b7 4e bf 17 3a bc a8 a5 39 ae 1b 44 39
       -8.512497e-06 0.00057886995 0.0003159697 0.00018702328
000040 95 ea 12 ba d9 1e 06 b9 3c 75 fd 37 10 5a bf b8
       -0.00056044135 -0.00012790727 3.0214542e-05 -9.124365e-05
000050 28 21 fb b8 57 bf 75 38 2b 6c 11 ba 8c 7c 13 3a
       -0.000119747885 5.859075e-05 -0.00055474293 0.0005626164
000060 1d f2 15 b7 60 d7 47 ba c4 d3 b9 b9 a2 2b 1c b9
       -8.9374635e-06 -0.0007623341 -0.00035443727 -0.00014893574
000070 c5 2f b2 39 6c ee d2 39 07 03 07 b8 56 18 8e 39
       0.00033986397 0.0004023196 -3.2189328e-05 0.00027102482
000080 c4 d4 80 b9 c8 ab eb b8 7c c6 9b 38 f0 38 b9 b9
       -0.00024572585 -0.0001123767 7.4279465e-05 -0.0003532837
000090 08 92 b8 37 6a 74 c1 b8 f1 bb 25 b8 64 34 20 b8
       2.200251e-05 -9.224641e-05 -3.95141e-05 -3.8195765e-05
0000a0 be d4 81 39 ed ec 1a 38 41 2d 29 b8 bf 69 cf 39
       0.00024763303 3.6937116e-05 -4.0334886e-05 0.00039560904
0000b0 2f 12 9b b8 eb d3 42 b9 79 ac 11 39 e0 1c 02 ba
       -7.394363e-05 -0.00018580227 0.00013892529 -0.0004963409
0000c0 ec 06 0e b8 7b 04 d7 b8 78 a0 9f b7 33 34 e8 38
       -3.3861885e-05 -0.000102528335 -1.9029001e-05 0.00011072345
0000d0 b9 f6 9b b8 ea 21 4a 39 08 58 cd 37 ad 15 82 b9
       -7.4369316e-05 0.00019276855 2.4478897e-05 -0.00024811682
0000e0 bb 49 36 b9 ef bb 50 39 c3 1f d2 b9 7f 52 09 3a
       -0.0001738434 0.00019906437 -0.00040077986 0.0005238428
0000f0 73 e1 a1 36 ad 86 f9 b9 bb d6 5a 39 1f 9a 67 b7
       4.8244196e-06 -0.00047593322 0.00020870093 -1.3804557e-05
000100 ea db a3 b8 55 f7 6d 39 78 99 43 b8 72 e9 00 bb
       -7.813408e-05 0.0002269422 -4.6634552e-05 -0.0019670394
000110 ad 8f 77 ba fc bd f4 b9 83 02 a1 3a f4 30 56 3a
       -0.00094437116 -0.00046680856 0.0012284074 0.0008170747
000120 16 a0 ba 38 e2 29 06 ba 10 c7 c5 39 3f 93 34 39
       8.8989895e-05 -0.00051179354 0.0003772308 0.00017220991
000130 f9 06 40 b9 b7 5d 20 3a 08 8d 8c b7 da 5d b6 3b
       -0.00018313144 0.000611748 -1.6754973e-05 0.005565387
000140 f7 e1 cf 3a 4f 7c a8 3a 0f 86 59 bb 11 71 1b bb
       0.001586019 0.001285443 -0.0033191477 -0.0023718516
000150 86 35 29 b7 77 f3 e2 3a 89 e3 bc 39 b9 1b 6f 39
       -1.0085647e-05 0.001731499 0.0003602768 0.00022803144
000160 81 72 10 ba c9 96 86 ba e1 68 98 b9 5d c1 bd 3a
       -0.00055102265 -0.0010268326 -0.0002906984 0.0014477182
000170 7d f0 1d ba a2 39 41 ba cc e4 cf 3a c9 79 2d bb
       -0.000602491 -0.00073709537 0.0015861033 -0.0026470295
000180 53 d7 28 35 56 f1 b8 37 53 cc 21 b7 88 b0 02 37
       6.2898215e-07 2.204689e-05 -9.643921e-06 7.789706e-06
000190 44 c2 e4 37 41 cb a6 37 8f b7 38 38 85 cd 2b b9
       2.727018e-05 1.988339e-05 4.403997e-05 -0.00016384393
0001a0 7c d7 48 39 69 dc 29 38 b9 5d 7c b7 40 38 3c 39
       0.0001915376 4.0498013e-05 -1.5042192e-05 0.00017950032
0001b0 c7 10 d6 b9 1e 0b a1 3a 23 69 a0 3a cf 27 a8 39
       -0.0004082976 0.0012286638 0.0012238364 0.00032073117
0001c0 e2 21 31 bb 2a 5e b5 b9 a8 30 3a ba 5b 7f 05 ba
       -0.0027028252 -0.00034593168 -0.0007102587 -0.0005092525
0001d0 52 f1 41 3a 91 00 e7 38 c5 0e 58 bb fa 03 65 3a
       0.0007398325 0.00011015044 -0.0032967788 0.00087362493
0001e0 bd b4 83 37 e7 4f 70 ba ec d2 c5 38 30 bb cc b8
       1.570058e-05 -0.000916718 9.432979e-05 -9.7623444e-05
0001f0 0e 90 ae 39 b3 77 04 3a 65 c2 01 39 e4 4f 65 bb
       0.00033295195 0.0005053237 0.00012374816 -0.0034990245
000200 79 7c 7b ba cd 92 86 ba 60 c9 25 3b e7 4c b5 3a
       -0.0009593438 -0.0010267139 0.002529703 0.0013832123
000210 92 61 93 38 ab 22 90 ba 0a 47 62 b8 b8 7f e3 b8
       7.02768e-05 -0.001099666 -5.394876e-05 -0.00010847993
000220 fd ad 36 3a 22 52 07 3a 5b e7 17 b9 88 48 83 3a
       0.00069686753 0.000516208 -0.00014486669 0.0010016123
000230 c0 f8 dd 39 be 23 9a 38 a3 df 97 ba 82 65 26 ba
       0.00042337738 7.34995e-05 -0.0011587035 -0.00063475233
000240 c6 93 b8 b8 98 87 f0 38 66 09 30 39 e5 04 2b b8
       -8.801329e-05 0.00011469348 0.00016788169 -4.0774135e-05
000250 9e 97 9d 39 ef fb 58 b9 5b 33 18 39 ce c0 1f bb
       0.00030058337 -0.00020693218 0.00014514981 -0.0024376395
000260 62 ec 60 b9 cc b2 f2 b9 4f 4c dd 3a 3a 15 88 3a
       -0.00021450364 -0.0004629105 0.0016883704 0.0010382303
000270 2f 28 0e 38 a8 e4 02 3b b2 03 82 3a a2 80 41 3a
       3.3892862e-05 0.0019972716 0.0009919314 0.00073815335
000280 63 aa dc ba 15 c6 99 b9 c7 9a d0 b9 ff 80 0c 3b
       -0.0016835447 -0.00029330017 -0.0003978817 0.0021439192
000290 0e f3 bc ba fe b7 62 ba 52 0d 81 3a 33 f2 36 bb
       -0.0014415698 -0.0008648633 0.0009845889 -0.0027915358
0002a0 ef 04 94 39 51 87 dc bb 99 60 57 ba 55 e0 1c ba
       0.00028232436 -0.006729998 -0.00082159933 -0.0005984356
0002b0 08 56 42 3b 36 77 86 3b 4d 90 d7 b2 14 41 df b3
       0.002965333 0.0041035665 -2.5094915e-08 -1.0396084e-07
0002c0 68 dc 4a 33 a7 bb d9 33 61 f8 1a 33 aa 57 33 34
       4.723225e-08 1.0138984e-07 3.608182e-08 1.6702566e-07
0002d0 c8 ac 82 37 09 86 15 3a a9 45 e5 38 e4 4a 1e 39
       1.5577665e-05 0.0005703872 0.00010932546 0.00015095953
0002e0 d8 6b 70 b9 a1 b4 6f b9 8c 88 7c b8 79 39 38 3b
       -0.00022928359 -0.00022860106 -6.020865e-05 0.0028110428
0002f0 e5 3d 98 39 5b 2a 39 3a 7a 7a f2 ba e1 35 86 ba
       0.00029037814 0.00070635014 -0.0018499636 -0.0010239446
000300 97 21 53 b9 4e 01 83 3b b0 7d b7 39 f9 1a 56 3a
       -0.00020135041 0.0039979583 0.00034998124 0.00081674714
000310 ca 0e 32 bb f8 77 d3 ba a6 9f 87 37 58 7d 10 b8
       -0.002716946 -0.0016133776 1.6167596e-05 -3.444901e-05
000320 3f ff 6d b7 00 da 0f 37 98 c9 48 37 1f f1 70 38
       -1.418573e-05 8.574221e-06 1.1967866e-05 5.744502e-05
000330 f9 50 86 b7 57 ef 01 3a e7 70 ee 38 85 07 21 38
       -1.601175e-05 0.0004956624 0.00011369754 3.8392394e-05
000340 32 11 5c b9 ae 64 b4 b9 3d ba 62 b7 17 b8 d9 38
       -0.0002098724 -0.00034407288 -1.3514012e-05 0.00010381656
000350 44 29 69 38 05 3a 9c b8 4c 17 aa 38 0f 22 43 b9
       5.558996e-05 -7.449467e-05 8.110571e-05 -0.00018609337
000360 3b d0 45 37 df 5b 0e b8 ed 29 13 b8 5b 1d eb 37
       1.17905975e-05 -3.3941e-05 -3.5086578e-05 2.8027853e-05
000370 3c 10 45 b9 5e 28 41 39 54 17 47 b8 f9 6b 92 39
       -0.00018793432 0.00018420952 -4.7467023e-05 0.00027927736
000380 9c 35 ae b8 a1 14 28 b9 9b 81 ce 38 cb 70 b4 b9
       -8.306952e-05 -0.00016029413 9.846986e-05 -0.00034416313
000390 0d ea ce 38 b9 28 37 3b 96 b2 ac 3a f0 76 b6 3a
       9.866441e-05 0.0027947857 0.0013175781 0.0013920944
0003a0 a2 c8 2a bb c1 d0 ca b8 07 14 01 38 23 8c 26 39
       -0.0026059528 -9.670994e-05 3.077465e-05 0.00015883199
0003b0 5c de 1c 39 fe 72 dc 38 d7 b2 1a b9 49 02 56 b8
       0.00014960155 0.000105118364 -0.00014753208 -5.1023704e-05
0003c0 b1 d7 8b ba 14 15 6c 3b a6 7d b7 3a 3b 04 ea 39
       -0.001066914 0.0036023306 0.0013999238 0.0004463511
0003d0 77 6d b6 bb 71 3b dc ba 30 22 27 b9 89 ac 49 3b
       -0.0055672484 -0.0016802383 -0.00015939097 0.0030773005
0003e0 f9 9b 70 3a 38 4c 6c 3a dd 8d 26 bb f8 c2 8c ba
       0.0009178515 0.0009014043 -0.0025414147 -0.0010739258
0003f0 50 3d 05 38 e6 04 94 b8 eb 4c b9 b8 53 6e 2f 38
       3.1766773e-05 -7.058102e-05 -8.8358145e-05 4.1826e-05
