assets/section_1/actor_critic/acrobot/models/acrobot_exp/episode_best/critic.pth (torch, 820786 bytes, 15 tensors)

net.0.weight f4 [256, 6]
0	0xbe8338a4	-0.2562915
1	0xbe51fd0c	-0.20506686
2	0xbea8ef00	-0.32994843
3	0x3c934aa3	0.017979925
4	0x3e27fd93	0.16405325
5	0xbe9022af	-0.2815146
6	0x3c05b2d7	0.0081603145
7	0x3eb82615	0.35966554
8	0xbe73b187	-0.2379819
9	0x3cb0bd65	0.021574685
10	0x3e57e4db	0.21083395
11	0xbd83f0a1	-0.06442381
12	0x3b19bbb4	0.0023457827
13	0x3f311544	0.69173074
14	0x3dd87bfa	0.10570522
15	0xbf17b3db	-0.5925881
16	0x3e98f097	0.29871055
17	0x3e139345	0.14411648
18	0x3e85a1af	0.26099917
19	0x3eaa7b22	0.33297068
20	0x3eaea40b	0.3410953
21	0xbd9783eb	-0.07398208
22	0x3e3b87b8	0.18313491
23	0x3e032e75	0.1281069
24	0x3dac6383	0.08417418
25	0xbf0c1a26	-0.547274
26	0x3dd4312c	0.10360941
27	0xbccea6cc	-0.02522602
28	0xbe68c7e4	-0.22732502
29	0xbeb6ec18	-0.35727
30	0xbe594c16	-0.2122043
31	0x3ea67bcb	0.32516322
32	0xbeb605eb	-0.3555139
33	0xbe99d028	-0.30041623
34	0x3e1e4fbb	0.15460102
35	0xbe6d9017	-0.23199497
36	0x3ea1f789	0.31634167
37	0x3e602f00	0.21892929
38	0xbdbf22bb	-0.09332796
39	0xbb19712e	-0.0023413408
40	0x3d3fa3b3	0.046786975
41	0x3def0d62	0.116724744
42	0xbe29a462	-0.16566613
43	0xbf08e80a	-0.53479064
44	0xbeafebc4	-0.34359562
45	0x3ebc38c4	0.3676206
46	0xbeae1ee4	-0.34007943
47	0xbeba823b	-0.36427483
48	0x3f1d4482	0.6143266
49	0x3e97a661	0.29619125
50	0x3ca7a154	0.02046267
51	0xbe3457ca	-0.17611614
52	0x3e8010cb	0.25012812
53	0x3e39796d	0.18112727
54	0x3e9605b4	0.29301226
55	0x3e647b67	0.223127
56	0xbe9cee8f	-0.30650756
57	0x3e82ab19	0.25521162
58	0xbed6b679	-0.4193609
59	0xbd8d2366	-0.06891517
60	0xbe53f48f	-0.2069876
61	0x3e55f4e6	0.20894203
62	0x3e821e9b	0.25413975
63	0x3e48f6ad	0.1962535
64	0x3d8f2e1d	0.06991217
65	0xbe154458	-0.14576852
66	0xbef6cbe6	-0.48202437
67	0xbdf7c90d	-0.12098894
68	0xbe9aecba	-0.30258733
69	0x3e9b87ce	0.30377048
70	0xbec24ccb	-0.37949213
71	0x3e84e573	0.25956306
72	0x3e6746c1	0.22585584
73	0x3ef9a45e	0.48758215
74	0xbcf2a02c	-0.029617392
75	0xbedc8515	-0.43070284
76	0xbe88c457	-0.26712295
77	0xbe62fcd8	-0.22166765
78	0xbd86a21d	-0.065738894
79	0xbeff081a	-0.49810869
80	0xbe81f0e8	-0.2537911
81	0xbd98e5e8	-0.07465726
82	0x3ebbc6ab	0.3667501
83	0xbe920c17	-0.2852485
84	0x3ee54b0a	0.44783813
85	0x3ef364d2	0.47537857
86	0x3e87d075	0.26526228
87	0xbf224e33	-0.6340057
88	0x3daf078f	0.085463636
89	0x3e0fc3c6	0.14039525
90	0x3e9d1930	0.3068328
91	0xbe3957a9	-0.18099846
92	0x3e358f2e	0.177304
93	0xbe991c96	-0.29904622
94	0x3e5fda0e	0.21860525
95	0xbe3d061f	-0.18459366
96	0x3ecf6d99	0.40513304
97	0x3ea06a19	0.31330946
98	0x3ee1cb0b	0.44100222
99	0x3dedfdf1	0.11620701
100	0xbdcc516b	-0.09976467
101	0xbdc03b5b	-0.09386321
102	0x3f0a1a62	0.53946507
103	0xbdea1185	-0.11429123
104	0x3f031ec4	0.5121882
105	0xbe28242a	-0.16420045
106	0x3e9b5243	0.30336198
107	0x3e5622e6	0.2091175
108	0xbe3b55f6	-0.1829451
109	0x3ef621cb	0.48072657
110	0x3e105f34	0.14098817
111	0x3dd3a0a5	0.10333375
112	0x3e04d67e	0.12972447
113	0x3e94b3ad	0.29043332
114	0x3ee6669c	0.4500016
115	0x3e2e7c2e	0.17039558
116	0x3efa6639	0.48906115
117	0x3d27dbb9	0.04098103
118	0xbe2d0ea8	-0.16900122
119	0xbcfde7bc	-0.030994289
120	0xbe5ccadd	-0.21561761
121	0xbea6719d	-0.32508555
122	0xbe10b0d4	-0.14129955
123	0xbe88e02a	-0.26733524
124	0xbe725065	-0.2366348
125	0xbebb5819	-0.3659065
126	0xbdb113b2	-0.08646335
127	0xbe856de7	-0.2606041
128	0xbeeef05c	-0.46667755
129	0x3c0e49e0	0.008684605
130	0xbe9749b7	-0.29548427
131	0xbe9fa89d	-0.3118333
132	0x3eae35da	0.3402546
133	0x3c8b731d	0.017022664
134	0x3e9d3914	0.3070761
135	0x3ec03060	0.37536907
136	0xbedea267	-0.43483278
137	0xbec0c41a	-0.37649614
138	0xbe6ec024	-0.23315483
139	0x3ea268ab	0.3172048
140	0x3ea35143	0.31897935
141	0xbe7cd148	-0.2468921
142	0x3ea0d55a	0.31412774
143	0xbd6ebc92	-0.058285303
144	0x3f1cba2d	0.6122158
145	0xbe2d4885	-0.16922195
146	0x3e86b6dd	0.2631139
147	0x3ea687d7	0.32525513
148	0xbe9f52f1	-0.31117967
149	0xbe7ae849	-0.24502672
150	0xbef2dcba	-0.47434026
151	0xbe8d7258	-0.276263
152	0xbf03568f	-0.5130395
153	0xbe5c394f	-0.21506236
154	0xbc17a76c	-0.009256225
155	0x3e9e6a8d	0.30940667
156	0xbe53b159	-0.20673122
157	0x3e9a852f	0.30179736
158	0xbeff60e5	-0.49878612
159	0x3e2693cb	0.16267316
160	0xbd8941b7	-0.06701987
161	0xbe32b33f	-0.1745119
162	0xbf0cf48e	-0.5506066
163	0xbf01956f	-0.5061864
164	0xbd94cea0	-0.07265973
165	0xbe5d230c	-0.215954
166	0xbbab1d33	-0.0052219867
167	0xbd23d91c	-0.040001974
168	0xbf176236	-0.59134233
169	0x3ec3af60	0.38219738
170	0xbecb674b	-0.39727244
171	0xbe488f07	-0.1958581
172	0x3cbdcf2b	0.023170074
173	0x3e562881	0.20913889
174	0xbe83608b	-0.25659594
175	0xbed29b21	-0.4113398
176	0xbe2e4acd	-0.17020722
177	0xbe4097f6	-0.18807968
178	0xbe3ef750	-0.1864903
179	0xbea99a37	-0.3312547
180	0xbe5a4391	-0.21314837
181	0xbecd721d	-0.40126124
182	0x3deb069c	0.1147587
183	0x3eeca3a8	0.4621861
184	0xbd84c7db	-0.06483432
185	0xbdc41738	-0.09574741
186	0x3ed3f263	0.41395864
187	0x3d8c265b	0.06843253
188	0xbcb08efa	-0.021552552
189	0x3e9d3104	0.30701458
190	0x3e38f4ed	0.18062182
191	0xbddf6b29	-0.10909111
192	0x3f12a543	0.5728342
193	0xbe09b707	-0.13448726
194	0xbe27ed7e	-0.1639919
195	0x3d7623dc	0.060092792
196	0xbe1a0a2a	-0.1504294
197	0xbd4f0b90	-0.050548136
198	0x3e2c7557	0.16841637
199	0x3e4a3002	0.19744876
200	0xbed69d1c	-0.4191674
201	0xbd86768d	-0.065655805
202	0x3d567e21	0.05236638
203	0xbe795635	-0.24349292
204	0x3d9a6c3d	0.07540176
205	0xbe43c8d3	-0.19119577
206	0xbe1aed6a	-0.15129629
207	0xbe876c2d	-0.2644972
208	0xbe20d300	-0.1570549
209	0x3d8fe6c1	0.07026435
210	0x3ddbf2b5	0.10739652
211	0xbe94c1f6	-0.2905423
212	0x3eb57a48	0.35444856
213	0x3eb863d8	0.36013675
214	0x3e458ef5	0.19292815
215	0x3d50171d	0.050803293
216	0x3f27662b	0.6539027
217	0x3d5d186c	0.05397837
218	0x3e482fe3	0.19549517
219	0xbf09121b	-0.5354325
220	0x3e922487	0.28543493
221	0x3e21e081	0.15808298
222	0x3efb3153	0.4906107
223	0x3e5ee8c6	0.21768484
224	0xbe934595	-0.28764024
225	0x3e8dabf7	0.2767026
226	0x3dbe825d	0.093022086
227	0xbe71f37d	-0.2362804
228	0x3f295342	0.66142666
229	0xbe81673a	-0.25274068
230	0x3e8c5e31	0.27415612
231	0xbe876a5b	-0.2644833
232	0x3eb3606c	0.35034502
233	0x3e3165c0	0.17323971
234	0x3f061d13	0.52388114
235	0x3e95f80c	0.29290807
236	0x3da7df2e	0.08196865
237	0xbf0f96a1	-0.56089216
238	0x3ea29aa1	0.31758597
239	0x3ec45986	0.3834955
240	0xbed27e1b	-0.41111836
241	0xbe077ba2	-0.13230756
242	0xbf0f3ffa	-0.55956995
243	0xbef8aebf	-0.4857082
244	0x3de63ba4	0.11241844
245	0x3dc14e63	0.09438779
246	0xbe979039	-0.2960222
247	0x3e6da842	0.23208717
248	0xbdc364a4	-0.0954068
249	0xbe97df71	-0.2966266
250	0x3e3c9064	0.18414456
251	0x3e3188fe	0.17337415
252	0x3e4de7c8	0.20107949
253	0x3ebe1bb7	0.3713052
254	0x3e9ffaa3	0.31245908
255	0xbe173e5b	-0.1476988

net.0.bias f4 [256]
0	0xbe08be2a	-0.13353792
1	0xbea348e0	-0.31891537
2	0x3e2fcc54	0.17167789
3	0x3f04157c	0.5159528
4	0xbe8efd63	-0.27927694
5	0x3ddfa854	0.10920778
6	0x3f0dca6d	0.55387
7	0xbda71726	-0.08158712
8	0x3e8411d8	0.25794864
9	0xbed89f84	-0.423092
10	0xbeaaa20b	-0.33326754
11	0xbea36d16	-0.31919163
12	0x3e3a0dfb	0.18169396
13	0xbda6091b	-0.081072055
14	0xbe21058d	-0.15724774
15	0x3ececbe8	0.40389943
16	0xbdbc4eaa	-0.091946915
17	0x3d84bb57	0.06481045
18	0x3be3bb90	0.0069498494
19	0x3e7f51ef	0.24933599
20	0x3e2dc91d	0.1697125
21	0xbd83d59c	-0.06437227
22	0xbdafbb78	-0.08580679
23	0xbeb073b7	-0.34463283
24	0x3ec6783c	0.38763607
25	0x3e9eb886	0.31000155
26	0x3eb534ff	0.35391995
27	0x3e4f3f7d	0.20239063
28	0xbe1ae799	-0.1512741
29	0xbd338787	-0.04383042
30	0x3e83ec23	0.25766096
31	0x3ea5bfc1	0.3237286
32	0x3e8a7565	0.2704269
33	0x3d9a82a7	0.07544451
34	0xbef2ba95	-0.47407976
35	0x3eb3b24e	0.35096973
36	0x3ca5643a	0.020189393
37	0x3db2834f	0.087164514
38	0x3ea1ea83	0.3162423
39	0xbdd1e352	-0.10248436
40	0x3eae8d12	0.34092003
41	0x3ec4c83c	0.38434017
42	0xbeeabd21	-0.4584742
43	0xbe3a48be	-0.18191811
44	0x3d911725	0.070844926
45	0x3ed8ef7c	0.42370212
46	0xbe5c7534	-0.21529084
47	0x3f04fe23	0.5195028
48	0x3ed60c50	0.4180627
49	0x3e06b55d	0.13155122
50	0xbe69ee4b	-0.22844808
51	0xbd45f31b	-0.048327547
52	0x3b132693	0.0022453412
53	0xbe2535bb	-0.16133778
54	0x3ef10bb1	0.47079232
55	0x3e8b8c8d	0.2725567
56	0x3f0a512a	0.54030097
57	0x3e3adf92	0.18249348
58	0x3e923872	0.2855869
59	0x3db1822d	0.08667407
60	0xbeb7e543	-0.359171
61	0xbd7beaa3	-0.061503064
62	0x3f174484	0.5908892
63	0xbd999e35	-0.07500879
64	0xbc20d897	-0.009817264
65	0xbeebd44f	-0.46060416
66	0xbead486f	-0.33844325
67	0x3e76b468	0.24092257
68	0x3f0a859f	0.5411014
69	0x3e968e54	0.29405463
70	0x3bb8fc4b	0.00564531
71	0x3eafb782	0.34319693
72	0xbd644959	-0.055734012
73	0x3e2ed752	0.17074326
74	0x3e2d077a	0.16897383
75	0x3f0543b9	0.5205646
76	0x3eb50ed5	0.35362878
77	0x3e80fb8d	0.25191918
78	0xbe145cbb	-0.14488499
79	0x3ea203fa	0.3164366
80	0xbe04936b	-0.1294686
81	0xbe1c8c44	-0.15287882
82	0xbe0aa1c7	-0.13538276
83	0x3e3e0f23	0.18560462
84	0xbd180d14	-0.037121847
85	0x3f0bfb3e	0.5468024
86	0x3e5bd128	0.21466506
87	0xbe5d639c	-0.21620029
88	0x3e335492	0.1751273
89	0x3e6d251b	0.23158686
90	0xbc38625d	-0.01125392
91	0xbd3bc268	-0.045839697
92	0x3e7c8151	0.24658705
93	0xbe8d9776	-0.27654618
94	0xbebf97ba	-0.37420446
95	0x3efd04cb	0.4941772
96	0x3d11bba9	0.035579357
97	0xbe79a9a6	-0.24381122
98	0xbe55490b	-0.20828645
99	0xbe7513c7	-0.23933326
100	0x3db4dced	0.08831201
101	0x3ec46ea9	0.38365677
102	0x3eb6c229	0.35695007
103	0xbd501bce	-0.050807767
104	0x3ee3ea7d	0.44514838
105	0x3e90b0f1	0.28259996
106	0x3e7e5993	0.24838857
107	0xbd44e697	-0.04807147
108	0x3e5fa46e	0.21840069
109	0x3e552a80	0.20816994
110	0xbe9cc04a	-0.30615455
111	0xbedb5b30	-0.42843008
112	0xbe469b5c	-0.19395202
113	0x3f097df6	0.53707826
114	0xbeedd143	-0.46448717
115	0x3ed69a9b	0.4191483
116	0x3f0ea40c	0.55719066
117	0xbe2491d0	-0.16071248
118	0xbebca485	-0.36844268
119	0xbe76465f	-0.24050282
120	0x3ece3270	0.40272856
121	0xbd0e227b	-0.034700852
122	0xbec06ce7	-0.37583086
123	0x3e0d9f47	0.1383029
124	0x3db2d023	0.08731105
125	0x3e7802d9	0.24219836
126	0xbcc84b82	-0.024450067
127	0x3ed42025	0.41430774
128	0x3e8d5107	0.2760088
129	0xbdc2281d	-0.09480307
130	0x3e4483c5	0.19190891
131	0x3e9d7de3	0.30760106
132	0x3deabadc	0.11461422
133	0x3f0f06bd	0.55869657
134	0x3ef6ca4c	0.48201215
135	0x3ec637f6	0.3871457
136	0x3d94953f	0.07255029
137	0x3e919b1b	0.2843865
138	0xbd85c425	-0.06531552
139	0x3e990ba5	0.29891697
140	0x3c3e410b	0.011612187
141	0x3e86e209	0.26344326
142	0xbdd7fea0	-0.10546613
143	0x3ec8bb17	0.39205238
144	0x3f05bb1b	0.52238625
145	0x3edddcab	0.4333242
146	0xbda04ec5	-0.07827524
147	0xbea95a61	-0.33076766
148	0x3d85e03f	0.06536912
149	0xbecb06ea	-0.39653713
150	0xbe1b9e70	-0.15197158
151	0xbb151435	-0.002274764
152	0x3cc2292f	0.023701278
153	0x3f00f5c7	0.50375026
154	0xbe0b152a	-0.13582292
155	0x3daa42e1	0.083135374
156	0xbd3415bf	-0.04396605
157	0x3ecaf92a	0.39643222
158	0xbd87f3d3	-0.06638303
159	0xbf0b5644	-0.54428506
160	0xbd2feb27	-0.042948868
161	0x3e853da5	0.26023594
162	0xbdff394a	-0.12462099
163	0x3e049714	0.12948257
164	0x3e89fdee	0.26951545
165	0xbe6c6be1	-0.23088028
166	0x3e565fdf	0.2093501
167	0xbebb97d8	-0.36639285
168	0x3e0b8d28	0.13628066
169	0x3ec24abc	0.37947643
170	0xbecae778	-0.39629722
171	0x3ede7128	0.43445706
172	0x3f0a2244	0.53958535
173	0xbddfc849	-0.10926873
174	0xbe81e43f	-0.2536945
175	0x3ea24286	0.31691378
176	0x3e25e6c9	0.16201319
177	0xbd7e5eea	-0.062102236
178	0xbe0cf3d3	-0.13764887
179	0x3f0b1717	0.5433211
180	0x3e26fbcf	0.16306995
181	0xbe9a3a8d	-0.30122796
182	0x3ef16453	0.47146854
183	0x3d386e49	0.04502705
184	0xbdf4a88d	-0.11946211
185	0x3e1a68a0	0.15078974
186	0xbb494488	-0.0030711014
187	0xbec2a4ce	-0.3801636
188	0x3c8e918e	0.01740339
189	0xbe79a7ab	-0.24380367
190	0xbdddda6b	-0.108326755
191	0xbe3749be	-0.17899224
192	0x3f0d6a1b	0.5524003
193	0x3e925ce4	0.28586495
194	0x3f148d08	0.58027697
195	0xbf01ba7b	-0.5067517
196	0xbd57cbb3	-0.052684497
197	0x3ea1c4ca	0.3159545
198	0xbd3d8575	-0.046269853
199	0xbe770e97	-0.2412666
200	0xbe465dc0	-0.193717
201	0xbe8f1d70	-0.27952147
202	0x3ed11f0d	0.40844002
203	0x3ef418ad	0.47675076
204	0x3e8f7a56	0.28023022
205	0xbdc05f41	-0.09393168
206	0x3dd338e4	0.103135854
207	0x3e262bba	0.16227618
208	0x3eef868d	0.46782342
209	0x3efeeafc	0.49788654
210	0x3ec38275	0.38185468
211	0x3df3970e	0.11894046
212	0x3f16eddd	0.589567
213	0xbf01e096	-0.50733316
214	0xbe665557	-0.22493492
215	0x3e9b4c8f	0.30331847
216	0x3e7034bd	0.23457618
217	0x3ed8313a	0.42225057
218	0xbeb60bf0	-0.35555983
219	0x3d5e03f3	0.054202985
220	0xbeabb5ab	-0.3353704
221	0xbddcbae9	-0.10777838
222	0xbe820799	-0.25396422
223	0x3eb13593	0.34611186
224	0x3eb09aad	0.34493008
225	0xbe3a5ba1	-0.18199016
226	0x3dfc6696	0.12324254
227	0x3e354994	0.17703849
228	0xbdbbba57	-0.09166401
229	0xbe6b42fe	-0.22974774
230	0xbe480b95	-0.19535668
231	0x3ed371c0	0.41297722
232	0x3bb63888	0.0055609383
233	0xbeae5c18	-0.34054637
234	0x3e47610c	0.19470614
235	0xbeaf8fd9	-0.34289435
236	0xbc902631	-0.017596336
237	0x3e4be643	0.19912057
238	0x3e54ad6f	0.20769285
239	0x3e8068d9	0.25079992
240	0xbeac111d	-0.33606806
241	0x3dc56f29	0.09640343
242	0xbe099cc0	-0.13438702
243	0xbebef61d	-0.37297145
244	0xbddae6fc	-0.10688588
245	0xb99e8801	-0.0003023744
246	0xbeae3d79	-0.34031275
247	0x3d85f729	0.06541283
248	0x3df2884f	0.11842405
249	0xbee26a30	-0.4422164
250	0x3e9d91f3	0.30775413
251	0xbe48d314	-0.1961177
252	0x3f0435e5	0.51644737
253	0xbee13be9	-0.4399102
254	0xbe653d75	-0.22386725
255	0x3e3307cc	0.17483443

net.2.weight f4 [256, 256]
0	0x3d1a1407	0.037616756
1	0xbcb9ca89	-0.022679584
2	0xbe0e880a	-0.13919082
3	0xbde64f77	-0.112456255
4	0x3ce4e8cc	0.027943037
5	0xbc967bab	-0.018369516
6	0xbda084b4	-0.07837811
7	0x3e08dbbc	0.13365072
8	0xbe012533	-0.12611847
9	0x3d65c564	0.05609645
10	0x3c615e21	0.013755352
11	0xbb3860be	-0.0028133835
12	0x3c2b1740	0.010442555
13	0x3d1bb85d	0.03801762
14	0xbddc0eeb	-0.10745033
15	0xbd0aaf00	-0.0338583
16	0xbd9f1e6f	-0.077694766
17	0xbddf7940	-0.109117985
18	0x3d91b756	0.07115047
19	0x3db98d9d	0.09060214
20	0x3d61cd12	0.05512721
21	0x3de62192	0.11236872
22	0x3d2efb96	0.0427204
23	0xbd867e0a	-0.06567009
24	0x3b52572a	0.003209541
25	0x3d3c67ef	0.045997556
26	0x3cf770cb	0.030205151
27	0x3d1138cb	0.035454553
28	0x3dc3bd88	0.095576346
29	0x3d49be6e	0.049253874
30	0x3d0d5cd7	0.034512367
31	0xbd8e57d1	-0.069503434
32	0x3d418335	0.04724427
33	0xbc3cf20f	-0.011532321
34	0x3d2f6feb	0.042831343
35	0xbdd8017b	-0.105471574
36	0xbe5e5bc9	-0.21714701
37	0x3d62687e	0.055275433
38	0xbdb85778	-0.09001058
39	0xbdc81e03	-0.09771349
40	0xbe3b62bf	-0.18299387
41	0xbddad61d	-0.1068537
42	0x3d1b5b87	0.037929084
43	0x3c30de92	0.010795252
44	0xbd843401	-0.064552315
45	0xbe38d3f4	-0.18049604
46	0xbd1d921e	-0.038469426
47	0x3e058ab8	0.13041198
48	0xbdb588ed	-0.08864007
49	0xbcfc88af	-0.030826895
50	0x3c9e0c74	0.019293047
51	0x3a9d96f6	0.0012023139
52	0xbbe419bd	-0.006961076
53	0x3db66fa1	0.0890801
54	0xbdd41adb	-0.10356685
55	0xbd6378cd	-0.055535126
56	0xbcd12bab	-0.025533518
57	0xbe2a6068	-0.16638339
58	0x3c80c386	0.015718233
59	0xbd112629	-0.035436783
60	0xbcca99a7	-0.02473147
61	0x3db8b9e8	0.09019834
62	0xbd9fe55f	-0.07807421
63	0x3cd8cf1d	0.026465947
64	0x3cf6d731	0.030131908
65	0x3d156210	0.036470473
66	0x3c311807	0.010808951
67	0x3d84a77f	0.0647726
68	0x3ca611b2	0.02027211
69	0xbe37f081	-0.17962839
70	0xbc2ed0bf	-0.010669886
71	0xbe106588	-0.14101231
72	0xbcbf5f71	-0.02336094
73	0x3e09a10a	0.13440338
74	0x3e1271ef	0.14301275
75	0x3dba5f4c	0.09100208
76	0x3d584178	0.05279681
77	0xbc07e718	-0.008294843
78	0x3d0c1f26	0.034209393
79	0x3d97e99b	0.074176036
80	0xbe2e1879	-0.17001523
81	0x3cec7575	0.028864602
82	0xbce8f9f3	-0.028439498
83	0x3c6f3d79	0.014602059
84	0x3e00ba67	0.12571107
85	0x3df79fc6	0.12091021
86	0xbe1efc9c	-0.1552605
87	0x3cd51502	0.026010994
88	0x3cdb9415	0.02680401
89	0x3d9db42f	0.07700383
90	0xbc2feb6d	-0.010737282
91	0x3ddc5507	0.10758405
92	0xbc821be8	-0.015882447
93	0xbcb95b93	-0.022626674
94	0x3c450acd	0.012026501
95	0x3d0e777d	0.03478192
96	0xbe12dd61	-0.14342262
97	0x3b6894c8	0.003548907
98	0xbca1e1eb	-0.019761046
99	0x3d97b523	0.07407596
100	0xbae1e7a1	-0.0017235168
101	0x3b3a1303	0.002839268
102	0x3db3713c	0.08761832
103	0x3d3c1ab9	0.045923922
104	0xbdcf7f64	-0.1013172
105	0x3dad6b08	0.0846768
106	0x3d7b8141	0.061402563
107	0x3d439d1c	0.047757253
108	0xbdde67ae	-0.10859619
109	0x3c2e2921	0.010629923
110	0xbb1381e6	-0.0022507845
111	0x3de63708	0.11240965
112	0x3c30ecbe	0.010798631
113	0xbd9f05a2	-0.07764746
114	0x3db7a9be	0.08967923
115	0x3c9327bf	0.017963288
116	0x3dc8d825	0.09806851
117	0x3d8a0a74	0.06740275
118	0x3c4e2a02	0.012583258
119	0x3dd05429	0.10172302
120	0x3e01ac95	0.12663491
121	0x3d4c8f40	0.0499413
122	0xbd2ac5fa	-0.04169271
123	0x3cfc9736	0.030833822
124	0x3d2a151d	0.04152404
125	0x3c8c852d	0.017153347
126	0x3c4a039f	0.012329965
127	0x3dfa6faa	0.122283295
128	0x3d0991ba	0.03358624
129	0x3d7431b4	0.059617713
130	0x3d854b61	0.06508518
131	0x3c44eca1	0.012019307
132	0x3d8c68c4	0.0685592
133	0x3ba0b61d	0.004904522
134	0x3bbd9c87	0.005786482
135	0x3d814988	0.06312853
136	0x3c3a01bf	0.011352955
137	0x3d494190	0.04913479
138	0xbd7611c9	-0.060075555
139	0x3dc9be4a	0.09850748
140	0xbd2d60fb	-0.042328816
141	0x3dbf81a6	0.093509
142	0x3dce3e9e	0.10070537
143	0x3bb35128	0.005472321
144	0x3dd74a45	0.10512213
145	0xbd995934	-0.07487717
146	0x3d0aa8b0	0.03385228
147	0x3dd9c7e0	0.10633826
148	0xbcc14096	-0.023590367
149	0xbd4efa3a	-0.050531603
150	0x3c9ec7c3	0.019382363
151	0x3d82cb56	0.063864395
152	0xbdc97750	-0.0983721
153	0xbd557e51	-0.052122418
154	0x3db8b518	0.09018916
155	0x3b928138	0.0044709705
156	0x3e759ecb	0.23986356
157	0xbd75f2be	-0.06004595
158	0xbb161e18	-0.002290612
159	0xbcb90853	-0.022586977
160	0xbe20548b	-0.1565725
161	0x3d37d929	0.044884834
162	0xbcdecd62	-0.027197544
163	0x3ca74aea	0.020421464
164	0xbce00270	-0.027344912
165	0x3cc603cc	0.024171732
166	0x3de541cb	0.1119419
167	0x3d656f68	0.05601445
168	0x3d3e2d69	0.046430025
169	0xbe2710b3	-0.16314964
170	0x3d7a4db3	0.061109256
171	0x3c5942d4	0.013260562
172	0x3d57600f	0.052581843
173	0x3db2b406	0.08725743
174	0x3e2189ee	0.15775272
175	0x3ca0bdf1	0.019621821
176	0xbd400195	-0.04687651
177	0xbd84e4d3	-0.06488957
178	0xbdc4442b	-0.095833145
179	0xbc921c4e	-0.017835762
180	0x3b33d4c7	0.0027440058
181	0x3dbfd6ac	0.09367117
182	0xbd7d27f7	-0.06180569
183	0x3d4b8524	0.04968752
184	0xbca0181c	-0.019542746
185	0x3d3f48e4	0.046700373
186	0x3d8f307b	0.06991669
187	0x3da56ba9	0.08077175
188	0xbd1efc99	-0.038815115
189	0x3de72d95	0.11287991
190	0xbd33cedd	-0.043898452
191	0x3d34081d	0.04395305
192	0x3d35f002	0.044418342
193	0x3d9abcf3	0.075555705
194	0xbd42b002	-0.047531135
195	0xbe0af3f5	-0.13569625
196	0x3d1c50ee	0.038163118
197	0xbd677c5d	-0.056515086
198	0xbc05e553	-0.008172351
199	0x3d9ad6c5	0.07560495
200	0xbe5008c1	-0.2031584
201	0xbd1fbc66	-0.03899803
202	0x3c26c57c	0.01017892
203	0x3caebe02	0.021330837
204	0x3c5efc78	0.013609998
205	0x3af308da	0.0018542067
206	0x3d823ca3	0.06359222
207	0x3a701fe6	0.00091600267
208	0x3d01bf28	0.03167644
209	0xbc7380ed	-0.014862281
210	0xbcbe8dd3	-0.023260986
211	0x3e0321d8	0.12805879
212	0xbc1630d4	-0.009166915
213	0x3d927d5f	0.07152819
214	0x3dd79c2c	0.10527834
215	0xbcd2cfe9	-0.025733905
216	0x3dfa813e	0.12231682
217	0x3cbb5b34	0.022870637
218	0x3cdf2316	0.02723841
219	0x3cb7ae9b	0.022422126
220	0x3da17c2f	0.07885014
221	0xbc11f38b	-0.008908163
222	0x3d752ae0	0.059855342
223	0x3d333c61	0.043758754
224	0xbc96be09	-0.018401163
225	0x3d27ed97	0.040998068
226	0x3cf3d0c4	0.029762633
227	0x3dbdd5db	0.09269305
228	0xbd1f41cf	-0.03888112
229	0x3cb12006	0.021621715
230	0x3cc7534c	0.024331711
231	0x3d3c45e1	0.04596508
232	0x3d0b1e8a	0.03396467
233	0x3cbf0745	0.023318896
234	0x3d782836	0.060585223
235	0x3d0f8c30	0.035045803
236	0xbdaf6f95	-0.085662045
237	0x3cd55f69	0.026046472
238	0xbc8ef64a	-0.017451424
239	0xbcb91a36	-0.022595506
240	0x3db021a7	0.08600169
241	0x3dfcc513	0.123422764
242	0x3cd707fc	0.026248924
243	0x3d2df54d	0.042470265
244	0xbd85349e	-0.065041766
245	0x3dea0d2e	0.11428295
246	0xbe298542	-0.1655474
247	0x3cfec56d	0.0311
248	0x3cf23438	0.029565915
249	0x3d2a38ab	0.04155795
250	0x3d7ba7e3	0.061439406
251	0xbcb80913	-0.022465264
252	0x3d80cec6	0.06289439
253	0x3dbd4b5a	0.09242888
254	0xbd3e53ab	-0.04646651
255	0x3deeb4bf	0.11655568

net.2.bias f4 [256]
0	0x3c8deee4	0.017325826
1	0x3dde49eb	0.108539425
2	0xbcd2e789	-0.02574517
3	0x3e29ac5c	0.16569656
4	0xbd2fb81c	-0.04290019
5	0x3da51582	0.08060743
6	0x3e2754be	0.1634092
7	0xbd356118	-0.04428205
8	0xbd84b2a8	-0.064793885
9	0x3d9d8fe4	0.076934606
10	0x3c99c8b1	0.018772455
11	0x3d1d4540	0.03839612
12	0xbd6f5914	-0.05843456
13	0x3cdf31ab	0.027245363
14	0xbd07a4fe	-0.033116333
15	0xbd430f46	-0.047621988
16	0x3e21aa55	0.15787633
17	0x3d77a7c4	0.06046273
18	0xbd20a260	-0.039217353
19	0x3d820750	0.06349051
20	0x3c4ec17f	0.012619375
21	0x3df24617	0.11829775
22	0xbd38e7a5	-0.04514279
23	0x3e2b9b1b	0.16758387
24	0xbd31d15b	-0.043412548
25	0x3e2e9c94	0.17051917
26	0xbcd9835e	-0.026551899
27	0x3c63a9fa	0.013895506
28	0x3deb67ce	0.114944085
29	0x3d2a78c0	0.041619062
30	0x3d8b2fb1	0.06796206
31	0x3c342bd0	0.010996774
32	0xbda2b4b1	-0.079446204
33	0xbd5b6223	-0.053560387
34	0xbcea8347	-0.028627051
35	0x3e014830	0.12625194
36	0xbcbd8569	-0.023134904
37	0xbca45150	-0.020058304
38	0x3e21cbe4	0.15800434
39	0xbce4a2ee	-0.027909722
40	0x3d8aebe9	0.067832775
41	0xbd471969	-0.048608217
42	0x3c46bba7	0.012129701
43	0xbdba3177	-0.09091466
44	0x3dd49ada	0.10381098
45	0xbd70cb78	-0.058787793
46	0x3e3a0906	0.18167505
47	0x3d3478a1	0.044060353
48	0x3d96a934	0.07356492
49	0x3cc5c597	0.02414207
50	0xbd28869a	-0.04114399
51	0x3e350b8f	0.1768019
52	0x3e2683eb	0.1626126
53	0x3d8c3976	0.06846897
54	0xbd5814ee	-0.052754335
55	0x3e34a69f	0.17641686
56	0xbd0e5076	-0.034744702
57	0xbc73aa77	-0.014872185
58	0x3e20de7d	0.15709873
59	0x3d6d01b0	0.057862937
60	0x3c642826	0.013925588
61	0x3db68551	0.08912147
62	0x3dc9a24c	0.09845409
63	0xbdec85d8	-0.11548966
64	0x3c13a43c	0.0090113245
65	0x3ddc51a2	0.10757758
66	0xbd656196	-0.05600127
67	0xbd08d168	-0.03340283
68	0x3d830d98	0.06399077
69	0x3dd00312	0.101568356
70	0x3d3a459d	0.045476545
71	0xbc7ab15a	-0.015301073
72	0xbd57166c	-0.052511618
73	0x3c373fb0	0.011184618
74	0x3e3b794d	0.18307991
75	0xbd0b7cbd	-0.034054507
76	0x3e26f1b6	0.16303143
77	0xbdcf5ed7	-0.10125511
78	0x3cc5f221	0.024163308
79	0x3d944c45	0.0724111
80	0xbbe78800	-0.007065773
81	0x3d33ba5e	0.043878905
82	0xbc922476	-0.017839652
83	0x3abe9632	0.0014540611
84	0x3e2467d7	0.16055237
85	0x3de9c2ff	0.11414146
86	0xbd78c117	-0.06073102
87	0xbd407716	-0.04698857
88	0x3da13a3c	0.078724355
89	0x3db02813	0.086013936
90	0x3d6ee950	0.058327973
91	0xbdb5d3b0	-0.08878267
92	0xbda1fe4f	-0.07909834
93	0xbd1bf603	-0.038076412
94	0x3d8c0db3	0.068385504
95	0x3d7ddc57	0.06197771
96	0x3e30a1ec	0.17249268
97	0x3de85492	0.113442555
98	0x3dbf26f0	0.093335986
99	0x3e1572ce	0.14594576
100	0x3d66926a	0.056291975
101	0xbd325d4e	-0.043546014
102	0xbd334edc	-0.043776378
103	0x3dc83bcd	0.09777031
104	0xbceab63a	-0.028651346
105	0xbd6dfb09	-0.058100734
106	0xbccd0162	-0.025025073
107	0x3d08e922	0.033425458
108	0x3d4a4315	0.04938038
109	0x3d7729f4	0.060342744
110	0x3dd180c1	0.10229636
111	0x3da8ccc8	0.08242184
112	0x3d51c2b5	0.051211078
113	0x3db8de12	0.090267316
114	0xbd85e6c8	-0.06538159
115	0x3dc617ce	0.09672509
116	0xba536157	-0.0008063516
117	0x3dbad414	0.09122482
118	0x3dc84ac3	0.09779885
119	0xbda25d54	-0.07927957
120	0x3deedb7e	0.116629586
121	0xbda3b084	-0.07992652
122	0x3e3bba3a	0.18332759
123	0x3dd3bfa9	0.10339291
124	0xbd4bd703	-0.049765598
125	0xbd19d514	-0.037556723
126	0x3e0e14c8	0.13875115
127	0xbd1a96ed	-0.03774159
128	0xbcd2ee24	-0.02574832
129	0x3e059efc	0.13048929
130	0x3e16f5d8	0.1474222
131	0xbceaa5a2	-0.028643433
132	0x3dda6b7f	0.106650345
133	0xbddb0593	-0.106944226
134	0x3dd1e15f	0.10248064
135	0x3e02c941	0.12772085
136	0x3dfa8c51	0.122337945
137	0x3d7925f8	0.060827225
138	0x3d605ab8	0.054774016
139	0xbcf2f9b4	-0.029660083
140	0x3e1362c3	0.14393143
141	0xbd06070e	-0.03272157
142	0xbe0ee5d5	-0.13954861
143	0x3e161ec8	0.1466018
144	0xba97f45d	-0.0011593212
145	0x3e308886	0.1723958
146	0x3dc74b26	0.0973113
147	0xbd9a76f5	-0.075422205
148	0x3d86e1e0	0.06586051
149	0xbcc2e34d	-0.023790026
150	0x3c43b8dc	0.011945929
151	0x3dce4569	0.10071833
152	0x3e3a9b5b	0.18223326
153	0x3e20df09	0.15710081
154	0x3e24548e	0.1604788
155	0xbd8017da	-0.06254549
156	0x3d6d6bba	0.057964064
157	0x3d19962b	0.037496727
158	0xbd177203	-0.036973964
159	0xbc2492ae	-0.010044737
160	0x3ce57b2b	0.028012833
161	0x3df0b0ab	0.11752447
162	0x3c4cbd6c	0.012496334
163	0xbd574139	-0.052552436
164	0x3e1315a4	0.14363724
165	0x3e343f4f	0.17602275
166	0x3c2a9362	0.010411115
167	0xb96cef98	-0.0002259597
168	0x3e283cb9	0.16429414
169	0xbc82abf5	-0.015951136
170	0xbd789f30	-0.060698688
171	0xbdc233b1	-0.094825156
172	0x3d2edf43	0.042693388
173	0xbab5fa33	-0.0013883769
174	0x3c169a8e	0.009192122
175	0xbce95f42	-0.028487805
176	0x3d0c5f32	0.034270473
177	0x3ddeb08a	0.10873516
178	0x3d5c28a0	0.05374968
179	0x3da39fe5	0.07989482
180	0x3d92aa9d	0.07161448
181	0x3bcffb64	0.006347107
182	0x3d90cd7a	0.070704415
183	0xbb20d4a8	-0.0024540816
184	0x3dbf3991	0.09337152
185	0x3d0b53cc	0.03401546
186	0x3e2c6e82	0.1683903
187	0x3d9a66c4	0.07539132
188	0x3ce18133	0.027527427
189	0xbdeea757	-0.11653011
190	0x3daa44e3	0.0831392
191	0x3e431108	0.19049466
192	0x3dd1e269	0.102482624
193	0x3de0144d	0.10941372
194	0xbc84ad1f	-0.016195832
195	0x3e1aad19	0.15105094
196	0x3e36ff2a	0.17870775
197	0xbd8cb3c8	-0.06870228
198	0x3e222fcb	0.15838544
199	0x3d0c4c06	0.03425219
200	0x3e1e4e5d	0.1545958
201	0x3dbf72f6	0.09348099
202	0xbd8c1339	-0.06839604
203	0xbcdd4d6a	-0.027014453
204	0x3c84291c	0.016132884
205	0xbc5c60b5	-0.013450791
206	0x3e36dcaa	0.17857614
207	0x3b92e8bd	0.004483311
208	0x39425b0d	0.00018535201
209	0xbd94f42a	-0.07273133
210	0x3e237c2b	0.15965335
211	0x3c8e32bf	0.017358182
212	0x3d72e220	0.05929768
213	0xbcede22e	-0.029038515
214	0xbd5e9665	-0.054342646
215	0x3d32a3ff	0.04361343
216	0x3e0617c5	0.13095005
217	0x3db6dff6	0.08929436
218	0x3e1067f8	0.14102161
219	0xbde84ecc	-0.11343154
220	0x3e232f1a	0.15935937
221	0xbdaad153	-0.08340707
222	0xbde1e5a5	-0.11030129
223	0x3caa8c5e	0.020818885
224	0x3daaafa1	0.0833428
225	0xbbc0bed6	-0.0058821244
226	0x3e06b344	0.13154322
227	0x3d3202b8	0.043459624
228	0x3d524100	0.05133152
229	0xbd664e23	-0.05622686
230	0x3e0ede71	0.13952042
231	0x3db08a28	0.08620101
232	0x3cee36d0	0.029078871
233	0x3cdbf301	0.026849272
234	0x3e1bf342	0.15229514
235	0xbde4ee7b	-0.11178299
236	0x3e00b3a0	0.12568521
237	0xbc5af1cd	-0.013363314
238	0x3e2a3687	0.16622363
239	0x3d82cef9	0.06387133
240	0xbd8606e9	-0.06544287
241	0x3e24478d	0.1604292
242	0x3e1985a1	0.14992382
243	0x3bc73796	0.0060796244
244	0x3d4a9c0e	0.04946523
245	0x3dff8d69	0.12478144
246	0x3dabbdd4	0.08385816
247	0x3e3c5fe9	0.18395962
248	0x3e2e9b9b	0.17051546
249	0xbd5d3696	-0.054007135
250	0xbd434a1d	-0.0476781
251	0x3d9279ae	0.07152115
252	0x3dd89b08	0.10576445
253	0x3e041ba3	0.12901168
254	0x3cab5d25	0.020918438
255	0x3de35260	0.11099696

net.4.weight f4 [1, 256]
0	0x3e1b33fe	0.15156552
1	0xbe0ffa5f	-0.14060353
2	0x3df0efae	0.11764465
3	0xbdac0d65	-0.08400992
4	0x3c60e4e8	0.0137264505
5	0xbdeb1081	-0.11477757
6	0xbd77225e	-0.06033551
7	0x3e007bdc	0.12547249
8	0x3dd61d5d	0.10454819
9	0xbe13acc9	-0.14421381
10	0x3d3e8aba	0.04651902
11	0x3d3a250d	0.04544549
12	0xbe4e802e	-0.20166084
13	0x3e575087	0.21026812
14	0x3d1e5bde	0.03866183
15	0x3d2e55b3	0.042562198
16	0xbdbbefe2	-0.091766134
17	0xbdb10b37	-0.08644717
18	0x3c1c5cb6	0.009543588
19	0x3e34d6c7	0.17660056
20	0x3b4366e5	0.0029815969
21	0xbe099f90	-0.13439775
22	0x3e40220e	0.18762991
23	0xbd7a24a3	-0.061070096
24	0x3e3d1f10	0.1846888
25	0xbe00eae9	-0.12589611
26	0x3ca52aa4	0.020161934
27	0x3d27447b	0.040836792
28	0xbda60573	-0.08106508
29	0x3c6e1a7e	0.014532683
30	0xbdc1b70d	-0.09458742
31	0x3d0f61b8	0.0350053
32	0x3d9a8cae	0.07546364
33	0xbaec99c9	-0.0018051203
34	0x3d19a933	0.037514877
35	0xbe04f3c9	-0.12983622
36	0x3e1015ce	0.14070818
37	0x3d42a23b	0.047517996
38	0xbd8b073f	-0.067884915
39	0x3db5acb4	0.08870831
40	0xbd68c545	-0.056828756
41	0x3e3e5ffa	0.185913
42	0x3d762266	0.0600914
43	0x3e08ea45	0.13370617
44	0xbd5ff793	-0.054679465
45	0x3c41e170	0.011833534
46	0xbd39c791	-0.045356337
47	0x3cb25828	0.021770552
48	0xbe6c9aa9	-0.23105873
49	0x3e2016cf	0.15633701
50	0x3c85d913	0.01633886
51	0xbe089e8f	-0.13341735
52	0xbdd4e8b1	-0.10395945
53	0xbd3faf38	-0.04679796
54	0x3acf610c	0.0015821769
55	0xbdf14057	-0.1177985
56	0x3dfa202d	0.12213168
57	0x3cd11517	0.025522752
58	0xbd60a29c	-0.054842576
59	0xbe7f53e3	-0.24934344
60	0xbda2b28e	-0.07944213
61	0xbdb53f26	-0.08849935
62	0xbdbb4540	-0.09144068
63	0x3e1a2559	0.1505331
64	0x3cb4296b	0.021992406
65	0xbdb434eb	-0.08799156
66	0x3d2b2ede	0.041792743
67	0x3cfcb537	0.030848129
68	0x3d2b6b80	0.041850567
69	0xbdda39f6	-0.106555864
70	0x3c10725b	0.008816327
71	0x3e2a4e83	0.16631512
72	0x3e4074bc	0.1879453
73	0x3d82e4a3	0.06391265
74	0xbd7560db	-0.05990682
75	0x3d4002c1	0.046877626
76	0xbd8f2d09	-0.06991012
77	0xbe63aa89	-0.22233023
78	0x3d0119c2	0.031518705
79	0xbe0353e2	-0.12824968
80	0x3d52e584	0.051488414
81	0xba9ddecf	-0.0012044552
82	0x3ae7c82c	0.0017683557
83	0x3cdac3bd	0.026704663
84	0xbd7502dc	-0.05981718
85	0xbe9ff3e3	-0.31240758
86	0x3cc115e1	0.023570003
87	0x3d399680	0.045309544
88	0xbe4d2dd8	-0.20037019
89	0xbe4adb76	-0.1981028
90	0x3e09782a	0.13424745
91	0x3e09a12b	0.13440387
92	0x3e34c563	0.17653422
93	0x3b680a2e	0.0035406458
94	0x3e20d66f	0.157068
95	0xbd9efbaa	-0.07762845
96	0xbddd1b00	-0.107961655
97	0xbdbd424a	-0.09241159
98	0xbd92844a	-0.071541384
99	0xbd9b1dc2	-0.07574035
100	0xbe1462f2	-0.1449087
101	0x3d8208ce	0.063493356
102	0x3e1a39cd	0.15061112
103	0xbd82b98a	-0.06383045
104	0x3e4aa9a3	0.19791274
105	0x3cdb54f1	0.026773902
106	0x3dc08759	0.094008155
107	0x3e1005b5	0.14064677
108	0x3ccf5582	0.025309328
109	0xbe04257c	-0.12904924
110	0xbe20ca2c	-0.15702122
111	0xbe30441e	-0.17213485
112	0xbe34083a	-0.17581263
113	0xbdc466b6	-0.09589903
114	0x3dbf7747	0.09348922
115	0xbdffed84	-0.124964744
116	0x3e59104e	0.21197626
117	0xbda80319	-0.08203716
118	0xbd9b7954	-0.07591501
119	0x3e1e4652	0.15456513
120	0xbd475b52	-0.048671074
121	0x3e03d3d0	0.12873769
122	0xbe0e62c8	-0.1390487
123	0xbdff70bc	-0.12472674
124	0x3d15ebe4	0.036601916
125	0x3d33c5a6	0.043889664
126	0xbd55c885	-0.052193183
127	0x3d6e0e66	0.0581192
128	0x3ac29956	0.0014846723
129	0xbe10c83e	-0.14138886
130	0xbd9fd6d8	-0.0780465
131	0x3e1a3ba6	0.15061817
132	0xbdfb0c05	-0.12258152
133	0x3e086a64	0.13321835
134	0xbdab77a2	-0.083724275
135	0xbd88fa70	-0.06688392
136	0xbd953446	-0.07285361
137	0x3de42659	0.11140127
138	0x3e0b28ad	0.13589735
139	0xbb917e89	-0.004440133
140	0xbd5160ec	-0.051117823
141	0x3e14a852	0.14517334
142	0x3df662d7	0.12030571
143	0xbdc871f8	-0.09787363
144	0x3d442ae3	0.047892462
145	0xbe3568ab	-0.17715709
146	0xbde5da56	-0.11223285
147	0x3db2fc02	0.08739473
148	0xbe20f57f	-0.1571865
149	0x3d3b536c	0.045733854
150	0x3e099901	0.13437273
151	0xbdc5d7de	-0.09660314
152	0xbdbd7da5	-0.092524804
153	0xbdbac5e9	-0.091197796
154	0xbdba8b94	-0.09108654
155	0x3d2ce7be	0.042213194
156	0xbe02ded5	-0.12780316
157	0x3cdfcba9	0.027318792
158	0x3d0b25ac	0.033971474
159	0x3de75e0d	0.11297236
160	0xbe3bd7ba	-0.18344012
161	0xbdd062d2	-0.101750985
162	0x3d566cbc	0.05234979
163	0x3c97f33d	0.018548602
164	0xbdd0406d	-0.10168538
165	0xbe44cc93	-0.19218664
166	0x3dddc724	0.10828999
167	0x3d3be47a	0.04587219
168	0xbd842ad7	-0.064534836
169	0x3d55e312	0.052218504
170	0x3dbe3155	0.09286753
171	0x3e0ae3bd	0.13563438
172	0x3b455f84	0.0030116746
173	0x3dceca09	0.10097129
174	0x3daf49de	0.08559011
175	0x3d0792c2	0.033098944
176	0xbb730780	-0.0037083328
177	0xbdb8b837	-0.09019511
178	0xbe36dc53	-0.17857485
179	0xbdf001b3	-0.11719074
180	0xbdae06a7	-0.084973626
181	0x3dfdfc24	0.12401608
182	0xbd9249b3	-0.07142963
183	0x3e22d942	0.1590319
184	0xbd8039ea	-0.06261046
185	0x3d52af6b	0.051436823
186	0xbdd62eb3	-0.10458126
187	0xbdb86abc	-0.09004733
188	0x3e1c8433	0.15284805
189	0x3df058d9	0.11735696
190	0xbddc99d4	-0.10771528
191	0xbd58883c	-0.0528643
192	0xbe3b2206	-0.18274698
193	0xbe0ba1c2	-0.13635924
194	0x3cc46ada	0.023976732
195	0xbd90f290	-0.07077515
196	0xbddc7626	-0.107647225
197	0x3b8e4a2c	0.004342338
198	0xbe352c2a	-0.17692629
199	0xbe7c67be	-0.2464895
200	0xbdabae8e	-0.08382903
201	0xbdc0735e	-0.093970045
202	0x3df2ef77	0.118620805
203	0x3cb1284e	0.021625664
204	0x3c09e8bd	0.008417306
205	0xbb1d00cf	-0.002395678
206	0xbe5eb808	-0.2174989
207	0x3e0fad8c	0.14031047
208	0x3b3de7f3	0.0028977364
209	0x3e10e363	0.14149241
210	0xbdb190f6	-0.08670227
211	0x3cc3f060	0.02391833
212	0xbdb602aa	-0.08887227
213	0x3a52d8ea	0.0008043187
214	0x3ca29430	0.019846052
215	0x3d400760	0.046882033
216	0xbdabdee3	-0.08392122
217	0xbde602e2	-0.112310186
218	0xbdc6d5de	-0.09708761
219	0x3e3959ee	0.18100712
220	0xbde0f469	-0.109841175
221	0xbe40badb	-0.1882128
222	0x3e27e9cc	0.1639778
223	0x3e0c7e60	0.13720083
224	0xbeab4e30	-0.3345809
225	0x3e496cdd	0.19670434
226	0xbdb171f8	-0.08664316
227	0x3d29041e	0.041263692
228	0x3dde5755	0.10856501
229	0x3e1933b9	0.14961137
230	0xbdc7a98e	-0.09749137
231	0x3d9aad9a	0.07552643
232	0x3e28aebc	0.16472906
233	0x3e37bbf3	0.1794279
234	0xbd8e9c85	-0.069634475
235	0x3e1e8e85	0.15484054
236	0xbe8876aa	-0.26653033
237	0x3c89e1f2	0.016831372
238	0xbddb0dad	-0.10695968
239	0xbdb3438a	-0.087531164
240	0x3e0dbe63	0.13842158
241	0xbd9b504f	-0.07583677
242	0xbd9015e5	-0.07035426
243	0x3e688043	0.22705178
244	0x3e1ec4c1	0.15504743
245	0xbd90d4f4	-0.070718676
246	0xbdaac5ba	-0.083384946
247	0xbe279dba	-0.16368762
248	0xbe5e207c	-0.2169208
249	0x3c6d3a05	0.014479165
250	0x3dc59b11	0.09648717
251	0xbe2ad099	-0.16681136
252	0xbd66b014	-0.056320265
253	0xbd8a7406	-0.06760411
254	0x3e30f57a	0.17281142
255	0xbd878896	-0.066178486

exp_avg f4 [256, 6]
0	0xbc4e2ccf	-0.012583925
1	0xbc67d4a7	-0.014149821
2	0x3caafbf0	0.020872086
3	0x3bfa948c	0.0076471027
4	0xbd7cdd81	-0.06173468
5	0x3b8b9ac1	0.0042603915
6	0xbce6eb4a	-0.028188366
7	0xbdfc1133	-0.12307968
8	0x3e46d107	0.19415675
9	0x3d9c56b8	0.07633728
10	0xbec934e8	-0.39298177
11	0xbe8a76ad	-0.27043667
12	0x3c4ae508	0.012383707
13	0x3d261f07	0.040556934
14	0x3d659dbf	0.05605864
15	0xbca2611d	-0.019821698
16	0xbe863124	-0.26209366
17	0x3eed8bd3	0.4639574
18	0x3faa49b1	1.3303739
19	0xbd61cc5d	-0.055126537
20	0xbf9bb13d	-1.2163464
21	0x3e5970eb	0.21234481
22	0xc0c04200	-6.0080566
23	0x4136db9f	11.428618
24	0x3c1f2c0f	0.009715094
25	0xb7eeb754	-2.845718e-05
26	0x3cf5cff2	0.030006383
27	0x3cbce9b6	0.02306066
28	0xbbfa095b	-0.00763051
29	0xbb4ccec7	-0.0031251179
30	0xbb8a5d03	-0.0042225136
31	0xbc9678b5	-0.018368104
32	0x3c76659b	0.015038873
33	0x3bd2c4ec	0.0064321663
34	0xbd0f1630	-0.03493327
35	0xbca3736d	-0.0199525
36	0x3f9427c3	1.1574634
37	0xbd083500	-0.03325367
38	0xbf9419c4	-1.1570363
39	0x3db74ec6	0.08950572
40	0xc0a0ecab	-5.02889
41	0x411d0642	9.814028
42	0x3c85f252	0.016350899
43	0x3c45bc47	0.012068815
44	0x3ccbe1f8	0.024888024
45	0x3abc6f6d	0.0014376469
46	0x3cc308c5	0.023807893
47	0xbd6c6042	-0.057708986
48	0x3f3fb5f4	0.74887013
49	0xbd865aa5	-0.06560258
50	0xbf253063	-0.6452696
51	0x3e53e8d0	0.2069428
52	0xc05b7da4	-3.4295435
53	0x40ca9875	6.3311105
54	0xbfa966a7	-1.3234452
55	0x3f2054b1	0.6262923
56	0x3f9e8b52	1.2386267
57	0xbeaf3387	-0.34219
58	0x40cfce5e	6.4939413
59	0xc12b4385	-10.703984
60	0x3c311318	0.010807775
61	0xbcfbbb31	-0.030728908
62	0x3bd6024c	0.0065310355
63	0x3d460b39	0.048350547
64	0x3ca5f940	0.020260453
65	0xbcbd7f7f	-0.023132084
66	0xbeb7bce1	-0.3588629
67	0x3e055672	0.13021258
68	0x3e9b408d	0.30322686
69	0xbdb504fd	-0.08838842
70	0x3fdea97b	1.7395471
71	0xc03486cc	-2.8207273
72	0xbc48757d	-0.012235043
73	0x3d8c8a59	0.06862325
74	0x3da60a55	0.081074394
75	0xbd918475	-0.07105342
76	0xbdb8e735	-0.09028474
77	0x3ef68bac	0.48153436
78	0xbc2bc056	-0.010482868
79	0xbbf4f127	-0.0074750367
80	0x3c3a9dbf	0.011390149
81	0x3baff399	0.0053696153
82	0xbd3e3325	-0.046435494
83	0x3ba3ed5f	0.005002662
84	0x3fba9b74	1.457869
85	0xbe564efd	-0.20928569
86	0xbfabcb0f	-1.3421344
87	0x3ee4d4a9	0.44693497
88	0xc0e42869	-7.129933
89	0x416a0321	14.625764
90	0x3be5ed7e	0.0070168367
91	0x3d439567	0.047749903
92	0xbd673ac6	-0.056452535
93	0xbc320169	-0.010864594
94	0x3dd935e2	0.106059805
95	0x3db7c358	0.08972806
96	0x3f10ba63	0.56534404
97	0x3e39f952	0.18161514
98	0xbe5eba33	-0.21750717
99	0x3f1ac930	0.6046324
100	0xc019c3b2	-2.4025693
101	0x4085f4cd	4.186133
102	0x3f752e6d	0.95773965
103	0xbd85882b	-0.065201126
104	0xbf4b3aaf	-0.7938642
105	0x3e906c93	0.28207836
106	0xc08e0e6f	-4.439262
107	0x40f45d14	7.636362
108	0xbf8f9dc1	-1.1220018
109	0x3d85ab50	0.06526816
110	0x3f95747c	1.1676173
111	0xbdc6ea32	-0.09712638
112	0x40a0bba8	5.0229073
113	0xc1183a47	-9.514228
114	0x3f944cc4	1.1585927
115	0xbef834cd	-0.48477784
116	0xbf90405c	-1.1269641
117	0x3b910409	0.00442553
118	0xc0ce239c	-6.441847
119	0x413373b9	11.215753
120	0x3b2e9006	0.0026636138
121	0xba49aad0	-0.00076929945
122	0x3b458ea4	0.0030144835
123	0xbb2337c8	-0.0024905074
124	0x3cab0eb5	0.020881036
125	0xbc5dad57	-0.013530097
126	0x3b742e4f	0.0037259047
127	0xbab6888b	-0.0013926191
128	0x3c7c039f	0.015381723
129	0x3c654fbd	0.013996062
130	0xbbf1402a	-0.0073623853
131	0x3baaf4d1	0.0052171727
132	0x3c6c0add	0.014406887
133	0xbcb0fe86	-0.021605741
134	0x3c0c70d1	0.008571819
135	0x3cf056ac	0.029338203
136	0xbd280532	-0.04102058
137	0x3d84e42c	0.06488833
138	0xbd6084f9	-0.054814313
139	0xbe82b029	-0.25525025
140	0x3ec4bb7e	0.38424295
141	0x3e099f79	0.1343974
142	0xbf4cfbd7	-0.8007178
143	0xbf110297	-0.56644577
144	0x3f517bde	0.8182963
145	0xbd14ef39	-0.036360953
146	0xbf1ced24	-0.6129935
147	0x3f059c2f	0.5219144
148	0xc0569b36	-3.3532233
149	0x40ab3024	5.3496265
150	0x3d58e8ab	0.052956264
151	0xbcece2dc	-0.028916769
152	0xbcc2ad5a	-0.023764301
153	0x3da010d4	0.0781571
154	0xbe167057	-0.14691292
155	0x3e53e95b	0.20694487
156	0x3d04284e	0.032265
157	0x3eecd5c2	0.46256834
158	0xbe9cd431	-0.3063064
159	0xbd1a67cb	-0.03769664
160	0x3fb4753f	1.4098281
161	0xbb08d260	-0.0020877346
162	0xbccba0e7	-0.024856998
163	0x3cb15a51	0.021649512
164	0x3c023a61	0.007948489
165	0x3d6dda0a	0.058069266
166	0x3dada0d3	0.084779404
167	0xbde4e211	-0.11175931
168	0xbf402269	-0.75052506
169	0x3e436506	0.19081506
170	0x3f2d92a0	0.67801857
171	0xbe30eb3d	-0.17277236
172	0x40604f43	3.5048378
173	0xc0c2cd78	-6.0875816
174	0x3c303536	0.010754874
175	0xbbae3c82	-0.0053172717
176	0x398d4078	0.0002694165
177	0xbc542ccf	-0.012950136
178	0x3d9db397	0.0770027
179	0xbd1ba35c	-0.03799759
180	0x3f8e662f	1.1124934
181	0xbd058407	-0.032596614
182	0xbf2940bf	-0.6611442
183	0x3f19f2e7	0.60136265
184	0xc0947c02	-4.6401377
185	0x40de7c59	6.952679
186	0x3c4654a1	0.012105138
187	0x3dc90568	0.09815484
188	0xbde1af8d	-0.11019812
189	0xbce67202	-0.028130535
190	0x3e59f8fa	0.21286383
191	0x3e2776d5	0.16353925
192	0x3ef69b7e	0.48165506
193	0xbe078e0c	-0.1323778
194	0xbee6f73b	-0.45110497
195	0xbd18114b	-0.037125867
196	0xc00230cf	-2.034229
197	0x406800cc	3.6250486
198	0x3b9ecdcb	0.00484631
199	0x3cddf7ec	0.027095757
200	0xbd22d7cf	-0.039756592
201	0xbbfd6a6b	-0.0077336333
202	0x3da11493	0.07865252
203	0x3d5ee32b	0.054415863
204	0xbfbf79f5	-1.4959093
205	0x3ec28722	0.37993723
206	0x3f924207	1.14264
207	0xbe44107e	-0.19146916
208	0x40f3232f	7.598045
209	0xc14d468c	-12.829723
210	0x3f891663	1.0709957
211	0x3f3ab703	0.72935504
212	0xbec556f7	-0.3854291
213	0x3f56a76c	0.83849216
214	0xc0543b9e	-3.3161387
215	0x40bb5019	5.8535275
216	0x3f1c6dbf	0.6110496
217	0xbe77dc56	-0.24205145
218	0xbec68be1	-0.38778594
219	0x3ee3c60d	0.44487038
220	0xc03dd9ea	-2.9664254
221	0x409f110e	4.970832
222	0x3b931ea1	0.0044897352
223	0x3ce8aec8	0.028403655
224	0xbd34440f	-0.04401022
225	0xbbf25b2e	-0.0073961234
226	0x3da6d5f5	0.08146278
227	0x3d85437f	0.065070145
228	0x3fc56e7c	1.5424342
229	0xbd6080c3	-0.054810297
230	0xbfaff9a8	-1.3748064
231	0x3ea802a5	0.32814518
232	0xc0df6586	-6.981143
233	0x414769ce	12.463331
234	0xbebd51ba	-0.36976415
235	0xbd19dad0	-0.03756219
236	0x3ee6ce0b	0.45079073
237	0x3e1092b3	0.14118461
238	0x3fb9d8e3	1.4519314
239	0xc04c84a7	-3.1955965
240	0x3f10645a	0.56403124
241	0xbeed3f36	-0.4633729
242	0xbf68b9a2	-0.90908253
243	0xbf009095	-0.50220615
244	0xc028da42	-2.6383214
245	0x40b87bfb	5.7651343
246	0xbe6f1f0d	-0.23351689
247	0x3d56ab1f	0.052409288
248	0x3ea3c6c8	0.31987596
249	0x3dcc464d	0.09974346
250	0x3f6128ce	0.8795289
251	0xbfe2f61c	-1.7731357
252	0xbef976c3	-0.4872342
253	0x3db25d57	0.087092094
254	0x3efc368c	0.49260366
255	0xbdcc31bb	-0.09970423

exp_avg_sq f4 [256, 6]
0	0x3d2fd56b	0.04292814
1	0x3d1b44b0	0.037907302
2	0x3d13d30a	0.036089934
3	0x3d2d1fcc	0.042266652
4	0x3f548ec7	0.8303036
5	0x40070e42	2.1102452
6	0x3e501509	0.20320524
7	0x3e19a902	0.15005878
8	0x3e2309f7	0.1592177
9	0x3e3fb1b1	0.18720128
10	0x40950cbb	4.657804
11	0x41163ed4	9.390339
12	0x3c9bc5f4	0.01901529
13	0x3ca4842e	0.02008256
14	0x3c96968c	0.018382333
15	0x3ca9a61a	0.020709086
16	0x3f10d04d	0.5656784
17	0x3fd738e5	1.6814238
18	0x401ba913	2.4321945
19	0x40000312	2.0001874
20	0x400226a7	2.0336092
21	0x4004fb96	2.0778556
22	0x42384338	46.065643
23	0x42dbc742	109.889175
24	0x3f4ca6de	0.7994212
25	0x3f05e97f	0.5230941
26	0x3f21055d	0.6289881
27	0x3f261ec7	0.6489071
28	0x4135e895	11.369283
29	0x41da737d	27.30639
30	0x3b7d86d0	0.003868509
31	0x3ba1df0b	0.004939919
32	0x3b7d958b	0.003869387
33	0x3b98524c	0.0046484824
34	0x3dc78eb8	0.09744018
35	0x3ea80426	0.32815665
36	0x400e972b	2.2279766
37	0x3fdc8bc8	1.7230158
38	0x3fd94049	1.6972743
39	0x40017fe3	2.0234306
40	0x4220d3c1	40.20679
41	0x42a350c3	81.65774
42	0x3e911817	0.28338692
43	0x3e8c595b	0.27411923
44	0x3e6ed8df	0.23324917
45	0x3ea46fa9	0.3211644
46	0x408ddb9d	4.4330583
47	0x40d4ca3e	6.649688
48	0x3f4748e9	0.7784563
49	0x3f056380	0.5210495
50	0x3f1b5263	0.6067259
51	0x3f1b78e8	0.60731363
52	0x41704862	15.017672
53	0x41f5dd1a	30.73296
54	0x3fb42ded	1.4076515
55	0x3f73759f	0.9510135
56	0x3f656595	0.89608127
57	0x3f9d6995	1.2297846
58	0x42133a0e	36.806694
59	0x429d362b	78.6058
60	0x3f2e1d33	0.68013304
61	0x3f0199bf	0.5062522
62	0x3f0e478c	0.5557792
63	0x3f179d46	0.59224355
64	0x4158f002	13.558596
65	0x4208bb32	34.182808
66	0x3dd5d12f	0.10440289
67	0x3d9c6d0f	0.07637989
68	0x3d8fdb41	0.07024241
69	0x3dbf13e1	0.093299635
70	0x402906a4	2.6410303
71	0x40ac46ec	5.3836575
72	0x3e8c19c0	0.27363396
73	0x3e2cb369	0.16865315
74	0x3e51bf4c	0.2048313
75	0x3e68f1a1	0.22748424
76	0x4092bfce	4.5859137
77	0x410a0591	8.626359
78	0x3c8c8008	0.017150894
79	0x3c782e45	0.01514775
80	0x3c69942c	0.014256518
81	0x3c8c685c	0.017139606
82	0x3ea96f45	0.33092704
83	0x3f352ab0	0.7076826
84	0x403587fc	2.8364248
85	0x3fdba8d8	1.7160902
86	0x4008aa14	2.1353807
87	0x400a5825	2.16163
88	0x42631199	56.767185
89	0x42f29693	121.29409
90	0x3cc690b8	0.02423893
91	0x3c9e88e4	0.019352384
92	0x3cb1e9c8	0.02171792
93	0x3cb4c22e	0.022065248
94	0x3ebd6ebd	0.3699855
95	0x3ef0a5f5	0.47001615
96	0x3f6b4339	0.9189945
97	0x3eede47a	0.46463376
98	0x3f321a46	0.6957134
99	0x3f1deb42	0.616871
100	0x418237cb	16.277243
101	0x4216f0c8	37.735138
102	0x3f5b01fc	0.855499
103	0x3ef6f283	0.48231897
104	0x3f197922	0.5995046
105	0x3f1db962	0.61610997
106	0x419405ae	18.502773
107	0x42269707	41.647488
108	0x3f9bfbe4	1.2186246
109	0x3f7cbfe2	0.9873029
110	0x3f740485	0.95319396
111	0x3f864e03	1.0492557
112	0x41bd7a90	23.684845
113	0x4267eefa	57.983376
114	0x3fe7a8d8	1.8098402
115	0x3fbcc86c	1.4748664
116	0x3fb47440	1.4097977
117	0x3fcfd8cc	1.6238036
118	0x42056e17	33.35751
119	0x42b12c81	88.58692
120	0x3d3cfbdc	0.04613863
121	0x3d2cb48c	0.04216437
122	0x3d2a77a2	0.041617997
123	0x3d38e3a9	0.04513899
124	0x3f24b3ea	0.6433703
125	0x3f845bb0	1.0340481
126	0x3e21ec78	0.15812862
127	0x3e3552b7	0.17707334
128	0x3e1110c5	0.14166553
129	0x3e40ccbd	0.18828101
130	0x403a3246	2.9093184
131	0x40a2fad1	5.093117
132	0x3e7186c5	0.23586567
133	0x3e11b691	0.142298
134	0x3e3d9511	0.18513896
135	0x3e416c8c	0.18889064
136	0x4051dbbb	3.2790363
137	0x40a8ddca	5.277074
138	0x3ee7e15d	0.45289126
139	0x3e972a0c	0.29524267
140	0x3ebc68f9	0.36798838
141	0x3eba0733	0.36333618
142	0x40ffd84a	7.9951525
143	0x414779ca	12.467234
144	0x3f6e6e05	0.93136626
145	0x3f364d17	0.7121138
146	0x3f2a9cf9	0.6664577
147	0x3f5c0922	0.85951436
148	0x41976ed9	18.929125
149	0x4229dac5	42.463642
150	0x3ca9ab86	0.020711672
151	0x3c41367f	0.011792778
152	0x3c90290c	0.017597698
153	0x3c6bbb1f	0.014387875
154	0x3e91a35a	0.2844494
155	0x3ee038d2	0.4379335
156	0x3fac6845	1.346932
157	0x3fb48eb7	1.4106053
158	0x3fa7deb8	1.3114843
159	0x3fb5f25a	1.4214585
160	0x41e1c6aa	28.222004
161	0x424c4702	51.069344
162	0x3c81ed34	0.015860178
163	0x3d27f4a3	0.041004788
164	0x3ccc98e7	0.024975253
165	0x3cf7d093	0.030250823
166	0x3ee7d710	0.45281267
167	0x400761ba	2.1153398
168	0x3eb646be	0.35600847
169	0x3eaa8ecd	0.33312073
170	0x3e8712e4	0.263816
171	0x3eb7028b	0.35744128
172	0x411c2789	9.759652
173	0x41ac156a	21.510456
174	0x3ee7dbba	0.45284826
175	0x3ed361e3	0.4128562
176	0x3ec57d44	0.38572133
177	0x3ee9f013	0.45690975
178	0x40d877eb	6.7646384
179	0x415f838c	13.969616
180	0x3f105aec	0.56388736
181	0x3f24dfed	0.64404184
182	0x3f0a2481	0.5396195
183	0x3f1c09ba	0.6095234
184	0x41841b63	16.513372
185	0x4231fdc1	44.497807
186	0x3e25192d	0.16122885
187	0x3e0b2fba	0.13592425
188	0x3e1836db	0.14864676
189	0x3e0de935	0.13858493
190	0x3fb4490a	1.408479
191	0x40952b89	4.6615644
192	0x3ee85082	0.45373923
193	0x3ebe417f	0.37159345
194	0x3ebbbf0b	0.36669192
195	0x3ed248f8	0.41071296
196	0x40cb3634	6.3503666
197	0x4168dac3	14.553409
198	0x3bb15749	0.0054120165
199	0x3b8882af	0.0041659693
200	0x3bacae81	0.005269826
201	0x3b90bc39	0.004416969
202	0x3df3cf9e	0.11904834
203	0x3e8113a4	0.25210297
204	0x3fea8cce	1.832422
205	0x3fa6fe06	1.3046272
206	0x3f95f8cb	1.171655
207	0x3fd48754	1.6603799
208	0x424345cd	48.818165
209	0x42d6ecc6	107.46245
210	0x40153256	2.3311973
211	0x3fdfaaab	1.7473959
212	0x40028796	2.0395255
213	0x3fe469b3	1.7844757
214	0x42305d1e	44.090935
215	0x42fb5ef9	125.68549
216	0x3ee49662	0.44645983
217	0x3e62c78e	0.22146437
218	0x3ea217f4	0.316589
219	0x3e9d1ef2	0.30687672
220	0x411092d6	9.035849
221	0x4191ba9d	18.21612
222	0x3bb9d30d	0.005670911
223	0x3b9a48bf	0.004708379
224	0x3bbbccc9	0.0057311994
225	0x3b9990cf	0.004686452
226	0x3e1f656d	0.15566035
227	0x3f0fbddf	0.56149095
228	0x401a4c72	2.4109159
229	0x3fb6747c	1.4254298
230	0x3fd012e1	1.6255761
231	0x3ff45578	1.9088583
232	0x42328cc0	44.63745
233	0x42d80145	108.00248
234	0x3e1b3cae	0.15159866
235	0x3e4109cd	0.18851395
236	0x3e1b11d5	0.15143521
237	0x3e29a835	0.16568072
238	0x40445b42	3.06807
239	0x41000f83	8.003787
240	0x3f87d8dc	1.0613055
241	0x3fb77da7	1.4335221
242	0x3f6edfcf	0.93310255
243	0x3fc3c802	1.5295413
244	0x41bb92c3	23.446661
245	0x422a0895	42.50838
246	0x3d9c4773	0.07630815
247	0x3deee530	0.11664808
248	0x3d9ba93a	0.07600637
249	0x3dd64cc9	0.10463864
250	0x3fab10a9	1.3364459
251	0x4064a107	3.5723283
252	0x3e61a34d	0.2203495
253	0x3e1d3625	0.15352686
254	0x3e176d38	0.14787757
255	0x3e45503e	0.19268891
