assets/section_1/actor_critic/cart_pole/models/cartpole_exp/episode_best/actor.pth (torch, 828098 bytes, 18 tensors)

base.0.weight f4 [256, 6]
0.17298183 -0.373174 -0.1829203 -0.2670057 -0.20861943 0.29951388 0.16625571 0.37132338
0.3836124 0.36606824 -0.13386765 0.12430148 -0.2466664 0.19573891 0.28883258 0.059196815
0.17079379 -0.25831845 -0.00027971403 0.082823575 0.05753893 0.17986587 -0.3478442 -0.36007664
0.37412098 0.03364057 -0.35969684 -0.25919893 -0.38794288 0.110478304 0.057139732 -0.25477177
-0.24431886 -0.21364996 -0.18956752 0.20805041 -0.00185054 0.14921509 0.041176427 0.43064922
-0.2198159 -0.40385222 0.38941708 -0.3859128 -0.2813491 0.34705445 -0.11555656 -0.029187152
-0.00825593 -0.16327259 -0.029760709 0.27970707 0.35412166 -0.3773037 -0.008314792 -0.3184635
-0.08050818 -0.22995906 -0.1962422 -0.22089942 -0.28176534 -0.1844653 0.25838983 -0.1105126
-0.33104518 -0.324284 -0.054002732 0.2895473 0.3263087 0.18989274 -0.092246525 -0.058604788
-0.07123246 0.11969952 0.3653484 0.20190732 0.08828883 -0.38424936 0.43322727 -0.14520271
0.32361022 -0.28801444 0.2153978 -0.4007827 0.10973993 0.087784275 0.16403446 -0.4445973
-0.3122786 0.38648772 -0.18847929 0.01622515 -0.38773787 -0.13556117 -0.10982247 -0.3743488
0.1197049 0.4061956 -0.13609427 0.17951038 -0.1398847 0.35967928 0.096390344 0.20852223
0.17141399 0.22446695 -0.20118408 0.32778522 -0.31848612 0.116167374 -0.43545046 -0.29111618
-0.05553775 -0.31063864 -0.13460422 0.2389142 0.24200206 0.2747653 0.16982478 0.07211903
-0.14649588 -0.37141418 -0.29886898 -0.13826008 -0.389812 0.127904 0.27542394 -0.36056024
-0.045354985 0.4375935 0.38306358 0.32350424 -0.20196772 0.36992422 0.5668626 0.32374814
0.030297488 -0.33715743 0.3825042 -0.3400131 -0.5007764 -0.14237764 0.17416914 -0.12975924
-0.21636891 -0.014479642 0.06356402 0.34945253 0.13468954 0.043203976 -0.10458767 -0.15211236
-0.32986832 -0.195359 -0.307408 -0.046623267 -0.23316582 0.016918281 0.3682021 0.18100521
0.1802361 0.08757576 -0.44735208 -0.015463576 0.05655358 -0.27833536 0.35338458 -0.0071087386
0.32997972 0.20801896 -0.11396844 0.41981044 -0.36183727 -0.33305475 0.43355417 0.34944606
0.46237174 0.058740076 0.325792 -0.16702141 0.33742312 -0.31506985 -0.21086532 0.35228533
-0.0485151 0.14644131 0.20665848 0.031042213 0.046694253 0.2687101 0.1819377 -0.34662047
-0.20177774 -0.298907 -0.014101757 0.24624419 -0.13851093 -0.19518286 0.25804454 0.25703755
0.09442568 0.08506962 0.15292224 0.29757276 -0.14129336 -0.099536486 -0.61866736 0.031071922
0.36253422 0.19073431 -0.40389147 0.16702324 -0.20178752 -0.26744038 0.21820605 0.07733954
-0.28365803 0.08846725 -0.28565592 -0.38545313 0.10449226 -0.10296918 0.0483158 -0.36877218
0.061071675 0.24183849 0.23944753 0.17620973 0.28968143 -0.15347815 0.19871207 -0.06430939
0.30655983 0.11792284 -0.31371915 0.2201439 -0.12678973 0.4680986 -0.3407506 0.05096714
0.058065508 -0.29795796 -0.28217334 -0.25838408 -0.1045694 -0.37006485 -0.18089868 -0.11844136
0.31899893 0.18024404 -0.02605806 -0.08011365 0.3173758 0.056098167 0.025366278 0.23240075
00000000: 2622 313e aa10 bfbe 764f 3bbe f9b4 88be
00000010: 55a0 55be e259 993e f03e 2a3e 191e be3e
00000020: d868 c43e 4c6d bb3e 9a14 09be c691 fe3d
00000030: 1e96 7cbe c86f 483e dde1 933e 5c78 723d
00000040: 91e4 2e3e 5142 84be 95a6 92b9 689f a93d
00000050: f1ad 6b3d c22e 383e a318 b2be f75b b8be
00000060: c98c bf3e b2ca 093d 2f2a b8be b9b5 84be
00000070: 73a0 c6be 7342 e23d 5a0b 6a3d 7271 82be
00000080: b92e 7abe 0ec7 5abe fd1d 42be 2b0b 553e
00000090: d28d f2ba d7cb 183e 9da8 283d 0e7e dc3e
000000a0: 6b17 61be b8c5 cebe ad61 c73e 5d96 c5be
000000b0: fd0c 90be 1fb1 b13e eba8 ecbd e519 efbc
000000c0: e143 07bc ee30 27be bbcc f3bc c435 8f3e
000000d0: 6f4f b53e f32d c1be c43a 08bc a60d a3be
000000e0: 79e1 a4bd 637a 6bbe b7f3 48be 7533 62be
000000f0: 8c43 90be 79e4 3cbe ac4b 843e 6e54 e2bd
00000100: c17e a9be 8d08 a6be f831 5dbd 8b3f 943e
00000110: ef11 a73e 3e73 423e bfeb bcbd 930b 70bd
00000120: 53e2 91bd 0625 f53d f20e bb3e cbc0 4e3e
00000130: c6d0 b43d 55bc c4be f7cf dd3e 05b0 14be
00000140: 3db0 a53e a176 93be 3e91 5c3e 6433 cdbe
00000150: 54bf e03d 3ec8 b33d a6f8 273e 42a2 e3be
00000160: fbe2 9fbe b8e1 c53e b700 41be 9bea 843c
00000170: 9485 c6be 8cd0 0abe 9aea e0bd a5aa bfbe
00000180: d827 f53d dff8 cf3e 4c5c 0bbe 92d1 373e
00000190: ef3d 0fbe e227 b83e 4d68 c53d da86 553e
000001a0: 2687 2f3e aada 653e 3303 4ebe 77d3 a73e
000001b0: 9d10 a3be 29e9 ed3d 5df3 debe 2e0d 95be
000001c0: 8d7b 63bd 070c 9fbe b0d5 09be eda5 743e
000001d0: 63cf 773e 0aae 8c3e 8ce6 2d3e 24b3 933d
000001e0: 0403 16be 002a bebe 5b05 99be 0d94 0dbe
000001f0: 7095 c7be 44f9 023e 5e04 8d3e 5a9b b8be
00000200: 26c6 39bd 410c e03e e920 c43e 59a2 a53e
00000210: a0d0 4ebe b566 bd3e e81d 113f 51c2 a53e
00000220: 7032 f83c e69f acbe 97d7 c33e 3216 aebe
00000230: e232 00bf 72cb 11be 6559 323e 9bdf 04be
00000240: d08f 5dbe 053c 6dbc da2d 823d 71eb b23e
00000250: 0eec 093e a7f6 303d 0f32 d6bd 58c3 1bbe
00000260: 80e4 a8be 310c 48be 9564 9dbe 0af8 3ebd
00000270: 05c3 6ebe 3598 8a3c fc84 bc3e 6e59 393e
00000280: d08f 383e ec5a b33d 550b e5be f05a 7dbc
00000290: baa4 673d f981 8ebe d3ee b43e 6cf0 e8bb
000002a0: 1af3 a83e ec02 553e 4968 e9bd 65f1 d63e
000002b0: bc42 b9be 2786 aabe d0fa dd3e 98ea b23e
000002c0: fdbb ec3e 6f99 703d 36ce a63e a907 2bbe
000002d0: b9c2 ac3e d650 a1be 14ed 57be be5e b43e
000002e0: c5b7 46bd b6f4 153e 489e 533e 3d4c fe3c
000002f0: 7942 3f3d 5f94 893e e04d 3a3e 3d78 b1be
00000300: d39e 4ebe 570a 99be 0e0b 67bc 7027 7c3e
00000310: cfd5 0dbe 04de 47be 6a1e 843e 6d9a 833e
00000320: 4062 c13d fb38 ae3d a697 1c3e 755b 983e
00000330: 35af 10be c9d9 cbbd fc60 1ebf 8b8a fe3c
00000340: 169e b93e db4f 433e ddca cebe 2408 2b3e
00000350: 63a1 4ebe f2ed 88be 6871 5f3e 3164 9e3d
00000360: a03b 91be 512e b53d 7e41 92be 1d5a c5be
00000370: 0a00 d63d 81e1 d2bd cae6 453d b5cf bcbe
00000380: 4b26 7a3d 82a4 773e bc31 753e 5370 343e
00000390: 2051 943e 6029 1dbe 2d7b 4b3e a4b4 83bd
000003a0: 69f5 9c3e 8881 f13d cc9f a0be 676d 613e
000003b0: 2bd5 01be 9faa ef3e dd76 aebe ebc2 503d
000003c0: 19d6 6d3d f28d 98be 0679 90be eb4a 84be
000003d0: 7b28 d6bd 2479 bdbe 813d 39be 6291 f2bd
000003e0: d453 a33e e591 383e b677 d5bc a012 a4bd
000003f0: 157f a23e 31c7 653d f1cc cf3c 76fa 6d3e

base.0.bias f4 [256]
-0.056655116 0.08777503 0.026165955 -0.08793449 -0.10519427 0.31986696 0.23416913 -0.35941634
0.08770007 -0.11368028 0.114370584 -0.04895871 0.021603115 -0.14570184 0.38301238 0.4372728
-0.32061133 0.22133854 0.032177355 -0.01256145 -0.35294884 0.17215303 0.25049925 0.19948983
-0.2324342 0.07435524 0.022275923 0.095691904 0.36294758 -0.14336462 0.17066829 0.2436838
-0.18640925 0.41860288 0.3121933 0.21740864 -0.18137713 -0.17596409 0.29157335 0.07319738
-0.25502205 0.37509543 0.3763031 -0.1312414 0.34352955 -0.180418 -0.10376387 -0.176206
-0.28513482 0.06910074 0.3246094 -0.25455165 -0.34445775 -0.24584824 0.45755762 -0.20768689
-0.10166351 0.36021894 -0.15446393 -0.26476076 -0.0828254 0.04325861 0.19084616 -0.07031212
-0.30293712 0.2811112 0.15492848 0.11085297 0.2989317 -0.3119719 0.037829492 -0.013863417
0.41328153 0.10845889 -0.034436878 0.36117968 0.16759633 -0.31885952 -0.3780158 0.41779232
0.33552355 0.44349417 -0.08530091 0.15778628 0.22191614 0.2781424 -0.35944405 -0.3059892
0.19818512 -0.0067940042 0.017893633 0.09446638 -0.29978344 -0.23131712 0.3944288 -0.020910416
-0.047003213 -0.29830974 0.24563497 0.43433383 -0.22189769 -0.023808673 -0.054652657 -0.03748124
0.20794566 0.4070493 0.16756786 0.41646934 -0.26606098 0.0134205725 0.21036243 0.31429476
0.0033838358 0.24422751 -0.38581327 -0.13376929 -0.33798158 0.20013694 -0.30668488 0.4523673
-0.25602955 -0.08915257 0.38987628 0.42159152 -0.055881303 -0.00017807596 0.37323344 0.05845385
-0.25704345 0.38880435 -0.08892024 -0.3340777 -0.08473348 0.040457454 -0.07540059 0.37182295
-0.3691706 -0.009311651 0.33235133 0.30235544 -0.19907689 -0.011825618 -0.038242865 0.17752023
0.31406337 0.3696432 0.25312787 0.4262378 0.26505268 -0.4412067 0.27457976 -0.08345572
-0.27118203 -0.32201883 -0.32431403 0.24102473 0.14405091 0.029724622 0.2189635 -0.09333172
-0.11863505 0.077099085 -0.06647693 -0.22315124 0.43706167 0.004031029 -0.101884834 0.03317791
-0.1373586 0.17386185 0.012063139 -0.06859669 -0.08986636 0.3770147 0.0057255784 -0.32295242
0.024437195 0.064665064 -0.20082892 0.02526296 0.35790992 0.17933127 -0.36214983 0.39974013
-0.36715752 -0.16162683 -0.044790927 -0.25736827 -0.10267386 -0.36275962 -0.23414646 -0.105351456
0.113785684 -0.061323658 -0.22952028 0.010735666 0.39028725 -0.026838752 0.4200175 -0.20838074
0.3900138 0.20823263 0.09750642 -0.00088868605 -0.06244675 -0.39796558 0.15930718 0.12557796
0.22605997 0.11560966 -0.14175826 -0.23989284 -0.07985957 0.057392754 -0.2657704 0.14294225
0.18098176 0.036874566 0.07010644 0.4263294 0.20742467 0.13545898 0.121473506 -0.19252251
0.4670102 0.26140282 -0.34956884 0.4015319 0.0985605 0.22278935 0.25752702 -0.36592343
-0.10777384 -0.24955393 0.16712733 -0.13621551 -0.32460928 -0.09410648 0.342117 0.39570895
-0.08578907 -0.12731847 0.4000877 0.1842841 0.31226557 -0.09140918 0.3209245 -0.157668
0.31658295 0.16299917 0.22013314 -0.30681387 0.44359452 0.21912642 -0.07111812 -0.32278413
00000000: 320f 68bd 65c3 b33d fc59 d63c ff16 b4bd
00000010: 1870 d7bd 9ac5 a33e 08ca 6f3e 6b05 b8be
00000020: 189c b33d 35d1 e8bd 203b ea3d ee88 48bd
00000030: 04f9 b03c dd32 15be 331a c43e 38e2 df3e
00000040: 2b27 a4be 92a6 623e 67cc 033d 8ace 4dbc
00000050: b6b5 b4be e248 303e 7041 803e 1047 4c3e
00000060: 3b03 6ebe 8f47 983d ff7b b63c 1efa c33d
00000070: 44d4 b93e 2dce 12be abc3 2e3e 3f88 793e
00000080: 11e2 3ebe 1e53 d63e cdd7 9f3e 5fa0 5e3e
00000090: edba 39be ee2f 34be 1a49 953e 82e8 953d
000000a0: 4092 82be 820c c03e cdaa c03e 2564 06be
000000b0: 1be3 af3e 7fbf 38be 2782 d4bd 586f 34be
000000c0: 31fd 91be b084 8d3d 3433 a63e 9854 82be
000000d0: c45c b0be a4bf 7bbe fe44 ea3e dfab 54be
000000e0: f534 d0bd 9e6e b83e cb2b 1ebe b98e 87be
000000f0: 5da0 a9bd f12f 313d 2d6d 433e cdff 8fbd
00000100: 931a 9bbe cfed 8f3e 92a5 1e3e e206 e33d
00000110: 930d 993e c8ba 9fbe 19f3 1a3d 6323 63bc
00000120: a399 d33e b21f de3d af0d 0dbd 8bec b83e
00000130: 5f9e 2b3e 8e41 a3be 498b c1be e0e8 d53e
00000140: bec9 ab3e ab11 e33e 3eb2 aebd ba92 213e
00000150: fc3d 633e ae68 8e3e 0d09 b8be 9eaa 9cbe
00000160: 0af1 4a3e 3da0 debb ab95 923c 9777 c13d
00000170: 377d 99be 65de 6cbe 92f2 c93e 524c abbc
00000180: 7186 40bd 0ebc 98be bc87 7b3e 0161 de3e
00000190: 2639 63be 680a c3bc 77db 5fbd ee85 19bd
000001a0: b5ef 543e c468 d03e e996 2b3e 783b d53e
000001b0: 2539 88be f6e1 5b3c 4069 573e 3eeb a03e
000001c0: 58c3 5d3b c716 7a3e 5189 c5be d1fa 08be
000001d0: ec0b adbe b3f0 4c3e cd05 9dbe b09c e73e
000001e0: 4e16 83be 9f95 b6bd dd9d c73e d8da d73e
000001f0: cbe3 64bd e7b9 3ab9 7418 bf3e 4e6d 6f3d
00000200: 339b 83be 5d11 c73e d11b b6bd 3b0c abbe
00000210: bf88 adbd b7b6 253d a06b 9abd 945f be3e
00000220: ee03 bdbe e58f 18bc f429 aa3e 55ce 9a3e
00000230: d0da 4bbe 3dc0 41bc 8da4 1cbd ddc7 353e
00000240: eacc a03e e041 bd3e fa99 813e d73b da3e
00000250: fcb4 873e d8e5 e1be b895 8c3e d5ea aabd
00000260: 5fd8 8abe a7df a4be 7d0c a6be 30cf 763e
00000270: 1582 133e 0d81 f33c f837 603e b324 bfbd
00000280: eff6 f2bd 20e6 9d3d 0f25 88bd c281 64be
00000290: 8cc6 df3e b916 843b ffa8 d0bd 8fe5 073d
000002a0: bca7 0cbe d708 323e 79a4 453c 6c7c 8cbd
000002b0: db0b b8bd 1208 c13e a29d bb3b 055a a5be
000002c0: 8330 c83c 1e6f 843d 19a6 4dbe 44f4 ce3c
000002d0: f83f b73e 9ea2 373e b46b b9be bdaa cc3e
000002e0: 12fc bbbe 8181 25be b176 37bd c6c5 83be
000002f0: ac46 d2bd a1bb b9be 17c4 6fbe 81c2 d7bd
00000300: 7808 e93d 842e 7bbd 5d07 6bbe a6e4 2f3c
00000310: bbd3 c73e f1dc dbbc 890c d73e c361 55be
00000320: e4af c73e ef3a 553e 72b1 c73d b6f6 68ba
00000330: 2ac8 7fbd 25c2 cbbe 6c21 233e 8297 003e
00000340: 447c 673e c2c4 ec3d 1429 11be 78a6 75be
00000350: 6a8d a3bd aa14 6b3d 0f13 88be 745f 123e
00000360: 4853 393e c909 173d f793 8f3d d947 da3e
00000370: 2267 543e c2b5 0a3e 1ac7 f83d 9f24 45be
00000380: f61b ef3e 97d6 853e b0fa b2be 9795 cd3e
00000390: 16da c93d e422 643e 95da 833e 515a bbbe
000003a0: 88b8 dcbd 118b 7fbe 6d23 2b3e 147c 0bbe
000003b0: 3033 a6be e6ba c0bd f629 af3e 5d9a ca3e
000003c0: 2eb2 afbd c65f 02be 4cd8 cc3e f9b4 3c3e
000003d0: 46e1 9f3e bc34 bbbd 3750 a43e b873 21be
000003e0: 2917 a23e 41e9 263e 956a 613e b516 9dbe
000003f0: d21e e33e ad62 603e 60a6 91bd f643 a5be

base.2.weight f4 [256, 256]
0.012471986 -0.022111697 0.0010732339 -0.027698917 0.016477846 0.039264504 -0.05572772 0.012481372
0.039880414 0.079619505 0.093703106 -0.074599475 -0.030085957 0.028671065 0.054336745 0.0656217
0.027749801 -0.06988975 0.121393934 -0.080871835 0.07451636 -0.041173793 -0.10421608 0.009346479
0.007563775 0.045543544 0.028841373 0.002996571 -0.060852643 -0.10293584 -0.009261568 -0.003323402
0.029500932 -0.06064615 0.06638423 0.024019415 0.026055358 -0.040719032 0.022668093 -0.07187483
-0.018586671 0.04054012 0.0368083 -0.012424336 0.022716586 0.039737593 9.6968506e-05 0.03076005
-0.04933144 0.0402972 -0.0061450535 0.030614503 -0.014673107 0.020755455 -0.023736086 0.07107082
0.030702721 -0.038834866 0.049932785 0.049833868 -0.0637756 0.067497894 0.020671971 0.006158997
-0.0064252308 0.0016450278 -0.035339016 0.103924364 -0.018626874 -0.00093552575 -0.01752707 -0.063413695
0.0487855 -0.06076355 0.0010628458 0.026608342 0.12766303 -0.015741093 0.088472456 0.058697592
0.02653142 0.012675158 2.864585e-05 0.14266558 0.024644963 0.072406836 -0.0144607425 -0.051206507
-0.04920468 0.06422257 -0.03577888 -0.03178135 -0.052951433 0.017718615 0.015109255 0.04447215
0.05505063 -0.019104926 -0.06711325 0.0645151 0.047792695 -0.026139542 0.044958834 0.022673752
-0.013932349 -0.018617364 -0.02756831 0.08429247 0.03633087 -0.043461382 0.025517868 0.00798126
0.08482549 0.023316408 -0.030823098 -0.0187434 -0.012883474 -0.053146526 -0.034273203 0.050776344
-0.023181261 0.007029088 0.049777053 -0.035691187 0.03989404 0.07313825 -0.0017637331 0.008893313
0.048185028 -0.009287244 -0.021750715 -0.08267555 -0.056087136 -0.04718197 0.027236314 0.04798194
-0.05575339 0.015630748 -0.05361652 0.06600969 -0.0057448633 -0.030239698 -0.0038292322 0.003157573
0.07732131 -0.045046937 -0.033229273 -0.0020532203 -0.018895878 -0.05663631 0.00093614 -0.03606531
-0.05678219 0.037694804 -0.014936537 0.06505903 -0.027680736 -0.039680384 -0.007271555 -0.029649215
-0.0759068 0.07214067 -0.025268847 -0.004996499 0.07642404 0.07161921 -0.0016045552 0.12120091
0.03639754 0.07206786 -0.0022522819 0.0369295 0.011400472 -0.04916371 0.03838922 0.0014772292
0.03706833 0.010114615 0.084716566 -0.009517988 0.045842975 -0.06528118 -0.0042807898 -0.02365018
-0.002491844 0.023952233 0.0012407395 -0.011758581 -0.025223905 -0.011849839 -0.039363984 -0.013093644
0.0396475 -0.021327846 -0.05878134 0.06560714 -0.0023942515 0.02445782 0.045751467 0.11819532
0.0026872084 -0.09250383 -0.07396306 -0.042853918 0.0014762832 -0.032432865 -0.024263404 -0.008478751
-0.020514285 0.005484996 0.09837753 0.005191563 -0.1357231 0.018589769 0.027478086 0.038289953
0.08278377 0.09034719 -0.07630537 -0.0026088522 0.077181935 0.03901057 0.011244629 0.03341125
0.041449048 -0.06008438 -0.060037855 -0.028461926 0.07522601 0.12544867 -0.015610222 0.023978563
-0.08917885 -0.059549004 0.0020634716 -0.042716604 0.08270495 0.019885568 0.06677786 -0.01845771
0.031922035 -0.0043899682 0.0541342 -0.06092712 0.004456921 0.035698973 -0.0022019488 0.045595642
0.015949454 0.022082034 -0.025752205 0.028990079 -0.06454411 0.0231672 0.0045237383 -0.0037934543
00000000: 4d57 4c3c 9723 b5bc c1ab 8c3a d7e8 e2bc
00000010: 8cfc 863c d1d3 203d c042 64bd ab7e 4c3c
00000020: a559 233d 8d0f a33d 6ae7 bf3d 9cc7 98bd
00000030: d376 f6bc 95df ea3c 3590 5e3d ab64 863d
00000040: 8d53 e33c 5b22 8fbd 629d f83d 22a0 a5bd
00000050: 099c 983d daa5 28bd 3d6f d5bd f921 193c
00000060: 8bd9 f73b de8b 3a3d be44 ec3c 1e62 443b
00000070: 9f40 79bd 07d0 d2bd d5bd 17bc 6fcd 59bb
00000080: f0ab f13c 1968 78bd 75f4 873d 5dc4 c43c
00000090: 0c72 d53c 00c9 26bd 70b2 b93c 1c33 93bd
000000a0: 1343 98bc 660d 263d 4dc4 163d 718f 4bbc
000000b0: 2218 ba3c e3c3 223d 925b cb38 80fc fb3c
000000c0: c40f 4abd ad0e 253d 725c c9bb 44cb fa3c
000000d0: 7967 70bc 5807 aa3c 2e72 c2bc 948d 913d
000000e0: 4684 fb3c 4f11 1fbd 5286 4c3d 991e 4c3d
000000f0: c89c 82bd 563c 8a3d 4458 a93c 69d1 c93b
00000100: be8a d2bb f99d d73a a5bf 10bd 4cd6 d43d
00000110: 6397 98bc 123e 75ba ee94 8fbc 0adf 81bd
00000120: 4ed3 473d 33e3 78bd 304f 8b3a bdf9 d93c
00000130: 19ba 023e 77f3 80bc 0c31 b53d e36c 703d
00000140: 6c58 d93c 77ab 4f3c 7f4c f037 ed16 123e
00000150: 3ce4 c93c 094a 943d c0ec 6cbc eabd 51bd
00000160: d98a 49bd 1f87 833d e08c 12bd 292d 02bd
00000170: 9ae3 58bd a126 913c cf8c 773c 6e28 363d
00000180: c57c 613d ef81 9cbc ac72 89bd 7e20 843d
00000190: 46c2 433d 9822 d6bc c126 383d 4ebe b93c
000001a0: 8244 64bc 7183 98bc f0d6 e1bc 88a1 ac3d
000001b0: aecf 143d 9004 32bd d90a d13c d5c3 023c
000001c0: fdb8 ad3d 0d02 bf3c b980 fcbc c28b 99bc
000001d0: 3515 53bc 2cb0 59bd 0f62 0cbd dbfa 4f3d
000001e0: a1e6 bdbc 4454 e63b 06e3 4b3d ec30 12bd
000001f0: ef67 233d 82c9 953d 102d e7ba 42b5 113c
00000200: aa5d 453d 8629 18bc 8e2e b2bc cc51 a9bd
00000210: a0bb 65bd e241 41bd b11e df3c b688 443d
00000220: ab5d 64bd 0e0c 803c ff9c 5bbd 1730 873d
00000230: 683f bcbb 3eb9 f7bc dbf3 7abb 49ef 4e3b
00000240: a35a 9e3d 2383 38bd 6b1b 08bd 528f 06bb
00000250: 87cb 9abc 7afb 67bd 4b67 753a 38b9 13bd
00000260: 7194 68bd de65 1a3d 60b8 74bc ab3d 853d
00000270: b6c2 e2bc e687 22bd 3946 eebb e9e2 f2bc
00000280: 0675 9bbd 7dbe 933d 9d00 cfbc acb9 a3bb
00000290: 3584 9c3d 18ad 923d f04f d2ba 2f38 f83d
000002a0: 9615 153d 5098 933d 059b 13bb 6343 173d
000002b0: 0cc9 3a3c e35f 49bd 043e 1d3d 969f c13a
000002c0: f6d4 173d c5b7 253c e17f ad3d 56f1 1bbc
000002d0: d8c5 3b3d 24b2 85bd de45 8cbb 06be c1bc
000002e0: 344e 23bb 7937 c43c 4fa0 a23a 10a7 40bc
000002f0: 5da2 cebc d425 42bc 213c 21bd b986 56bc
00000300: 6b65 223d bcb7 aebc b4c4 70bd 095d 863d
00000310: e0e8 1cbb c45b c83c e465 3b3d 6310 f23d
00000320: e01b 303b a672 bdbd f279 97bd 9787 2fbd
00000330: d87f c13a 53d8 04bd 0cc4 c6bc 76ea 0abc
00000340: 930d a8bc 7bbb b33b 297a c93d fd1d aa3b
00000350: fffa 0abe 9249 983c b919 e13c edd5 1c3d
00000360: 8a8a a93d f307 b93d fd45 9cbd 47f9 2abb
00000370: 9011 9e3d 8cc9 1f3d 643b 383c 3cda 083d
00000380: 7ac6 293d 0a1b 76bd 41ea 75bd fc28 e9bc
00000390: 1810 9a3d 9e75 003e 04c2 7fbc b16e c43c
000003a0: 67a3 b6bd a8e9 73bd 4f3b 073b 9bf7 2ebd
000003b0: 3661 a93d 0fe7 a23c d5c2 883d a034 97bc
000003c0: aec0 023d b9d9 8fbb d3bb 5d3d b78e 79bd
000003d0: 5d0b 923b 1639 123d 924e 10bb 7fc2 3a3d
000003e0: 6ea8 823c 62e5 b43c 4af6 d2bc 9a7c ed3c
000003f0: b42f 84bd 24c9 bd3c de3b 943b 9a9b 78bb

base.2.bias f4 [256]
-0.03421835 0.031485144 0.04902465 -0.031267438 0.07118044 0.018658094 -0.01975037 -0.03512832
0.055417348 -0.020527298 0.073941275 0.003131526 0.0638474 -0.003197667 -0.025750007 -0.03658002
0.0024370537 -0.041876666 0.022979937 -0.003651053 0.001513457 -0.056815233 -0.055652387 -0.014009764
0.042147152 -0.041346766 0.020931061 -0.005144882 -0.0013045182 -0.02563812 0.062413957 -0.010514082
0.021464432 0.026930016 0.011284864 -0.029985994 -0.02548246 0.040640883 0.020404603 0.03210314
0.058378633 -0.0040889382 0.06149757 0.027044479 0.038392264 0.051482763 -0.011687227 0.0035475865
-0.0047498844 -0.012032782 -0.0042175767 0.06382753 0.0030646937 0.034591585 -0.00906036 -0.02938955
0.001338546 0.026717413 -0.017504655 0.0014697924 0.07477782 0.053553376 -0.01113207 -0.037919436
0.036113597 0.002906248 -0.050806213 0.05241459 -0.04829432 0.014950862 -0.010368469 -0.050994106
-0.034693886 0.06431694 0.021857686 0.03503911 -0.011211205 -0.0292155 0.040470283 0.013513701
0.056659114 -0.0132863335 0.04042711 0.06125515 0.032724965 0.051494088 0.053945523 0.045773435
0.055839315 0.06169729 0.023234453 0.009162706 -0.044562038 0.025519008 0.034108665 0.02773328
0.030126736 0.032889932 0.004209953 0.06056367 -0.06583512 0.005292136 0.019195162 -0.01849888
0.05658563 0.074274436 0.0602084 -0.050637644 0.035260767 -0.0064625153 0.048315737 0.03820815
-0.035669096 -0.03968351 0.008409236 0.017321207 0.01019322 -0.036271065 0.02270902 -0.031058177
0.053778507 -0.017121242 0.023260167 0.011321475 0.017224018 -0.016337262 0.03930692 0.06050087
0.07121362 -0.05574745 0.05942617 -0.002493885 -0.048352152 -0.009268823 0.016411133 0.058916792
0.045243975 0.013191841 -0.0510592 0.054821137 -0.043444987 0.020617701 0.0010649532 -0.016688406
-0.031722415 0.062346548 0.014161146 0.034898758 0.055794172 0.023433281 0.026193166 0.06329486
-0.026652068 0.046142925 0.01010739 0.05327309 -0.041289307 -0.022169301 0.02772981 0.06760253
0.04549842 0.021216344 -0.011443207 0.068906456 0.013157045 -0.020089168 0.0725978 0.012250612
0.07189892 -0.026544407 0.021895839 -0.06926765 0.0012397415 -0.042670023 -0.038092587 -0.006291657
0.025439756 0.046198435 0.041282725 -0.020563709 -0.03475253 0.04747919 0.014751326 -0.021746472
-0.027886305 0.022318795 0.041824084 0.014876762 -0.015550473 0.0692454 -0.008033485 0.014726116
-0.031134143 0.007590944 -0.017016755 0.0053783786 -0.04691023 -0.01688573 0.04238135 0.04757362
0.010406762 -0.011201605 0.029505767 0.037993714 -0.05622062 0.0018997547 0.03151344 0.049378194
0.061152343 0.0059087565 -0.026167447 -0.031115126 -0.0043178215 -0.003938009 0.03995293 0.034238912
-0.019273326 0.07022976 0.030614693 0.011680203 -0.020040488 -0.051192597 -0.034555707 -0.00071116484
0.045205187 -0.039018173 -0.047639683 -0.031909026 0.012466853 0.0007096842 0.0146542415 0.025399795
0.04767141 -0.035708472 0.03983066 0.049367435 -0.075816125 0.0037263802 0.040585842 0.060577974
-0.011708488 0.069358155 -0.015846454 0.0059181596 -0.030215647 -0.020191954 0.054674484 0.058941778
0.06487074 0.021975987 0.0066980585 -0.011774796 0.0045182644 -0.0432994 -0.03832438 -0.05283138
00000000: 8a28 0cbd 91f6 003d 12ce 483d 4912 00bd
00000010: 0dc7 913d dcd8 983c 87cb a1bc b7e2 0fbd
00000020: 4dfd 623d dd28 a8bc 866e 973d 4a3a 4d3b
00000030: 6dc2 823d f38f 51bb aef1 d2bc eed4 15bd
00000040: fab6 1f3b de86 2bbd 6c40 bc3c 8146 6fbb
00000050: 315f c63a 17b7 68bd c2f3 63bd 3689 65bc
00000060: 7ea2 2c3d 3a5b 29bd 9e77 ab3c 6696 a8bb
00000070: 5efc aaba 0907 d2bc c7a5 7f3d 4243 2cbc
00000080: 2dd6 af3c 569c dc3c 26e4 383c 30a5 f5bc
00000090: 98c0 d0bc 0e77 263d 8e27 a73c 957e 033d
000000a0: 6f1e 6f3d 80fc 85bb e0e4 7b3d 628c dd3c
000000b0: 3541 1d3d 97df 523d c87b 3fbc a07e 683b
000000c0: eba4 9bbb 2525 45bc 9933 8abb 02b8 823d
000000d0: 07d9 483b e8af 0d3d e771 14bc 5bc2 f0bc
000000e0: 2772 af3a 7ade da3c ec65 8fbc 0da6 c03a
000000f0: 1d25 993d c95a 5b3d 4963 36bc 6951 1bbd
00000100: daeb 133d c076 3e3b 2d1a 50bd aeb0 563d
00000110: 44d0 45bd 76f4 743c 83e0 29bc 32df 50bd
00000120: 2d1b 0ebd 9ab8 833d e40e b33c 2b85 0f3d
00000130: 34af 37bc 5855 efbc 2bc4 253d 9268 5d3c
00000140: 6313 683d ecae 59bc e696 253d aee6 7a3d
00000150: 9d0a 063d 77eb 523d fbf5 5c3d ed7c 3b3d
00000160: c4b7 643d 4cb6 7c3d 2e56 be3c 2d1f 163c
00000170: af86 36bd 3d0d d13c 87b5 0b3d e730 e33c
00000180: 58cc f63c 98b7 063d a5f3 893b 9c11 783d
00000190: 90d4 86bd a869 ad3b 2c3f 9d3c f78a 97bc
000001a0: 55c6 673d 321d 983d 159d 763d 6b69 4fbd
000001b0: 986d 103d 82c3 d3bb b9e6 453d 2680 1c3d
000001c0: c219 12bd 2d8b 22bd e4c6 093c 34e5 8d3c
000001d0: 7701 273c f890 14bd 4408 ba3c b86d febc
000001e0: da46 5c3d d941 8cbc 1b8c be3c b57d 393c
000001f0: 6219 8d3c b9d5 85bc 4b00 213d c3cf 773d
00000200: 72d8 913d 7057 64bd db68 733d 7370 23bb
00000210: e80c 46bd 43dc 17bc a470 863c bc52 713d
00000220: bf51 393d 9722 583c 7423 51bd 218c 603d
00000230: 5ff3 31bd 74e6 a83c e695 8b3a 20b6 88bc
00000240: 5def 01bd 185f 7f3d 2704 683c 00f2 0e3d
00000250: 6e88 643d 27f7 bf3c 0d93 d63c bca0 813d
00000260: 7055 dabc 5d00 3d3d 7799 253c e234 5a3d
00000270: fa1e 29bd 659c b5bc a029 e33c 3273 8a3d
00000280: 8d5c 3a3d e6cd ad3c 4a7c 3bbc d41e 8d3d
00000290: a590 573c 0a92 a4bc 28ae 943d cab6 483c
000002a0: be3f 933d a873 d9bc e75e b33c 33dc 8dbd
000002b0: d27e a23a c3c6 2ebd f906 1cbd 3f2a cebb
000002c0: 0967 d03c 923a 3d3d 1318 293d 3975 a8bc
000002d0: ab58 0ebd 8a79 423d 8caf 713c a825 b2bc
000002e0: d271 e4bc e8d5 b63c bb4f 2b3d aabd 733c
000002f0: 69c7 7ebc 88d0 8d3d e19e 03bc cf45 713c
00000300: 080d ffbc 74bd f83b b966 8bbc 1c3d b03b
00000310: f124 40bd f153 8abc 1198 2d3d 8edc 423d
00000320: 2081 2a3c f086 37bc 14b6 f13c 4c9f 1b3d
00000330: 9847 66bd 3101 f93a 3d14 013d ca40 4a3d
00000340: e17a 7a3d 3e9e c13b 1d5d d6bc 26e5 febc
00000350: 837c 8dbb 6a0a 81bb afa5 233d 1a3e 0c3d
00000360: 18e3 9dbc 9fd4 8f3d aacb fa3c 525e 3f3c
00000370: f32b a4bc 54af 51bd 498a 0dbd 776d 3aba
00000380: 1329 393d 85d1 1fbd d421 43bd 0ab3 02bd
00000390: c541 4c3c 1a0a 3a3a 5818 703c 3b13 d03c
000003a0: 1943 433d 0c43 12bd 7925 233d 8235 4a3d
000003b0: 7c45 9bbd 4936 743b 573d 263d 9c20 783d
000003c0: f5d4 3fbc a60b 8e3d 6cd0 81bc 1fed c13b
000003d0: ce86 f7bc 9969 a5bc 5af2 5f3d ef6c 713d
000003e0: f3da 843d fc06 b43c 637b db3b 13eb 40bc
000003f0: f30d 943b b65a 31bd 06fa 1cbd b865 58bd

base.4.weight f4 [3, 256]
0.12973623 0.07031328 0.10525001 -0.123163514 0.09701919 0.121748306 0.10771882 0.15382628
0.12271719 -0.123504944 0.084419295 0.04165041 0.036948517 0.112613246 -0.12962833 0.056669794
-0.08593888 -0.09105567 -0.09641908 -0.10521757 0.07845908 0.00254613 0.048965223 0.117226936
-0.05066722 0.116472855 0.11155982 0.15974146 -0.09495447 0.09965388 0.07015169 -0.025956167
-0.08802934 0.076348715 0.14831327 -0.015053123 0.15949142 0.13415764 0.12179282 0.044133466
-0.01162047 0.0047388226 -0.12353737 -0.058576535 0.1389733 0.124189414 -0.0019894019 0.049316704
0.057290517 -0.11616422 0.09701182 -0.09657561 0.110475585 -0.13226284 -0.116884395 0.06469125
0.11595494 -0.12059881 -0.053516865 -0.057666883 -0.109949425 0.12779999 -0.08999291 0.038012117
0.052961975 -0.011684515 0.15514131 -0.1437344 -0.12682736 0.027048487 0.0718868 -0.04517006
0.110206425 -0.10710886 0.13458571 -0.10915721 0.14412068 -0.13645494 0.1536013 -0.09896034
0.1170034 0.094574876 0.12396217 -0.105498776 0.12936053 -0.019134039 0.13450474 -0.10127629
-0.10236491 -0.13955995 0.066755876 0.09433222 0.10054447 0.12991299 0.106541425 0.13657396
0.0505328 -0.122459635 -0.08292917 -0.11286033 -0.10654397 0.1393743 0.07267462 0.07832085
0.043482497 -0.093387775 0.15778443 0.117989324 -0.017188907 -0.06832431 -0.08047205 0.04069664
-0.01657926 0.048166607 0.1330098 -0.028032495 -0.12085174 0.027015032 -0.014839508 0.12700802
0.14515343 -0.08061212 -0.084408 -0.091897495 -0.009733252 -0.028266309 0.06490257 -0.15537149
0.1462965 0.038161553 0.123340644 -0.11349005 -0.057500158 -0.12817103 -0.054187715 -0.07753866
-0.047368035 0.006312537 -0.087872185 -0.10850297 -0.06392572 0.108684026 0.091993645 0.1291542
0.096741825 -0.12584025 -0.13766599 0.11912962 -0.11687239 0.09713294 -0.08452819 0.10044155
-0.08347513 -0.13029182 0.11981517 -0.12927207 0.087758645 -0.040987816 0.09626006 0.13820595
0.115966976 0.10734527 -0.08511598 0.12111376 -0.12709384 0.03994414 -0.123545885 -0.081162706
-0.112629555 0.020031169 -0.07227833 0.034494366 0.13783047 -0.08930591 -0.073156096 0.0041960725
0.100108676 -0.02740581 -0.12593311 -0.15807213 0.11757539 0.043950573 0.1531372 -0.027005889
0.028690053 0.13750164 0.116056696 -0.10576897 -0.0068674767 -0.12583856 0.1256175 -0.082276024
0.033083756 -0.043094184 0.111719914 -0.09124243 0.14460723 -0.00757579 0.1177388 0.1329789
-0.07104186 0.0491666 -0.12031747 0.002287295 0.065905906 0.082808636 -0.034532394 -0.013440543
0.14829919 -0.073237345 -0.08270608 0.12849158 -0.05483989 -0.10071018 -0.04621741 0.12150888
0.13600016 -0.12824436 0.12112857 -0.08696793 -0.05697287 -0.0114855915 0.117120646 0.09560044
-0.12522513 0.16018045 -0.024084913 0.11101473 0.09102119 0.082021594 -0.1258221 -0.048695482
0.14513335 0.029870203 -0.08128939 0.06380992 -0.07424739 0.03958989 -0.108439356 -0.1454999
-0.028671768 0.07594263 0.12140464 0.08537876 -0.034971762 0.081477664 -0.10606952 -0.11980889
-0.106628545 -0.039445836 -0.0976632 -0.077727616 0.08200644 0.12319791 0.13335378 -0.12293418
00000000: 93d9 043e 6900 903d 518d d73d 273d fcbd
00000010: ffb1 c63d 2d57 f93d af9b dc3d a384 1d3e
00000020: 2653 fb3d 29f0 fcbd 06e4 ac3d 9f99 2a3d
00000030: 5457 173d c6a1 e63d 4abd 04be 961e 683d
00000040: b900 b0bd 657b babd 5e77 c5bd 4f7c d7bd
00000050: 27af a03d f9dc 263b c28f 483d ad14 f03d
00000060: 6e88 4fbd 5289 ee3d 7a79 e43d 4493 233e
00000070: 7d77 c2bd 5517 cc3d b0ab 8f3d 07a2 d4bc
00000080: ba48 b4bd b75c 9c3d 6fdf 173e 60a1 76bc
00000090: b851 233e 9f60 093e 846e f93d 4bc5 343d
000000a0: c963 3ebc 2048 9b3b 2901 fdbd f3ed 6fbd
000000b0: 044f 0e3e 0557 fe3d a060 02bb 5000 4a3d
000000c0: 76a9 6a3d 82e7 edbd 22ae c63d 6fc9 c5bd
000000d0: 0641 e23d e96f 07be 1661 efbd d97c 843d
000000e0: c979 ed3d 82fc f6bd 8034 5bbd 1c34 6cbd
000000f0: 2a2d e1bd 00de 023e 344e b8bd 98b2 1b3d
00000100: a8ee 583d 6870 3fbc 5ddd 1e3e 1c2f 13be
00000110: 08df 01be ca94 dd3c 6339 933d 3e04 39bd
00000120: e8b3 e13d e45b dbbd d6d0 093e d18d dfbd
00000130: 5f94 133e d8ba 0bbe a949 1d3e b8ab cabd
00000140: 7b9f ef3d 79b0 c13d e1df fd3d be0f d8bd
00000150: 1677 043e fdbe 9cbc 9cbb 093e f269 cfbd
00000160: b2a4 d1bd cee8 0ebe 4eb7 883d 4031 c13d
00000170: 42ea cd3d e907 053e 6432 da3d 0bda 0b3e
00000180: 7bfb 4e3d 1ecc fabd c5d6 a9bd 5123 e7bd
00000190: ba33 dabd 23b8 0e3e 6ed6 943d af66 a03d
000001a0: b41a 323d 1742 bfbd 3e92 213e 63a4 f13d
000001b0: c0cf 8cbc 9eed 8bbd 88ce a4bd 85b1 263d
000001c0: 3ad1 87bc 594a 453d b933 083e 67a4 e5bc
000001d0: 1e81 f7bd a14e dd3c 6821 73bc 640e 023e
000001e0: 1aa3 143e f817 a5bd 1ade acbd c134 bcbd
000001f0: 3878 1fbc bf8e e7bc a3eb 843d b419 1fbe
00000200: c0ce 153e 4a4f 1c3d 059a fc3d 796d e8bd
00000210: 4985 6bbd 443f 03be f0f3 5dbd 97cc 9ebd
00000220: fc04 42bd 66d9 ce3b 55f6 b3bd ce36 debd
00000230: 7deb 82bd bb95 de3d 2a67 bc3d 0041 043e
00000240: 9420 c63d 44dc 00be 50f8 0cbe 3bfa f33d
00000250: cb5a efbd a3ed c63d 1e1d adbd 4db4 cd3d
00000260: 02f5 aabd 386b 05be a861 f53d e65f 04be
00000270: ceba b33d d7e2 27bd ff23 c53d dc85 0d3e
00000280: 1880 ed3d d6d7 db3d 4951 aebd 7e0a f83d
00000290: e324 02be 779c 233d a005 fdbd a238 a6bd
000002a0: 53aa e6bd 6818 a43c a906 94bd f749 0d3d
000002b0: 6e23 0d3e 04e6 b6bd ddd2 95bd 357f 893b
000002c0: c705 cd3d 2682 e0bc 9cf4 00be a9dd 21be
000002d0: 5ecb f03d 8405 343d 00d0 1c3e 743b ddbc
000002e0: 6707 eb3c 3bcd 0c3e 22af ed3d 679d d8bd
000002f0: 9208 e1bb d3db 00be e0a1 003e 5580 a8bd
00000300: d582 073d 8783 30bd 69cd e43d 50dd babd
00000310: eb13 143e 553e f8bb 0a21 f13d 9f2b 083e
00000320: 657e 91bd eb62 493d 0169 f6bd 71e6 153b
00000330: adf9 863d 9397 a93d d771 0dbd b935 5cbc
00000340: bedb 173e 76fd 95bd ce61 a9bd 4c93 033e
00000350: cb9f 60bd 2441 cebd 784e 3dbd a6d9 f83d
00000360: a043 0b3e 7d52 03be 4112 f83d 3e1c b2bd
00000370: 625c 69bd 102e 3cbc f3dc ef3d 2aca c33d
00000380: 043b 00be 5806 243e b94d c5bc b15b e33d
00000390: 5169 ba3d f0fa a73d 82d7 00be ea74 47bd
000003a0: d69d 143e 5bb2 f43c 0d7b a6bd c6ae 823d
000003b0: 040f 98bd 0229 223d 7415 debd edfd 14be
000003c0: 0ee1 eabc cf87 9b3d ffa2 f83d 0fdb ae3d
000003d0: 8d3e 0fbd c3dd a63d fa3a d9bd 5d5e f5bd
000003e0: 1160 dabd f591 21bd a503 c8bd a82f 9fbd
000003f0: fef2 a73d 304f fc3d e58d 083e eac4 fbbd

base.4.bias f4 [3]
0.03168796 0.010392142 -0.015783034
00000000: 3ccb 013d ce43 2a3c 6c4b 81bc

exp_avg f4 [256, 6]
-6e-45 6e-45 6e-45 6e-45 0.0 0.0 -0.0048219343 0.0040220977
-0.00034527213 -0.004699046 0.0 0.0 -0.0009371813 0.0007804391 -6.6941335e-05 -0.000911823
0.0 0.0 -6e-45 6e-45 -6e-45 -6e-45 0.0 0.0
-2.0284745e-15 6.6229904e-15 1.2030982e-16 -8.1830294e-15 0.0 0.0 0.0014453282 -0.001207868
0.000103752776 0.0014111329 0.0 0.0 -0.0014161742 0.0011799439 -0.0001012583 -0.0013785551
0.0 0.0 6e-45 6e-45 6e-45 -6e-45 0.0 0.0
-2.1074591e-05 8.719811e-06 -1.231012e-06 -6.89757e-06 0.0 0.0 -6e-45 -6e-45
6e-45 6e-45 0.0 0.0 0.0011921707 -0.0009967595 8.563301e-05 0.0011644806
0.0 0.0 -7.7994425e-24 1.287545e-23 1.2350064e-24 -1.4574522e-23 0.0 0.0
-0.002741942 0.0023009477 -0.00018927391 -0.0027184496 0.0 0.0 6e-45 6e-45
6e-45 -6e-45 0.0 0.0 -0.00017995923 0.00014861206 -1.2701542e-05 -0.00017365444
0.0 0.0 0.00059371075 -0.00049734215 4.2757365e-05 0.0005810203 0.0 0.0
-6e-45 -6e-45 6e-45 6e-45 0.0 0.0 -0.0013625761 0.0011352819
-9.7418924e-05 -0.0013263777 0.0 0.0 0.003767635 -0.002887755 0.00025966554 0.0033467861
0.0 0.0 -0.0008257623 -0.000100603684 -9.358964e-05 0.00047650668 0.0 0.0
6e-45 6e-45 -6e-45 -6e-45 0.0 0.0 -0.00019891921 -2.4709405e-05
-2.2192235e-05 0.00011351763 0.0 0.0 -0.0029925734 0.0024953873 -0.00021418408 -0.0029154047
0.0 0.0 0.0016805253 -0.0014039732 0.000120578 0.0016402513 0.0 0.0
-1.0073591e-15 -2.0628515e-15 1.842076e-16 2.7949887e-15 0.0 0.0 0.0058766454 -0.0049055577
0.00042121497 0.005731169 0.0 0.0 -0.00060842483 0.0005057977 -4.3390595e-05 -0.0005908022
0.0 0.0 0.0021988337 -0.0018364053 0.00015772253 0.002145448 0.0 0.0
-0.0018887246 0.0015743035 -0.00013511314 -0.0018392876 0.0 0.0 -6e-45 -6e-45
6e-45 6e-45 0.0 0.0 -0.00014850494 -1.868568e-05 -1.6511985e-05 8.495094e-05
0.0 0.0 -0.001595567 0.0013296943 -0.00011411489 -0.001553511 0.0 0.0
1.0245466e-12 2.4362565e-12 -7.647966e-14 -2.9977416e-12 0.0 0.0 -0.0006659209 0.00055392267
-4.7501802e-05 -0.0006471753 0.0 0.0 0.0017485982 -0.0014609783 0.00012548068 0.0017068496
0.0 0.0 0.0020590518 -0.0017198571 0.00014771544 0.0020092935 0.0 0.0
1.326656e-10 -3.2706274e-10 2.9822982e-12 3.9195827e-10 0.0 0.0 1.7598068e-13 4.1841013e-13
-1.3157282e-14 -5.1485536e-13 0.0 0.0 -0.0015692457 0.0013077045 -0.00011221892 -0.0015278304
0.0 0.0 -0.0002322195 0.00019204573 -1.6453538e-05 -0.0002243754 0.0 0.0
6e-45 6e-45 6e-45 -6e-45 0.0 0.0 -0.0006899931 0.0005738802
-4.9217862e-05 -0.00067049736 0.0 0.0 -0.0016336663 0.0013614511 -0.00011683631 -0.0015906156
00000000: 0400 0080 0400 0000 0400 0000 0400 0000
00000010: 0000 0000 0000 0000 5101 9ebb cdcb 833b
00000020: a405 b5b9 74fa 99bb 0000 0000 0000 0000
00000030: 2cad 75ba 6296 4c3a db62 8cb8 6807 6fba
00000040: 0000 0000 0000 0000 0400 0080 0400 0000
00000050: 0400 0080 0400 0080 0000 0000 0000 0000
00000060: c02a 12a7 4e9e ee27 31b5 0a25 9069 13a8
00000070: 0000 0000 0000 0000 2b71 bd3a 5351 9eba
00000080: d995 d938 c3f5 b83a 0000 0000 0000 0000
00000090: ec9e b9ba 59a8 9a3a a35a d4b8 a2b0 b4ba
000000a0: 0000 0000 0000 0000 0400 0000 0400 0000
000000b0: 0400 0000 0400 0080 0000 0000 0000 0000
000000c0: 57c9 b0b7 4e4b 1237 4039 a5b5 ad71 e7b6
000000d0: 0000 0000 0000 0000 0400 0080 0400 0080
000000e0: 0400 0000 0400 0000 0000 0000 0000 0000
000000f0: 9c42 9c3a b3a5 82ba df95 b338 7ca1 983a
00000100: 0000 0000 0000 0000 f8dc 1699 240c 7919
00000110: a51b bf17 c5f4 8c99 0000 0000 0000 0000
00000120: 27b2 33bb 7fcb 163b d477 46b9 0428 32bb
00000130: 0000 0000 0000 0000 0400 0000 0400 0000
00000140: 0400 0000 0400 0080 0000 0000 0000 0000
00000150: 70b3 3cb9 bfd4 1b39 b518 55b7 0217 36b9
00000160: 0000 0000 0000 0000 41a3 1b3a 1160 02ba
00000170: 5f56 3338 9d4f 183a 0000 0000 0000 0000
00000180: 0400 0080 0400 0080 0400 0000 0400 0000
00000190: 0000 0000 0000 0000 7898 b2ba bdcd 943a
000001a0: 634d ccb8 dad9 adba 0000 0000 0000 0000
000001b0: 6dea 763b 7d40 3dbb b823 8839 c155 5b3b
000001c0: 0000 0000 0000 0000 f877 58ba 31fb d2b8
000001d0: 8e45 c4b8 a5d3 f939 0000 0000 0000 0000
000001e0: 0400 0000 0400 0000 0400 0080 0400 0080
000001f0: 0000 0000 0000 0000 f894 50b9 0b47 cfb7
00000200: 7629 bab7 5010 ee38 0000 0000 0000 0000
00000210: 0d1f 44bb a789 233b 9a96 60b9 6010 3fbb
00000220: 0000 0000 0000 0000 1245 dc3a 8605 b8ba
00000230: d2de fc38 b3fd d63a 0000 0000 0000 0000
00000240: fe2c 91a6 e5a4 14a7 7d60 5425 7166 4927
00000250: 0000 0000 0000 0000 e090 c03b cdbe a0bb
00000260: 84d6 dc39 88cc bb3b 0000 0000 0000 0000
00000270: b37e 1fba 8297 043a 4cfe 35b8 11e0 1aba
00000280: 0000 0000 0000 0000 4f1a 103b 89b3 f0ba
00000290: 5262 2539 a59a 0c3b 0000 0000 0000 0000
000002a0: 158f f7ba dc58 ce3a 28ad 0db9 4014 f1ba
000002b0: 0000 0000 0000 0000 0400 0080 0400 0080
000002c0: 0400 0000 0400 0000 0000 0000 0000 0000
000002d0: feb7 1bb9 31bf 9cb7 3883 8ab7 b027 b238
000002e0: 0000 0000 0000 0000 5822 d1ba 2349 ae3a
000002f0: f750 efb8 2e9f cbba 0000 0000 0000 0000
00000300: 2e31 902b b26f 2b2c 8637 aca9 83f2 52ac
00000310: 0000 0000 0000 0000 3291 2eba 1f35 113a
00000320: ac3c 47b8 33a7 29ba 0000 0000 0000 0000
00000330: 3831 e53a 4c7e bfba 7793 0339 5eb8 df3a
00000340: 0000 0000 0000 0000 28f1 063b d46c e1ba
00000350: 10e4 1a39 5aae 033b 0000 0000 0000 0000
00000360: 0cde 112f fdcd b3af 4fdc 512c 397b d72f
00000370: 0000 0000 0000 0000 fa22 462a 418b eb2a
00000380: 4105 6da8 3deb 10ab 0000 0000 0000 0000
00000390: 26af cdba 4867 ab3a 1357 ebb8 7b41 c8ba
000003a0: 0000 0000 0000 0000 f37f 73b9 e25f 4939
000003b0: b405 8ab7 5046 6bb9 0000 0000 0000 0000
000003c0: 0400 0000 0400 0000 0400 0000 0400 0080
000003d0: 0000 0000 0000 0000 a7e0 34ba 7370 163a
000003e0: 476f 4eb8 51c4 2fba 0000 0000 0000 0000
000003f0: bf20 d6ba b872 b23a 0406 f5b8 347c d0ba

exp_avg_sq f4 [256, 6]
3.463845e-08 4.1053518e-08 4.4559756e-10 4.7186596e-08 0.0 0.0 1.2306914e-05 3.9781677e-05
4.1021366e-07 6.336351e-05 0.0 0.0 4.6470512e-07 1.2613276e-06 1.4439362e-08 2.0640998e-06
0.0 0.0 1.9339873e-11 2.1253602e-10 3.450398e-13 3.8736386e-10 0.0 0.0
6.914426e-11 9.2590074e-10 3.755908e-12 1.3415706e-09 0.0 0.0 1.1657537e-06 3.7750103e-06
3.948121e-08 6.0232937e-06 0.0 0.0 1.0448057e-06 3.2991018e-06 3.3968465e-08 5.2803275e-06
0.0 0.0 4.035e-08 6.636775e-07 3.4660227e-10 9.242739e-07 0.0 0.0
6.0169547e-10 1.3295074e-09 2.3794907e-11 2.1484174e-09 0.0 0.0 7e-43 7e-43
7e-43 7e-43 0.0 0.0 7.9371375e-07 2.5744773e-06 2.6963006e-08 4.113205e-06
0.0 0.0 6.918464e-07 1.8603689e-06 3.7988432e-08 2.9720038e-06 0.0 0.0
3.2784685e-06 1.0220048e-05 1.0565443e-07 1.5663878e-05 0.0 0.0 5.9570476e-10 8.2247936e-10
4.8670764e-12 1.3345655e-09 0.0 0.0 1.5049661e-08 4.4455366e-08 4.4207535e-10 7.152881e-08
0.0 0.0 2.0551828e-07 6.7505636e-07 7.143934e-09 1.0760966e-06 0.0 0.0
7e-43 7e-43 7e-43 7e-43 0.0 0.0 9.707545e-07 3.0691103e-06
3.1605126e-08 4.9109476e-06 0.0 0.0 4.9131636e-06 8.964024e-06 1.6229177e-07 1.572486e-05
0.0 0.0 2.658232e-06 7.4704644e-06 7.727653e-08 1.064335e-05 0.0 0.0
7e-43 7e-43 7e-43 7e-43 0.0 0.0 1.4872293e-07 3.8842504e-07
4.8190025e-09 5.7574454e-07 0.0 0.0 4.77086e-06 1.5199413e-05 1.5714963e-07 2.4292238e-05
0.0 0.0 1.5826798e-06 5.1359025e-06 5.3661136e-08 8.185334e-06 0.0 0.0
5.2638455e-10 6.8253363e-09 8.3648375e-12 9.770935e-09 0.0 0.0 1.8738321e-05 6.0110055e-05
6.248404e-07 9.6032556e-05 0.0 0.0 1.7547178e-07 5.046804e-07 5.363294e-09 7.868761e-07
0.0 0.0 2.51729e-06 7.077063e-06 8.463402e-08 1.1604705e-05 0.0 0.0
1.8718708e-06 5.925602e-06 6.112317e-08 9.483905e-06 0.0 0.0 1.2079179e-08 4.6102492e-08
1.5522536e-10 6.191377e-08 0.0 0.0 7.963317e-08 2.0912827e-07 2.5397369e-09 3.1487633e-07
0.0 0.0 1.3276185e-06 4.194166e-06 4.320874e-08 6.714911e-06 0.0 0.0
1.19029675e-08 1.270267e-07 2.9562472e-10 1.541301e-07 0.0 0.0 2.24777e-07 7.0082535e-07
7.160888e-09 1.1232903e-06 0.0 0.0 1.6937448e-06 5.4717852e-06 5.714906e-08 8.734215e-06
0.0 0.0 2.3020546e-06 7.3549236e-06 7.720688e-08 1.1770272e-05 0.0 0.0
1.03205814e-07 7.614859e-07 3.0681664e-09 8.942191e-07 0.0 0.0 4.4828546e-10 4.8287063e-09
1.2518021e-11 5.9074554e-09 0.0 0.0 1.2823707e-06 4.049301e-06 4.1703778e-08 6.483332e-06
0.0 0.0 2.4034168e-08 6.994763e-08 7.059527e-10 1.1091175e-07 0.0 0.0
7e-43 7e-43 7e-43 7e-43 0.0 0.0 2.3911127e-07 7.449505e-07
7.594544e-09 1.1938012e-06 0.0 0.0 1.393956e-06 4.40546e-06 4.5394028e-08 7.0523697e-06
00000000: 61c5 1433 d252 3033 48f8 f42f 36aa 4a33
00000010: 0000 0000 0000 0000 cb79 4e37 40db 2638
00000020: 563b dc34 07e2 8438 0000 0000 0000 0000
00000030: 967c f934 e34a a935 fc10 7832 f784 0a36
00000040: 0000 0000 0000 0000 861d aa2d 92af 692f
00000050: 7a3d c22a 9ef4 d42f 0000 0000 0000 0000
00000060: c20c 982e 7982 7e30 3626 842c 5262 b830
00000070: 0000 0000 0000 0000 fe76 9c35 2f56 7d36
00000080: 0d92 2933 b31b ca36 0000 0000 0000 0000
00000090: 403b 8c35 2366 5d36 b9e4 1133 ab2d b136
000000a0: 0000 0000 0000 0000 4b4d 2d33 9227 3235
000000b0: ef8b be2f 9e1b 7835 0000 0000 0000 0000
000000c0: 8e64 2530 e2b9 b630 5e4d d12d 5ca3 1331
000000d0: 0000 0000 0000 0000 f401 0000 f401 0000
000000e0: f401 0000 f401 0000 0000 0000 0000 0000
000000f0: 980f 5535 2fc5 2c36 479c e732 2904 8a36
00000100: 0000 0000 0000 0000 53b7 3935 cab1 f935
00000110: b928 2333 a372 4736 0000 0000 0000 0000
00000120: a903 5c36 c676 2b37 23e4 e233 ec65 8337
00000130: 0000 0000 0000 0000 ffbe 2330 d714 6230
00000140: ba3e ab2c d96b b730 0000 0000 0000 0000
00000150: 8e46 8132 31ef 3e33 9308 f32f 619b 9933
00000160: 0000 0000 0000 0000 6fac 5c34 8535 3535
00000170: b576 f531 666e 9035 0000 0000 0000 0000
00000180: f401 0000 f401 0000 f401 0000 f401 0000
00000190: 0000 0000 0000 0000 df4a 8235 eaf6 4d36
000001a0: 34be 0733 b8c8 a436 0000 0000 0000 0000
000001b0: c1db a436 3164 1637 6c42 2e34 e1e8 8337
000001c0: 0000 0000 0000 0000 1464 3236 cdaa fa36
000001d0: 39f3 a533 d790 3237 0000 0000 0000 0000
000001e0: f401 0000 f401 0000 f401 0000 f401 0000
000001f0: 0000 0000 0000 0000 a6b0 1f34 bb88 d034
00000200: 6594 a531 dd8c 1a35 0000 0000 0000 0000
00000210: 6015 a036 fb00 7f37 f6bc 2834 2fc7 cb37
00000220: 0000 0000 0000 0000 776c d435 1155 ac36
00000230: 0b79 6633 be53 0937 0000 0000 0000 0000
00000240: 05b1 1030 4b84 ea31 e127 132d 07dd 2732
00000250: 0000 0000 0000 0000 3d30 9d37 ae1e 7c38
00000260: b5ba 2735 1665 c938 0000 0000 0000 0000
00000270: 5169 3c34 5f79 0735 0848 b831 b739 5335
00000280: 0000 0000 0000 0000 b7ee 2836 8277 ed36
00000290: 0bc0 b533 d4b1 4237 0000 0000 0000 0000
000002a0: fe3c fb35 89d4 c636 d142 8333 101d 1f37
000002b0: 0000 0000 0000 0000 cb84 4f32 3a02 4633
000002c0: 0eac 2a2f 74f5 8433 0000 0000 0000 0000
000002d0: cc02 ab33 be8c 6034 8687 2e31 460c a934
000002e0: 0000 0000 0000 0000 a030 b235 9dbb 8c36
000002f0: 8394 3933 a550 e136 0000 0000 0000 0000
00000300: ce7d 4c32 d564 0834 7b85 a22f f67e 2534
00000310: 0000 0000 0000 0000 3b5a 7134 5a20 3c35
00000320: d60b f631 f6c3 9635 0000 0000 0000 0000
00000330: a154 e335 479a b736 0e74 7533 2b89 1237
00000340: 0000 0000 0000 0000 ff7c 1a36 50ca f636
00000350: eecc a533 ef78 4537 0000 0000 0000 0000
00000360: ffa1 dd33 ea68 4c35 c1d7 5231 450a 7035
00000370: 0000 0000 0000 0000 9272 f62f c0e9 a531
00000380: 2838 5c2d 87fa ca31 0000 0000 0000 0000
00000390: ec1d ac35 3bdf 8736 ca1d 3333 668b d936
000003a0: 0000 0000 0000 0000 b273 ce32 1e36 9633
000003b0: 010d 4230 612e ee33 0000 0000 0000 0000
000003c0: f401 0000 f401 0000 f401 0000 f401 0000
000003d0: 0000 0000 0000 0000 345f 8034 9cf8 4735
000003e0: 2879 0232 b23a a035 0000 0000 0000 0000
000003f0: f717 bb35 9dd2 9336 43f7 4233 65a3 ec36

exp_avg f4 [256]
-6e-45 0.03829159 0.0074411887 -6e-45 1.2026918e-14 -0.011479215 0.011245082 -6e-45
0.00016505926 6e-45 -0.009468908 3.6247452e-23 0.021734374 6e-45 0.0014278812 -0.004716315
-6e-45 0.010819438 -0.029833673 0.0067499112 -6e-45 0.0016252795 0.023763774 -0.013346833
4.970877e-15 -0.046669904 0.004830265 -0.017463014 0.014997779 -6e-45 0.0012129324 0.012669735
-5.913994e-12 0.0052869916 -0.0138876 -0.016352998 -9.152651e-10 -1.015687e-12 0.01246064 0.0018429683
-6e-45 0.0054781097 0.012972243 -2.6834745e-12 0.019055102 6e-45 0.00050871214 -6e-45
-6e-45 0.0026708257 -0.0057913777 6e-45 6e-45 -6e-45 -0.0018909015 -6e-45
-1.2205303e-10 0.010237413 -6e-45 -6e-45 6.796475e-05 -0.02416281 -0.009757391 6e-45
-6e-45 0.0065549165 0.032402515 -0.040712636 0.005462744 -6e-45 0.011789021 0.004187001
-0.016581727 0.010530393 -0.0004357824 -0.0039185714 -0.030630494 -6e-45 6e-45 0.003737954
-0.0053103976 -0.004874413 0.00028662343 -0.04456395 0.019433348 -0.003934581 6e-45 -6e-45
0.027465496 0.00026353775 0.0057356297 0.0033446169 6e-45 1.762452e-13 0.011436508 -0.025541369
-0.016777417 -1.05109055e-11 0.02676884 -0.0044902293 -6e-45 0.0021954956 -0.0011861791 -0.00031877993
-0.014172957 0.006944573 -0.0049479473 -0.015491213 -6e-45 0.0019466857 -0.012580035 -0.008468449
-0.0024477446 -0.014423282 -6e-45 0.0017984592 -6e-45 0.010196651 -6e-45 -0.00031332855
6e-45 1.2217034e-09 -0.0077713327 0.00054687273 0.00035850916 -0.017307045 0.00492593 -0.026481358
5.433016e-14 0.00014574153 -6e-45 -6e-45 -0.00012222165 0.00045567018 -0.005577735 0.009819375
6e-45 -0.00032793166 0.0060949367 -0.00341728 -6e-45 0.005261409 -5.343807e-06 -0.027961234
-0.011313616 0.01144331 0.013960991 0.00929226 0.0052137002 -6e-45 0.01714422 0.00019713333
1.0849567e-09 0.0 -6e-45 -0.00982249 0.033124078 0.0040658154 -0.012154124 -0.00020278897
-0.0013640389 -0.04047496 -0.000103914084 1.8201769e-10 -0.01109548 -0.0022914258 1.403e-42 -0.052105285
-4.794736e-11 -0.013779037 -0.008175403 -1.3499981e-05 -6e-45 0.018177439 -0.00090489694 6e-45
0.0076955054 -0.020411767 -1.3892342e-09 -0.0011839425 0.005703655 0.008012356 6e-45 0.011779187
6e-45 -6e-45 8.293669e-12 1.6203066e-14 1.2566328e-05 -6e-45 2.370368e-13 0.00011885074
-0.0006966741 1.4649341e-13 -6e-45 -0.007855142 0.0019189101 1.2911766e-05 -0.00022094788 -6e-45
0.0067957295 0.033136006 0.013400079 8.893908e-06 0.0001297983 6e-45 -0.0016042718 0.010179736
0.01972425 -0.0032198257 -3.2881257e-11 6e-45 -6e-45 -0.0115608955 6e-45 0.00476035
-0.006429888 -0.025290227 0.014000413 0.017038753 -0.007563266 -0.0004768337 -0.0074823513 6e-45
-0.0020362188 0.010106658 -6e-45 0.00024701183 -0.03593686 -0.029254207 -0.011238686 6e-45
3.8106307e-10 6e-45 -0.0025790082 1.5148243e-09 6e-45 6e-45 -0.016178023 0.0056731394
-6e-45 -2.137091e-11 -0.002608052 0.013674834 0.0133328065 6e-45 0.0058366386 5.2234125e-05
-0.0070681083 0.013021018 0.0015319809 6e-45 0.011403091 -0.02768697 -0.00029278637 6e-45
00000000: 0400 0080 a4d7 1c3d 37d5 f33b 0400 0080
00000010: 5fa8 5828 5113 3cbc 4b3d 383c 0400 0080
00000020: c213 2d39 0400 0000 7b23 1bbc 2c48 2f1a
00000030: 490c b23c 0400 0000 be27 bb3a 518b 9abb
00000040: 0400 0080 0344 313c bf65 f4bc 5c2e dd3b
00000050: 0400 0080 5507 d53a 3fac c23c adac 5abc
00000060: 3f18 b327 f128 3fbd 3347 9e3b 980e 8fbc
00000070: 3fb9 753c 0400 0080 42fb 9e3a b894 4f3c
00000080: 8614 d0ac 803e ad3b d188 63bc b9f6 85bc
00000090: 0e96 7bb0 fbf1 8eab b627 4c3c c18f f13a
000000a0: 0400 0080 b781 b33b 8889 543c 2ed5 3cac
000000b0: 7219 9c3c 0400 0000 185b 053a 0400 0080
000000c0: 0400 0080 0509 2f3b 99c5 bdbb 0400 0000
000000d0: 0400 0000 0400 0080 20d8 f7ba 0400 0080
000000e0: e032 06af d3ba 273c 0400 0080 0400 0080
000000f0: 4c88 8e38 16f1 c5bc 77dd 1fbc 0400 0000
00000100: 0400 0080 a0ca d63b 80b8 043d 4bc2 26bd
00000110: d100 b33b 0400 0080 bd26 413c 1c33 893b
00000120: 67d6 87bc ab87 2c3c b979 e4b9 5c67 80bb
00000130: cdec fabc 0400 0080 0400 0000 76f8 743b
00000140: d802 aebb 8ab9 9fbb f245 9639 b088 36bd
00000150: af32 9f3c a8ed 80bb 0400 0000 0400 0080
00000160: 52ff e03c 702b 8a39 f3f1 bb3b 5c31 5b3b
00000170: 0400 0000 386f 462a 3160 3b3c 223c d1bc
00000180: cb70 89bc e9e8 38ad 544a db3c c622 93bb
00000190: 0400 0080 4ee2 0f3b 9179 9bba eb21 a7b9
000001a0: b135 68bc 4d8f e33b 6422 a2bb dbce 7dbc
000001b0: 0400 0080 ef27 ff3a 7e1c 4ebc 40bf 0abc
000001c0: 576a 20bb a14f 6cbc 0400 0080 47ba eb3a
000001d0: 0400 0080 db0f 273c 0400 0080 3f46 a4b9
000001e0: 0400 0000 dee8 a730 aaa6 febb 025c 0f3a
000001f0: 49f6 bb39 81c7 8dbc b269 a13b 6fef d8bc
00000200: 69ae 7429 32d2 1839 0400 0080 0400 0080
00000210: a028 00b9 04e7 ee39 6fc5 b6bb 72e1 203c
00000220: 0400 0000 3eee abb9 09b8 c73b 72f4 5fbb
00000230: 0400 0080 e667 ac3b f44e b3b6 f50e e5bc
00000240: bf5c 39bc b97c 3b3c a4bc 643c 903e 183c
00000250: b0d7 aa3b 0400 0080 0972 8c3c 93b5 4e39
00000260: 851d 9530 0000 0000 0400 0080 82ee 20bc
00000270: 1dad 073d 883a 853b 1722 47bc c0a3 54b9
00000280: 8dc9 b2ba 12c9 25bd 73ec d9b8 6d21 482f
00000290: d1c9 35bc bf2b 16bb e903 0000 5a6c 55bd
000002a0: eedf 52ae 78c1 61bc 20f2 05bc fa7d 62b7
000002b0: 0400 0080 dae8 943c 9b36 6dba 0400 0000
000002c0: 942a fc3b 9436 a7bc 55ef beb0 852e 9bba
000002d0: bae5 ba3b 4246 033c 0400 0000 7efd 403c
000002e0: 0400 0000 0400 0080 5de7 112d baf1 9128
000002f0: f8d3 5237 0400 0080 9a70 852a 813f f938
00000300: 02a1 36ba daef 242a 0400 0080 dab2 00bc
00000310: f083 fb3a 9d9f 5837 3fae 67b9 0400 0080
00000320: b6ae de3b 9fb9 073d 018c 5b3c 0b37 1537
00000330: 771a 0839 0400 0000 6e46 d2ba e8c8 263c
00000340: c094 a13c b603 53bb 019d 10ae 0400 0000
00000350: 0400 0080 e969 3dbc 0400 0000 b6fc 9b3b
00000360: cfb1 d2bb 732d cfbc fd61 653c db94 8b3c
00000370: 46d5 f7bb 89ff f9b9 832e f5bb 0400 0000
00000380: 1572 05bb 6596 253c 0400 0080 5e81 8139
00000390: 8732 13bd 85a6 efbc 7722 38bc 0400 0000
000003a0: dc7d d12f 0400 0000 9404 29bb 2432 d030
000003b0: 0400 0000 0400 0000 c687 84bc bee5 b93b
000003c0: 0400 0080 03fb bbad daeb 2abb 690c 603c
000003d0: d871 5a3c 0400 0000 4641 bf3b f715 5b38
000003e0: 979b e7bb 1c56 553c c0cc c83a 0400 0000
000003f0: 08d4 3a3c c9cf e2bc 1f81 99b9 0400 0000
