assets/section_1/actor_critic/cart_pole/models/cartpole_exp/episode_best/critic.pth (torch, 820786 bytes, 15 tensors)

net.0.weight f4 [256, 6]
0	0xbe91c1a1	-0.2846804
1	0x3e8ff551	0.2811685
2	0x3e8136c0	0.25237083
3	0xbd757cde	-0.059933536
4	0x3ea0c307	0.31398794
5	0xbe7cdf66	-0.24694595
6	0xbed33ac7	-0.4125578
7	0xbe718210	-0.23584771
8	0xbf439713	-0.76402396
9	0xbe861f99	-0.26195982
10	0x3e776d6f	0.2416284
11	0x3e992ddd	0.29917803
12	0x3ddc1cdf	0.10747694
13	0x3e6c6018	0.23083532
14	0x3c209f56	0.009803614
15	0x3e1c7e63	0.15282588
16	0xbd045767	-0.032309916
17	0x3ecf862e	0.40532058
18	0xbefa77fa	-0.4891966
19	0xbd583434	-0.05278416
20	0xbeab7572	-0.3348804
21	0x3d9592ec	0.07303414
22	0xbd44f320	-0.048083425
23	0xbebde1f9	-0.37086466
24	0xbec66890	-0.3875165
25	0xbe1ec3be	-0.15504357
26	0x3e196db2	0.14983252
27	0xbe720325	-0.23634012
28	0xbeb6412b	-0.35596594
29	0xbc060c55	-0.008181651
30	0xbeb9aaf1	-0.3626323
31	0xbeb56de0	-0.3543539
32	0xbe193fe2	-0.14965776
33	0x3e565aa3	0.20933013
34	0xbddc7f17	-0.10766428
35	0xbd984803	-0.0743561
36	0x3e19db87	0.1502515
37	0xbe8b271e	-0.27178282
38	0xbdcc8af4	-0.09987441
39	0xbe34da68	-0.1766144
40	0x3d7f82ab	0.062380474
41	0x3c62add8	0.013835393
42	0x3dfce4c9	0.12348325
43	0xbe5c60e3	-0.21521334
44	0x3ccfc7ec	0.025363885
45	0x3db36d0b	0.08761033
46	0x3ec4f505	0.38468185
47	0xbe9ec4f1	-0.3100963
48	0x3d4ffde9	0.050779257
49	0x3e830df5	0.25596586
50	0x3cc56577	0.024096234
51	0x3e44268f	0.19155334
52	0x3ec130ae	0.37732452
53	0xbe46d7be	-0.19418237
54	0x3daf71ac	0.08566603
55	0x3bafdc24	0.005366819
56	0x3e5cd938	0.21567237
57	0x3ca6ed38	0.020376787
58	0xbd54687b	-0.051857453
59	0xbb84d369	-0.0040535224
60	0x3d98781d	0.07444785
61	0xbe132181	-0.1436825
62	0xbd01dfd9	-0.03170762
63	0xbc4889ce	-0.012239886
64	0x3e75cdf0	0.2400434
65	0xbe4c3936	-0.19943699
66	0x3e8999b2	0.26875073
67	0x3e5ce664	0.21572262
68	0x3df6a8d4	0.1204392
69	0xbd88485b	-0.06654426
70	0x3944029e	0.00018692992
71	0x3e968bcb	0.2940353
72	0xbdea15ba	-0.11429925
73	0x3e540fe5	0.20709188
74	0x3e1968e1	0.14981414
75	0x3dd56a4d	0.10420666
76	0x3e4c8662	0.19973138
77	0xbe03c00f	-0.12866233
78	0x3edf39b9	0.43598726
79	0xbd12989c	-0.03579007
80	0xbd2ee5e0	-0.042699695
81	0x3e080a70	0.13285232
82	0xbe4b345a	-0.1984419
83	0xbd6d27ba	-0.057899214
84	0xbe7b55c1	-0.24544431
85	0x3e2b0580	0.16701317
86	0x3ddae3e2	0.106879964
87	0x3de79563	0.1130779
88	0xbe814f20	-0.2525568
89	0xbdb83ed7	-0.08996361
90	0xbc8ed581	-0.017435791
91	0xbe5c83d8	-0.2153467
92	0xbe32467b	-0.17409699
93	0x3eac61c2	0.33668333
94	0x3def11fc	0.11673352
95	0xbda3fc95	-0.080071606
96	0x3dc45f9d	0.09588549
97	0xbe67f03d	-0.22650237
98	0x3d5c3199	0.053758238
99	0xbe2761f4	-0.1634596
100	0xbe9be46f	-0.30447719
101	0xbe63620c	-0.2220537
102	0x3dc5178b	0.09623631
103	0xbe98cf7c	-0.29845798
104	0x3dbdce40	0.09267855
105	0x3db413ee	0.08792864
106	0xbe5e6a20	-0.21720171
107	0xbe439b2a	-0.19102159
108	0x3e4e821e	0.20166823
109	0x3bd32cb8	0.00644454
110	0x3cc75dd3	0.024336731
111	0xbe2fb671	-0.1715944
112	0xbd9c26bb	-0.07624575
113	0xbe408f6c	-0.18804711
114	0xbe4537b0	-0.19259524
115	0x3ddde5cf	0.10834848
116	0xbe464cf9	-0.193653
117	0xbcb82f18	-0.022483394
118	0xbe8405bc	-0.25785625
119	0x3e99bf38	0.300287
120	0x3ea6b9f9	0.3256376
121	0xbe616514	-0.22011214
122	0xbe8ab525	-0.27091327
123	0xbdaca02e	-0.08428989
124	0x3e22d04d	0.15899773
125	0x3e64c63e	0.22341248
126	0x3ed62392	0.41824013
127	0x3ccb7c7e	0.024839636
128	0xbd728575	-0.059209306
129	0x3d39921c	0.045305356
130	0xbecebfba	-0.4038065
131	0x3e0baa42	0.13639167
132	0xbdd49966	-0.10380821
133	0xbe86e58e	-0.2634701
134	0x3e22931c	0.1587643
135	0x3e9bf500	0.30460358
136	0xbdb93093	-0.09042468
137	0x3e907dbd	0.2822093
138	0xbec69478	-0.38785148
139	0xbea3480f	-0.31890914
140	0xbf0e3d08	-0.55561876
141	0xbe8f2431	-0.279573
142	0xbe87086e	-0.2637362
143	0x3ebb28bc	0.36554515
144	0xbeab0835	-0.334047
145	0x3ec336b1	0.38127664
146	0x3e435823	0.1907659
147	0xbec71abd	-0.38887587
148	0x3e46b089	0.1940328
149	0xbe049f0a	-0.12951294
150	0x3e4edca4	0.20201355
151	0xbc8259ab	-0.015911898
152	0x3ecb6b5d	0.3973035
153	0x366f5f22	3.566915e-06
154	0xbebc3205	-0.36756912
155	0x3c80e69c	0.015734963
156	0xbf005a33	-0.50137633
157	0xbd331422	-0.043720372
158	0xbec413fc	-0.38296497
159	0xbe84718d	-0.25867882
160	0x3dc77808	0.09739691
161	0x3eab22d4	0.3342501
162	0x3df1df1e	0.11810134
163	0x3e4a1f93	0.19738607
164	0x3ecd851f	0.40140626
165	0x3e23b0c3	0.15985398
166	0x3ec43b1b	0.38326344
167	0x3ddb1d1d	0.10698912
168	0x3e49ef9b	0.19720308
169	0xbd16f631	-0.03685588
170	0xbd17c43d	-0.03705238
171	0x3db1a0b1	0.086732276
172	0xbd79408c	-0.060852572
173	0x3eb3352c	0.35001504
174	0xbe2872e3	-0.16450076
175	0x3e7d1a24	0.24717003
176	0x3da0d1c4	0.078525096
177	0x3df190fc	0.11795232
178	0xbeb0eb0c	-0.34554327
179	0xbd101324	-0.035174504
180	0xbdfdfc48	-0.124016345
181	0xbe90ca99	-0.2827957
182	0x3e6c6ebf	0.23089121
183	0xbec42e0e	-0.38316387
184	0xbe85d05d	-0.2613553
185	0xbe68e076	-0.22741875
186	0x3d05f80f	0.03270727
187	0x3d4ec74b	0.05048303
188	0xbda641b0	-0.08117998
189	0xbd0ce339	-0.034396384
190	0x3c5f4465	0.013627146
191	0xbec9e24c	-0.39430463
192	0x3eaa9835	0.3331925
193	0x3ddd35fc	0.10801312
194	0x3eea1872	0.45721775
195	0x3d79fd1d	0.061032403
196	0xbde54cc6	-0.11196284
197	0x3e85ad8e	0.26108974
198	0xbe00987b	-0.12558167
199	0xbebba330	-0.3664794
200	0xbf10eaf4	-0.5660851
201	0xbe80eb75	-0.2517964
202	0x3eb87e49	0.36033848
203	0xbeaf942a	-0.34292728
204	0x3c8917c4	0.016734965
205	0xbe94d6ec	-0.29070222
206	0xbe2b9ab3	-0.16758232
207	0xbd4aab96	-0.049480043
208	0xbeb77fac	-0.35839593
209	0x3dafb12d	0.085787155
210	0xbe47f1b6	-0.19525799
211	0x3ed8d402	0.4234925
212	0x3e98096b	0.29694685
213	0x3e84dd81	0.25950244
214	0xbdd70326	-0.104986474
215	0x3ec9907b	0.39368042
216	0x3c7cb562	0.015424104
217	0xbeab0cdf	-0.33408257
218	0xbeb88153	-0.36036167
219	0xbdc1daeb	-0.094655834
220	0x3ecb58b3	0.3971611
221	0x3ea91ee8	0.33031392
222	0xbead887f	-0.338932
223	0x3e356eec	0.17718095
224	0x3d174db3	0.036939334
225	0x3d8e0fcf	0.06936609
226	0x3e3462f5	0.17615874
227	0xbd84ce76	-0.06484692
228	0xbe767e7e	-0.2407169
229	0xbe91e7e1	-0.28497222
230	0xbea75885	-0.32684723
231	0xbe511473	-0.20417957
232	0xbbd5c618	-0.0065238588
233	0x3d4071c6	0.046983503
234	0x3ea46dbb	0.32114968
235	0x3e866082	0.26245505
236	0xbded446c	-0.11585316
237	0xbe95bda2	-0.2924624
238	0xbeaca328	-0.33718228
239	0x3d9de5dd	0.077098586
240	0xbe3fdf35	-0.1873749
241	0xbd1a96eb	-0.037741583
242	0x3dc93ccd	0.0982605
243	0xbe9139b1	-0.28364328
244	0x3daede9f	0.08538555
245	0xbe611c72	-0.21983507
246	0xbedc1e80	-0.4299202
247	0xbe67420d	-0.2258379
248	0xbf3548d0	-0.7081423
249	0xbe35332d	-0.17695303
250	0x3e85871e	0.2607965
251	0xbea7c824	-0.32769883
252	0xbcced75e	-0.02524918
253	0x3ea11ec1	0.31468776
254	0xbdd0a228	-0.10187179
255	0x3eaa9bb7	0.33321926

net.0.bias f4 [256]
0	0xbec9c499	-0.39407805
1	0xbea12557	-0.314738
2	0x3ea43cd7	0.32077667
3	0xbdb6e31a	-0.08930035
4	0x3ec44b84	0.38338864
5	0xbea1226f	-0.31471583
6	0x3eb86923	0.36017713
7	0x3c8a9cdb	0.016920498
8	0x3e979c1b	0.29611287
9	0x3e895c36	0.26828164
10	0x3e95c5e5	0.29252544
11	0xbe034bb1	-0.12821843
12	0x3e2641de	0.16236064
13	0xbe2ec77c	-0.17068285
14	0x3ef93b1e	0.48677915
15	0xbedfcf6b	-0.43712935
16	0x3e84c28d	0.2592968
17	0x3efbdbcc	0.4919113
18	0x3eb36f93	0.35046062
19	0x3ef07763	0.46966085
20	0xbea27718	-0.31731486
21	0x3cbe036b	0.02319499
22	0xbeeda90b	-0.46418032
23	0xbe9166d2	-0.28398758
24	0xbec8d986	-0.39228457
25	0x3f0aa37a	0.54155695
26	0xbe1e92f6	-0.15485749
27	0xbe26a460	-0.16273642
28	0xbe0544a6	-0.13014469
29	0x3eb99617	0.36247322
30	0xbe9eae90	-0.30992556
31	0x3e82e68f	0.25566527
32	0xbe699ce9	-0.22813763
33	0x3d914778	0.0709371
34	0x3dced919	0.10100002
35	0x3ea3d7ca	0.3200057
36	0x3ea22fb9	0.31677034
37	0xbea3874d	-0.31939164
38	0xbd40d6a0	-0.047079682
39	0x3eb20704	0.34770977
40	0xbeabfdfb	-0.3359221
41	0xbe881d0f	-0.2658467
42	0xbe2e7f15	-0.17040665
43	0xbdd890df	-0.10574507
44	0xbe9f2ee8	-0.31090474
45	0x3eeb6aa9	0.45979813
46	0xbccbacc3	-0.024862653
47	0x3f15333b	0.58281296
48	0x3f02977d	0.510124
49	0x3ee697c5	0.45037666
50	0xbee7dfd6	-0.4528796
51	0x3e83983e	0.2570209
52	0xbe6351c4	-0.2219916
53	0x3ee3b34a	0.44472724
54	0xbe8692dc	-0.2628392
55	0x3eaa3e01	0.3325043
56	0xbe01361a	-0.12618294
57	0xbea29088	-0.31750894
58	0xbe2dd734	-0.16976625
59	0xbcd8d7c0	-0.026470065
60	0xbd9ae681	-0.075634964
61	0xbea22bd0	-0.3167405
62	0x3ea93433	0.33047637
63	0x3eedf7e3	0.46478185
64	0x3f001e1d	0.5004595
65	0x3ef383ec	0.47561586
66	0xbe831d9d	-0.2560853
67	0xbdf056a4	-0.117352754
68	0xbe82808a	-0.25488693
69	0xbdc4a0be	-0.09600972
70	0xbe0d63b5	-0.13807566
71	0xbea9a649	-0.33134678
72	0x3e8d3487	0.27579138
73	0xbe5c102d	-0.21490546
74	0x3d598369	0.053103838
75	0x3ac37ba3	0.0014914166
76	0x3ed1d18a	0.40980178
77	0x3ed6ef76	0.4197957
78	0xbe822e99	-0.25426176
79	0xbd86bd2f	-0.06579053
80	0x3efe6d73	0.49692878
81	0xbebfb715	-0.37444368
82	0xbeb376f0	-0.3505168
83	0x3ede9845	0.43475547
84	0xbed75bbb	-0.42062172
85	0x3edb64ba	0.42850286
86	0xbe084be6	-0.13310203
87	0xbea175b0	-0.315351
88	0x3ea24956	0.31696576
89	0x3ebff50a	0.37491637
90	0x3f0ef5c7	0.55843776
91	0xbe93f802	-0.28900152
92	0xbdef4140	-0.11682367
93	0x3e793a34	0.24338609
94	0x3e3b68d0	0.18301702
95	0x3f1a6385	0.60308105
96	0xbeb4350c	-0.35196722
97	0xbe9d35ad	-0.30705014
98	0xbe054aea	-0.13016859
99	0x3eb6a96a	0.35676128
100	0xbe4e7196	-0.20160517
101	0x3ef3f678	0.47648978
102	0x3f068660	0.5254879
103	0x3f03efad	0.5153759
104	0xbe1b8076	-0.15185723
105	0x3f0c8330	0.54887676
106	0x3f029a34	0.51016545
107	0xbdc88b6a	-0.09792216
108	0xbd34e7b1	-0.04416627
109	0xbe843781	-0.25823596
110	0x3eead5d7	0.45866272
111	0x3a934365	0.0011235295
112	0xbe46bd83	-0.1940823
113	0xbdb61b01	-0.08891869
114	0xbe00d594	-0.12581474
115	0xbccabb7a	-0.024747599
116	0x3edd9fad	0.43285885
117	0x3ef3b518	0.475991
118	0x3ed846fc	0.42241657
119	0x3efe4671	0.49663118
120	0x3f228316	0.6348127
121	0xbea6e76a	-0.3259843
122	0xbe39ba8f	-0.18137573
123	0xbe1ac187	-0.15112887
124	0x3dd9102a	0.10598786
125	0xbedc4ed2	-0.43028885
126	0xbe581fa1	-0.21105815
127	0x3ed10728	0.40825772
128	0xbdd0d076	-0.10196011
129	0xbea97b85	-0.3310205
130	0x3eb3a78f	0.35088775
131	0xbdad722f	-0.084690444
132	0xbe9bca46	-0.3042776
133	0xbdadc528	-0.0848487
134	0xbef2e8a8	-0.47443128
135	0x3edbfff7	0.42968723
136	0x3e910cdd	0.28330126
137	0x3f02c6af	0.5108442
138	0x3f1a5ed5	0.6030095
139	0xbec68d22	-0.3877955
140	0xbe9b6d38	-0.30356765
141	0x3ed49bfc	0.41525257
142	0x3ec743d5	0.3891894
143	0xbe509e42	-0.2037287
144	0x3e3c67a1	0.18398906
145	0xbd3f2431	-0.046665374
146	0xbecbef06	-0.39830798
147	0x3eaebb6a	0.3412736
148	0xbe851013	-0.25988826
149	0x3eedba40	0.4643116
150	0xbd59f119	-0.053208444
151	0x3ea8a070	0.32934904
152	0x3ed2a48a	0.41141158
153	0x3edb3875	0.4281651
154	0xbe6e52fb	-0.23273842
155	0xbea6bb40	-0.32564735
156	0xbec55718	-0.3854301
157	0x3e86ab6c	0.2630266
158	0x3ef6588b	0.48114428
159	0x3de3f012	0.11129774
160	0x3e9eec42	0.31039625
161	0x3f178bc7	0.5919766
162	0xbd5a3d39	-0.053281043
163	0xbeac4681	-0.3364754
164	0x3ec35377	0.38149616
165	0xbd9ffb18	-0.07811564
166	0xbde6a55e	-0.1126201
167	0xbe92b130	-0.28650808
168	0xbdf6dfaa	-0.12054379
169	0xbce5b88f	-0.028042106
170	0x3e91d258	0.28480792
171	0x3ede748e	0.434483
172	0xbeabccaf	-0.335546
173	0xbe094a2b	-0.13407199
174	0x3e98f7dc	0.29876602
175	0x3ee790df	0.45227715
176	0xbe83a63c	-0.25712764
177	0x3debc3d8	0.115119636
178	0x3f1715f0	0.5901785
179	0x3eaa22d5	0.332297
180	0x3e683e0a	0.22679916
181	0xbec18a5b	-0.3780087
182	0x3ef184da	0.4717167
183	0xbdcf2496	-0.101144
184	0xbe893a9f	-0.26802537
185	0x3e8bee37	0.2733018
186	0x3f03f50d	0.5154579
187	0xbe8bd4ef	-0.27310893
188	0x3ea40670	0.3203616
189	0x3ec2300d	0.37927285
190	0xbe0fccfe	-0.14043042
191	0x3f04621f	0.5171222
192	0x3ec866a0	0.39140797
193	0xbeddeb3f	-0.4334354
194	0x3f151e92	0.5824977
195	0xbd68c470	-0.056827962
196	0x3eed5e53	0.46361026
197	0xbe9b8d93	-0.3038145
198	0x3edd3487	0.43204138
199	0x3f0e818b	0.55666417
200	0xbdd3df5d	-0.103453375
201	0x3e19db53	0.15025072
202	0x3de47ba3	0.11156394
203	0x3eef9f54	0.46801245
204	0xbe759a40	-0.23984623
205	0xbda9cbec	-0.08290848
206	0x3ebcc2aa	0.36867267
207	0xbe90a96d	-0.28254262
208	0x3e35a63e	0.17739198
209	0xbddc75f1	-0.10764683
210	0x3dc57f8f	0.096434705
211	0xbdf95608	-0.12174612
212	0x3d876c0a	0.06612404
213	0x3c6a8b47	0.014315433
214	0x3efcf227	0.49403498
215	0x3df9c320	0.1219542
216	0x3ca62f76	0.020286303
217	0x3ee72122	0.45142466
218	0xbe69dcb8	-0.22838104
219	0x3eb12cec	0.34604585
220	0xbe8a27fa	-0.26983625
221	0x3ef3638b	0.47536883
222	0x3ed7e524	0.42167008
223	0xbd08b4f1	-0.033375684
224	0x3e772023	0.24133353
225	0x3ef74c96	0.48300618
226	0x3e8eb935	0.27875677
227	0x3eec5eec	0.4616617
228	0x3eac3e99	0.33641508
229	0xbeb7bc7d	-0.35885993
230	0xbe540b96	-0.20707545
231	0x3f007d41	0.5019112
232	0x3eafeca3	0.34360227
233	0xbc88739c	-0.01665669
234	0xbd6dd90c	-0.05806832
235	0xbe0b397a	-0.13596144
236	0x3edabe48	0.42723298
237	0x3ef48388	0.477566
238	0xbe71fff4	-0.23632795
239	0xbdc6ec04	-0.09712985
240	0x3ec4a04a	0.3840354
241	0xbd269933	-0.040673446
242	0xbec58dd7	-0.38584778
243	0xbe8b122b	-0.271623
244	0xbe9ffb01	-0.31246188
245	0xbe644c41	-0.22294714
246	0xbea1834f	-0.31545493
247	0x3f015e90	0.50534916
248	0xbec9df2e	-0.39428085
249	0xbec876d8	-0.3915317
250	0xbe42c581	-0.19020654
251	0x3eab5b49	0.33468083
252	0x3edd9e30	0.4328475
253	0xbe9ef920	-0.31049442
254	0x3e38b7c0	0.18038845
255	0x3e8e2301	0.2776108

net.2.weight f4 [256, 256]
0	0xbcf76e32	-0.030203912
1	0x3ad0e484	0.0015937244
2	0x3d3dfe51	0.046385113
3	0xbd91e51d	-0.07123778
4	0xbe0af699	-0.13570632
5	0xbdc83e46	-0.09777503
6	0x3c6cee97	0.014461181
7	0x3ca0f109	0.019646185
8	0x3c542965	0.012949322
9	0x3d9865ea	0.074413136
10	0x3da62c18	0.08113879
11	0x3de87cfa	0.113519624
12	0x3d74c2d7	0.059756126
13	0x3d1b5c4b	0.037929814
14	0xbe242028	-0.16027892
15	0x3cc16c9d	0.023611361
16	0xbdc4f9eb	-0.096179806
17	0x3dbe5ddd	0.09295247
18	0xbd093485	-0.033497352
19	0xbe4e1175	-0.20123847
20	0x3d93dd85	0.07219986
21	0x3d1622e2	0.03665436
22	0xbcb05f99	-0.02152996
23	0xbc991055	-0.018684546
24	0xbd458de2	-0.048231013
25	0x3d1a2800	0.037635803
26	0xbcf06e9f	-0.029349623
27	0x3d4d9d26	0.050198697
28	0x3c556732	0.013025092
29	0x3b3e9186	0.0029078438
30	0x3cd8c3a8	0.026460484
31	0xbd0803a7	-0.03320661
32	0x3d588435	0.052860457
33	0x3a99908f	0.0011716055
34	0x3ce73c26	0.028226923
35	0xbcfd4628	-0.030917242
36	0xbdf1bd9c	-0.11803743
37	0x3c872ca8	0.016500786
38	0xbdbc6608	-0.091991484
39	0x3d2001d2	0.039064236
40	0xbc9349cb	-0.017979523
41	0xbd5aeb2a	-0.053446926
42	0x3d1b6c55	0.03794511
43	0xbdc3b469	-0.09555895
44	0xbbc3afd9	-0.0059718904
45	0xbe84e7ef	-0.259582
46	0xbde8481d	-0.113418795
47	0x3d9b8af2	0.07594861
48	0xbd2821fc	-0.041048035
49	0xbb03298f	-0.0020013785
50	0x3d2aa300	0.041659355
51	0x3d763237	0.060106482
52	0xbbe1da20	-0.0068924576
53	0xbe2d43a4	-0.16920334
54	0x3e1e5d34	0.15465242
55	0x3c9c173b	0.019054046
56	0x3dddf06e	0.10836874
57	0x3c5e8b49	0.013583013
58	0x3dfecdd7	0.124416046
59	0x3dca4941	0.09877253
60	0xbddf5b8d	-0.10906134
61	0x3dad0122	0.08447482
62	0xbe1c8295	-0.15284188
63	0xbe8966d0	-0.26836252
64	0x3d9ac1ac	0.07556471
65	0x3d4d8361	0.05017412
66	0x3d0aaf52	0.033858605
67	0x3dfee36e	0.124457225
68	0xbbf0dd3b	-0.0073505915
69	0x3d415081	0.047195915
70	0x3dfe0e29	0.124050446
71	0xbd95852e	-0.07300793
72	0x3d93ddc0	0.0722003
73	0x3dcd1f67	0.10015755
74	0xbc9fcc3c	-0.019506566
75	0x3c821056	0.01587693
76	0x3d53b8e3	0.051689994
77	0xbd2e21ba	-0.042512633
78	0x3db231b2	0.08700885
79	0x3d9e867c	0.077404946
80	0xbde2156f	-0.110392444
81	0xbd96b3e3	-0.073585294
82	0xbcbfd670	-0.023417681
83	0xbea30e56	-0.31846875
84	0x3cd03c7d	0.025419468
85	0x3ced2b16	0.028951209
86	0xbe0db09c	-0.13836902
87	0x3c5a8972	0.013338434
88	0x3e019ef2	0.12658289
89	0xbdb93e6e	-0.09045111
90	0x3d88bc1e	0.066765055
91	0x3d459589	0.04823831
92	0x3dca3921	0.09874178
93	0xbcb69011	-0.022285493
94	0xbd8ff75d	-0.07029603
95	0xbe96bb0e	-0.29439586
96	0x3d8f4e95	0.0699741
97	0x3dc3dffc	0.09564206
98	0xbcd96e1e	-0.026541766
99	0x3dea45cd	0.11439095
100	0xbccfeda3	-0.025381869
101	0x3b9bd4ae	0.004755578
102	0xbba32df9	-0.0049798456
103	0xbe4dec19	-0.20109595
104	0xbce062b5	-0.027390817
105	0xbe7592a3	-0.23981719
106	0x3d92f9a7	0.07176524
107	0x3cf91b0f	0.03040841
108	0x3e0b2edc	0.13592094
109	0x3dc5fbec	0.09667191
110	0xbdfe321e	-0.12411903
111	0xbc6bf463	-0.014401528
112	0x3d400965	0.04688396
113	0x3dfd7531	0.12375868
114	0x3c2863c9	0.010277697
115	0xbd4bce85	-0.0497575
116	0xbd98c2ed	-0.07459054
117	0xbcdaff2b	-0.026733002
118	0x3a1d231b	0.0005994306
119	0xbea1d4e9	-0.3160775
120	0xbdf7fa88	-0.12108332
121	0x3d42da60	0.04757154
122	0x3cee9805	0.029125223
123	0x3d87df19	0.066343494
124	0x3d668755	0.056281406
125	0x3d4cedab	0.050031345
126	0xba992fb1	-0.0011687187
127	0x3d968a6e	0.07350622
128	0x3bd29e8b	0.006427591
129	0x3c0752a1	0.008259446
130	0xbcaf733e	-0.021417256
131	0x3c509934	0.012731839
132	0x3d25158e	0.04030376
133	0xbca33886	-0.019924413
134	0x3de66397	0.11249464
135	0xbda4c85c	-0.08046028
136	0x3cc74264	0.02432365
137	0xbe08fed2	-0.13378456
138	0x3dbb6d05	0.09151653
139	0xbd34b237	-0.04411527
140	0x3d59c8d3	0.053170037
141	0x3c978034	0.01849375
142	0xbe9172c5	-0.28407875
143	0x3d7b2e02	0.061323173
144	0xbe4c8757	-0.19973503
145	0xbe312cf0	-0.17302299
146	0xbbfcdec6	-0.0077169864
147	0x3d8b0483	0.0678797
148	0xbcc8f5a6	-0.024531197
149	0x3cd6a5ac	0.026202045
150	0x3daaa009	0.083313055
151	0xbdfde58a	-0.12397297
152	0xbe2e90de	-0.1704745
153	0x3dafa2e4	0.08575991
154	0x3dba5b1d	0.0909941
155	0xbbe561c6	-0.007000181
156	0xbd6a27f2	-0.057167
157	0x3d80780d	0.06272898
158	0xbadb9a6e	-0.0016754398
159	0xbd8124e1	-0.06305862
160	0x3c9d21da	0.01918118
161	0x3c598524	0.013276372
162	0x3e128cd0	0.14311528
163	0x3dce64a7	0.10077792
164	0xbde8987c	-0.11357209
165	0xbe054608	-0.13014996
166	0x3d170349	0.036868367
167	0x3d3cc436	0.04608556
168	0x3cf86e5a	0.030326057
169	0x3ca052ee	0.019570794
170	0x3d42421d	0.04742633
171	0xbbe85a66	-0.0070908545
172	0x3e4c782e	0.1996772
173	0x3d198b30	0.037486255
174	0xbdbe37fc	-0.09288022
175	0x3c9904de	0.018679079
176	0xbd801b04	-0.06255153
177	0xbd70990d	-0.05873971
178	0xbe18c6df	-0.14919613
179	0x3da3c254	0.079960495
180	0x3c343def	0.011001094
181	0x3cec2144	0.028824456
182	0xbd89bd81	-0.06725598
183	0x3e06b6dc	0.13155693
184	0x3d9457f2	0.07243337
185	0x3d0473b7	0.032336917
186	0x3c19ee7d	0.009395239
187	0x3da41471	0.080117114
188	0x3d08b287	0.033373382
189	0x3d000e23	0.03126348
190	0x3a8280cb	0.0009956596
191	0x3aa1dfcb	0.0012350021
192	0x3db5e693	0.08881869
193	0x3e414661	0.18874504
194	0x3d3051a1	0.043046597
195	0x3de061f4	0.10956183
196	0xbdc7e120	-0.09759736
197	0xbaae6b3a	-0.0013307102
198	0xbdeffb06	-0.11717801
199	0xbe7e20a7	-0.24817143
200	0x3de40ed5	0.111356415
201	0x3c9905c4	0.018679507
202	0x3c937c9c	0.018003754
203	0xbd845fc4	-0.06463578
204	0x3be52a6c	0.0069935825
205	0x3da3a293	0.07989993
206	0x3c1c7985	0.009550457
207	0x3d16a55c	0.036778793
208	0xb9ce3aab	-0.00039335093
209	0xbd2154d3	-0.039387535
210	0x3d0bcb51	0.034129445
211	0x3dc52804	0.09626773
212	0x3c745bb6	0.014914444
213	0x3d3f360f	0.046682414
214	0xbc0e671e	-0.008691577
215	0xbd04acf7	-0.032391515
216	0xbe0da454	-0.13832217
217	0xbd8a8a36	-0.06764643
218	0x3dfd93bb	0.12381693
219	0xbbec1fad	-0.0072059245
220	0x3d954861	0.07289196
221	0xbe1f5128	-0.15558302
222	0xbdda0197	-0.106448345
223	0xbc7e7ddb	-0.015532936
224	0xbe05335f	-0.13007878
225	0xbdabb962	-0.08384968
226	0xbda185f7	-0.0788688
227	0xbe851c55	-0.25998178
228	0x3c2fb5fc	0.010724541
229	0x3ca47c48	0.020078793
230	0x3d11ec8a	0.03562597
231	0xbd0c674c	-0.0342782
232	0xbdaaf913	-0.083482884
233	0xbd988a82	-0.07448293
234	0x3c890065	0.016723821
235	0xbdb2778c	-0.08714208
236	0xbe08a7c1	-0.13345243
237	0xbdd79e7c	-0.10528275
238	0x3cfbf9f9	0.030758845
239	0xbdb76b70	-0.08956039
240	0x3cfdb127	0.030968262
241	0xbdbebb2b	-0.09313043
242	0x3ca63a37	0.02029143
243	0x3d41800f	0.047241267
244	0x3d955ad6	0.07292716
245	0xbddfea7b	-0.109333955
246	0x3e3d8ef5	0.18511565
247	0x3da1198f	0.07866203
248	0x3cb27d9b	0.021788409
249	0x3cbc8cf0	0.023016423
250	0x3cf508e4	0.029911466
251	0x3dd66875	0.10469142
252	0x3cc5729e	0.024102505
253	0x3d4a26cf	0.049353417
254	0x3c7e5dea	0.015525321
255	0xbc8fcf0b	-0.01755478

net.2.bias f4 [256]
0	0xbd20e0ee	-0.03927701
1	0xbd84cc8b	-0.06484326
2	0x3e215742	0.15755942
3	0x3e0a3058	0.13495004
4	0x3e175bc8	0.14781106
5	0x3e2143c1	0.15748502
6	0x3caff881	0.0214808
7	0x3e17a0f4	0.14807492
8	0x3e06789d	0.13131948
9	0xbd7cefa2	-0.06175197
10	0x3de38f74	0.11111346
11	0x3df1b1b4	0.11801472
12	0x3d0808a2	0.033211358
13	0x3e1890d2	0.14898995
14	0x3e299542	0.16560844
15	0xbda2a701	-0.0794201
16	0xbd67b558	-0.056569427
17	0x3cce7200	0.025200844
18	0x3ddc7ae9	0.10765631
19	0xbc10b0a1	-0.008831174
20	0x3de12ba2	0.109946504
21	0xbd438bcf	-0.047740754
22	0x3d342ccb	0.04398803
23	0x3dd2dee6	0.10296421
24	0xbd98b39e	-0.07456134
25	0x3d08106d	0.03321879
26	0xbc5d3c97	-0.013503215
27	0xbcb49c2e	-0.022047129
28	0x3dc89dee	0.09795748
29	0xbd3d8f25	-0.04627909
30	0x3d8110ff	0.0630207
31	0x3d117de2	0.03552044
32	0x3d643764	0.055716887
33	0x3e15ddc7	0.14635383
34	0x3cdb2e58	0.026755497
35	0xbcf12193	-0.029434955
36	0xbcfefdd2	-0.03112689
37	0x3d4eacd0	0.050457776
38	0x3c39a9a7	0.011331952
39	0x3ae88944	0.0017741104
40	0x3c41cf2f	0.011829182
41	0x3cd423a3	0.0258959
42	0xbd4d2b3c	-0.05009006
43	0x3dfa8c4c	0.12233791
44	0x3d9bd0f2	0.076082125
45	0x3d951277	0.072789125
46	0x3d39daf1	0.045374814
47	0x3d8048d4	0.06263891
48	0x3e275ccb	0.16343991
49	0x3d5787a1	0.05261958
50	0x3cef8bf6	0.029241543
51	0x3d36ffbc	0.04467748
52	0x3d5716dc	0.052512035
53	0x3d6e2c49	0.058147702
54	0x3e15800c	0.14599627
55	0x3de6a93d	0.112627484
56	0x3d0d3bc1	0.034480814
57	0x3df0addc	0.11751911
58	0xb8a1a942	-7.708605e-05
59	0x3d80be3d	0.06286285
60	0x3d1d62a2	0.03842414
61	0x3d4458a2	0.04793609
62	0x3e0339d3	0.12815027
63	0xbc5fe96b	-0.013666491
64	0x3e0d6e9b	0.13811724
65	0xbd3deeca	-0.046370305
66	0x3d3de998	0.04636535
67	0xbccc805f	-0.024963556
68	0x3cbfa2e7	0.023393108
69	0x3dc1f39b	0.09470292
70	0x3b91d0b1	0.004449927
71	0x3c40b7ac	0.011762541
72	0xbcf9dca8	-0.030500725
73	0x3dfcc4a7	0.12342196
74	0x3de2b636	0.1106991
75	0x3cdc101c	0.02686315
76	0x3e08c0ee	0.13354847
77	0x3dad6007	0.084655814
78	0x3db1833e	0.086676106
79	0x3d95358f	0.07285606
80	0x3d3b20ea	0.045685686
81	0xbc857b34	-0.0162941
82	0x3dce0627	0.10059767
83	0xbd2ddcb7	-0.04244682
84	0xbd4392a6	-0.047747277
85	0x3e0b49cd	0.13602372
86	0xbcd5a745	-0.026080737
87	0x3e0ddaeb	0.13853042
88	0x3c5581da	0.013031447
89	0x3d2d45cd	0.042302895
90	0x3df3038d	0.11865912
91	0x3d7203a8	0.059085518
92	0xbd7fdb32	-0.0624649
93	0x3d371594	0.044698313
94	0xbbbcc359	-0.005760592
95	0x3dd46948	0.10371643
96	0x3de517f0	0.11186206
97	0xbcc348c8	-0.023838416
98	0x3de0997d	0.109667756
99	0x3dc9b9c8	0.09849888
100	0xbbeefc1b	-0.007293237
101	0x3e1d6dde	0.15373942
102	0xbd517907	-0.05114081
103	0x3ae109c5	0.0017169049
104	0xbc9b5d50	-0.018965393
105	0x3dad1005	0.08450321
106	0x3d8f7bbf	0.070060246
107	0x3d29a1e6	0.041414164
108	0x3b2f9484	0.0026791403
109	0xbbaea4a2	-0.0053296844
110	0x3d76b5f9	0.060232136
111	0x3d117260	0.035509467
112	0xbd26c21c	-0.04071246
113	0x3d30ddfe	0.04318046
114	0x3e080ec1	0.13286878
115	0xbcb70393	-0.022340572
116	0x3d325140	0.043534517
117	0xbc791ec1	-0.015205086
118	0x3d5b44c3	0.053532373
119	0xbd1497f0	-0.03627771
120	0xbd18ed98	-0.037335962
121	0xbb2b1a62	-0.0026108255
122	0x3d528537	0.051396575
123	0x3d08f0a1	0.033432607
124	0x3cb52590	0.022112638
125	0x3e21b4ac	0.15791577
126	0x3cbf7705	0.023372183
127	0x3d51cf68	0.05122319
128	0xbb23ff63	-0.0025024049
129	0x3d7fa89c	0.062416658
130	0x3e058e5c	0.13042587
131	0x3caf8229	0.02142437
132	0xbc54f1ce	-0.012997104
133	0x3e1e968e	0.1548712
134	0xbbf2f273	-0.007414156
135	0x3a2fd5d5	0.00067075837
136	0xbd22270a	-0.03958801
137	0xbb93e6a4	-0.0045135785
138	0x3d85eb19	0.06538982
139	0xba669337	-0.00087957404
140	0x3d091eaf	0.033476528
141	0xbb22137d	-0.0024730854
142	0xbb771480	-0.0037701428
143	0x3d865e47	0.06560951
144	0x3d5521e5	0.052034277
145	0x3ddaae65	0.10677794
146	0x3ca7d515	0.020487348
147	0x3e0d3e73	0.13793354
148	0x3e1a6927	0.15079175
149	0xbb88d2d8	-0.004175525
150	0x3d59fdca	0.053220548
151	0x396801f9	0.00022125979
152	0x3b486243	0.0030576147
153	0x3ca1a1a4	0.019730397
154	0x3ca76d2f	0.020437805
155	0x3d890e66	0.066921994
156	0x3d259b2a	0.04043118
157	0xbd3399b0	-0.04384774
158	0x3e07c2f4	0.13257962
159	0x3d1c3db4	0.038144782
160	0x3c4941a1	0.012283714
161	0xbc370b19	-0.0111720795
162	0x3e281cf4	0.16417295
163	0x3d2af4c4	0.041737333
164	0xbb1b4144	-0.0023690024
165	0xbd107c21	-0.03527463
166	0x3d538bfb	0.051647168
167	0xbc93be22	-0.018034998
168	0x3e012593	0.1261199
169	0xbd87c6ca	-0.06629713
170	0xbd3e35be	-0.04643797
171	0x3c33d382	0.01097572
172	0xbd8253e0	-0.06363654
173	0x3d16a915	0.036782343
174	0xbac8e400	-0.0015326738
175	0x3d1cbc7b	0.038265686
176	0x3c5277a7	0.01284591
177	0x3d8bb422	0.06821467
178	0x3e0b44ee	0.13600513
179	0xbbc47776	-0.005995686
180	0x3da9028c	0.08252439
181	0x3cce9fa0	0.0252226
182	0x3d47c3db	0.048770767
183	0x3dfe3078	0.124115884
184	0xbd82a1b4	-0.06378499
185	0x3d0a92af	0.033831295
186	0x3d4bbc1e	0.04973995
187	0xbbaa57fd	-0.0051984773
188	0x3d7d7788	0.061881572
189	0x3d2c0df8	0.04200551
190	0x3e1ff0f8	0.15619266
191	0xbd3b7bcb	-0.045772355
192	0xbc998e16	-0.01874451
193	0xbc3b35b3	-0.011426377
194	0x3cc566d8	0.024096891
195	0x3d786042	0.060638674
196	0x3d4328eb	0.047646444
197	0xbd58444e	-0.052799515
198	0xbd67e8fd	-0.05661868
199	0x3bc5bbcc	0.00603435
200	0x3d900806	0.0703278
201	0x3e0a6915	0.13516648
202	0x3d09389a	0.033501245
203	0xbcb632e9	-0.022241073
204	0x3e112d9d	0.14177556
205	0x3e14d7ca	0.14535442
206	0x3e06e81c	0.1317448
207	0x3e20e644	0.1571284
208	0x3df466c1	0.11933661
209	0x3e079f26	0.13244304
210	0x3c903e4b	0.017607829
211	0x3e0d2568	0.137838
212	0x3e0cfbd6	0.13767943
213	0xbcec7967	-0.028866483
214	0xbc0a7ecb	-0.008453081
215	0x3d838953	0.06422677
216	0xbcf9ab9b	-0.030477336
217	0xbcb039e9	-0.021511989
218	0x3cfb80c2	0.030701045
219	0x3b639c7e	0.0034730728
220	0x3d1f4135	0.038880546
221	0xbc71098e	-0.014711751
222	0x3c44ae6c	0.012004476
223	0x3d066290	0.03280884
224	0x3dcac409	0.09900672
225	0xbcc2c8c6	-0.023777377
226	0x3dd4cd1e	0.103906855
227	0x3e05cb64	0.13065869
228	0x3c2d4b9d	0.01057711
229	0x3d016bfd	0.031597126
230	0xbd61f9b5	-0.05516978
231	0x3d15ee30	0.036604106
232	0x3dbfc587	0.09363847
233	0x3d6c5f87	0.05770829
234	0x3bae5713	0.0053204386
235	0xbd570219	-0.052492235
236	0x3db41887	0.08793741
237	0x3d18cc33	0.037304115
238	0xbd3229ac	-0.043496773
239	0x3df2b12f	0.11850201
240	0x3dc2a0b3	0.09503307
241	0x3d17a291	0.03702027
242	0x3e1008fe	0.1406593
243	0x3b2a198d	0.002595517
244	0x3d54694f	0.051858243
245	0x3d374945	0.04474761
246	0x3ddd5484	0.10807136
247	0x3e13bd25	0.14427622
248	0xbc0f276c	-0.008737426
249	0xbc1bc80b	-0.009508143
250	0x3d97ff55	0.074217476
251	0x3c07d662	0.008290859
252	0x3e2692c9	0.16266932
253	0xbd01d5b4	-0.031697944
254	0x3ddec669	0.108776875
255	0xbd03a537	-0.032139983

net.4.weight f4 [1, 256]
0	0xbdbde0d1	-0.09271396
1	0xbddefbea	-0.108878925
2	0x3e47a1cc	0.19495314
3	0x3e4716fe	0.19442365
4	0x3e457ccc	0.19285887
5	0x3e31cab6	0.17362484
6	0xbd9c54f5	-0.07633392
7	0x3e3335f5	0.17501052
8	0x3e59b3b0	0.21259952
9	0xbda4fede	-0.080564246
10	0x3e33d41d	0.17561384
11	0x3e10e56a	0.14150015
12	0xbe2805ca	-0.16408458
13	0x3e2b3001	0.16717531
14	0x3e400e65	0.18755491
15	0xbda20f42	-0.079130664
16	0xbc963420	-0.018335402
17	0xbdaef4f9	-0.085428186
18	0x3e59b901	0.2126198
19	0xbd506b4d	-0.05088358
20	0x3e4693e2	0.1939235
21	0xbdea699b	-0.11445924
22	0x3e42adec	0.19011658
23	0x3e09312f	0.13397668
24	0xbdec2228	-0.11529952
25	0xbd6d20b6	-0.057892524
26	0xbd96e4d1	-0.07367862
27	0xbe4b0c79	-0.19828977
28	0x3e415b72	0.1888254
29	0x3cf33e70	0.029692858
30	0x3e2674e3	0.16255526
31	0xbe1b5e91	-0.15172793
32	0x3e4857a3	0.19564681
33	0x3e62b5a5	0.22139604
34	0xbd1a8a02	-0.03772927
35	0xbe030092	-0.12793186
36	0x3d4ec59a	0.050481416
37	0x3e3fc24f	0.18726467
38	0xbbe46fdc	-0.0069713425
39	0xbdd0ea0c	-0.10200891
40	0xbe2a5563	-0.16634135
41	0xbdc82afa	-0.09773822
42	0x3bf6c462	0.007530735
43	0x3e64ada5	0.22331865
44	0x3e343575	0.17598517
45	0x3e20296a	0.15640798
46	0xbe3c3805	-0.18380745
47	0xbe2eaa13	-0.17057066
48	0x3e192cb8	0.14958465
49	0x3e1a7a1d	0.15085645
50	0xbdeb3623	-0.11484935
51	0xbdcdfeb9	-0.1005835
52	0xbdb0d065	-0.08633498
53	0x3c6cc1ae	0.014450474
54	0x3e4d4048	0.20044053
55	0x3e48dd26	0.19615611
56	0xbe10a709	-0.14126219
57	0x3e2bc847	0.16775618
58	0xbe0b3870	-0.13595748
59	0x3e4a3125	0.1974531
60	0xbab35a91	-0.0013683607
61	0xbbccdda7	-0.006252009
62	0x3e2fe8d0	0.17178655
63	0xbd017631	-0.031606857
64	0x3e4b3283	0.19843487
65	0xbd5ff87e	-0.05468034
66	0xbd1e617a	-0.03866718
67	0xbe203849	-0.15646471
68	0xbdd122cd	-0.10211716
69	0x3e2d40f3	0.16919307
70	0x3cc79524	0.024363108
71	0xbdf1dfdb	-0.11810275
72	0x3d116e1f	0.03550541
73	0x3e2ffce4	0.17186314
74	0x3e1aebc7	0.15129004
75	0xbde6faef	-0.112783305
76	0x3e415af8	0.18882358
77	0x3e2006c0	0.15627575
78	0x3e345151	0.17609145
79	0x3e13674a	0.1439487
80	0xbe0abc76	-0.13548455
81	0xbd189e94	-0.037260607
82	0x3e41b192	0.18915394
83	0xbd163417	-0.03667077
84	0xbd746503	-0.059666645
85	0x3e489e12	0.19591549
86	0xbd19923a	-0.03749297
87	0x3e333331	0.17499997
88	0xbd9f73ee	-0.07785784
89	0xbe0c0892	-0.13675144
90	0x3e216e2f	0.15764688
91	0xbd01c20c	-0.0316792
92	0xbe01ab47	-0.12662993
93	0x3d1db631	0.03850383
94	0xbafdf760	-0.0019376092
95	0x3e28309e	0.16424796
96	0x3e53b323	0.20673804
97	0xbc6a2cd0	-0.014292911
98	0x3e1ba228	0.15198576
99	0x3e0f960f	0.14022087
100	0xbd02e19f	-0.03195345
101	0x3e38fcad	0.18065138
102	0xbd3d52fe	-0.046221726
103	0xbd352d95	-0.044232924
104	0x3b262fed	0.0025358156
105	0x3e2db871	0.1696489
106	0x3e3c208c	0.1837179
107	0xbdd35677	-0.10319226
108	0xbddec4e4	-0.10877398
109	0xbd532716	-0.051550947
110	0xbdf22e8c	-0.11825284
111	0xbd491c93	-0.049099516
112	0xbe22f8a3	-0.1591516
113	0x3e4e3e7f	0.20141028
114	0x3e4251b0	0.18976474
115	0xbdee5e0b	-0.11639031
116	0xbd230bd0	-0.039806187
117	0xbe23fd1c	-0.16014522
118	0xbe2c5b18	-0.16831625
119	0xbe20e933	-0.15713958
120	0x3ca77f4c	0.020446442
121	0xbdc083e7	-0.094001584
122	0xbe2a22a6	-0.1661478
123	0xbd9f126c	-0.077671856
124	0x3a8d921d	0.0010800991
125	0x3e17a994	0.14810783
126	0xbdb6e9c3	-0.08931305
127	0xbd5067bc	-0.05088018
128	0x3c57c360	0.01316914
129	0x3e12da55	0.143411
130	0x3e28b70d	0.16476078
131	0xbd37abde	-0.04484164
132	0xbd343661	-0.043997172
133	0x3e546627	0.20742093
134	0xbddb00cd	-0.10693512
135	0xbd04f482	-0.032459743
136	0xbcdcc950	-0.026951462
137	0xbe3ed955	-0.18637593
138	0x3e129798	0.14315641
139	0x3cddcc82	0.027075056
140	0xbdb528db	-0.08845683
141	0xbdb3dfe1	-0.08782936
142	0xbe148215	-0.14502747
143	0x3e343e2e	0.17601845
144	0x3e10974d	0.14120217
145	0x3e221526	0.1582838
146	0xbcf9dcc7	-0.030500783
147	0x3e5b2da6	0.21404132
148	0x3e1e1afd	0.15439983
149	0x3d4bfd12	0.049801894
150	0x3e36a49e	0.17836234
151	0xbdfc11cb	-0.12308081
152	0xbdef88af	-0.11695992
153	0xbdd0b1d4	-0.10190168
154	0xbd4a2f3f	-0.049361464
155	0x3e1ed497	0.15510784
156	0x3e29a136	0.16565403
157	0x3a88d503	0.0010439459
158	0x3e0d482a	0.1379706
159	0xbca2c528	-0.019869402
160	0xbe6bcbb1	-0.23026921
161	0xbdb3ba82	-0.08775808
162	0x3e2fe1ea	0.17176023
163	0xbd75ee7c	-0.06004189
164	0xbdfd4f70	-0.12368667
165	0x3d5c9b4b	0.053859036
166	0x3e6044cd	0.21901245
167	0xbc1a62db	-0.009422983
168	0x3e43500c	0.19073504
169	0xbb1f86ea	-0.002434189
170	0xbd9e742c	-0.07737002
171	0xbdcaaf21	-0.098966844
172	0xbdf475c9	-0.11936528
173	0x3d0e148b	0.03468756
174	0x3aea4580	0.0017873496
175	0xbda0bf17	-0.078489475
176	0xbe166e9c	-0.14690632
177	0x3e3cc130	0.1843307
178	0x3e2a4b94	0.16630393
179	0xbdf265bc	-0.118358105
180	0x3e3f8e32	0.18706587
181	0xbe058a0b	-0.1304094
182	0x3e4f53e3	0.20246844
183	0x3e52f984	0.20602995
184	0xbe339b0a	-0.17539611
185	0x3d26279f	0.04056513
186	0xbdce4274	-0.10071269
187	0xbc216055	-0.0098496275
188	0x3e130f19	0.14361228
189	0x3e1fa7ca	0.1559135
190	0x3e0e5549	0.13899721
191	0x3bd03392	0.006353804
192	0xbd0afc93	-0.03393228
193	0xbcc7f300	-0.024407864
194	0xbcd211ea	-0.025643308
195	0xbe87d00b	-0.26525912
196	0x3e5c82e9	0.21534313
197	0xbe2eba24	-0.17063195
198	0xbd5f5f11	-0.05453402
199	0xbdc3d8aa	-0.0956281
200	0x3e15fb9a	0.1464676
201	0x3e0a8b4b	0.13529699
202	0xbd160ff4	-0.036636308
203	0xbdf84a0f	-0.121235006
204	0x3e0abc7d	0.13548465
205	0x3e40099a	0.18753663
206	0x3e40ab31	0.18815304
207	0x3e18eab7	0.14933287
208	0x3e2afc6c	0.16697854
209	0x3e43461d	0.19069715
210	0xbdc0bf61	-0.09411503
211	0x3e552f0c	0.20818728
212	0x3e1469ed	0.14493532
213	0xbb1ff721	-0.0024408775
214	0xbe0907cf	-0.13381885
215	0x3e41ff45	0.18945034
216	0xbc25036b	-0.010071616
217	0xbd22a675	-0.039709527
218	0xbe424e1f	-0.18975113
219	0xbc5408c6	-0.012941545
220	0xbe1f5b0e	-0.15562078
221	0xbdf5d58a	-0.1200362
222	0x3cd9fbbd	0.026609296
223	0xbe047c57	-0.12938057
224	0x3e5169a2	0.20450452
225	0xbca7147b	-0.020395508
226	0x3e40fb13	0.18845777
227	0x3e1f2fa5	0.15545519
228	0xbd9ff766	-0.078108594
229	0xbd6b4a2d	-0.057443786
230	0xbd281d64	-0.041043654
231	0xbe037bd4	-0.12840205
232	0x3e945060	0.2896757
233	0x3e418f15	0.18902238
234	0xbdb04d49	-0.08608491
235	0xbdee41d7	-0.11633652
236	0x3e0ac21a	0.13550606
237	0x3e45e3ff	0.19325255
238	0xbe20ea3a	-0.1571435
239	0x3e28a212	0.16468075
240	0x3e183c30	0.1486671
241	0xbdd018d3	-0.10160985
242	0x3e19bc49	0.15013231
243	0xbe0d0384	-0.13770872
244	0xbdc8df86	-0.09808259
245	0x3e1b0563	0.15138774
246	0x3e47d7be	0.19515893
247	0x3e573d55	0.2101949
248	0xbd212a4e	-0.039346986
249	0xbded430d	-0.115850545
250	0x3e7c9de4	0.24669605
251	0xbcab23d4	-0.020891108
252	0x3e2221c8	0.15833199
253	0x3d28f482	0.041248806
254	0x3e4e5f50	0.20153546
255	0xbe2f026c	-0.17090768

exp_avg f4 [256, 6]
0	0x80000004	-6e-45
1	0x00000004	6e-45
2	0x00000004	6e-45
3	0x80000004	-6e-45
4	0x00000000	0.0
5	0x00000000	0.0
6	0x80000004	-6e-45
7	0x80000004	-6e-45
8	0x80000004	-6e-45
9	0x00000004	6e-45
10	0x00000000	0.0
11	0x00000000	0.0
12	0xbb63f3cc	-0.0034782765
13	0xbbe943fa	-0.007118699
14	0xba10e1d5	-0.00055268157
15	0x3c3bf569	0.011472085
16	0x00000000	0.0
17	0x00000000	0.0
18	0xb898d6c7	-7.28793e-05
19	0xb8d581d0	-0.00010180811
20	0x375a6145	1.301646e-05
21	0x391b54b4	0.00014813506
22	0x00000000	0.0
23	0x00000000	0.0
24	0xbacc6aae	-0.0015595758
25	0xbb506a26	-0.003180155
26	0xb9815b85	-0.00024672985
27	0x3ba7f309	0.0051254076
28	0x00000000	0.0
29	0x00000000	0.0
30	0xab97f301	-1.0796642e-12
31	0xac27e325	-2.3858218e-12
32	0x2a366dd3	1.620295e-13
33	0x2c529800	2.9927172e-12
34	0x00000000	0.0
35	0x00000000	0.0
36	0xbbb9c0db	-0.005668742
37	0xbc3e4b3e	-0.011614619
38	0xba6c6fcd	-0.0009019345
39	0x3c995437	0.018716915
40	0x00000000	0.0
41	0x00000000	0.0
42	0xbb016d8e	-0.0019749138
43	0xb9b00d82	-0.000335794
44	0xb94fe022	-0.00019824554
45	0x3a822aba	0.0009930946
46	0x00000000	0.0
47	0x00000000	0.0
48	0xbb0eaee7	-0.002177173
49	0xbb91c74b	-0.0044488064
50	0xb9b503a5	-0.00034525726
51	0x3beaef8b	0.007169669
52	0x00000000	0.0
53	0x00000000	0.0
54	0xbb7cb1fe	-0.003855824
55	0xbc0155b4	-0.007893968
56	0xba20a990	-0.00061287824
57	0x3c506cff	0.012721299
58	0x00000000	0.0
59	0x00000000	0.0
60	0xbb1edb0e	-0.0024239453
61	0xbba26c88	-0.0049567856
62	0xb9c9aeab	-0.00038467845
63	0x3c02e057	0.007988057
64	0x00000000	0.0
65	0x00000000	0.0
66	0x00000004	6e-45
67	0x80000004	-6e-45
68	0x80000004	-6e-45
69	0x00000004	6e-45
70	0x00000000	0.0
71	0x00000000	0.0
72	0xbad722f1	-0.0016413612
73	0xbb5b63e9	-0.00334763
74	0xb9882c9e	-0.00025973184
75	0x3bb0cb4c	0.0053953286
76	0x00000000	0.0
77	0x00000000	0.0
78	0x80000004	-6e-45
79	0x00000004	6e-45
80	0x00000004	6e-45
81	0x80000004	-6e-45
82	0x00000000	0.0
83	0x00000000	0.0
84	0xbba70370	-0.0050968453
85	0xbc2b0b3e	-0.010439692
86	0xba54815f	-0.0008106436
87	0x3c89d1cc	0.016823672
88	0x00000000	0.0
89	0x00000000	0.0
90	0x80000004	-6e-45
91	0x80000004	-6e-45
92	0x00000004	6e-45
93	0x00000004	6e-45
94	0x00000000	0.0
95	0x00000000	0.0
96	0xbb8e3c4d	-0.0043406845
97	0xbc11a46c	-0.008889299
98	0xba34f02e	-0.00069022446
99	0x3c6ab450	0.014325216
100	0x00000000	0.0
101	0x00000000	0.0
102	0xbaeba48f	-0.001797812
103	0xbb70b6ce	-0.0036730054
104	0xb9955e5d	-0.000284898
105	0x3bc1f594	0.005919168
106	0x00000000	0.0
107	0x00000000	0.0
108	0xbb95ac45	-0.0045676553
109	0xbc193cba	-0.009352857
110	0xba3e66f6	-0.0007263267
111	0x3c76f2b2	0.0150725115
112	0x00000000	0.0
113	0x00000000	0.0
114	0xbb80f61a	-0.0039355876
115	0xbc03fe34	-0.008056212
116	0xba23fa68	-0.000625527
117	0x3c54b643	0.012982908
118	0x00000000	0.0
119	0x00000000	0.0
120	0x00000004	6e-45
121	0x80000004	-6e-45
122	0x80000004	-6e-45
123	0x00000004	6e-45
124	0x00000000	0.0
125	0x00000000	0.0
126	0xa49a9363	-6.7036537e-17
127	0x261581da	5.187074e-16
128	0xa5672662	-2.0049061e-16
129	0xa5f61534	-4.2688565e-16
130	0x00000000	0.0
131	0x00000000	0.0
132	0x80000004	-6e-45
133	0x80000004	-6e-45
134	0x00000004	6e-45
135	0x00000004	6e-45
136	0x00000000	0.0
137	0x00000000	0.0
138	0x00000004	6e-45
139	0x00000004	6e-45
140	0x80000004	-6e-45
141	0x80000004	-6e-45
142	0x00000000	0.0
143	0x00000000	0.0
144	0xae585781	-4.9190433e-11
145	0x2ec13963	8.786818e-11
146	0x2d3263b1	1.01402645e-11
147	0xaf0171ad	-1.1772867e-10
148	0x00000000	0.0
149	0x00000000	0.0
150	0xbbb8568e	-0.0056255525
151	0xbc3cd58e	-0.011525525
152	0xba6a9e7d	-0.0008950008
153	0x3c982731	0.018573375
154	0x00000000	0.0
155	0x00000000	0.0
156	0x2e9d475b	7.152209e-11
157	0xaf630c10	-2.0649815e-10
158	0x2d2ba62c	9.757122e-12
159	0x2f891b98	2.493976e-10
160	0x00000000	0.0
161	0x00000000	0.0
162	0x00000004	6e-45
163	0x80000004	-6e-45
164	0x00000004	6e-45
165	0x00000004	6e-45
166	0x00000000	0.0
167	0x00000000	0.0
168	0x00000004	6e-45
169	0x80000004	-6e-45
170	0x80000004	-6e-45
171	0x00000004	6e-45
172	0x00000000	0.0
173	0x00000000	0.0
174	0xbb75f238	-0.0037528407
175	0xbbfbb2f6	-0.007681246
176	0xba1c5682	-0.00059638184
177	0x3c4acfd6	0.0123786535
178	0x00000000	0.0
179	0x00000000	0.0
180	0x80000004	-6e-45
181	0x00000004	6e-45
182	0x00000004	6e-45
183	0x80000004	-6e-45
184	0x00000000	0.0
185	0x00000000	0.0
186	0xbb386a75	-0.0028139625
187	0xbbbc9241	-0.0057547395
188	0xb9ea3ba7	-0.00044676402
189	0x3c17f2f1	0.00927423
190	0x00000000	0.0
191	0x00000000	0.0
192	0x00000004	6e-45
193	0x00000004	6e-45
194	0x00000004	6e-45
195	0x80000004	-6e-45
196	0x00000000	0.0
197	0x00000000	0.0
198	0x3b2e53be	0.0026600207
199	0x3bb364a4	0.005474644
200	0x39df1ff1	0.00042557673
201	0xbc1088ab	-0.008821647
202	0x00000000	0.0
203	0x00000000	0.0
204	0xb88d4a77	-6.737274e-05
205	0xb904df48	-0.0001267168
206	0xb71c956e	-9.333116e-06
207	0x3955f7d0	0.0002040558
208	0x00000000	0.0
209	0x00000000	0.0
210	0xbac1832f	-0.0014763827
211	0xbb453aff	-0.003009498
212	0xb974c88a	-0.0002334436
213	0x3b9ef007	0.004850391
214	0x00000000	0.0
215	0x00000000	0.0
216	0xbb134b88	-0.002247544
217	0xbb96968f	-0.0045955847
218	0xb9baf7a8	-0.00035661203
219	0x3bf2ad6b	0.007405927
220	0x00000000	0.0
221	0x00000000	0.0
222	0x00000004	6e-45
223	0x80000004	-6e-45
224	0x80000004	-6e-45
225	0x00000004	6e-45
226	0x00000000	0.0
227	0x00000000	0.0
228	0xac7cf7c8	-3.59489e-12
229	0x2d01a109	7.368558e-12
230	0x2b7c6f89	8.968317e-13
231	0xad5d2d18	-1.2572408e-11
232	0x00000000	0.0
233	0x00000000	0.0
234	0xbb2a770c	-0.00260109
235	0xbbae2762	-0.0053147534
236	0xb9d87072	-0.0004128251
237	0x3c0c5790	0.008565798
238	0x00000000	0.0
239	0x00000000	0.0
240	0x80000004	-6e-45
241	0x00000004	6e-45
242	0x80000004	-6e-45
243	0x80000004	-6e-45
244	0x00000000	0.0
245	0x00000000	0.0
246	0x80000004	-6e-45
247	0x80000004	-6e-45
248	0x00000004	6e-45
249	0x00000004	6e-45
250	0x00000000	0.0
251	0x00000000	0.0
252	0x00000004	6e-45
253	0x00000004	6e-45
254	0x80000004	-6e-45
255	0x00000004	6e-45

exp_avg_sq f4 [256, 6]
0	0x000001f4	7e-43
1	0x000001f4	7e-43
2	0x000001f4	7e-43
3	0x000001f4	7e-43
4	0x00000000	0.0
5	0x00000000	0.0
6	0x000001f4	7e-43
7	0x000001f4	7e-43
8	0x000001f4	7e-43
9	0x000001f4	7e-43
10	0x00000000	0.0
11	0x00000000	0.0
12	0x39a660ff	0.00031734255
13	0x3a1f955f	0.00060876267
14	0x373ed066	1.1373404e-05
15	0x3a338672	0.0006848342
16	0x00000000	0.0
17	0x00000000	0.0
18	0x35a5a7ec	1.234233e-06
19	0x36b27ee4	5.3195854e-06
20	0x33108eee	3.3657606e-08
21	0x36f2d3b0	7.2368057e-06
22	0x00000000	0.0
23	0x00000000	0.0
24	0x38846321	6.312715e-05
25	0x38fd7fc8	0.00012087781
26	0x36179e1d	2.2592787e-06
27	0x390ea55b	0.00013603775
28	0x00000000	0.0
29	0x00000000	0.0
30	0x345e6933	2.0713632e-07
31	0x3637d2f4	2.7391916e-06
32	0x31754dec	3.5696486e-09
33	0x3682662d	3.8861967e-06
34	0x00000000	0.0
35	0x00000000	0.0
36	0x3a5d914f	0.00084521336
37	0x3ad49334	0.0016218186
38	0x37fe2738	3.0297422e-05
39	0x3aef1dc2	0.0018243121
40	0x00000000	0.0
41	0x00000000	0.0
42	0x37263fc9	9.909222e-06
43	0x37c39129	2.3313407e-05
44	0x34b3210c	3.3365393e-07
45	0x37e4b25d	2.7262775e-05
46	0x00000000	0.0
47	0x00000000	0.0
48	0x3901c9f9	0.0001237764
49	0x3978d518	0.00023730507
50	0x3694c813	4.4340354e-06
51	0x398bfd63	0.00026700934
52	0x00000000	0.0
53	0x00000000	0.0
54	0x39cc852a	0.00039009127
55	0x3a44248b	0.0007482252
56	0x376a86e0	1.397889e-05
57	0x3a5ca8d7	0.0008417493
58	0x00000000	0.0
59	0x00000000	0.0
60	0x39210a66	0.0001535803
61	0x399a5c8d	0.00029442125
62	0x36b8935c	5.500782e-06
63	0x39adafd6	0.0003312814
64	0x00000000	0.0
65	0x00000000	0.0
66	0x32c5a2e9	2.3007901e-08
67	0x3487218c	2.5170118e-07
68	0x30434474	7.1037864e-10
69	0x34a5faf1	3.091623e-07
70	0x00000000	0.0
71	0x00000000	0.0
72	0x3892d2ee	7.001111e-05
73	0x390ca540	0.00013413001
74	0x36283a48	2.5067875e-06
75	0x391e47d2	0.0001509481
76	0x00000000	0.0
77	0x00000000	0.0
78	0x32ab4137	1.9936676e-08
79	0x3264116e	1.327531e-08
80	0x2f7e23dc	2.3113905e-10
81	0x32ad93f0	2.0207125e-08
82	0x00000000	0.0
83	0x00000000	0.0
84	0x3a32f07a	0.0006825995
85	0x3aaba3f2	0.0013095124
86	0x37cd38c6	2.4464342e-05
87	0x3ac11591	0.0014731159
88	0x00000000	0.0
89	0x00000000	0.0
90	0x2d5830a3	1.2288978e-11
91	0x30bfdcce	1.3959836e-09
92	0x2c5a2f48	3.100591e-12
93	0x31425a89	2.8282179e-09
94	0x00000000	0.0
95	0x00000000	0.0
96	0x3a01bb06	0.0004948828
97	0x3a78e0fa	0.00094939733
98	0x3794c939	1.7736676e-05
99	0x3a8bfbb5	0.0010679873
100	0x00000000	0.0
101	0x00000000	0.0
102	0x38b064a5	8.4110805e-05
103	0x3928eabc	0.00016109174
104	0x3649fd9c	3.0098954e-06
105	0x393e2036	0.00018131812
106	0x00000000	0.0
107	0x00000000	0.0
108	0x3a0fbe67	0.0005483389
109	0x3a89eaae	0.001052221
110	0x37a4e7c1	1.9658242e-05
111	0x3a9b20d8	0.001183535
112	0x00000000	0.0
113	0x00000000	0.0
114	0x39d52016	0.00040650432
115	0x3a4c6bb4	0.00077980314
116	0x37746d24	1.4568945e-05
117	0x3a65f584	0.00087722414
118	0x00000000	0.0
119	0x00000000	0.0
120	0x000001f4	7e-43
121	0x000001f4	7e-43
122	0x000001f4	7e-43
123	0x000001f4	7e-43
124	0x00000000	0.0
125	0x00000000	0.0
126	0x36aae373	5.0928734e-06
127	0x38482532	4.7718357e-05
128	0x358e2a4c	1.0592134e-06
129	0x38780c18	5.913907e-05
130	0x00000000	0.0
131	0x00000000	0.0
132	0x2c33c937	2.5549127e-12
133	0x3183083a	3.813537e-09
134	0x2d11e298	8.29261e-12
135	0x32056fe9	7.767064e-09
136	0x00000000	0.0
137	0x00000000	0.0
138	0x000001f4	7e-43
139	0x000001f4	7e-43
140	0x000001f4	7e-43
141	0x000001f4	7e-43
142	0x00000000	0.0
143	0x00000000	0.0
144	0x350c5346	5.2275243e-07
145	0x369c98a5	4.6669325e-06
146	0x32af6947	2.0420556e-08
147	0x36d7a98e	6.427238e-06
148	0x00000000	0.0
149	0x00000000	0.0
150	0x3a5a22ad	0.0008321207
151	0x3ad141f0	0.0015965085
152	0x37fa32c7	2.9825967e-05
153	0x3aeb646c	0.0017959005
154	0x00000000	0.0
155	0x00000000	0.0
156	0x3423292a	1.5195533e-07
157	0x356e64bf	8.8808514e-07
158	0x31d65ad3	6.2385452e-09
159	0x359c9571	1.1666399e-06
160	0x00000000	0.0
161	0x00000000	0.0
162	0x000001f4	7e-43
163	0x000001f4	7e-43
164	0x000001f4	7e-43
165	0x000001f4	7e-43
166	0x00000000	0.0
167	0x00000000	0.0
168	0x3297e053	1.7680724e-08
169	0x32bd51a3	2.203962e-08
170	0x2f39b2ac	1.6889129e-10
171	0x3309eca8	3.2113036e-08
172	0x00000000	0.0
173	0x00000000	0.0
174	0x39c1b13c	0.00036943879
175	0x3a39c252	0.0007086146
176	0x375e1e8d	1.3239344e-05
177	0x3a50f9ce	0.0007971794
178	0x00000000	0.0
179	0x00000000	0.0
180	0x000001f4	7e-43
181	0x000001f4	7e-43
182	0x000001f4	7e-43
183	0x000001f4	7e-43
184	0x00000000	0.0
185	0x00000000	0.0
186	0x3959791d	0.00020739851
187	0x39d092a8	0.0003978212
188	0x36f967a4	7.4328436e-06
189	0x39eaa204	0.0004475267
190	0x00000000	0.0
191	0x00000000	0.0
192	0x000223f9	1.96576e-40
193	0x00019b2e	1.47503e-40
194	0x000001f4	7e-43
195	0x000257c2	2.15153e-40
196	0x00000000	0.0
197	0x00000000	0.0
198	0x394565bf	0.00018825287
199	0x39bd9d9a	0.00036166311
200	0x36e2c3d0	6.7581204e-06
201	0x39d55180	0.00040687248
202	0x00000000	0.0
203	0x00000000	0.0
204	0x33ab09fb	7.9646234e-08
205	0x340990d7	1.2811812e-07
206	0x313607c2	2.6488896e-09
207	0x34264a3d	1.5486962e-07
208	0x00000000	0.0
209	0x00000000	0.0
210	0x386d08d8	5.651344e-05
211	0x38e2f0cb	0.00010821371
212	0x3607bc33	2.0226114e-06
213	0x38ff6f74	0.00012180107
214	0x00000000	0.0
215	0x00000000	0.0
216	0x390a640d	0.00013197977
217	0x3984a5ae	0.00025300443
218	0x369e999b	4.726649e-06
219	0x399541fc	0.00028468657
220	0x00000000	0.0
221	0x00000000	0.0
222	0x000001f4	7e-43
223	0x000001f4	7e-43
224	0x000001f4	7e-43
225	0x000001f4	7e-43
226	0x00000000	0.0
227	0x00000000	0.0
228	0x34f541d8	4.5682714e-07
229	0x35de5de8	1.6567619e-06
230	0x3270e128	1.4021033e-08
231	0x35e98ca2	1.7400782e-06
232	0x00000000	0.0
233	0x00000000	0.0
234	0x39366eb2	0.0001739811
235	0x399d3065	0.0002998143
236	0x36d3e3dd	6.314817e-06
237	0x39acfcef	0.00032994847
238	0x00000000	0.0
239	0x00000000	0.0
240	0x000001f4	7e-43
241	0x000001f4	7e-43
242	0x000001f4	7e-43
243	0x000001f4	7e-43
244	0x00000000	0.0
245	0x00000000	0.0
246	0x000001f4	7e-43
247	0x000001f4	7e-43
248	0x000001f4	7e-43
249	0x000001f4	7e-43
250	0x00000000	0.0
251	0x00000000	0.0
252	0x000001f4	7e-43
253	0x000001f4	7e-43
254	0x000001f4	7e-43
255	0x000001f4	7e-43
