assets/section_1/actor_critic/cart_pole/models/episode_best/actor.pth (torch, 220054 bytes, 18 tensors)

0.weight f4 [128, 6]
0	0xbec134f3	-0.3773571
1	0x3b5e1336	0.0033885962
2	0x3e326e87	0.17424975
3	0x3e1c9ca5	0.1529413
4	0xbeade2c4	-0.3396207
5	0x3e0d668c	0.1380865
6	0x3e967778	0.29388022
7	0x3d8bea92	0.0683185
8	0xbf0525d0	-0.5201082
9	0xbe92e270	-0.28688383
10	0x3d2ef779	0.042716477
11	0x3e4c285e	0.19937274
12	0x3dcf0df0	0.1011008
13	0x3e8931a6	0.2679569
14	0x3f46b643	0.7762186
15	0x3e91d513	0.28482875
16	0xbe27ec37	-0.16398703
17	0xbcf26f56	-0.029594105
18	0x3e64b289	0.22333731
19	0xb9587eb3	-0.00020646564
20	0x3eea98c7	0.45819685
21	0x3ea1ca4b	0.3159965
22	0xbe85ee2e	-0.2615828
23	0x3e7e3c7d	0.24827762
24	0x3c9a2eb8	0.018821105
25	0x3e70b5c5	0.2350684
26	0xbf62a1b5	-0.88527995
27	0xbe21a25c	-0.15784591
28	0xbeb288a8	-0.34869885
29	0x3dc164dc	0.094430655
30	0x3dc633b0	0.09677827
31	0xbe8285b5	-0.25492635
32	0x3f148f4d	0.5803116
33	0x3e630cb3	0.22172813
34	0xbdebbb92	-0.115103856
35	0xbe956e26	-0.291856
36	0x3daaf558	0.08347577
37	0x3da6a4f3	0.0813693
38	0xbd8763f2	-0.0661086
39	0xbead6d9a	-0.33872682
40	0x3eb3abd2	0.35092026
41	0x3dc7f113	0.09762778
42	0x3ea5988b	0.32342944
43	0xbef3b17b	-0.47596344
44	0x3b8fd3f4	0.0043892805
45	0x3ed86047	0.42260954
46	0xbd327ce3	-0.043576133
47	0xbe5f004b	-0.21777456
48	0xbed6b699	-0.41936186
49	0xbe8049f8	-0.25056434
50	0xbdfa01e5	-0.122073926
51	0xbe98c89e	-0.2984056
52	0x3e2f3a77	0.17112146
53	0x3e9d3149	0.30701664
54	0xbd6ff492	-0.05858285
55	0xbeb5b4e3	-0.35489568
56	0xbe60889e	-0.21927115
57	0xbe55209e	-0.20813224
58	0xbbdb4278	-0.0066912733
59	0xbe656365	-0.22401197
60	0x3d26b177	0.040696587
61	0xbea3a4e8	-0.3196175
62	0xbeb4e601	-0.3533173
63	0x3da8edbf	0.082484715
64	0xbcfd2e6b	-0.030905923
65	0xbb838647	-0.00401381
66	0x3dff7135	0.124727644
67	0xbedd1f33	-0.43187866
68	0x3dca6ff7	0.09884637
69	0x3ed8fa06	0.42378253
70	0x3e3f8a7d	0.18705173
71	0xbec7c91b	-0.3902062
72	0xbd739d83	-0.059476387
73	0x3ed269aa	0.4109624
74	0x3de9d25a	0.114170745
75	0xbf04a93d	-0.5182074
76	0x3e89e3e1	0.2693167
77	0xbeb987f7	-0.36236545
78	0x3b9b462d	0.00473859
79	0xbd49e560	-0.049291015
80	0x3e04f70d	0.12984867
81	0x3eb2ba72	0.3490787
82	0xbec0aa28	-0.3762982
83	0xbd11eecd	-0.03562813
84	0xbd896379	-0.06708426
85	0x3d9a3e96	0.075314686
86	0x3f2d1960	0.67616844
87	0x3e2e7cd3	0.17039804
88	0x3dac8c3d	0.08425186
89	0xbd0f15ac	-0.034932777
90	0x3d5a1885	0.05324604
91	0xbe301427	-0.17195188
92	0x3e9f84dd	0.31156054
93	0xbd5890f1	-0.052872602
94	0x3db31486	0.08744149
95	0xbea6f26d	-0.3260683
96	0x3e804800	0.25054932
97	0x3e7e942e	0.24861214
98	0x3f0bdaff	0.54631037
99	0xbdbee968	-0.093218625
100	0x3e4614f1	0.19343926
101	0xbeb9d6a9	-0.36296585
102	0x3dd456e4	0.103681356
103	0x3e8d071d	0.2754449
104	0x3ebb08ec	0.36530244
105	0x3ef830c4	0.48474705
106	0x3ea5ab9f	0.323575
107	0xbe4d89d3	-0.20072107
108	0x3c8257f5	0.015911082
109	0x3db4edb9	0.088344045
110	0xbe1da4d0	-0.15394902
111	0xbe745f3d	-0.23864456
112	0xbe02d49d	-0.12776418
113	0x3e843857	0.25824234
114	0x3c943083	0.018089538
115	0x3e37c12a	0.1794478
116	0x3d0dacf6	0.034588777
117	0xbe7c5c40	-0.24644566
118	0xbe03f02e	-0.1288459
119	0xbd3e69f8	-0.04648778
120	0x3d2aa591	0.041661803
121	0x3c223e4a	0.009902546
122	0x3e9b0ed5	0.30284753
123	0xbd79328f	-0.060839232
124	0xbdea09a7	-0.11427622
125	0xbe9087f0	-0.28228712
126	0xbe5db255	-0.2165006
127	0xbe5397d7	-0.20663391
128	0x3e7a3797	0.24435268
129	0x3e88d9d5	0.26728693
130	0x3e1924c0	0.14955425
131	0xbe24ff2b	-0.16112964
132	0x3dc5fc7d	0.09667299
133	0xbc6abe2a	-0.014327565
134	0xbed5717d	-0.41688147
135	0xbec25f3e	-0.3796329
136	0xbecc6e38	-0.3992784
137	0x3df0f11d	0.11764739
138	0xbbaf091d	-0.0053416626
139	0x3eb0de19	0.34544447
140	0xbe1a2378	-0.15052593
141	0xbe8ac8c1	-0.27106288
142	0xbdf886a4	-0.12135056
143	0x3e95c3d9	0.29250982
144	0x3d3f5cb3	0.046719264
145	0x3cf91723	0.03040654
146	0x3ee3888c	0.44440114
147	0xbe86f24a	-0.26356727
148	0xbdc300cf	-0.095216386
149	0xbdba73a7	-0.0910409
150	0x3e17f31e	0.14838836
151	0xbeb53c64	-0.35397637
152	0xbf73fad4	-0.9530461
153	0xbec80c75	-0.39072004
154	0xbeb6e329	-0.35720184
155	0xbeb5a303	-0.3547593
156	0xbe7da5fe	-0.24770352
157	0x3d2bf181	0.041978363
158	0xbdce7e03	-0.100826286
159	0xbc7e7ed9	-0.0155331725
160	0xbd28eb72	-0.041240163
161	0xbdc2f792	-0.095198765
162	0xbc934ab0	-0.01797995
163	0x3e9b1fd7	0.3029773
164	0xbe64ced8	-0.2234453
165	0xbe899cdf	-0.26877496
166	0xbd1894fe	-0.037251465
167	0xbe345d6f	-0.17613767
168	0x3d011b65	0.031520266
169	0x3d26fd60	0.04076898
170	0x3e0acb92	0.13554218
171	0x3cdc34ec	0.026880704
172	0xbe7e884c	-0.2485668
173	0xbe5bc5d2	-0.21462181
174	0xbe4d58dd	-0.2005343
175	0xbe411526	-0.18855724
176	0xbf29d86b	-0.6634585
177	0xbe5263a5	-0.20545824
178	0x3e95f6bd	0.2928981
179	0x3eba11be	0.3634166
180	0xbe03e6e9	-0.12881054
181	0xbcc700a6	-0.024292301
182	0x3dda2a13	0.10652556
183	0xbe06e41f	-0.13172959
184	0xbe7d9022	-0.24762014
185	0xbe5312f4	-0.20612699
186	0x3e08a765	0.13345106
187	0xbe385e82	-0.18004802
188	0x3e10f963	0.14157633
189	0xbce869fc	-0.02837085
190	0xbd5ef610	-0.054433882
191	0xbe117fa8	-0.14208853
192	0xbe188c1e	-0.148972
193	0xbe8df1e4	-0.2772361
194	0x3f3c98db	0.7367074
195	0x3df53302	0.119726196
196	0xbea109a4	-0.31452668
197	0xbd5868ac	-0.052834198
198	0x3e10da8e	0.14145872
199	0xbd950f95	-0.07278363
200	0xbf014aa6	-0.5050453
201	0xbed7f991	-0.42182592
202	0xbd9d8472	-0.076912776
203	0x3da7c054	0.081909806
204	0xbebe8cfe	-0.37216944
205	0xbd8632dc	-0.065526694
206	0xbd68d238	-0.056841105
207	0xbe2f778f	-0.17135452
208	0x3b06cd3b	0.0020569104
209	0x3e80f4b3	0.2518669
210	0xbe8d4306	-0.27590197
211	0xbcba09e6	-0.022709798
212	0xbe4c0b1a	-0.1992611
213	0x3e1b1303	0.15143971
214	0xbeb88985	-0.3604242
215	0xbebc350a	-0.36759216
216	0xbeda1b3f	-0.42598912
217	0xbed068a9	-0.4070485
218	0xbf8106b3	-1.008017
219	0xbf03be0a	-0.5146185
220	0xbe8650f5	-0.2623364
221	0xbdcfed6e	-0.10152708
222	0x3be27b68	0.006911684
223	0x3ea2522c	0.31703317
224	0x3f65c71b	0.89756936
225	0x3e82c5e0	0.25541592
226	0x3e1aa797	0.15102993
227	0x3ce6960d	0.028147722
228	0xbed8bf4a	-0.42333442
229	0x3e245d56	0.1605123
230	0x3e244ba5	0.16044481
231	0xbdac1a1f	-0.0840342
232	0xbe0a8e22	-0.13530782
233	0xbec66f41	-0.38756755
234	0xbe8df311	-0.27724507
235	0x3efc6e27	0.4930279
236	0x3e25ce48	0.16191971
237	0xbd85bef7	-0.06530564
238	0x3e1ed41d	0.15510602
239	0x3eb48cc8	0.35263658
240	0x3ea2d7c6	0.31805247
241	0x3e81ad22	0.25327402
242	0x3f073228	0.5281091
243	0x3f1e078c	0.61730266
244	0xbdb1a398	-0.08673781
245	0xbe3d6ebb	-0.18499272
246	0x3e876e75	0.2645146
247	0x3e6ea607	0.23305522
248	0x3f6e4947	0.9308056
249	0x3ed58fdf	0.41711327
250	0xbe8e39bc	-0.27778423
251	0x3e496791	0.19668414
252	0xbde02068	-0.10943681
253	0xbec05322	-0.37563425
254	0xbf440c4b	-0.7658126
255	0xbec0b719	-0.37639692

0.bias f4 [128]
0	0xbddf62ae	-0.109074935
1	0x3e98b95f	0.29828927
2	0x3e14304c	0.14471549
3	0x3c9131a0	0.017723858
4	0x3c815b70	0.015790671
5	0x3e2f7a18	0.17136419
6	0xbe565b5f	-0.20933293
7	0xbeb0711d	-0.344613
8	0xbd9b86cb	-0.07594069
9	0xbe949757	-0.29021713
10	0x3e6d0c44	0.2314921
11	0xbe976b68	-0.29574132
12	0x3e0dfde8	0.13866389
13	0x3ebf6ed3	0.3738924
14	0x3e765b27	0.2405821
15	0x3e1a178d	0.15048046
16	0xbe6b4157	-0.22974144
17	0x3e2ab27f	0.16669653
18	0xbe8308a8	-0.25592542
19	0xbb80dee9	-0.003932823
20	0x3eb288ff	0.34870145
21	0xbd384053	-0.04498322
22	0xbe963e78	-0.29344535
23	0x3dd45537	0.10367816
24	0x3ebe6ba1	0.3719149
25	0x3e2f21dd	0.17102762
26	0xbeea2c75	-0.45737043
27	0x3e99ad38	0.30014968
28	0xbe446673	-0.19179706
29	0x3d7ccd69	0.061719332
30	0xbe4f0133	-0.20215301
31	0xbec28235	-0.37989965
32	0x3ed3d23c	0.41371334
33	0xbda10adf	-0.078634016
34	0x3c8612ea	0.01636644
35	0xbec49582	-0.38395315
36	0x3e35f132	0.1776779
37	0x3e27acf9	0.16374578
38	0xbe357d3b	-0.17723553
39	0x3d95797b	0.07298561
40	0x3e98c67c	0.29838932
41	0x3e905cc3	0.28195772
42	0x3df57128	0.119844735
43	0xbdb69218	-0.08914584
44	0xbde1c52f	-0.11023938
45	0x3ecb3fe4	0.39697182
46	0x3eca6cda	0.39536172
47	0x3e34552b	0.17610614
48	0x3e01edcb	0.12688367
49	0x3ec3f6b8	0.3827417
50	0xbe9ba17e	-0.30396646
51	0x3e184b46	0.14872465
52	0xbe9c6c66	-0.3055145
53	0x3e23be82	0.15990642
54	0xbe7ab967	-0.24484788
55	0xbee5121e	-0.44740385
56	0x3e08706e	0.13324139
57	0xbd81f776	-0.063460276
58	0xbeb07645	-0.34465232
59	0xbea81287	-0.32826635
60	0x3e9e930d	0.30971566
61	0x3e85739e	0.2606477
62	0x3dd2e93e	0.10298394
63	0x3e4d9052	0.20074585
64	0xbe63bc4b	-0.22239797
65	0xbebcc2b1	-0.36867288
66	0x3e959410	0.29214525
67	0xbe86260a	-0.26200897
68	0x3ded9948	0.11601502
69	0xbea19eb0	-0.3156638
70	0xbde9e60a	-0.114208296
71	0xbd2c9886	-0.042137645
72	0x3c8821ed	0.01661774
73	0xbc8991cb	-0.016793152
74	0x3e909bfd	0.2824401
75	0xbd99a662	-0.07502438
76	0x3e284e13	0.16436033
77	0xbeca26a3	-0.39482602
78	0x3e8e6638	0.27812362
79	0x3d332450	0.043735802
80	0x3e2e01b6	0.1699284
81	0xbef21f3c	-0.47289455
82	0xbda71958	-0.08159131
83	0xbecf8785	-0.4053308
84	0xbec8edec	-0.3924402
85	0x3d937aad	0.07201133
86	0x3ddbb774	0.1072835
87	0xbe79aac0	-0.24381542
88	0x3d671a22	0.056421407
89	0x3e130d2d	0.14360495
90	0x3e0838bb	0.13302891
91	0x3e8d463c	0.27592647
92	0xbe922036	-0.285402
93	0xbea92bff	-0.3304138
94	0xbe70b254	-0.23505527
95	0x3e3f80f4	0.18701535
96	0x3e85fe9b	0.2617081
97	0xbe22e6cc	-0.15908355
98	0xbe7308b2	-0.23733786
99	0xbdcb6163	-0.099306844
100	0x3d16dc4b	0.03683118
101	0x3d492740	0.049109697
102	0x3e73bce8	0.23802531
103	0x3e40965e	0.1880736
104	0x3e8608ad	0.26178494
105	0xbea4fab6	-0.32222527
106	0x3e13c804	0.14431769
107	0x3c9ac72d	0.018893803
108	0x3e6f4da0	0.23369455
109	0x3d92c358	0.07166165
110	0x3eb17fb9	0.34667757
111	0xbc010984	-0.007875804
112	0xbe88ddaa	-0.26731616
113	0x3eace8cc	0.3377136
114	0xbdb4707c	-0.08810517
115	0xbe728d49	-0.23686709
116	0x3e444665	0.19167478
117	0x3e44b1d8	0.19208467
118	0xbe91b1ba	-0.28455907
119	0x3e0148f2	0.12625483
120	0x3e853d47	0.26023313
121	0x3e9d4069	0.30713204
122	0x3e18b80f	0.14913963
123	0x3e40d9e2	0.18833116
124	0xbe95df2a	-0.29271823
125	0xbe2ce32c	-0.16883534
126	0xbf03d897	-0.51502365
127	0xbe729242	-0.23688605

2.weight f4 [128, 128]
0	0xbca04e0b	-0.019568464
1	0xbe0a3402	-0.13496402
2	0x3e651303	0.22370534
3	0x3e88c1f3	0.26710472
4	0x3d9e13a1	0.07718588
5	0x3cfe7b31	0.031064602
6	0xbdcbf443	-0.099586986
7	0x3d9f69e8	0.07783872
8	0xbd20649d	-0.039158452
9	0xbbc91714	-0.0061367843
10	0x3a7cbb4b	0.0009640946
11	0x3e5fb58f	0.21846603
12	0x3d599556	0.053120933
13	0x3dbe40c4	0.09289697
14	0x3dffb1b9	0.1248507
15	0x3c6dc823	0.014513048
16	0x3d2e2635	0.042516906
17	0x3dda350c	0.10654649
18	0xbd9eeaa2	-0.077595964
19	0xbc990f84	-0.018684156
20	0x3d398ce0	0.045300364
21	0x3de27d0c	0.11059007
22	0x3c0c4a29	0.008562603
23	0x3db219dc	0.086963385
24	0x3b1c1504	0.0023816237
25	0xbea3cbd1	-0.31991437
26	0xbd7d3fca	-0.061828412
27	0x3db3e588	0.08784014
28	0xba4c940c	-0.0007804043
29	0xbe202301	-0.15638353
30	0x3d940402	0.07227327
31	0x3daa7070	0.08322227
32	0x3e211a57	0.15732704
33	0xbe3b2c4e	-0.1827862
34	0xbe6998cd	-0.22812195
35	0x3d57ef1d	0.05271827
36	0xbe4f58d4	-0.20248729
37	0x3e4e42b7	0.20142637
38	0xbc4f9e0c	-0.012671959
39	0xbcacda81	-0.021100285
40	0x3e05acea	0.13054243
41	0x3d960b3d	0.07326362
42	0xbe5027fc	-0.20327753
43	0x3e136216	0.14392886
44	0x3d952ac6	0.07283549
45	0x3e4e6e29	0.2015921
46	0x3e0abcdc	0.13548607
47	0xbd1f1eb7	-0.03884765
48	0x3d973248	0.07382637
49	0xbdea3926	-0.114366814
50	0x3d761318	0.060076803
51	0x3c73a718	0.014871381
52	0x3d9cc256	0.07654254
53	0x3e6ace04	0.22930151
54	0x3e15733c	0.1459474
55	0x3cde7a3a	0.027157892
56	0x3d361125	0.044449944
57	0xbe21438f	-0.15748428
58	0xbcc966f1	-0.02458522
59	0x3cb18918	0.021671817
60	0x3dde0d30	0.10842359
61	0x3e3e836c	0.18604821
62	0xbe09ae0d	-0.13445301
63	0xbe1c10b0	-0.15240741
64	0x3ddc1f14	0.10748115
65	0xbd3948a2	-0.045235284
66	0x3c938c1f	0.01801115
67	0xbd6130f5	-0.05497833
68	0x3de1e989	0.110308714
69	0xbdd337eb	-0.103134
70	0x3dedccce	0.11611329
71	0x3e049ae2	0.12949708
72	0x3e123981	0.14279748
73	0xbe3519cb	-0.1768562
74	0x3e0d83e8	0.1381985
75	0x3de5db43	0.112234615
76	0x3df86a70	0.12129676
77	0x3ccc4f91	0.024940284
78	0x3bcfa0b7	0.0063362974
79	0x3e58e8cf	0.2118256
80	0x3b6ec225	0.0036431637
81	0xbd58e463	-0.05295218
82	0x3e12b767	0.14327775
83	0xbd0154cf	-0.03157502
84	0xbddc3bbb	-0.1075358
85	0x3d816d40	0.06319666
86	0xbd87a47e	-0.06623171
87	0xbd8758b9	-0.066087194
88	0x3b9763f4	0.0046200696
89	0x3e29411c	0.16528744
90	0x3da14d85	0.07876114
91	0xbdbf15e5	-0.09330348
92	0x3d5e7e80	0.05431986
93	0x3d650869	0.055916224
94	0x3d66594e	0.05623751
95	0x3d27e79c	0.040992364
96	0xbd4cd544	-0.050008073
97	0x3cf2469a	0.029574681
98	0xbb3f8eb7	-0.0029229352
99	0x3e212b75	0.15739234
100	0x3b194d1c	0.0023391908
101	0xbcb175eb	-0.021662673
102	0x3b9a7087	0.0047131213
103	0x3db51c8e	0.08843337
104	0x3e259b3a	0.16172495
105	0xbd77c262	-0.060488112
106	0x3dfc00b2	0.1230482
107	0xbe4dfc84	-0.20115858
108	0x3e5066b6	0.20351681
109	0x3e30c0f2	0.17261103
110	0xbd900b01	-0.07033349
111	0x3e1ae403	0.15126042
112	0x3d537337	0.05162355
113	0xbe86c458	-0.26321673
114	0x3da1530a	0.078771666
115	0xbbf999fb	-0.007617233
116	0x3d58a53e	0.052891962
117	0x3e474f73	0.19463901
118	0xbba97293	-0.005171129
119	0x3e51cdcc	0.20488662
120	0xbaaaeba8	-0.0013040202
121	0xbe00c8d4	-0.1257661
122	0x3cf934fa	0.030420769
123	0x3d5f2652	0.054479904
124	0x3cd0a1b5	0.025467733
125	0xbd03cb35	-0.032176215
126	0x3d63b7bb	0.05559514
127	0xbd6e887e	-0.058235638
128	0xbd1619cd	-0.0366457
129	0xbb31adbd	-0.0027111613
130	0xbd26f47b	-0.0407605
131	0xbc7492c8	-0.0149275735
132	0x3d550a11	0.052011553
133	0x3d84fef8	0.06493944
134	0x3c9d7587	0.01922108
135	0x3d5da3a5	0.05411114
136	0xbdc46abc	-0.095906705
137	0xbd7f23ef	-0.06229013
138	0xbd227643	-0.039663564
139	0x3d8f5325	0.069982804
140	0xbdcb1b09	-0.09917266
141	0xbd11430f	-0.035464343
142	0xbce84866	-0.028354835
143	0xbd638107	-0.055542972
144	0x3b33c525	0.002743074
145	0x3bd71ac7	0.0065644714
146	0x3d8eb860	0.069687605
147	0xbd49d273	-0.049272966
148	0xbc0d88d0	-0.008638576
149	0x36088cc2	2.034751e-06
150	0x3cb48663	0.022036737
151	0xbdeec9d2	-0.11659588
152	0xbde70594	-0.11280361
153	0xbc662ee1	-0.014049263
154	0xbd922364	-0.071356565
155	0x3d00d6f7	0.031455006
156	0xbd70c23e	-0.058778994
157	0x3ca697c4	0.02033604
158	0xbcbbfe1f	-0.022948323
159	0xbcee32a1	-0.029076876
160	0x3ad76f65	0.0016436396
161	0x3cea313f	0.028587935
162	0xbab2781e	-0.001361612
163	0xbc8133db	-0.015771797
164	0xbcf32b30	-0.02968368
165	0x3d6ff41c	0.05858241
166	0x3d3debc0	0.046367407
167	0x3c751474	0.01495849
168	0x3cc6dfaf	0.024276583
169	0xbd7537be	-0.059867613
170	0xbd71461b	-0.05890475
171	0xbd2bf3bb	-0.041980486
172	0xbd9a5963	-0.075365804
173	0xbdaef663	-0.08543088
174	0xbcdd73bc	-0.027032726
175	0x3d573823	0.05254377
176	0xbd95d62f	-0.07316243
177	0xbd706d6f	-0.058698114
178	0xbd1a4c7e	-0.037670605
179	0xbda405a5	-0.08008889
180	0xbb421800	-0.0029616356
181	0xbd2dee14	-0.042463377
182	0xbd090e6f	-0.03346103
183	0x3d752ca8	0.05985704
184	0x3cf77e9d	0.030211741
185	0x3d11892a	0.0355312
186	0xbdb044f5	-0.086069025
187	0xbd952f05	-0.07284359
188	0x3d830b08	0.063985884
189	0xbd0aff37	-0.033934798
190	0xbd37a308	-0.044833213
191	0x3c3256a5	0.0108849155
192	0xbcefad43	-0.029257422
193	0xbdb0ff8b	-0.08642491
194	0x3c360832	0.011110352
195	0x3cf90f00	0.03040266
196	0x3c20c470	0.009812459
197	0x3d95c476	0.073128626
198	0xbd9e5c91	-0.077324994
199	0xbd8b51ef	-0.06802737
200	0x3cd05789	0.025432365
201	0x3c38e3a6	0.011284744
202	0x3d0fa7e6	0.03507223
203	0x3c3b0d14	0.011416692
204	0x3cc02b19	0.02345805
205	0x3ce05302	0.027383331
206	0x3d0a5c95	0.0337797
207	0xbda72b66	-0.081625745
208	0x3ce5a9fa	0.028035153
209	0xbcff5ccc	-0.031172179
210	0xbdb7fe26	-0.08984022
211	0xbcc5cf08	-0.024146572
212	0x3c949c14	0.01814083
213	0xbda19126	-0.07889013
214	0x3cb7ec3f	0.022451518
215	0xbd93dc8d	-0.07219801
216	0xbdd9cebe	-0.10635136
217	0xbcc6b89f	-0.024257956
218	0x3d1c9cb7	0.038235392
219	0xbba59b1d	-0.0050538913
220	0x3d884128	0.066530526
221	0xbc435567	-0.011922217
222	0xbd65baf4	-0.056086496
223	0xbda40160	-0.08008075
224	0xbdc3c678	-0.09559339
225	0x3d61a59f	0.05508959
226	0x3a84bdac	0.0010127327
227	0x3d72901b	0.05921946
228	0x3d552e99	0.052046392
229	0x3bb6ad32	0.0055748457
230	0xbd8b1cfd	-0.067926385
231	0x3c9c62e2	0.01909012
232	0x3d592c93	0.053021025
233	0x3da56e94	0.08077732
234	0x3d3b4784	0.0457225
235	0xbc3ea8b8	-0.011636905
236	0x3c7096e6	0.0146844145
237	0xbd123049	-0.03569058
238	0xbd9697cc	-0.07353172
239	0xbc66e335	-0.014092256
240	0x3d440862	0.047859557
241	0x3bc274ae	0.0059343195
242	0x3cbf671a	0.023364592
243	0xbdbaeaec	-0.09126839
244	0xbdbbabcb	-0.09163626
245	0xbd0424f0	-0.03226179
246	0xbdaa1e8d	-0.08306608
247	0xbda8159d	-0.082072474
248	0xbcbaaf6b	-0.022788724
249	0xbd338507	-0.043828037
250	0xbc309b5b	-0.010779227
251	0x3d417c6a	0.04723779
252	0xbc3afec6	-0.011413282
253	0xbc462b84	-0.012095336
254	0x3d9c1da1	0.07622839
255	0xbde7ff61	-0.113280065

2.bias f4 [128]
0	0x3d9160e1	0.07098556
1	0xbc533fbf	-0.012893616
2	0x3ddee9d5	0.10884444
3	0xbc8df57e	-0.017328974
4	0x3b7f8861	0.00389912
5	0x3d564d16	0.05231961
6	0xbdb6af62	-0.0892017
7	0x3d053f25	0.032530922
8	0xbc62f660	-0.013852686
9	0x3cc7126b	0.024300775
10	0x3dd792a7	0.105260186
11	0xbcfac13a	-0.030609716
12	0xbd1e8623	-0.03870214
13	0x3d0819fe	0.033227913
14	0xbd595e57	-0.053068485
15	0x3bae37b5	0.0053166994
16	0x3d448d0a	0.047986068
17	0x3d75ccdd	0.060009826
18	0xbc846d39	-0.016165363
19	0x3dc68e91	0.09695161
20	0xbdbde085	-0.09271339
21	0xbd3e8701	-0.04651547
22	0xbd4ece09	-0.05048946
23	0xbd890a9e	-0.06691478
24	0x3d8e2ad5	0.06941763
25	0x3d3bf72e	0.045890026
26	0x3d967008	0.07345587
27	0x3d86edcd	0.06588326
28	0x3d5aa58d	0.053380538
29	0xbc8e884f	-0.017398981
30	0xbd599ccf	-0.05312806
31	0x3d7a6c88	0.06113866
32	0xbc4a47ee	-0.012346251
33	0x3dbc2051	0.09185851
34	0x3daa5e67	0.08318787
35	0xbc974ec0	-0.018470168
36	0x3cdf0f1e	0.027228888
37	0x3dc2431c	0.09485456
38	0x3e01d2aa	0.12678018
39	0xbd443c51	-0.047909085
40	0xbdd09890	-0.10185349
41	0xbb8fd1a3	-0.0043890043
42	0x3bbe9653	0.00581626
43	0x3d876936	0.06611864
44	0x3b9fcdc1	0.0048768227
45	0x3a7ab868	0.0009564222
46	0x3d049c9a	0.03237591
47	0xbd82cd72	-0.06386842
48	0x3c0c17ab	0.008550565
49	0x3d2b920d	0.04188733
50	0x3db0daed	0.08635507
51	0xbd4266dd	-0.04746138
52	0xbd7debd0	-0.061992466
53	0xb7d6d3d6	-2.5609432e-05
54	0x3d961943	0.07329037
55	0x3d0f6952	0.03501255
56	0x3c0a8053	0.008453446
57	0x3d8ef4d5	0.06980292
58	0x3db5879e	0.088637576
59	0x3ddde281	0.10834218
60	0xbdb3b957	-0.08775585
61	0xbd44188d	-0.047874976
62	0xbcb9d637	-0.022685153
63	0xba87331c	-0.0010314914
64	0x3d03dfc9	0.03219584
65	0xbd882ecf	-0.06649553
66	0x3c8b9e5b	0.017043283
67	0x3c230348	0.009949513
68	0xbd598d42	-0.05311323
69	0x3d320c8b	0.043468993
70	0xbd30efe9	-0.043197546
71	0x3ddf5e95	0.10906712
72	0x3ad0b64c	0.0015923469
73	0xbc839216	-0.01606087
74	0xbd230d5b	-0.03980766
75	0xbd8b9659	-0.06815786
76	0x3da17e31	0.07885397
77	0x3c9e5346	0.019326817
78	0xbd9a5868	-0.075363934
79	0x3caa39c8	0.020779505
80	0xbd8e1c7d	-0.069390275
81	0xbd893e5f	-0.067013495
82	0xbdb412f7	-0.0879268
83	0xbdccbaaa	-0.09996541
84	0x3cf20203	0.029541975
85	0xbd762a53	-0.060098957
86	0x3df29727	0.11845236
87	0x3d1679dd	0.03673731
88	0x3c0a4caa	0.00844113
89	0xbdb33b45	-0.08751539
90	0x3db6f2cd	0.08933029
91	0xbdadd4cd	-0.08487854
92	0x3da787ed	0.08180223
93	0xba05d685	-0.0005105513
94	0x3deac538	0.11463398
95	0xbdaf6b2a	-0.08565362
96	0xbd05a076	-0.03262373
97	0xbce52480	-0.027971506
98	0x3ca4267d	0.020037884
99	0xbdb9a9aa	-0.09065564
100	0x3ced5ff6	0.028976422
101	0xbabceba0	-0.0014413483
102	0xbdc4dd9e	-0.096125826
103	0xbd205abf	-0.039149042
104	0x3bd22fac	0.0064143743
105	0x3d8a5f53	0.06756463
106	0x3d0ca1a4	0.03433384
107	0xbbff10c8	-0.007783983
108	0x3e1bd71f	0.15218781
109	0xba7bded6	-0.0009608095
110	0x3a86cae3	0.0010283854
111	0x3d178239	0.036989424
112	0x3d6ca5ba	0.057775237
113	0x3d590360	0.052981734
114	0x3d0f6eb4	0.035017684
115	0xbcee9b8e	-0.029126909
116	0xbd491438	-0.049091548
117	0x3da7c9a8	0.0819276
118	0xbd0af746	-0.033927225
119	0x3cd3e3a7	0.025865389
120	0x3cbc2c97	0.02297048
121	0x3d4cdf4f	0.05001765
122	0x3c389718	0.011266492
123	0x3da124d7	0.07868355
124	0x3d2cd131	0.042191688
125	0xbd62fd37	-0.055417266
126	0xbd42f348	-0.047595292
127	0x3d40b8e2	0.047051318

4.weight f4 [3, 128]
0	0xbe32b9e5	-0.17453726
1	0xbd65f514	-0.056141928
2	0xbdab1c5e	-0.0835502
3	0x3d209566	0.039204977
4	0xbda96f85	-0.08273224
5	0x3d6b2931	0.05741233
6	0x3d11b96f	0.035577234
7	0xbd6fa4da	-0.058506824
8	0xbd2de7f2	-0.04245753
9	0x3d01efd9	0.031722877
10	0xbe047de2	-0.12938645
11	0x3d930e84	0.07180503
12	0xbd04636f	-0.03232139
13	0x3d4de2e2	0.0502652
14	0xbdb3a2ec	-0.08771309
15	0x3d9ad3e4	0.07559946
16	0x3e2f2ff2	0.17108133
17	0x3db60986	0.08888535
18	0x3cc01a0a	0.023449916
19	0x3d4fd372	0.05073876
20	0x3d80b072	0.06283654
21	0xbc92cf53	-0.017921126
22	0x3dd04602	0.10169603
23	0x3c4d4ade	0.012530057
24	0xbd315f6f	-0.043303903
25	0x3e050c41	0.12992956
26	0xbe161668	-0.14656985
27	0xbd628cc4	-0.055310026
28	0xbd9ce850	-0.076614976
29	0x3d223931	0.039605323
30	0xbd2a47c7	-0.04157236
31	0xbd584848	-0.052803308
32	0x3d182392	0.037143297
33	0x3dd6e6d7	0.10493248
34	0xbcc5873a	-0.024112333
35	0x3db1c8de	0.086808905
36	0xbcb732c1	-0.022363069
37	0x3c491cc1	0.012274922
38	0xbcb49e20	-0.022048056
39	0xbdbf051d	-0.09327147
40	0x3c71e22a	0.014763394
41	0xbcfa0b2c	-0.030522905
42	0x3d902809	0.07038886
43	0x3d06a0c9	0.03286818
44	0x3cc1d8cf	0.023662953
45	0xbd599f58	-0.053130478
46	0xbe21d471	-0.15803696
47	0xbc642b21	-0.013926298
48	0x3d5ccebb	0.05390809
49	0xbe54b826	-0.20773372
50	0x3d9ccf02	0.07656671
51	0x3c7e738d	0.015530479
52	0x3d62a875	0.055336434
53	0xbd47d88e	-0.048790507
54	0xbe021055	-0.12701543
55	0xbd0c7929	-0.034295235
56	0x3d80066e	0.06251226
57	0xbd366b92	-0.04453618
58	0xbd178be1	-0.036998633
59	0xbdbfa38f	-0.09357368
60	0x3bb6364a	0.005560671
61	0x3ba1dc1a	0.004939568
62	0xbddcbb7a	-0.10777946
63	0xbda9da7e	-0.08293627
64	0xbe152ddf	-0.1456828
65	0xbbfb5c55	-0.007670919
66	0xbd283634	-0.041067317
67	0xbd9c7f02	-0.07641412
68	0xbda7d823	-0.08195522
69	0xbd035fc8	-0.032073766
70	0xbd56fbb7	-0.052486148
71	0x3c971541	0.018442752
72	0x3d72ebf1	0.059307043
73	0xbd02db33	-0.031947326
74	0xbd27c749	-0.040961538
75	0x3dada023	0.08477809
76	0x3b0ed3ea	0.002179379
77	0xbda4f04e	-0.08053647
78	0xbd13cbd8	-0.036083072
79	0xbdcea374	-0.1008977
80	0x3d75bf61	0.059996966
81	0xbd86d72f	-0.06584012
82	0x3d7fce76	0.062452756
83	0xbc25d3f1	-0.010121332
84	0xbd205d24	-0.039151326
85	0x3d5a1c07	0.053249385
86	0xbd979a0c	-0.07402429
87	0xbd7acc2b	-0.061229866
88	0xbab62033	-0.0013895094
89	0xbd99fa1d	-0.075184084
90	0x3d9f8383	0.07788756
91	0x3cecb615	0.028895417
92	0x3d63fc11	0.05566031
93	0x3d6580a6	0.05603089
94	0x3e6a2786	0.2286664
95	0xbd72133c	-0.059100375
96	0xbc45e7e1	-0.01207921
97	0x3d0f36f9	0.034964535
98	0x3d1f8f79	0.038955186
99	0xbce124a3	-0.02748329
100	0xbc069863	-0.008215043
101	0xbd802207	-0.0625649
102	0x3c706bf3	0.014674175
103	0x3d1ee3df	0.038791534
104	0xbb251499	-0.002518928
105	0x3d82da52	0.063892975
106	0xbd85c5ec	-0.06531891
107	0x3dbe619b	0.092959605
108	0xbda90d51	-0.08254493
109	0xbd8b6b91	-0.06807626
110	0x3cd0d4e5	0.025492141
111	0x3d4a9acc	0.049464032
112	0xbdad65dc	-0.08466694
113	0x3dd33cb8	0.103143156
114	0xbd09fd7a	-0.033689
115	0x3d8d5468	0.06900865
116	0x3d092ed9	0.033491943
117	0xbe0fa737	-0.14028631
118	0xbc68b980	-0.014204383
119	0x3cf9fa6d	0.03051492
120	0x3e7dd63d	0.24788757
121	0x3d97be3d	0.07409332
122	0x3cbd8c1c	0.023138098
123	0x3c138418	0.009003662
124	0x3c3d82bf	0.011566817
125	0x3d3e7afc	0.046504006
126	0x3ce9b173	0.028526997
127	0x3c8c6e5b	0.017142465
128	0x3d593c9f	0.05303633
129	0xbd742b69	-0.05961171
130	0x3e0ba9a5	0.13638933
131	0x3d10a379	0.03531215
132	0x3c660b84	0.0140408315
133	0x3d541df9	0.051786397
134	0xbd3e3beb	-0.04644386
135	0x3c67aad2	0.014139848
136	0xbd3a77ee	-0.04552453
137	0xbc334f82	-0.010944249
138	0x3e362622	0.17787984
139	0xbd9df189	-0.07712085
140	0x3d56053f	0.052251097
141	0xbdb72f07	-0.08944517
142	0x3d83de10	0.064388394
143	0xbd9fe45f	-0.0780723
144	0xbd854dd6	-0.06508987
145	0xbd200347	-0.039065626
146	0x3c82fe0c	0.01599028
147	0xbd8d7308	-0.06906706
148	0x3d7c8ed2	0.06165964
149	0xbcf25c05	-0.029584894
150	0xbd610b82	-0.054942615
151	0x3be2ec5b	0.0069251484
152	0x3dd5f1c3	0.10446503
153	0xbe602543	-0.21889214
154	0x3e4cc05c	0.19995254
155	0x3ddf706d	0.109101154
156	0x3ca90cd2	0.020635996
157	0xbd6fac52	-0.058513947
158	0xbd703f38	-0.05865404
159	0xbde25d37	-0.110529356
160	0xbce9c945	-0.028538356
161	0xbe0c642b	-0.13710086
162	0xbcee7956	-0.029110592
163	0xbd93d9f6	-0.07219307
164	0x3d92fab2	0.071767226
165	0xbd188705	-0.03723814
166	0x3ca8d707	0.020610346
167	0xbc4cf23c	-0.012508925
168	0x3c53f08e	0.012935771
169	0x3d2b30fc	0.041794762
170	0xbd24757e	-0.04015111
171	0xbd07b9be	-0.033136122
172	0x3b40915e	0.002938352
173	0xbde2c355	-0.11072413
174	0x3dacbd9f	0.08434605
175	0x3d355f4e	0.044280343
176	0xbd2bd190	-0.0419479
177	0x3e5bdfc8	0.21472085
178	0x3d5867a5	0.052833218
179	0x3c10f655	0.008847793
180	0x3abf336c	0.0014587468
181	0x3d748d40	0.05970502
182	0x3d963610	0.0733453
183	0xbd2adcbc	-0.041714415
184	0xbd9236b8	-0.07139343
185	0x3de8f701	0.11375237
186	0x3e0c7b3e	0.13718888
187	0x3e0238f4	0.12717038
188	0x3df0e555	0.117624916
189	0xbcc1369a	-0.023585606
190	0x3d996d9b	0.07491609
191	0x3c08f99a	0.008360291
192	0x3e0c2a15	0.13687928
193	0xbc9ce89b	-0.019153884
194	0x3d916d07	0.071008734
195	0x3cf8a518	0.03035216
196	0x3c0a22ce	0.00843115
197	0x3d033d00	0.032040596
198	0x3cc78bc3	0.024358636
199	0x3dd44e16	0.10366456
200	0x3d81dca0	0.06340909
201	0xbd5e55ec	-0.05428116
202	0x3d2a2f28	0.041548878
203	0xbcf033dc	-0.029321603
204	0xbd680747	-0.056647565
205	0x3ddcc9e6	0.107806966
206	0x3c6cc7dc	0.014451947
207	0x3c2be0c4	0.0104906
208	0xbda91591	-0.082560666
209	0x3d08f7a7	0.033439305
210	0x3d95f775	0.07322589
211	0x3d16b735	0.036795814
212	0xbd233905	-0.0398493
213	0xbda42228	-0.08014327
214	0x3d001f9e	0.031280152
215	0xbba66037	-0.0050773877
216	0x3db76e74	0.08956614
217	0x3d7a78bd	0.0611503
218	0xbcf6a9e8	-0.030110314
219	0x3c8bdec8	0.017074004
220	0xbca55030	-0.020179838
221	0x3d8514d6	0.06498115
222	0xbe0adfd1	-0.13561942
223	0x3dc07c0c	0.0939866
224	0x3d9eee3a	0.07760282
225	0xbcdffe68	-0.02734299
226	0x3d154547	0.03644302
227	0xbb415c31	-0.0029504413
228	0xbca3c112	-0.019989524
229	0x3e0b5f3e	0.13610551
230	0x3cd84bdb	0.026403358
231	0xbd4090a8	-0.047012955
232	0xbd02a0dd	-0.031891692
233	0xbda98cee	-0.08278833
234	0xbd99c6f3	-0.0750865
235	0xbb2b5a4e	-0.0026146355
236	0x3d432357	0.047641125
237	0x3dbab83e	0.09117173
238	0xbd86d20d	-0.06583033
239	0x3d4e9c98	0.05044231
240	0x3dc66bc9	0.09688527
241	0xbd8ee3fc	-0.06977078
242	0xbd5fb4a8	-0.054615647
243	0x3cf494df	0.029856144
244	0x3db99bf2	0.09062947
245	0x3e20e4d2	0.15712288
246	0xbd974adc	-0.07387325
247	0xbdbe0e28	-0.09280044
248	0xbe5f41b0	-0.21802402
249	0xbd99fd7e	-0.07519053
250	0x3d88994d	0.06669865
251	0xbce3d4fa	-0.027811516
252	0x3c670f1c	0.014102723
253	0x3d3473ff	0.044055935
254	0xbd5fc220	-0.05462849
255	0xbd57d68e	-0.05269485

4.bias f4 [3]
0	0x3d553a70	0.052057683
1	0xbc910f63	-0.017707532
2	0x3d752482	0.05984927

exp_avg f4 [128, 6]
0	0x00000004	6e-45
1	0x00000004	6e-45
2	0x80000004	-6e-45
3	0x80000004	-6e-45
4	0x00000000	0.0
5	0x00000000	0.0
6	0x3d4e3b65	0.05034961
7	0x3ca59ee1	0.02021736
8	0xbc1e8bdc	-0.0096769
9	0xbd029da8	-0.031888634
10	0x00000000	0.0
11	0x00000000	0.0
12	0xbcebadea	-0.028769452
13	0xbc4c7c8b	-0.012480865
14	0x3bb16370	0.005413465
15	0x3c9f8c47	0.01947607
16	0x00000000	0.0
17	0x00000000	0.0
18	0xbd459eed	-0.048247267
19	0xbc7b3de3	-0.015334579
20	0x3c2f28c6	0.0106908735
21	0x3cd03646	0.025416505
22	0x00000000	0.0
23	0x00000000	0.0
24	0xbc457f6a	-0.012054304
25	0xbb987ac4	-0.0046533067
26	0x3b037e2d	0.002006422
27	0x3be4e3da	0.00698517
28	0x00000000	0.0
29	0x00000000	0.0
30	0xb8920651	-6.962999e-05
31	0x38fcbc0d	0.000120513236
32	0xb608e2e0	-2.0397638e-06
33	0xb93a1097	-0.00017744522
34	0x00000000	0.0
35	0x00000000	0.0
36	0x3c887367	0.01665659
37	0x3bb049d2	0.005379894
38	0xbb4cfbda	-0.0031278045
39	0xbc0d62b4	-0.00862949
40	0x00000000	0.0
41	0x00000000	0.0
42	0x3a720861	0.0009232816
43	0xba080a67	-0.00051895384
44	0xb7185412	-9.07948e-06
45	0x3a6395d5	0.00086816895
46	0x00000000	0.0
47	0x00000000	0.0
48	0x80000004	-6e-45
49	0x00000004	6e-45
50	0x00000004	6e-45
51	0x80000004	-6e-45
52	0x00000000	0.0
53	0x00000000	0.0
54	0x80000004	-6e-45
55	0x80000004	-6e-45
56	0x80000004	-6e-45
57	0x00000004	6e-45
58	0x00000000	0.0
59	0x00000000	0.0
60	0x3cbe4c22	0.023229662
61	0x3bd419b5	0.006472791
62	0xbbabe66e	-0.005245975
63	0xbc3df89f	-0.01159492
64	0x00000000	0.0
65	0x00000000	0.0
66	0x3afa968b	0.0019118352
67	0xba8c54b4	-0.0010706396
68	0xb7b8abfa	-2.2014592e-05
69	0x3aeb233a	0.0017939575
70	0x00000000	0.0
71	0x00000000	0.0
72	0xbc958aba	-0.018254627
73	0xbbe871b5	-0.007093633
74	0x3b4279d1	0.002967466
75	0x3c2d6178	0.01058232
76	0x00000000	0.0
77	0x00000000	0.0
78	0x3cc17f3c	0.02362024
79	0x3bf66a77	0.007520016
80	0xbba096ed	-0.0049008043
81	0xbc4ed858	-0.012624823
82	0x00000000	0.0
83	0x00000000	0.0
84	0x3b8d3cee	0.004310242
85	0xbadab50f	-0.001668604
86	0xbaa4dd61	-0.0012578183
87	0x3b152fde	0.0022764127
88	0x00000000	0.0
89	0x00000000	0.0
90	0x3c3aee8e	0.011409415
91	0x3b7f3047	0.0038938688
92	0xbb16b2c0	-0.0022994727
93	0xbbcfea08	-0.0063450374
94	0x00000000	0.0
95	0x00000000	0.0
96	0x392268fe	0.00015488637
97	0xbb020cb6	-0.0019844002
98	0xba3751b4	-0.0006993071
99	0x3b1981e7	0.0023423375
100	0x00000000	0.0
101	0x00000000	0.0
102	0x3b4e254c	0.0031455336
103	0x39f06446	0.00045851077
104	0xba35863b	-0.0006924604
105	0xba70edfd	-0.00091907365
106	0x00000000	0.0
107	0x00000000	0.0
108	0x3b5987c9	0.0033192507
109	0x3b64228f	0.0034810638
110	0xb78d7688	-1.6863705e-05
111	0xbb8c64c2	-0.004284472
112	0x00000000	0.0
113	0x00000000	0.0
114	0xbc386331	-0.011254118
115	0xbb8f056f	-0.0043646614
116	0x3aecf83f	0.0018079354
117	0x3bd4e4d4	0.006497005
118	0x00000000	0.0
119	0x00000000	0.0
120	0x3c67391a	0.014112735
121	0x3b93626a	0.004497816
122	0xbb3bf67e	-0.0028680856
123	0xbbf41d30	-0.0074497685
124	0x00000000	0.0
125	0x00000000	0.0
126	0x3ab9ba81	0.0014169962
127	0xba62ec74	-0.000865645
128	0xb77c10f4	-1.5024318e-05
129	0x3abe1bd9	0.0014504149
130	0x00000000	0.0
131	0x00000000	0.0
132	0x3cafb7af	0.021449892
133	0x3bfdc296	0.0077441437
134	0xbb77ff7e	-0.0037841494
135	0xbc45067a	-0.01202547
136	0x00000000	0.0
137	0x00000000	0.0
138	0xbc41edd0	-0.011836484
139	0xbba20d5a	-0.0049454393
140	0x3aee380c	0.0018174662
141	0x3becc066	0.007225084
142	0x00000000	0.0
143	0x00000000	0.0
144	0xbc41f923	-0.011839184
145	0xbbb87598	-0.0056292526
146	0x3b0b22c3	0.0021230436
147	0x3c0be178	0.008537643
148	0x00000000	0.0
149	0x00000000	0.0
150	0x3d7d9c04	0.061916366
151	0x3cde9963	0.02717275
152	0xbc3bc9b7	-0.011461667
153	0xbd2ba621	-0.04190648
154	0x00000000	0.0
155	0x00000000	0.0
156	0x80000004	-6e-45
157	0x00000004	6e-45
158	0x00000004	6e-45
159	0x80000004	-6e-45
160	0x00000000	0.0
161	0x00000000	0.0
162	0x3a820b89	0.0009921651
163	0xba17e250	-0.0005793916
164	0xb9e26fb0	-0.00043189293
165	0x3a08e031	0.00052213954
166	0x00000000	0.0
167	0x00000000	0.0
168	0x00000004	6e-45
169	0x00000004	6e-45
170	0x00000004	6e-45
171	0x00000004	6e-45
172	0x00000000	0.0
173	0x00000000	0.0
174	0x3d60cbef	0.054881986
175	0x3c64a301	0.013954879
176	0xbc40aef8	-0.011760466
177	0xbccbfca1	-0.024900736
178	0x00000000	0.0
179	0x00000000	0.0
180	0x00000004	6e-45
181	0x80000004	-6e-45
182	0x80000004	-6e-45
183	0x00000004	6e-45
184	0x00000000	0.0
185	0x00000000	0.0
186	0x00000004	6e-45
187	0x80000004	-6e-45
188	0x80000004	-6e-45
189	0x00000004	6e-45
190	0x00000000	0.0
191	0x00000000	0.0
192	0xbbede269	-0.007259656
193	0xbb3e9803	-0.0029082305
194	0x3acd592e	0.0015666836
195	0x3b96c912	0.004601606
196	0x00000000	0.0
197	0x00000000	0.0
198	0x3d114650	0.035467446
199	0x3c524328	0.012833394
200	0xbbca1322	-0.0061668316
201	0xbca0d886	-0.019634496
202	0x00000000	0.0
203	0x00000000	0.0
204	0x00000004	6e-45
205	0x00000004	6e-45
206	0x00000004	6e-45
207	0x80000004	-6e-45
208	0x00000000	0.0
209	0x00000000	0.0
210	0x80000004	-6e-45
211	0x80000004	-6e-45
212	0x80000004	-6e-45
213	0x00000004	6e-45
214	0x00000000	0.0
215	0x00000000	0.0
216	0x3d3b28ab	0.04569308
217	0x3c5baba3	0.013407621
218	0xbc1585cd	-0.009126139
219	0xbcb8accf	-0.022543339
220	0x00000000	0.0
221	0x00000000	0.0
222	0x3b34d0bd	0.0027590238
223	0xbb9e70cd	-0.0048352242
224	0xbab16c6a	-0.0013536338
225	0x3bcea447	0.0063062045
226	0x00000000	0.0
227	0x00000000	0.0
228	0x00000004	6e-45
229	0x00000004	6e-45
230	0x00000004	6e-45
231	0x80000004	-6e-45
232	0x00000000	0.0
233	0x00000000	0.0
234	0xba7f89b2	-0.0009747996
235	0xbaa586cd	-0.0012628675
236	0xb8cea4f6	-9.853572e-05
237	0x3ac7ae31	0.0015234408
238	0x00000000	0.0
239	0x00000000	0.0
240	0xbb33069b	-0.002731717
241	0xbb19de34	-0.002347839
242	0x39abd8bb	0.00032777138
243	0x3b58b77a	0.0033068345
244	0x00000000	0.0
245	0x00000000	0.0
246	0xbc08ad50	-0.008342102
247	0xbb8e67f5	-0.0043458887
248	0x3abff331	0.001464462
249	0x3bd6fa54	0.006560603
250	0x00000000	0.0
251	0x00000000	0.0
252	0x3d3e131f	0.046404954
253	0x3c8a619f	0.016892252
254	0xbc03df7c	-0.008048888
255	0xbcd399a6	-0.025830101

exp_avg_sq f4 [128, 6]
0	0x35880a3f	1.0135772e-06
1	0x35f24a69	1.8052061e-06
2	0x330b2741	3.239916e-08
3	0x36790a7b	3.7109992e-06
4	0x00000000	0.0
5	0x00000000	0.0
6	0x3c1c9ea7	0.00955931
7	0x3b4ec016	0.0031547598
8	0x383693e3	4.352991e-05
9	0x3b98a28a	0.004658048
10	0x00000000	0.0
11	0x00000000	0.0
12	0x3ba027e8	0.0048875697
13	0x3ad664b5	0.0016356917
14	0x37a54e9d	1.970614e-05
15	0x3b1cda76	0.0023933924
16	0x00000000	0.0
17	0x00000000	0.0
18	0x3c1bc1bb	0.009506638
19	0x3b2be1ad	0.0026227043
20	0x382163cd	3.8478338e-05
21	0x3b776e55	0.0037754972
22	0x00000000	0.0
23	0x00000000	0.0
24	0x392909f2	0.00016120801
25	0x388e0059	6.7711524e-05
26	0x359e7e29	1.1808635e-06
27	0x38e88aab	0.00011088451
28	0x00000000	0.0
29	0x00000000	0.0
30	0x377939f1	1.4855047e-05
31	0x367898d5	3.704384e-06
32	0x334a639c	4.7122384e-08
33	0x36c508c6	5.872079e-06
34	0x00000000	0.0
35	0x00000000	0.0
36	0x39322279	0.00016988245
37	0x389deb5b	7.530182e-05
38	0x35f8c155	1.8533707e-06
39	0x38f57919	0.000117050666
40	0x00000000	0.0
41	0x00000000	0.0
42	0x39d9fe4a	0.00041578925
43	0x390efd1d	0.00013636467
44	0x35980f1a	1.1329278e-06
45	0x39482149	0.00019085886
46	0x00000000	0.0
47	0x00000000	0.0
48	0x3720f391	9.593453e-06
49	0x3768b724	1.3870918e-05
50	0x3462a15b	2.1106591e-07
51	0x37cdbaf9	2.452497e-05
52	0x00000000	0.0
53	0x00000000	0.0
54	0x3023f85d	5.9652e-10
55	0x31845423	3.851271e-09
56	0x2cbd750e	5.3846988e-12
57	0x314ecf50	3.0094789e-09
58	0x00000000	0.0
59	0x00000000	0.0
60	0x3aef25d6	0.0018245529
61	0x3a062a94	0.0005118039
62	0x371f6fb1	9.503144e-06
63	0x3a48ea49	0.0007664306
64	0x00000000	0.0
65	0x00000000	0.0
66	0x3ac18185	0.0014763331
67	0x3a1349ec	0.000561862
68	0x36935711	4.3910773e-06
69	0x3a519b4d	0.0007995859
70	0x00000000	0.0
71	0x00000000	0.0
72	0x3a1bf6cd	0.0005949557
73	0x39579d2f	0.00020562553
74	0x3665bbd2	3.4232985e-06
75	0x39ab7500	0.00032702833
76	0x00000000	0.0
77	0x00000000	0.0
78	0x3ab27e3a	0.0013617941
79	0x39cdcc7e	0.00039253006
80	0x370100ca	7.689183e-06
81	0x3a1d1a05	0.0005992952
82	0x00000000	0.0
83	0x00000000	0.0
84	0x3b51c000	0.003200531
85	0x3a89d008	0.0010514269
86	0x372711ce	9.958121e-06
87	0x3ac8c2a5	0.0015316798
88	0x00000000	0.0
89	0x00000000	0.0
90	0x39381abf	0.00017557571
91	0x3878f82d	5.935894e-05
92	0x35ad60b5	1.291765e-06
93	0x38bab24d	8.902382e-05
94	0x00000000	0.0
95	0x00000000	0.0
96	0x39be699e	0.00036318315
97	0x390db491	0.00013514074
98	0x3591b27b	1.0855287e-06
99	0x3960ea0b	0.00021449492
100	0x00000000	0.0
101	0x00000000	0.0
102	0x385d28d3	5.2728526e-05
103	0x375f0689	1.3293357e-05
104	0x3446fa93	1.8531345e-07
105	0x3790892b	1.7230012e-05
106	0x00000000	0.0
107	0x00000000	0.0
108	0x3917a8a6	0.00014463309
109	0x390b73bb	0.00013299186
110	0x34b9221a	3.4483747e-07
111	0x395708dc	0.00020507298
112	0x00000000	0.0
113	0x00000000	0.0
114	0x393ed65f	0.00018199671
115	0x3898f3e4	7.293353e-05
116	0x3596075c	1.1178013e-06
117	0x38f65566	0.00011746101
118	0x00000000	0.0
119	0x00000000	0.0
120	0x393024d1	0.00016798383
121	0x386e1aa8	5.6768447e-05
122	0x35dedfcc	1.6605422e-06
123	0x38b65f72	8.696214e-05
124	0x00000000	0.0
125	0x00000000	0.0
126	0x3a161ae1	0.0005726051
127	0x39b6b7fa	0.00034850818
128	0x360d4723	2.1052044e-06
129	0x3a07d461	0.0005181488
130	0x00000000	0.0
131	0x00000000	0.0
132	0x39bcddd2	0.00036023423
133	0x3951da17	0.00020013038
134	0x365218c0	3.1306845e-06
135	0x39a404d3	0.00031284112
136	0x00000000	0.0
137	0x00000000	0.0
138	0x39b2e275	0.0003411953
139	0x38ec14da	0.00011257241
140	0x35e5877d	1.7101262e-06
141	0x393cbf5e	0.00018000367
142	0x00000000	0.0
143	0x00000000	0.0
144	0x3a946e2a	0.0011324335
145	0x39be2366	0.00036265998
146	0x36879e80	4.0417654e-06
147	0x3a0c5d2b	0.0005354459
148	0x00000000	0.0
149	0x00000000	0.0
150	0x3c9b672b	0.018970093
151	0x3bd372a7	0.0064528766
152	0x38a4a747	7.851287e-05
153	0x3c1dcd33	0.009631443
154	0x00000000	0.0
155	0x00000000	0.0
156	0x2a05a090	1.1868479e-13
157	0x28dc2be4	2.4443941e-14
158	0x2608289f	4.723953e-16
159	0x293cc38d	4.1914e-14
160	0x00000000	0.0
161	0x00000000	0.0
162	0x3866e3ca	5.504842e-05
163	0x378c2995	1.6708664e-05
164	0x3450ddda	1.9452219e-07
165	0x37d74b7d	2.566515e-05
166	0x00000000	0.0
167	0x00000000	0.0
168	0x000001f4	7e-43
169	0x000001f4	7e-43
170	0x000001f4	7e-43
171	0x000001f4	7e-43
172	0x00000000	0.0
173	0x00000000	0.0
174	0x3a1a52ab	0.0005886952
175	0x39cfcba8	0.00039633852
176	0x37c34574	2.3278153e-05
177	0x3a33c570	0.00068577286
178	0x00000000	0.0
179	0x00000000	0.0
180	0x343ad5e3	1.7400411e-07
181	0x342cde7b	1.6099686e-07
182	0x300f3707	5.2101296e-10
183	0x3484fb93	2.476996e-07
184	0x00000000	0.0
185	0x00000000	0.0
186	0x33c19e2b	9.0160334e-08
187	0x3311807e	3.3877306e-08
188	0x2f293a74	1.5391227e-10
189	0x336d4b71	5.5249476e-08
190	0x00000000	0.0
191	0x00000000	0.0
192	0x3a5b15a0	0.00083574094
193	0x3979e529	0.0002383186
194	0x36395cff	2.762128e-06
195	0x39b4852e	0.00034431502
196	0x00000000	0.0
197	0x00000000	0.0
198	0x3b37be6c	0.0028037084
199	0x3a2e2339	0.0006642822
200	0x374c9227	1.2193376e-05
201	0x3a80b923	0.00098208
202	0x00000000	0.0
203	0x00000000	0.0
204	0x376b9f80	1.4044228e-05
205	0x383f7a44	4.5651817e-05
206	0x3502bb3c	4.8701236e-07
207	0x38913350	6.9236965e-05
208	0x00000000	0.0
209	0x00000000	0.0
210	0x31172c94	2.1998732e-09
211	0x30fc4295	1.8354337e-09
212	0x2ce9875a	6.6372853e-12
213	0x311d8dd5	2.292713e-09
214	0x00000000	0.0
215	0x00000000	0.0
216	0x3a395ef3	0.00070713385
217	0x3a19ede3	0.00058719347
218	0x3787ae10	1.6174308e-05
219	0x3a817d61	0.0009879285
220	0x00000000	0.0
221	0x00000000	0.0
222	0x3bb03078	0.0053768717
223	0x3aebd5d9	0.0017992809
224	0x378d61cc	1.685405e-05
225	0x3b2d5532	0.0026448485
226	0x00000000	0.0
227	0x00000000	0.0
228	0x36034faf	1.9566903e-06
229	0x3695f407	4.4689546e-06
230	0x331473d5	3.4564284e-08
231	0x36ff3bb0	7.6065407e-06
232	0x00000000	0.0
233	0x00000000	0.0
234	0x37cc69c0	2.4367939e-05
235	0x37b7125a	2.1823846e-05
236	0x3419ed6a	1.4335606e-07
237	0x38143894	3.5338642e-05
238	0x00000000	0.0
239	0x00000000	0.0
240	0x399d3590	0.0002998528
241	0x38c5584f	9.410141e-05
242	0x357545dd	9.1371277e-07
243	0x390b2e53	0.0001327333
244	0x00000000	0.0
245	0x00000000	0.0
246	0x3a5c7faf	0.00084113603
247	0x39918ec4	0.00027762924
248	0x36434ac4	2.9100784e-06
249	0x39d355bf	0.00040308942
250	0x00000000	0.0
251	0x00000000	0.0
252	0x3bb5bb51	0.0055460115
253	0x3af49bdc	0.0018662172
254	0x37e9e3dd	2.7881872e-05
255	0x3b23119a	0.0024882318

exp_avg f4 [128]
0	0x80000004	-6e-45
1	0x3d59a9c1	0.053140406
2	0xbcf99f2d	-0.030471409
3	0xbd4a92ea	-0.049456514
4	0xbc563fed	-0.0130767645
5	0xb8bed36b	-9.099286e-05
6	0x3c90ef95	0.017692367
7	0x3a9b9a26	0.0011871501
8	0x00000004	6e-45
9	0x00000004	6e-45
10	0x3cc2a81a	0.023761798
11	0x3b20d08c	0.0024538366
12	0xbca2d34c	-0.019876145
13	0x3cc96656	0.02458493
14	0x3b87f547	0.0041491124
15	0x3c43acba	0.011943037
16	0xba0ee788	-0.0005451371
17	0x3b54603e	0.0032405998
18	0x3b86a067	0.004108477
19	0xbc490fa4	-0.012271795
20	0x3c71b13f	0.014751731
21	0x3aedd109	0.0018143962
22	0x3cbc941b	0.023019841
23	0xbc54f9fb	-0.012999053
24	0xbc4f19ed	-0.0126404585
25	0x3d86b2c4	0.065770656
26	0x00000004	6e-45
27	0x3a533597	0.0008056997
28	0x00000004	6e-45
29	0x3d68b0dd	0.056809295
30	0x80000004	-6e-45
31	0x00000004	6e-45
32	0xbbf563c4	-0.0074886996
33	0x3d1c83af	0.03821152
34	0x00000004	6e-45
35	0x00000004	6e-45
36	0x3d446a55	0.04795297
37	0x3b0b9af4	0.0021302076
38	0x00000004	6e-45
39	0xbaad3444	-0.0013214429
40	0xbb491339	-0.0030681624
41	0xbc125f59	-0.008933865
42	0x3d4cd13c	0.05000423
43	0x3a930660	0.001121711
44	0xbcb85345	-0.022500644
45	0x3aba6cb1	0.0014223066
46	0xbc83b673	-0.01607821
47	0x3ca6272e	0.020282354
48	0xbb83da39	-0.004023817
49	0x3d4107d3	0.047126602
50	0x3ad8d394	0.0016542547
51	0x3c8d75aa	0.01726802
52	0x00000004	6e-45
53	0xbd17ad20	-0.03703034
54	0xbcc13368	-0.023584083
55	0x80000004	-6e-45
56	0x3c0205cf	0.007935955
57	0x00000004	6e-45
58	0x80000004	-6e-45
59	0x00000004	6e-45
60	0xbc8560ad	-0.01628145
61	0xbc94183e	-0.018077966
62	0x3d126dd2	0.035749264
63	0x3d1aa7b5	0.037757594
64	0x3b0b49e4	0.002125376
65	0x00000004	6e-45
66	0x3d0f0c01	0.034923557
67	0x00000004	6e-45
68	0x3a92ddb1	0.0011204985
69	0x80000004	-6e-45
70	0xbcccf6c7	-0.025020016
71	0x3b32ee7d	0.0027302795
72	0xbcf9bdeb	-0.030486068
73	0x3b94f5c5	0.0045458996
74	0xbc369cfa	-0.011145825
75	0x39ad7a53	0.0003308827
76	0xbd0bf711	-0.034171168
77	0x80000004	-6e-45
78	0x3b028b7a	0.001991956
79	0xbcf6d457	-0.030130548
80	0x3cebf13c	0.028801553
81	0xba2a9b31	-0.00065081107
82	0xbcb050a4	-0.021522827
83	0x00000004	6e-45
84	0x00000004	6e-45
85	0xba9ef550	-0.0012127552
86	0x3c9dc82a	0.019260485
87	0x3bbb6ac8	0.0057195164
88	0xb990b4eb	-0.00027600615
89	0xbcda6bc5	-0.026662717
90	0xba2b859c	-0.00065430417
91	0xbb0f8e7a	-0.002190499
92	0x00000004	6e-45
93	0x80000004	-6e-45
94	0xbcda5195	-0.02665023
95	0x3c63e91e	0.01391056
96	0x3cd93d94	0.02651862
97	0x00000004	6e-45
98	0x3c8958a8	0.016765907
99	0x3a672b2a	0.00088183826
100	0xbba8514d	-0.005136645
101	0x3cd15004	0.02555085
102	0x3ce9d0bc	0.028541915
103	0xbb245409	-0.0025074503
104	0x3a406e2b	0.0007340635
105	0x00000000	0.0
106	0xbc866dd6	-0.016409796
107	0x3bb8c563	0.0056387647
108	0x39fba002	0.00047993666
109	0xbd114358	-0.035464615
110	0x3d5764c0	0.052586317
111	0x3a883ae9	0.0010393533
112	0x00000004	6e-45
113	0x3d5cb30a	0.053881682
114	0xbc7eb133	-0.015545177
115	0x373d5225	1.1284404e-05
116	0x3d15610d	0.036469508
117	0xbc7a0a40	-0.015261233
118	0xbcf3f084	-0.029777773
119	0xbcaafd49	-0.020872729
120	0x3cc938f6	0.024563294
121	0x3ce0e5fb	0.027453413
122	0x3a4c26bb	0.0007787754
123	0x3d10ac69	0.035320673
124	0x00000004	6e-45
125	0x398db70d	0.0002703
126	0x00000004	6e-45
127	0x3be873de	0.0070938906

exp_avg_sq f4 [128]
0	0x3740d4ed	1.1493667e-05
1	0x3c67b6d7	0.0141427135
2	0x3bf31a37	0.0074188965
3	0x3c648769	0.0139483
4	0x39817b79	0.00024696792
5	0x379d4360	1.8747232e-05
6	0x39453b3b	0.00018809449
7	0x3a1f7c09	0.00060838513
8	0x38a0fbad	7.676273e-05
9	0x311715ad	2.1985713e-09
10	0x3b2f0313	0.0026704713
11	0x3b1183a3	0.0022203706
12	0x3a690b70	0.0008889949
13	0x3b00e733	0.0019669055
14	0x3b9fb19e	0.0048734685
15	0x39844b30	0.0002523302
16	0x39c71a0a	0.00037975638
17	0x38b540f1	8.642849e-05
18	0x392850b7	0.00016051797
19	0x39878f0f	0.00025855794
20	0x39701558	0.00022896135
21	0x3a85ba42	0.0010202604
22	0x39c5781c	0.00037664257
23	0x3a075e59	0.00051639
24	0x3ae00c75	0.0017093556
25	0x3ce764cd	0.028246308
26	0x28fea467	2.8270963e-14
27	0x38b8ded1	8.8153065e-05
28	0x000001f4	7e-43
29	0x3af146ca	0.0018407938
30	0x341ada06	1.4421684e-07
31	0x32e912cd	2.713332e-08
32	0x3aad80da	0.0013237253
33	0x3b5c5969	0.0033622629
34	0x39677348	0.00022072822
35	0x31301e36	2.5628544e-09
36	0x3ad4863c	0.0016214321
37	0x3c04cd96	0.008105656
38	0x3756071b	1.2757048e-05
39	0x385b868d	5.233898e-05
40	0x39f6b1c1	0.00047053213
41	0x3aa89d36	0.0012864235
42	0x3c189703	0.009313348
43	0x3a3da977	0.000723503
44	0x3b1c5aa2	0.0023857732
45	0x3991c804	0.00027805578
46	0x3b8b25e3	0.00424646
47	0x3a8d7cf7	0.0010794689
48	0x3a664b76	0.0008785048
49	0x3c442964	0.011972759
50	0x3a8dbbb1	0.0010813383
51	0x3a366e24	0.0006959161
52	0x2f9a4a8f	2.8065414e-10
53	0x3c36540f	0.01112844
54	0x3a12b4a6	0.0005596377
55	0x2d4ba7af	1.1576447e-11
56	0x37bd9750	2.2601016e-05
57	0x385c0183	5.2453495e-05
58	0x34bbe275	3.4996233e-07
59	0x0d043a0c	4.074551e-31
60	0x3b386b19	0.0028140007
61	0x3b88cdb3	0.004174912
62	0x3ac8d3c1	0.0015321897
63	0x3c236321	0.009972365
64	0x3b1f97dd	0.0024351992
65	0x31c00b66	5.5892313e-09
66	0x3be29f25	0.006915944
67	0x37038c23	7.840837e-06
68	0x3b8b94fb	0.004259703
69	0x35147a9c	5.5312717e-07
70	0x3b4d6e02	0.0031346087
71	0x3bee4625	0.0072715455
72	0x3ace0f7d	0.0015721169
73	0x3a3a6887	0.00071109127
74	0x3b0b53ba	0.0021259622
75	0x38d1ee00	0.000100102276
76	0x3b36436d	0.0027811185
77	0x2b3460fa	6.408343e-13
78	0x389648b8	7.166102e-05
79	0x3bb4386e	0.005499891
80	0x3ad2a8d0	0.0016072039
81	0x3671da76	3.603896e-06
82	0x3bb2bccb	0.005454635
83	0x34a6fd16	3.1104054e-07
84	0x35300844	6.557714e-07
85	0x38f7da7c	0.00011818574
86	0x3af58b72	0.0018733575
87	0x39b2ebc0	0.00034126453
88	0x38996285	7.313959e-05
89	0x3c0ecfd2	0.00871654
90	0x383cea62	4.504098e-05
91	0x3b9aac06	0.004720214
92	0x32ce91de	2.4047889e-08
93	0x271f325d	2.2092985e-15
94	0x3a246309	0.0006270861
95	0x3996d7ef	0.00028771113
96	0x3a909c6e	0.0011032948
97	0x327233ce	1.4098033e-08
98	0x3a9acbae	0.0011809969
99	0x3a086062	0.00052023504
100	0x387ea6de	6.0713726e-05
101	0x3b255df1	0.0025232995
102	0x3aae41b6	0.001329473
103	0x3b00e56b	0.0019667994
104	0x3b344d4d	0.0027511895
105	0x00000000	0.0
106	0x3b223ad9	0.0024754314
107	0x3a6afc1b	0.0008963958
108	0x3b975a85	0.004618945
109	0x3c300dda	0.01074549
110	0x3c5d943a	0.0135241095
111	0x39ea19bd	0.00044651135
112	0x332381d0	3.806946e-08
113	0x3c977f18	0.01849322
114	0x399d0390	0.00029948028
115	0x37b9873a	2.2116688e-05
116	0x3b911ae5	0.004428255
117	0x3b6ea59b	0.0036414627
118	0x3a0cfcda	0.0005378254
119	0x3ba39338	0.004991915
120	0x3a572739	0.0008207444
121	0x3a6ea24a	0.00091031624
122	0x39bdbedc	0.0003619109
123	0x3b5343a0	0.0032236353
124	0x000001f4	7e-43
125	0x36ec2514	7.0376645e-06
126	0x22f870ae	6.733984e-18
127	0x3760502a	1.3370105e-05
