assets/section_1/actor_critic/cart_pole/models/episode_best/critic.pth (torch, 217010 bytes, 15 tensors)

0.weight f4 [128, 6]
-0.24401361 0.3635041 0.019995572 0.13095386 0.21910225 0.25940543 0.16444066 -0.26073954
-0.18214367 0.18384625 -0.40539366 0.3383117 -0.12506367 0.32943904 -0.18932772 0.046914417
0.37727278 -0.0035486997 -0.059161946 0.047048032 -0.033876337 0.17231978 0.060788915 0.18837892
-0.33510175 -0.018553719 -0.030711515 -0.4284216 -0.26334345 0.28758287 0.014733632 0.07188603
-0.027028516 0.14312494 0.3244909 -0.29170683 0.08305133 -0.092486635 -0.07989122 -0.061411005
-0.26049542 -0.007742626 0.0065035503 -0.19240382 -0.18946587 -0.015425701 -0.27580386 0.019151434
0.25715616 0.23336929 -0.5133531 0.06366036 0.03155816 0.3440793 -0.17981866 0.13866197
-0.60878706 -0.22545624 -0.19466105 -0.17118454 0.27330443 -0.16279949 0.41180253 0.07217444
0.19946891 -0.4000115 0.28387746 0.06387404 0.5758649 0.051207546 0.07429361 -0.40402383
0.21330473 -0.4595197 -0.29391342 -0.00273478 0.27488104 0.18003239 -0.20001043 0.013300063
-0.25015235 0.043457344 -0.20078443 0.006836398 -0.13732253 0.26273903 -0.2880262 0.1366079
0.051402174 -0.1559779 -0.33226243 -0.20004624 -0.59455836 -0.1355216 -0.13135333 0.34594312
0.015907634 -0.028245835 0.21685539 0.069199935 0.29956636 -0.37139407 0.27614388 0.043916844
1.0536426 0.19531666 -0.12043109 0.15364276 0.09780265 0.08475464 -0.030860601 0.2544915
-0.30059844 0.10810146 -0.004710802 0.13334638 -0.15816998 -0.08047699 0.19485621 -0.07533319
-0.3472826 -0.14682896 0.2291524 -0.06882076 -0.2170924 -0.015750537 -0.1518364 -0.1390684
0.28007773 -0.1366112 -0.010416001 -0.3997419 0.15533696 -0.18659176 0.2537407 -0.027077287
-0.013106507 0.2958492 0.059436787 -0.018709706 0.22379388 -0.07817106 0.08835239 0.3322328
-0.0753464 -0.22581314 -0.14366625 0.25629747 0.26875436 0.03925674 0.040622536 -0.049765646
-0.19000113 -0.12145764 0.17667095 0.12386868 -0.046242792 0.0018892526 0.1609217 0.08505452
-0.16494162 -0.026256036 0.03472106 -0.24370602 -0.6112485 -0.06948274 0.019864308 0.3500841
0.60964274 0.18439753 0.08528505 0.11475917 -0.03806523 0.39023563 0.01290724 -0.0076701185
0.31594884 0.22944044 -0.16683668 -0.15879221 0.0846344 0.31934813 -0.24045631 -0.31840035
0.104469046 0.12414973 0.14836453 -0.38554966 -0.58331674 -0.26772898 0.29898852 -0.0006514077
-0.16998859 -0.0039820313 0.141145 0.1618931 0.27080286 0.17274679 0.29436535 -0.24940161
0.1376074 0.17511539 -0.05256439 -0.077519365 -0.17161457 0.07429043 -0.047131985 -0.005487373
-0.10107852 -0.2009172 -0.00823509 -0.17444266 -0.3020844 -0.3133646 -0.062065694 0.009097321
-0.074358955 0.20350695 -0.14862072 0.19963424 0.1811709 0.31426567 -0.06785896 0.14372027
-0.16259107 -0.10881833 -0.2263183 -0.18177135 -0.13886228 0.26339275 -0.0066438443 0.04169367
0.3335369 -0.34881282 -0.14185831 0.3608366 -0.08734441 0.23923634 -0.34862575 0.17405564
0.0895521 -0.040102586 0.32090104 0.17384523 -0.09842417 0.405681 -0.019572126 -0.022313336
0.05765194 -0.079787664 0.26730472 0.2860286 -0.054840457 -0.12188449 -0.3973155 -0.07311896
00000000: b4de 79be 361d ba3e c1cd a33c c518 063e
00000010: 575c 603e cad0 843e 2263 283e a77f 85be
00000020: df83 3abe 3142 3c3e c28f cfbe 3137 ad3e
00000030: b110 00be 3cac a83e 20df 41be 5529 403d
00000040: e629 c13e 4d91 68bb cc53 72bd 70b5 403d
00000050: eac1 0abd 9974 303e ccfd 783d 67e6 403e
00000060: 7592 abbe f8fd 97bc b796 fbbc 135a dbbe
00000070: f4d4 86be 103e 933e 5565 713c fc38 933d
00000080: e86a ddbc 588f 123e ac23 a63e 995a 95be
00000090: d116 aa3d a269 bdbd 029e a3bd 1b8a 7bbd
000000a0: a85f 85be dbb5 fdbb bc1b d53b 8205 45be
000000b0: 5703 42be 14bc 7cbc 2a36 8dbe 78e3 9c3c
000000c0: f9a9 833e 5cf8 6e3e 1c6b 03bf 5d60 823d
000000d0: 2143 013d 292b b03e 6222 38be 67fd 0d3e
000000e0: 78d9 1bbf 00de 66be 3a55 47be 004b 2fbe
000000f0: 8fee 8b3e e9b4 26be c8d7 d23e 31d0 933d
00000100: 9441 4c3e 4fce ccbe 6358 913e 65d0 823d
00000110: e26b 133f 01bf 513d 4027 983d 36dc cebe
00000120: 8e6c 5a3e 2b46 ebbe d27b 96be ff39 33bb
00000130: 35bd 8c3e 695a 383e 89cf 4cbe 82e8 593c
00000140: f813 80be 5400 323d 6f9a 4dbe dd03 e03b
00000150: 479e 0cbe bb85 863e 2c78 93be f1e2 0b3e
00000160: 168b 523d acb8 1fbe 4d1e aabe ecd8 4cbe
00000170: fa34 18bf 2dc6 0abe 7d81 06be 751f b13e
00000180: ba50 823c cf63 e7bc 570f 5e3e b2b8 8d3d
00000190: c360 993e 5d27 bebe bb62 8d3e 26e2 333d
000001a0: c3dd 863f 1701 483e 93a4 f6bd 8754 1d3e
000001b0: c14c c83d d793 ad3d 5fcf fcbc b64c 823e
000001c0: 0ae8 99be 4c64 dd3d 125d 9abb f48b 083e
000001d0: 50f7 21be 1fd1 a4bd 6388 473e 4a48 9abd
000001e0: 06cf b1be 555a 16be eda6 6a3e e6f1 8cbd
000001f0: 784d 5ebe 4507 81bc 007b 1bbe f267 0ebe
00000200: 5966 8f3e cee3 0bbe e0a7 2abc f8aa ccbe
00000210: a710 1f3e e911 3fbe 4dea 813e 30d1 ddbc
00000220: adbc 56bc 8c79 973e fd73 733d 1945 99bc
00000230: 392a 653e 2618 a0bd 19f2 b43d 6b1a aa3e
00000240: 374f 9abd 8f3b 67be 3f1d 13be 6c39 833e
00000250: 2c9a 893e adcb 203d d163 263d 10d7 4bbd
00000260: a88f 42be c8be f8bd 3be9 343e ddae fd3d
00000270: 1569 3dbd cca0 f73a a8c8 243e 1031 ae3d
00000280: 75e6 28be e616 d7bc ac37 0e3d 128e 79be
00000290: c87a 1cbf f74c 8ebd 79ba a23c 393e b33e
000002a0: 8c11 1c3f b5d2 3c3e eea9 ae3d db06 eb3d
000002b0: 49ea 1bbd f7cc c73e e378 533c 9e55 fbbb
000002c0: 0cc4 a13e 6ff2 6a3e 3cd7 2abe 6d9a 22be
000002d0: cd54 ad3d 9981 a33e 2e3a 76be 5f05 a3be
000002e0: def3 d53d 3742 fe3d dfec 173e c466 c5be
000002f0: 3f54 15bf c613 89be 0615 993e 3bc3 2aba
00000300: 7d11 2ebe b37b 82bb 5188 103e 4ec7 253e
00000310: aca6 8a3e 89e4 303e 0eb7 963e 2363 7fbe
00000320: f4e8 0c3e 7351 333e c24d 57bd 79c2 9ebd
00000330: bbbb 2fbe 9525 983d 780d 41bd 6ccf b3bb
00000340: 4102 cfbd 3dbd 4dbe 79ec 06bc 19a1 32be
00000350: ceaa 9abe 5371 a0be 9938 7ebd ee0c 153c
00000360: 8249 98bd 2064 503e 0830 18be eb6c 4c3e
00000370: dd84 393e 6ee7 a03e a3f9 8abd 682b 133e
00000380: 467e 26be 25dc debd fcbf 67be 4522 3abe
00000390: ea31 0ebe 6adb 863e 9bb4 d9bb fbc6 2a3d
000003a0: 59c5 aa3e 9897 b2be 4e43 11be 93bf b83e
000003b0: a0e1 b2bd 5ffa 743e 137f b2be a43b 323e
000003c0: 1767 b73d 9c42 24bd 244d a43e 7c04 323e
000003d0: 9c92 c9bd 6cb5 cf3e b955 a0bc 75ca b6bc
000003e0: 7124 6c3d b767 a3bd 2adc 883e 5772 923e
000003f0: 63a0 60bd 939e f9bd f06c cbbe 65bf 95bd

0.bias f4 [128]
0.6176334 -0.20472506 0.54307383 -0.40064794 -0.19879407 -0.22801872 0.2425463 0.46054158
0.42377523 -0.3481002 -0.26146325 -0.16464083 0.124636866 -0.23047808 0.018397784 -0.3217846
-0.38348615 0.18021302 -0.4471245 0.5726097 -0.21872087 0.6894584 0.5122868 0.22951022
-0.11520754 0.43231288 -0.35221153 0.12586123 -0.06741704 0.32546535 -0.16241035 0.017022269
-0.38810822 0.396628 0.5192629 0.25961867 0.3016613 0.29227576 0.11948987 -0.10424708
0.21809919 -0.1811303 0.4393928 0.45130792 -0.055236857 -0.29179063 -0.17935789 -0.10130602
-0.24745029 0.60314333 -0.38407046 0.69283956 0.10422591 0.5066166 -0.07014767 -0.034432568
-0.31799296 -0.059334844 0.54376906 -0.22016896 -0.45471302 0.6464469 0.17485158 0.138031
-0.15249906 -0.13280158 -0.038870152 -0.4161995 0.22901367 0.5501872 -0.23939456 0.39812252
-0.46091634 0.2647644 0.45761445 -0.39977428 0.12114485 0.6429389 0.26800972 -0.3727122
0.11296838 -0.088627644 -0.15671693 0.82750016 0.4269253 -0.38414964 -0.023866367 0.3743745
-0.34789595 0.6195771 0.40430054 0.44403625 0.43123347 -0.083910026 -0.36840954 -0.18235949
0.5046845 -0.28100872 0.6031566 -0.03151156 -0.13167523 0.34762523 -0.15418646 -0.31267872
-0.13749424 0.18572386 0.56952655 -0.060149323 0.22324494 0.12528545 -0.3163736 0.5043332
0.5293946 0.3891647 -0.04212397 0.050817646 0.6272765 -0.28855392 -0.21042971 -0.33683047
0.46547496 0.52098525 -0.1559528 0.36545777 0.6186518 0.42274734 -0.19692194 0.44645828
00000000: 391d 1e3f 72a3 51be e306 0b3f ba21 cdbe
00000010: ac90 4bbe bd7d 69be 0f5e 783e 1bcc eb3e
00000020: 11f9 d83e 303a b2be 83de 85be 9b97 28be
00000030: 9d41 ff3d 7202 6cbe f3b6 963c f3c0 a4be
00000040: 4c58 c4be c389 383e 81ed e4be 8d96 123f
00000050: 5df8 5fbe 5880 303f 3a25 033f ba04 6b3e
00000060: eef1 ebbd 1d58 dd3e 1255 b4be c4e1 003e
00000070: f211 8abd 65a3 a63e e64e 26be 4972 8b3c
00000080: 1fb6 c6be d312 cb3e 6aee 043f bdec 843e
00000090: 5a73 9a3e 2ba5 953e 1bb7 f43d 7e7f d5bd
000000a0: 6555 5f3e 397a 39be 18f8 e03e d511 e73e
000000b0: 0b40 62bd 9565 95be 98a9 37be 8879 cfbd
000000c0: 9c63 7dbe 9a67 1a3f e2a4 c4be ef5d 313f
000000d0: 6574 d53d a0b1 013f 95a9 8fbd 2a09 0dbd
000000e0: f9cf a2be 1809 73bd 7334 0b3f f973 61be
000000f0: 25d0 e8be 8b7d 253f 4b0c 333e 0058 0d3e
00000100: b728 1cbe 23fd 07be 4f36 1fbd 1a18 d5be
00000110: 8f82 6a3e 11d9 0c3f d923 75be b7d6 cb3e
00000120: 3afd ebbe 338f 873e 714c ea3e 37af ccbe
00000130: cb1a f83d a597 243f 9238 893e 22d4 bebe
00000140: f75b e73d 6982 b5bd 677a 20be 0dd7 533f
00000150: f495 da3e 43af c4be 6683 c3bc 04ae bf3e
00000160: 6b1f b2be 9b9c 1e3f 7b00 cf3e b858 e33e
00000170: a2ca dc3e 05d9 abbd 2da0 bcbe 72bc 3abe
00000180: 0133 013f 60e0 8fbe 7968 1a3f 4412 01bd
00000190: dfd5 06be effb b13e 0ee3 1dbe 6d17 a0be
000001a0: 4acb 0cbe 652e 3e3e 7ecc 113f 235f 76bd
000001b0: 529a 643e d44a 003e b8fb a1be fb1b 013f
000001c0: 6886 073f 9840 c73e 2f8a 2cbd 2a26 503d
000001d0: 3195 203f 57bd 93be e37a 57be 0b75 acbe
000001e0: bc52 ee3e 4a5f 053f 17b2 1fbe 481d bb3e
000001f0: f75f 1e3f 5772 d83e e8a5 49be 2e96 e43e

2.weight f4 [128, 128]
0.11213132 0.084684364 0.050221004 -0.0043801684 -0.12817137 0.082639165 0.2269257 -0.0025537957
0.18567036 -0.009948955 -0.017788345 -0.30317515 0.039390482 -0.07632033 -0.17673162 -0.05358848
-0.0068900296 -0.099584654 -0.023210466 0.17518742 -0.036042556 0.23328806 0.18685341 0.06429875
0.06647764 0.1907572 0.038589105 -0.11032006 -0.21203269 0.045434654 -0.0051485016 -0.2956727
-0.0854846 0.022337398 0.24470025 -0.30368996 0.16119948 -0.17281663 -0.20434093 -0.2070312
0.0017319438 0.018863928 0.06550758 0.25556272 -0.105786934 -0.05532928 -0.02430243 -0.2387769
-0.081206925 0.04199251 -0.27462587 0.19936538 -0.5450106 0.29666123 -0.19800922 -0.08826373
-0.11699958 -0.3226203 0.36743453 -0.05575241 0.065940276 0.25463524 -0.04239281 -0.13456906
-0.07305025 -0.19550422 0.02983944 -0.051826466 0.0014678463 0.19430421 -0.40153682 0.2115173
0.023329716 -0.062974446 0.38655174 -0.088650644 0.075919345 0.058382817 0.0640417 -0.23230869
-0.060923826 0.082567334 -0.10968316 0.19013521 0.3430097 -0.106038086 0.00530604 -0.06983889
-0.16128308 0.25836605 0.1667616 0.21083638 0.27099448 -0.29336953 -0.059202857 0.01932922
0.23136783 -0.0960574 0.24183854 0.010288516 -0.03892099 -0.010399307 -0.28786397 -0.21485697
-0.1354349 0.22298254 0.13969538 -0.21835573 0.061569486 0.011345815 -0.17892197 0.26065955
0.058763802 -0.054329604 0.029368201 0.06220973 0.3841259 -0.21524252 -0.16852754 -0.13066927
0.34096277 0.014131463 -0.27701995 0.017304039 0.29997504 0.27620843 -0.1739025 -0.06246775
-0.13588104 -0.035867512 0.020528246 -0.060283802 -0.09933415 0.014370049 0.0871416 -0.03416484
-0.085305616 0.040347315 -0.04202065 0.18590064 0.1679872 -0.01058875 0.028439876 0.095376045
0.08699808 -0.083403304 -0.18323708 0.084343866 0.0040529375 -0.019567948 0.016026534 0.05963458
-0.1127774 0.07644771 0.08720808 0.15719374 0.14792088 -0.070808694 -0.036917016 0.10848462
-0.17833193 -0.073103786 -0.11159926 -0.027560446 0.06546666 -0.16774958 -0.075942256 -0.102112375
-0.08798736 0.011477054 0.038084876 -0.05077499 0.20671037 -0.0426553 -0.008812394 0.29640377
0.09976201 0.116060235 0.15105847 -0.06414399 0.108318925 -0.144244 -0.0016528558 0.046538975
0.10126736 0.40421247 -0.007845171 0.08199728 -0.046369147 -0.13566159 -0.1032471 -0.14418963
-0.16401869 0.048637025 0.16567041 -0.18136795 -0.029793365 0.12382794 0.23152684 -0.13955715
0.04619909 0.028086 -0.07773752 0.07099533 0.02798642 -0.043621816 0.02118525 0.21299894
0.13188295 0.010094866 -0.026755342 0.072883844 0.027133422 0.10682877 0.20642975 0.053780556
0.063294835 -0.09708293 -0.1654542 -0.120360486 0.050659962 0.051812932 -0.030072527 -0.25191385
-0.02302901 -0.061006956 -0.08065018 -0.026346114 -0.057864532 -0.0051797745 0.20415795 0.19358994
0.16315888 -0.07202864 -0.0732644 0.03839798 -0.06567639 -0.15500145 0.2334564 -0.026144708
0.007936584 -0.029548038 0.10660351 0.053193282 -0.012028275 0.11706522 0.09569704 0.08575892
-0.052085705 -0.05274014 0.1595882 -0.055512063 -0.11726438 0.07667757 0.19132838 -0.047858797
00000000: 1ba5 e53d ff6e ad3d 8ab4 4d3d 8487 8fbb
00000010: 5b3f 03be b93e a93d 365f 683e 955d 27bb
00000020: 5f20 3e3e f100 23bc ddb8 91bc c639 9bbe
00000030: ea57 213d d54d 9cbd 22f9 34be 987f 5bbd
00000040: c2c5 e1bb 0af3 cbbd e023 bebc 5564 333e
00000050: 5ca1 13bd 11e3 6e3e 8056 3f3e 10af 833d
00000060: 6e25 883d db55 433e 9c0f 1e3d 7cef e1bd
00000070: 191f 59be b019 3a3d c3b4 a8bb 6a62 97be
00000080: 8d12 afbd ebfc b63c b492 7a3e 407d 9bbe
00000090: 7a11 253e d8f6 30be c03e 51be fdff 53be
000000a0: 6402 e33a 8688 9a3c d728 863d 1ed9 823e
000000b0: d2a6 d8bd f5a0 62bd e415 c7bc ef81 74be
000000c0: d14f a6bd 5700 2c3d c39b 8cbe 7026 4c3e
000000d0: d185 0bbf fbe3 973e eec2 4abe 9dc3 b4bd
000000e0: 7a9d efbd 7d2e a5be 6120 bc3e a45c 64bd
000000f0: b20b 873d 8d5f 823e 15a4 2dbd 79cc 09be
00000100: 5f9b 95bd 4232 48be d771 f43c fd47 54bd
00000110: c064 c03a aff7 463e 3c96 cdbe fe97 583e
00000120: f61d bf3c bff8 80bd 1cea c53e 788e b5bd
00000130: 9a7b 9b3d d222 6f3d 4b28 833d 54e2 6dbe
00000140: 438b 79bd 1019 a93d 91a1 e0bd ceb2 423e
00000150: f89e af3e 7f2a d9bd 4ade ad3b b107 8fbd
00000160: 6427 25be 8e48 843e 8ec3 2a3e 7ee5 573e
00000170: cabf 8a3e 8834 96be b27e 72bd 5058 9e3c
00000180: b0eb 6c3e beb9 c4bd 86a4 773e 2a91 283c
00000190: 9e6b 1fbd db61 2abc e862 93be 7703 5cbe
000001a0: 72af 0abe 8955 643e 4e0c 0f3e a598 5fbe
000001b0: 4930 7c3d cce3 393c 5237 37be 2b75 853e
000001c0: 50b2 703d b888 5ebd 9595 f03c a1cf 7e3d
000001d0: 26ac c43e 8968 5cbe 7c92 2cbe 2ace 05be
000001e0: ac92 ae3e a787 673c 8fd5 8dbe 33c1 8d3c
000001f0: 5496 993e 316b 8d3e 7f13 32be 2fde 7fbd
00000200: 6624 0bbe d0e9 12bd da2a a83c 26ec 76bd
00000210: b46f cbbd 5b70 6b3c 4c77 b23d 6ef0 0bbd
00000220: b6b4 aebd 3a43 253d d81d 2cbd bd5c 3e3e
00000230: d604 2c3e 707c 2dbc befa e83c 8454 c33d
00000240: 0d2c b23d 5acf aabd 80a2 3bbe 7abc ac3d
00000250: 81ce 843b f64c a0bc 144a 833c 6443 743d
00000260: d6f7 e6bd 9e90 9c3d 269a b23d 65f7 203e
00000270: 9278 173e 2604 91bd 4c36 17bd 2f2d de3d
00000280: a59c 36be 70b7 95bd 278e e4bd 72c6 e1bc
00000290: 6213 863d 8cc6 2bbe 9d87 9bbd 4b20 d1bd
000002a0: b832 b4bd 410a 3c3c e3fe 1b3d 70f9 4fbd
000002b0: e2ab 533e 53b7 2ebd dc61 10bc 3cc2 973e
000002c0: 0650 cc3d fdb0 ed3d 12af 1a3e ed5d 83bd
000002d0: 50d6 dd3d b3b4 13be a3a4 d8ba a79f 3e3d
000002e0: 4365 cf3d f0f4 ce3e 0889 00bc 31ee a73d
000002f0: 93ed 3dbd dfea 0abe 3773 d3bd 72a6 13be
00000300: 84f4 27be 9e37 473d 81a5 293e 85b8 39be
00000310: 3711 f4bc 8199 fd3d 5f15 6d3e 12e8 0ebe
00000320: 423b 3d3d 9c14 e63c d934 9fbd 0066 913d
00000330: c743 e53c caac 32bd b08c ad3c 651c 5a3e
00000340: 530c 073e f064 253c 052e dbbc 2044 953d
00000350: e946 de3c 0bc9 da3d 5262 533e 0049 5c3d
00000360: b9a0 813d 6ad3 c6bd d36c 29be 8f7f f6bd
00000370: d280 4f3d cc39 543d a95a f6bc dafa 80be
00000380: 56a7 bcbc 6ee2 79bd ec2b a5bd ced3 d7bc
00000390: 5c03 6dbd 19bb a9bb c80e 513e 713c 463e
000003a0: 1f13 273e c083 93bd a50b 96bd 3347 1d3d
000003b0: 5881 86bd b3b8 1ebe 320f 6f3e 6d2d d6bc
000003c0: 7208 023c ba0e f2bc f152 da3d 33e1 593d
000003d0: 3e12 45bc e4bf ef3d cffc c33d 5fa2 af3d
000003e0: d257 55bd 0c06 58bd 176b 233e 9e60 63bd
000003f0: 4f28 f0bd 2109 9d3d 96eb 433e 9607 44bd

2.bias f4 [128]
0.15698889 0.026430551 0.12496776 -0.03683224 0.057650536 -0.013535766 -0.047617387 0.022760939
-0.084515005 0.27719423 -0.10241254 -0.044069495 -0.038947754 0.034073815 0.3618745 0.33714867
-0.035398114 0.13702844 -0.024243845 -0.04631089 0.05617716 -0.12798357 0.25679955 0.33744606
0.076535545 0.028120136 0.06421537 -0.04498893 -0.06391792 -0.041268986 -0.078340456 0.16854283
-0.015204969 -2.8111386e-05 0.22653118 -0.026529646 0.2756549 -0.08957566 -0.09098709 -0.024567239
-0.041839644 0.3457846 0.053234767 -0.024042923 -0.06921065 0.19997045 -0.076028414 -0.045970026
-0.1372678 0.0537855 0.18017308 0.3123467 0.14992803 0.21902691 0.2771827 -0.07942165
-0.11175286 0.013221609 -0.08150636 0.3259453 0.055562872 0.041484036 0.28787327 -0.012437991
-0.067035265 0.062173348 -0.06403695 -0.06742765 0.0013563967 -0.10727629 0.28842598 -0.014009801
-0.09357382 0.0062314924 0.2882101 -0.07761013 -0.0860515 -0.07419277 0.20514181 -0.04490334
0.339112 -0.021793583 -0.049317073 -0.09713321 -0.08376025 0.12256519 0.206234 -0.09413567
-0.0459135 0.026071474 -0.05343933 0.32208097 0.029952899 -0.06047818 0.22439605 0.2147435
-0.017379036 -0.03554034 -0.04647698 -0.02404932 -0.06722607 0.031695586 0.022742324 0.03154033
-0.12186795 0.018789642 -0.06712589 -0.040350433 -0.051267494 -0.008782156 0.1815695 0.35843188
-0.01670759 -0.061222292 0.022781018 -0.010739269 -0.048808604 -0.063838534 0.3012398 0.27556795
-0.030471507 -0.022641083 0.19023463 0.02892722 -0.025358293 0.31302205 0.081522316 -0.015292763
00000000: b2c1 203e e284 d83c 19ef ff3d 67dd 16bd
00000010: f822 6c3d 1ec5 5dbc 730a 43bd 2675 ba3c
00000020: 3416 adbd 67ec 8d3e aabd d1bd 3782 34bd
00000030: ae87 1fbd fc90 0b3d 9d47 b93e c09e ac3e
00000040: 9dfd 10bd 2f51 0c3e 079b c6bc 7db0 3dbd
00000050: 061a 663d 200e 03be 3b7b 833e bbc5 ac3e
00000060: abbe 9c3d 335c e63c 5983 833d 5046 38bd
00000070: 66e7 82bd ab09 29bd f670 a0bd 7e96 2c3e
00000080: 431e 79bc bed0 ebb7 caf7 673e b354 d9bc
00000090: a422 8d3e 7273 b7bd 7057 babd 3c41 c9bc
000000a0: 0c60 2bbd ae0a b13e b30c 5a3d aaf5 c4bc
000000b0: 50be 8dbd 0ec5 4c3e c9b4 9bbd 114b 3cbd
000000c0: ee8f 0cbe 2f4e 5c3d 4b7f 383e e8eb 9f3e
000000d0: bc86 193e 9748 603e e4ea 8d3e d1a7 a2bd
000000e0: afde e4bd 739f 583c ceec a6bd 4de2 a63e
000000f0: e595 633d 2aeb 293d 2064 933e b7c8 4bbc
00000100: c949 89bd 7ba9 7e3d ce25 83bd 8217 8abd
00000110: 1fc9 b13a acb3 dbbd 92ac 933e 5d89 65bc
00000120: a2a3 bfbd 8c31 cc3b 4690 933e 0ff2 9ebd
00000130: c53b b0bd 61f2 97bd b210 523e 91ec 37bd
00000140: 17a0 ad3e 7588 b2bc b300 4abd c7ed c6bd
00000150: 7e8a abbd 7503 fb3d 012f 533e 34ca c0bd
00000160: cb0f 3cbd d893 d53c 33e3 5abd cce7 a43e
00000170: c85f f53c f8b7 77bd 14c8 653e b8e5 5b3e
00000180: 7b5e 8ebc bf92 11bd a55e 3ebd 1403 c5bc
00000190: d2ad 89bd 3bd3 013d 1c4e ba3c 6f30 013d
000001a0: e795 f9bd bcec 993c 4c79 89bd 7f46 25bd
000001b0: ddfd 51bd 08e3 0fbc 5bed 393e 6284 b73e
000001c0: 5bde 88bc 3ac4 7abd 429f ba3c c2f3 2fbc
000001d0: 88eb 47bd c7bd 82bd 1a3c 9a3e 3e17 8d3e
000001e0: 629f f9bc cb79 b9bc decc 423e c7f8 ec3c
000001f0: 32bc cfbc 6d44 a03e 2cf5 a63d 7f8e 7abc

4.weight f4 [1, 128]
0.6942564 -0.22383831 0.4494747 0.070926905 -0.3087531 0.06422348 -0.24144627 -0.007277128
0.03684021 0.42101073 -0.19162244 -0.16512671 -0.212088 -0.006253044 0.42621395 0.47555706
0.032747775 0.8700996 -0.24695471 -0.25236148 0.014466722 -0.25619346 0.40663117 0.47260562
-0.33102548 -0.26620913 -0.31659025 -0.0049172696 0.0009784545 0.03186466 -0.074989855 0.54294187
-0.1797563 -0.263428 0.63112444 -0.07171334 0.43690914 0.028731612 -0.23692147 -0.19598533
-0.0006078287 0.4779568 -0.28986654 -0.13974342 -0.07540974 0.47286385 -0.005675041 -0.1680897
-0.22936949 -0.16394079 1.0654637 0.36312684 0.69889224 0.981754 0.5227249 -0.065330535
-0.1398015 -0.08720946 -0.20494579 0.78906107 0.31499198 0.033384413 0.36379698 0.063822664
-0.22798438 -0.030528503 -0.20643196 0.017387979 -0.13471484 0.03493709 0.4490742 -0.08358632
0.076257974 0.005515522 0.42956328 0.03508556 -0.04631174 0.023963388 0.704275 -9.422615e-05
0.437697 -0.16405696 0.06546854 -0.13692072 -0.29784474 1.1533377 0.4134918 -0.13713546
0.012460616 0.006787333 0.054482546 0.43657437 0.46160117 -0.23441656 0.41378495 0.94176716
-0.28130525 0.0499235 -0.2253658 -0.2173842 -0.0977119 -0.17684133 0.037166532 -0.0036757665
-0.24247402 0.029001372 -0.26297113 -0.1272745 -0.3348612 -0.14178847 0.8272518 0.37290975
0.016932389 -0.06378077 -0.20945016 -0.30095962 -0.31429476 -0.0022914847 0.8028574 0.43250605
0.06602885 -0.22269292 0.4966885 -0.24441932 0.0487409 0.6628221 0.99336666 0.07890486
00000000: caba 313f df35 65be 8c21 e63e 2042 913d
00000010: e314 9ebe 9a87 833d b13d 77be f974 eebb
00000020: c3e5 163d b88e d73e ac38 44be fa16 29be
00000030: 992d 59be 56e6 ccbb b738 da3e 377c f33e
00000040: 8822 063d d9be 5e3f b2e1 7cbe 8635 81be
00000050: d405 6d3c ca2b 83be f631 d03e 5df9 f13e
00000060: 2c7c a9be 904c 88be 1e18 a2be 0c21 a1bb
00000070: 7c3f 803a 8584 023d 4894 99bd 3dfe 0a3f
00000080: 0912 38be 09e0 86be 5f91 213f 72de 92bd
00000090: 8eb2 df3e 8f5e eb3c 8b9b 72be 61b0 48be
000000a0: b256 1fba c1b6 f43e 6369 94be e618 0fbe
000000b0: 6c70 9abd 361b f23e b2f5 b9bb b51f 2cbe
000000c0: d6df 6abe 18e0 27be 1d61 883f c3eb b93e
000000d0: 9aea 323f 3b54 7b3f 4dd1 053f 04cc 85bd
000000e0: 2028 0fbe e09a b2bd 4fdd 51be e8ff 493f
000000f0: a146 a13e 18be 083d 9943 ba3e 75b5 823d
00000100: bd74 69be e916 fabc e662 53be 3c71 8e3c
00000110: b0f2 09be 321a 0f3d 0eed e53e 4e2f abbd
00000120: 242d 9c3d 8dbb b43b b8ef db3e e0b5 0f3d
00000130: 61b1 3dbd de4e c43c 5e4b 343f 479b c5b8
00000140: d219 e03e 8cfe 27be 5f14 863d f234 0cbe
00000150: 1b7f 98be 92a0 933f 32b5 d33e 3d6d 0cbe
00000160: 9d27 4c3c 4768 de3b 1729 5f3d ad86 df3e
00000170: fd56 ec3e e50a 70be 9fdb d33e a717 713f
00000180: 3e07 90be 957c 4c3d 4bc6 66be f799 5ebe
00000190: 2d1d c8bd e515 35be ef3b 183d 21e5 70bb
000001a0: 1c4b 78be 4994 ed3c 27a4 86be 3f54 02be
000001b0: ed72 abbe ff30 11be c6c6 533f 07ee be3e
000001c0: cbb5 8a3c 7e9f 82bd 1a7a 56be 6117 9abe
000001d0: 3eeb a0be bc2c 16bb 1088 4d3f 6f71 dd3e
000001e0: 223a 873d 9d09 64be f44d fe3e 0f49 7abe
000001f0: 8aa4 473d b6ae 293f 474d 7e3f df98 a13d

exp_avg f4 [128, 6]
52.824505 13.389869 -11.1318245 -22.559649 0.0 0.0 -0.0038413093 -0.00014957628
-0.00025661697 -0.0004725129 0.0 0.0 30.272045 7.6754537 -6.3789053 -12.9307575
0.0 0.0 -6e-45 -6e-45 6e-45 6e-45 0.0 0.0
-0.00062849995 -0.00071542454 4.507196e-05 0.0008987151 0.0 0.0 -6e-45 -6e-45
6e-45 6e-45 0.0 0.0 67.187965 17.035128 -14.158343 -28.699514
0.0 0.0 17.010874 4.3143077 -3.5843816 -7.2677717 0.0 0.0
93.59752 23.73279 -19.722979 -39.982277 0.0 0.0 0.010153045 0.01374565
-7.1222734e-05 -0.017385555 0.0 0.0 0.0072477874 0.001366744 0.0007889091 -0.0006475547
0.0 0.0 -0.18876961 -0.1484364 0.03931372 0.1973668 0.0 0.0
3.7767706 0.9547023 -0.7969394 -1.6103152 0.0 0.0 -6e-45 -6e-45
6e-45 6e-45 0.0 0.0 -0.022688953 -0.039292384 -0.0029257282 0.049677167
0.0 0.0 -6e-45 6e-45 -6e-45 6e-45 0.0 0.0
0.0 0.0 0.0 0.0 0.0 0.0 -19.722776 -4.9983063
4.15692 8.422203 0.0 0.0 6e-45 -6e-45 6e-45 6e-45
0.0 0.0 39.906597 10.118457 -8.409249 -17.046585 0.0 0.0
-6e-45 -6e-45 6e-45 6e-45 0.0 0.0 71.38295 18.096289
-15.042635 -30.488417 0.0 0.0 47.219364 11.972411 -9.950042 -20.16993
0.0 0.0 1.7667588 0.4508659 -0.37172514 -0.75809747 0.0 0.0
0.00039647633 -0.003960248 -0.00027538824 0.0059387707 0.0 0.0 40.269287 10.210398
-8.485864 -17.201668 0.0 0.0 0.0 0.0 0.0 0.0
0.0 0.0 4.970312 1.256225 -1.0491154 -2.119246 0.0 0.0
-97.85159 -24.803614 20.621014 41.79049 0.0 0.0 2.1806273 0.55175865
-0.45935246 -0.9298267 0.0 0.0 9.947209 2.5218503 -2.095952 -4.24848
0.0 0.0 -53.378933 -13.52887 11.248627 22.794468 0.0 0.0
-6e-45 -6e-45 6e-45 6e-45 0.0 0.0 -6.9222555 -1.7560023
1.4589356 2.9582725 0.0 0.0 70.31625 17.82632 -14.81785 -30.033417
0.0 0.0 -51.999165 -13.186148 10.956992 22.213789 0.0 0.0
36.126377 9.159488 -7.6127644 -15.431202 0.0 0.0 -44.780296 -11.354361
9.436623 19.128988 0.0 0.0 -29.728258 -7.5400615 6.2603884 12.698125
0.0 0.0 -6e-45 6e-45 -6e-45 -6e-45 0.0 0.0
-9.61881 -2.432085 2.0286841 4.101127 0.0 0.0 -6e-45 6e-45
-6e-45 -6e-45 0.0 0.0 48.81929 12.378137 -10.28803 -20.854086
00000000: 4b4c 5342 e73c 5641 f41b 32c1 297a b4c1
00000010: 0000 0000 0000 0000 7abe 7bbb 94d7 1cb9
00000020: 8c8a 86b9 9cbb f7b9 0000 0000 0000 0000
00000030: 262d f241 519d f540 fe1f ccc0 62e4 4ec1
00000040: 0000 0000 0000 0000 0400 0080 0400 0080
00000050: 0400 0000 0400 0000 0000 0000 0000 0000
00000060: ebc1 24ba 548b 3bba a60b 3d38 c097 6b3a
00000070: 0000 0000 0000 0000 0400 0080 0400 0080
00000080: 0400 0000 0400 0000 0000 0000 0000 0000
00000090: 3d60 8642 f147 8841 9388 62c1 9b98 e5c1
000000a0: 0000 0000 0000 0000 4516 8841 cf0e 8a40
000000b0: 8266 65c0 9691 e8c0 0000 0000 0000 0000
000000c0: ee31 bb42 c1dc bd41 a9c8 9dc1 daed 1fc2
000000d0: 0000 0000 0000 0000 f558 263c 6f35 613c
000000e0: 6a5d 95b8 276c 8ebc 0000 0000 0000 0000
000000f0: d97e ed3b 5224 b33a cbce 4e3a a9c0 29ba
00000100: 0000 0000 0000 0000 d24c 41be b6ff 17be
00000110: 6c07 213d 861a 4a3e 0000 0000 0000 0000
00000120: 9cb6 7140 5f67 743f 3804 4cbf cf1e cebf
00000130: 0000 0000 0000 0000 0400 0080 0400 0080
00000140: 0400 0000 0400 0000 0000 0000 0000 0000
00000150: 2fde b9bc 0df1 20bd 93bd 3fbb 497a 4b3d
00000160: 0000 0000 0000 0000 0400 0080 0400 0000
00000170: 0400 0080 0400 0000 0000 0000 0000 0000
00000180: 0000 0000 0000 0000 0000 0000 0000 0000
00000190: 0000 0000 0000 0000 3fc8 9dc1 20f2 9fc0
000001a0: 7d05 8540 58c1 0641 0000 0000 0000 0000
000001b0: 0400 0000 0400 0080 0400 0000 0400 0000
000001c0: 0000 0000 0000 0000 5ba0 1f42 33e5 2141
000001d0: 498c 06c1 685f 88c1 0000 0000 0000 0000
000001e0: 0400 0080 0400 0080 0400 0000 0400 0000
000001f0: 0000 0000 0000 0000 12c4 8e42 33c5 9041
00000200: a2ae 70c1 47e8 f3c1 0000 0000 0000 0000
00000210: a1e0 3c42 ff8e 3f41 5f33 1fc1 045c a1c1
00000220: 0000 0000 0000 0000 2725 e23f e5d7 e63e
00000230: c252 bebe ad12 42bf 0000 0000 0000 0000
00000240: 27de cf39 f8c4 81bb fc61 90b9 059a c23b
00000250: 0000 0000 0000 0000 c013 2142 ca5d 2341
00000260: 19c6 07c1 049d 89c1 0000 0000 0000 0000
00000270: 0000 0000 0000 0000 0000 0000 0000 0000
00000280: 0000 0000 0000 0000 cc0c 9f40 fbcb a03f
00000290: 6a49 86bf baa1 07c0 0000 0000 0000 0000
000002a0: 04b4 c3c2 cd6d c6c1 d6f7 a441 7629 2742
000002b0: 0000 0000 0000 0000 668f 0b40 0e40 0d3f
000002c0: 3f30 ebbe 1f09 6ebf 0000 0000 0000 0000
000002d0: c527 1f41 ff65 2140 1424 06c0 8cf3 87c0
000002e0: 0000 0000 0000 0000 0784 55c2 4076 58c1
000002f0: 60fa 3341 125b b641 0000 0000 0000 0000
00000300: 0400 0080 0400 0080 0400 0000 0400 0000
00000310: 0000 0000 0000 0000 1e83 ddc0 afc4 e0bf
00000320: 67be ba3f 5654 3d40 0000 0000 0000 0000
00000330: eca1 8c42 4e9c 8e41 ea15 6dc1 7044 f0c1
00000340: 0000 0000 0000 0000 25ff 4fc2 76fa 52c1
00000350: d74f 2f41 d7b5 b141 0000 0000 0000 0000
00000360: 6981 1042 438d 1241 c49b f3c0 34e6 76c1
00000370: 0000 0000 0000 0000 061f 33c2 76ab 35c1
00000380: 68fc 1641 2b08 9941 0000 0000 0000 0000
00000390: 79d3 edc1 2f48 f1c0 1a55 c840 852b 4b41
000003a0: 0000 0000 0000 0000 0400 0080 0400 0000
000003b0: 0400 0080 0400 0080 0000 0000 0000 0000
000003c0: a5e6 19c1 48a7 1bc0 f6d5 0140 6f3c 8340
000003d0: 0000 0000 0000 0000 0400 0080 0400 0000
000003e0: 0400 0080 0400 0080 0000 0000 0000 0000
000003f0: f446 4342 d90c 4641 c59b 24c1 2bd5 a6c1

exp_avg_sq f4 [128, 6]
296.28857 18.659786 12.608903 54.21411 0.0 0.0 0.43026537 0.018624356
0.0054473355 0.081809126 0.0 0.0 97.395996 6.1310334 4.141822 17.82104
0.0 0.0 4.3909697e-15 2.8027884e-15 2.0234672e-17 2.3904917e-15 0.0 0.0
0.00021858838 0.0003515749 1.7265095e-06 0.0006006354 0.0 0.0 1.311764e-15 1.6736238e-15
1.1707854e-18 2.19723e-15 0.0 0.0 476.41943 30.066713 20.360685 87.15783
0.0 0.0 30.844698 1.9391514 1.3089664 5.6433973 0.0 0.0
919.486 58.13623 39.447144 168.17784 0.0 0.0 0.001092094 0.0022244896
1.3026477e-06 0.0036637734 0.0 0.0 2.0181375 0.09387781 0.025572399 0.3967558
0.0 0.0 73.29635 3.2768164 0.9376192 14.396593 0.0 0.0
1.692102 0.10308134 0.06682529 0.3109649 0.0 0.0 7.6928545e-06 1.8182097e-06
4.9294762e-08 3.4346376e-06 0.0 0.0 0.005444044 0.010752903 7.490425e-05 0.017744647
0.0 0.0 1.0683035e-06 4.096311e-06 3.3918607e-08 8.777806e-06 0.0 0.0
0.0 0.0 0.0 0.0 0.0 0.0 41.222546 2.6001744
1.7569702 7.54591 0.0 0.0 6.392074e-05 3.0085599e-05 7.791308e-08 6.4986656e-05
0.0 0.0 168.95087 10.643122 7.1940756 30.913889 0.0 0.0
4.540269e-06 2.77428e-05 1.5633984e-07 5.8787435e-05 0.0 0.0 539.4205 34.008255
23.004208 98.69497 0.0 0.0 234.88928 14.831357 10.050912 42.96576
0.0 0.0 0.3897245 0.023329562 0.014825378 0.0718275 0.0 0.0
2.75219 0.13778068 0.034641743 0.54908323 0.0 0.0 171.61688 10.819819
7.3201947 31.398163 0.0 0.0 0.0 0.0 0.0 0.0
0.0 0.0 3.022288 0.18225473 0.11693032 0.5558887 0.0 0.0
1006.085 63.597954 43.132763 184.03276 0.0 0.0 0.50997895 0.032074828
0.021548986 0.09346473 0.0 0.0 9.898342 0.635259 0.43921897 1.8043263
0.0 0.0 299.26776 18.925594 12.833593 54.75013 0.0 0.0
1.5043231e-06 3.4228742e-06 8.337991e-09 3.458721e-06 0.0 0.0 5.0135036 0.31800812
0.21556012 0.91807765 0.0 0.0 523.02026 32.982414 22.316828 95.69088
0.0 0.0 270.43848 17.47219 12.003555 49.524117 0.0 0.0
138.19707 8.712846 5.8923516 25.287922 0.0 0.0 200.64745 12.982727
8.90349 36.74694 0.0 0.0 88.32387 5.670526 3.919621 16.10429
0.0 0.0 1.3489841e-05 3.8699076e-05 3.3556276e-07 6.6700355e-05 0.0 0.0
9.807186 0.62032384 0.41824818 1.7978581 0.0 0.0 1.4382096e-14 1.5002758e-15
1.4727771e-18 1.6181909e-14 0.0 0.0 254.57887 16.002705 10.789056 46.5972
00000000: f024 9443 3e47 9541 11be 4941 40db 5842
00000010: 0000 0000 0000 0000 be4b dc3e 1b92 983c
00000020: 907f b23b 8b8b a73d 0000 0000 0000 0000
00000030: c0ca c242 6d31 c440 ce89 8440 7d91 8e41
00000040: 0000 0000 0000 0000 8c33 9e27 52f6 4927
00000050: c5a1 ba23 ca40 2c27 0000 0000 0000 0000
00000060: df34 6539 9653 b839 6aba e735 f673 1d3a
00000070: 0000 0000 0000 0000 8d0b bd26 d231 f126
00000080: 06c7 ac21 bd53 1e27 0000 0000 0000 0000
00000090: b035 ee43 a188 f041 afe2 a241 cf50 ae42
000000a0: 0000 0000 0000 0000 f1c1 f641 1d36 f83f
000000b0: 368c a73f b696 b440 0000 0000 0000 0000
000000c0: 1bdf 6544 808b 6842 e0c9 1d42 872d 2843
000000d0: 0000 0000 0000 0000 9824 8f3a bec8 113b
000000e0: a2d6 ae35 eb1b 703b 0000 0000 0000 0000
000000f0: 2a29 0140 0243 c03d 357d d13c 9423 cb3e
00000100: 0000 0000 0000 0000 bb97 9242 5cb7 5140
00000110: d007 703f 7258 6641 0000 0000 0000 0000
00000120: cc96 d83f 4f1c d33d b3db 883d cb36 9f3e
00000130: 0000 0000 0000 0000 8f10 0137 3609 f435
00000140: 2ab8 5333 a07e 6636 0000 0000 0000 0000
00000150: f363 b23b f22c 303c ea15 9d38 395d 913c
00000160: 0000 0000 0000 0000 a162 8f35 0b73 8936
00000170: e7ad 1133 6444 1337 0000 0000 0000 0000
00000180: 0000 0000 0000 0000 0000 0000 0000 0000
00000190: 0000 0000 0000 0000 e3e3 2442 4269 2640
000001a0: 66e4 e03f 1878 f140 0000 0000 0000 0000
000001b0: 300d 8638 5560 fc37 2b51 a733 7249 8838
000001c0: 0000 0000 0000 0000 6cf3 2843 3a4a 2a41
000001d0: de35 e640 a54f f741 0000 0000 0000 0000
000001e0: 9d58 9836 36b9 e837 5ede 2734 8792 7638
000001f0: 0000 0000 0000 0000 e9da 0644 7408 0842
00000200: 9e08 b841 d363 c542 0000 0000 0000 0000
00000210: a8e3 6a43 3d4d 6d41 89d0 2041 f0dc 2b42
00000220: 0000 0000 0000 0000 f889 c73e a31d bf3c
00000230: 24e6 723c 4c1a 933d 0000 0000 0000 0000
00000240: e223 3040 6116 0d3e 80e4 0d3d b890 0c3f
00000250: 0000 0000 0000 0000 ec9d 2b43 fb1d 2d41
00000260: 093f ea40 702f fb41 0000 0000 0000 0000
00000270: 0000 0000 0000 0000 0000 0000 0000 0000
00000280: 0000 0000 0000 0000 2b6d 4140 fca0 3a3e
00000290: 2a79 ef3d b94e 0e3f 0000 0000 0000 0000
000002a0: 7185 7b44 4e64 7e42 f387 2c42 6308 3843
000002b0: 0000 0000 0000 0000 fb8d 023f e560 033d
000002c0: 8087 b03c 706a bf3d 0000 0000 0000 0000
000002d0: 9c5f 1e41 55a0 223f 4fe1 e03e 2af4 e63f
000002e0: 0000 0000 0000 0000 46a2 9543 9e67 9741
000002f0: 6656 4d41 2200 5b42 0000 0000 0000 0000
00000300: 26e8 c935 88b4 6536 df3e 0f32 601c 6836
00000310: 0000 0000 0000 0000 9f6e a040 f6d1 a23e
00000320: cbbb 5c3e 2307 6b3f 0000 0000 0000 0000
00000330: 4cc1 0244 feed 0342 dd88 b241 bb61 bf42
00000340: 0000 0000 0000 0000 2038 8743 0cc7 8b41
00000350: 900e 4041 b218 4642 0000 0000 0000 0000
00000360: 7332 0a43 d167 0b41 258e bc40 aa4d ca41
00000370: 0000 0000 0000 0000 bfa5 4843 40b9 4f41
00000380: b274 0e41 defc 1242 0000 0000 0000 0000
00000390: d2a5 b042 f374 b540 12db 7a40 96d5 8041
000003a0: 0000 0000 0000 0000 6d52 6237 d150 2238
000003b0: 6527 b434 7be1 8b38 0000 0000 0000 0000
000003c0: 3cea 1c41 8bcd 1e3f a024 d63e 3720 e63f
000003d0: 0000 0000 0000 0000 db8a 8128 6836 d826
000003e0: f257 d921 f1c0 9128 0000 0000 0000 0000
000003f0: 3194 7e43 8a05 8041 f99f 2c41 8863 3a42

exp_avg f4 [128]
54.832954 -0.0051114406 31.423395 6e-45 -0.0007370465 6e-45 69.742805 17.657982
97.15716 0.012515312 0.009849946 -0.19475912 3.9192703 6e-45 -0.03092898 6e-45
0.0 -20.471966 6e-45 41.42422 6e-45 74.097046 49.01527 1.8345011
0.00028445068 41.800518 0.0 5.1576138 -101.57147 2.2637236 10.325683 -55.408504
6e-45 -7.185247 72.98977 -53.97708 37.50014 -46.482872 -30.86297 6e-45
-9.982887 6e-45 50.67518 110.03897 -49.85012 6e-45 -0.0061802613 6e-45
-55.250187 30.390121 6e-45 93.817825 -154.60774 111.69047 -0.026272781 -80.32587
6e-45 -173.55827 122.7615 6e-45 -6e-45 112.93032 0.016114842 -38.294342
6e-45 -0.017365105 -31.71741 6e-45 5.691465 49.01545 6e-45 99.10902
6e-45 -15.467384 121.86643 6e-45 -3.1638117 40.913612 44.74402 6e-45
11.547686 6e-45 -0.0014057307 98.894646 146.59645 6e-45 -48.213726 17.289394
6e-45 96.190254 80.83589 67.98424 124.24057 -149.13057 6e-45 0.016455246
98.30821 6e-45 117.83856 -6e-45 -6e-45 -12.227348 -101.46317 6e-45
-0.026164923 61.161884 87.21209 6e-45 -13.749731 32.93775 6e-45 118.94225
75.61011 6.0304036 -27.15763 -11.998422 150.81422 -76.33 -133.26546 6e-45
137.33159 11.789811 -122.9887 0.12452303 97.49227 98.02668 6e-45 -37.15833
00000000: f254 5b42 df7d a7bb 1d63 fb41 0400 0000
00000010: 5a36 41ba 0400 0000 517c 8b42 8c43 8d41
00000020: 7750 c242 060d 4d3c ab61 213c ef6e 47be
00000030: 53d5 7a40 0400 0000 c65e fdbc 0400 0000
00000040: 0000 0000 96c6 a3c1 0400 0000 67b2 2542
00000050: 0400 0000 b031 9442 a30f 4442 efd0 ea3f
00000060: 5322 9539 bb33 2742 0000 0000 2c0b a540
00000070: 9824 cbc2 d9e0 1040 ff35 2541 4fa2 5dc2
00000080: 0400 0000 8bed e5c0 c3fa 9142 88e8 57c2
00000090: 2500 1642 76ee 39c2 5de7 f6c1 0400 0000
000000a0: e8b9 1fc1 0400 0000 62b3 4a42 f413 dc42
000000b0: 8666 47c2 0400 0000 ca83 cabb 0400 0000
000000c0: 3100 5dc2 f81e f341 0400 0000 baa2 bb42
000000d0: 959b 1ac3 8561 df42 043a d7bc d8a6 a0c2
000000e0: 0400 0000 eb8e 2dc3 e385 f542 0400 0000
000000f0: 0400 0080 53dc e142 4603 843c 682d 19c2
00000100: 0400 0000 4441 8ebc 41bd fdc1 0400 0000
00000110: 7b20 b640 d20f 4442 0400 0000 d137 c642
00000120: 0400 0000 687a 77c1 9dbb f342 0400 0000
00000130: e47b 4ac0 8aa7 2342 e0f9 3242 0400 0000
00000140: 52c3 3841 0400 0000 7f40 b8ba 0fca c542
00000150: b198 1243 0400 0000 dbda 40c2 ae50 8a41
00000160: 0400 0000 6961 c042 faab a142 eef7 8742
00000170: 2c7b f842 6d21 15c3 0400 0000 27cd 863c
00000180: ce9d c442 0400 0000 58ad eb42 0400 0080
00000190: 0400 0080 38a3 43c1 25ed cac2 0400 0000
000001a0: d257 d6bc c5a5 7442 976c ae42 0400 0000
000001b0: e6fe 5bc1 42c0 0342 0400 0000 6fe2 ed42
000001c0: 6038 9742 11f9 c040 d442 d9c1 89f9 3fc1
000001d0: 71d0 1643 f6a8 98c2 f543 05c3 0400 0000
000001e0: e354 0943 11a3 3c41 37fa f5c2 ee05 ff3d
000001f0: 0bfc c242 a90d c442 0400 0000 21a2 14c2

exp_avg_sq f4 [128]
306.0954 0.14374998 100.54696 8.698408e-16 0.00052608055 4.7055147e-16 494.26508 31.776728
957.5842 0.0014808956 0.6696097 23.080547 1.6249048 6.935019e-06 0.014816538 1.4471751e-06
0.0 42.652897 2.262661e-05 174.64209 1.1478756e-05 558.4432 243.98972 0.36025476
0.95074546 177.7025 0.0 2.8407223 1047.0665 0.5232949 10.66723 311.54416
2.02858e-06 5.2329917 541.75525 291.47028 143.04085 216.25484 95.21746 5.5369488e-05
10.154264 3.4242664e-15 261.9183 1228.9781 252.14626 2.6654027e-07 0.00033551236 0.010828393
309.25845 94.43776 6.100689e-06 895.9582 2392.3572 1267.406 25.073101 655.6292
6.5968874e-07 3056.4958 1529.5342 7.856178e-05 9.578303e-13 1297.0815 0.45323983 146.69823
4.678238e-06 7.1362348 102.084465 7.472191e-07 3.3527915 245.38094 0.00019153392 999.28577
1.2066059e-06 24.199753 1506.6642 2.2349562e-13 1.0073301 170.18729 203.70375 7.4601476e-06
13.849557 3.4729954e-05 1.2113413 995.1569 2180.3489 3.1765592e-06 235.69633 30.539492
4.3216518e-05 939.18994 662.9152 469.10623 1566.254 2258.1597 1.1312434e-25 2.5169206
982.63104 4.873559e-05 1409.2397 0.00046197826 3.095724e-05 15.036835 1044.3964 1.2763345e-05
14.425528 379.9332 772.4722 0.0063578575 19.108667 110.72316 2.5878415e-05 1435.2668
581.5671 3.7094939 74.75891 14.584092 2309.759 591.4799 1802.9756 1.6364427e-12
1915.2234 14.385456 1535.0922 0.016716944 964.4222 975.1585 7.965303e-05 138.24252
00000000: 360c 9943 3233 133e 0b18 c942 ecb6 7a26
00000010: abe8 093a 92a0 0726 ee21 f743 bd36 fe41
00000020: 6465 6f44 9c1a c23a 8b6b 2b3f f6a4 b841
00000030: e1fc cf3f 5cb3 e836 11c1 723c 8f3c c235
00000040: 0000 0000 919c 2a42 46ce bd37 60a4 2e43
00000050: e294 4037 5d9c 0b44 5efd 7343 5073 b83e
00000060: 0e64 733f d7b3 3143 0000 0000 65ce 3540
00000070: 21e2 8244 a8f6 053f f9ac 2a41 a7c5 9b43
00000080: bd22 0836 ab74 a740 5670 0744 32bc 9143
00000090: 750a 0f43 3d41 5843 576f be42 893c 6838
000000a0: de77 2241 91be 7627 8bf5 8243 4d9f 9944
000000b0: 7125 7c43 0419 8f34 b5e7 af39 9269 313c
000000c0: 15a1 9a43 22e0 bc42 85b4 cc36 53fd 5f44
000000d0: b785 1545 fe6c 9e44 b695 c841 45e8 2344
000000e0: 7715 3135 ef07 3f45 1831 bf44 89c1 a438
000000f0: 79cd 862b 9c22 a244 0d0f e83e bfb2 1243
00000100: c2f9 9c36 095c e440 3f2b cc42 8194 4835
00000110: 2394 5640 8561 7543 7fd6 4839 4ad2 7944
00000120: aaf2 a135 1899 c141 4155 bc44 3aa2 7b2a
00000130: 31f0 803f f22f 2a43 29b4 4b43 2e52 fa36
00000140: c997 5d41 01ab 1138 3b0d 9b3f 0bca 7844
00000150: 9545 0845 df2c 5536 43b2 6b43 e150 f441
00000160: 6243 3538 28cc 6a44 93ba 2544 998d ea43
00000170: 21c8 c344 8e22 0d45 890a 0c16 3a15 2140
00000180: 63a8 7544 7169 4c38 ac27 b044 ac35 f239
00000190: 15d8 0138 e096 7041 af8c 8244 2622 5637
000001a0: f6ce 6641 73f7 bd43 391e 4144 9355 d03b
000001b0: 8dde 9841 4272 dd42 7915 d937 8a68 b344
000001c0: 4b64 1144 5968 6d40 9084 9542 7158 6941
000001d0: 255c 1045 b7de 1344 385f e144 104f e62b
000001e0: 2667 ef44 d42a 6641 f3e2 bf44 f9f1 883c
000001f0: 051b 7144 25ca 7344 650b a738 163e 0a43

exp_avg f4 [128, 128]
4.710781 0.00061736576 5.942621 -6e-45 0.0010804738 -6e-45 3.8961575 5.290713
9.162415 -0.00019614078 0.0002468298 -0.00011224356 3.186171 -6e-45 -5.0127397e-05 -6e-45
0.0 1.8125591 -6e-45 7.5695653 -6e-45 5.788496 6.551878 3.0734117
0.00083166256 6.233147 0.0 2.887173 5.636311 2.0390186 2.0341508 3.3033755
-6e-45 5.8500376 4.376856 4.4916863 2.6086736 3.8173013 0.3575728 6e-45
1.7581472 -6e-45 5.323703 7.4267225 4.5144043 -6e-45 -5.6906494e-05 -6e-45
0.539227 7.1289983 -6e-45 6.2694473 2.0792813 2.6624126 -0.00056619506 1.348045
-6e-45 6.1600823 8.677752 -6e-45 6e-45 5.1519647 -0.0017540377 1.3486917
-6e-45 -8.713541e-05 4.046014 -6e-45 3.028383 7.3560658 -6e-45 2.7353187
-6e-45 6.015066 4.826989 6e-45 1.9550902 8.054674 2.8622808 -6e-45
3.229937 -6e-45 0.0002532117 7.6595583 6.177803 -6e-45 5.5886955 4.0679336
-6e-45 5.7534137 2.835572 6.4062333 5.713321 0.46029443 -6e-45 0.00040407063
3.4938788 -6e-45 8.422481 -6e-45 -6e-45 5.5163493 2.8109403 -6e-45
-0.0007610378 3.0904908 2.7730842 -6e-45 3.9583972 0.91242826 -6e-45 8.047683
5.775164 6.541687 4.8173943 2.721661 11.620538 0.0064180316 3.167495 -6e-45
3.5913448 4.9082522 3.840909 3.6834435 7.395996 5.3353276 -6e-45 5.016934
-1.5098463 7.925726e-05 -1.9045968 -6e-45 5.7470657e-13 -6e-45 -1.2490755 -1.6964754
-2.9370494 -6e-45 2.1170252e-05 8.457767e-06 -1.0216694 6e-45 1.8567303e-06 6e-45
0.0 -0.5815434 6e-45 -2.4262261 -6e-45 -1.8556411 -2.1007547 -0.9851263
3.1124255e-05 -1.9980403 0.0 -0.92581564 -1.806873 -0.65435463 -0.6503628 -1.059069
6e-45 -1.8764955 -1.4030033 -1.4394958 -0.8364311 -1.2232107 -0.11414377 6e-45
-0.56419975 6e-45 -1.7067534 -2.38092 -1.4474266 6e-45 -6e-45 -6e-45
-0.17281799 -2.28511 6e-45 -2.0096905 -0.66643745 -0.85339975 2.7912414e-12 -0.43215305
6e-45 -1.9749122 -2.7820225 6e-45 -6e-45 -1.6514692 0.0001523075 -0.43218935
-6e-45 6.077129e-06 -1.2971131 6e-45 -0.9706852 -2.3582163 -6e-45 -0.8768771
6e-45 -1.9290084 -1.5474099 -6e-45 -0.62727517 -2.582811 -0.9177869 6e-45
-1.0357463 6e-45 4.050756e-06 -2.4555361 -1.9804856 6e-45 -1.7918864 -1.30437
6e-45 -1.8446357 -0.9091816 -2.053945 -1.8315806 -0.14753328 6e-45 8.179454e-08
-1.119939 -6e-45 -2.6998584 -6e-45 -6e-45 -1.7679068 -0.9011269 6e-45
5.2337353e-05 -0.99092567 -0.88905716 6e-45 -1.2685652 -0.29243538 6e-45 -2.579913
-1.851624 -2.0977068 -1.5443268 -0.87272793 -3.7254758 -0.0019074371 -1.0153465 6e-45
-1.1514493 -1.5729104 -1.2312939 -1.1811954 -2.3712802 -1.7103444 -6e-45 -1.6074399
00000000: b8be 9640 b7d6 213a f429 be40 0400 0080
00000010: af9e 8d3a 0400 0080 a55a 7940 854d a940
00000020: 4099 1241 24ab 4db9 ef68 8139 4d64 ebb8
00000030: 3aea 4b40 0400 0080 e23f 52b8 0400 0080
00000040: 0000 0000 f001 e83f 0400 0080 e139 f240
00000050: 0400 0080 5c3b b940 fca8 d140 c7b2 4440
00000060: ee03 5a3a f175 c740 0000 0000 71c7 3840
00000070: a95c b440 487f 0240 872f 0240 816a 5340
00000080: 0400 0080 8233 bb40 340f 8c40 e5bb 8f40
00000090: 82f4 2640 aa4e 7440 c813 b73e 0400 0000
000000a0: f80a e13f 0400 0080 c65b aa40 b6a7 ed40
000000b0: 0076 9040 0400 0080 e2ae 6eb8 0400 0080
000000c0: c80a 0a3f c120 e440 0400 0080 509f c840
000000d0: f212 0540 f864 2a40 b56c 14ba bd8c ac3f
000000e0: 0400 0080 651f c540 12d8 0a41 0400 0080
000000f0: 0400 0000 e5dc a440 bde7 e5ba eea1 ac3f
00000100: 0400 0080 78bc b6b8 f278 8140 0400 0080
00000110: 07d1 4140 e464 eb40 0400 0080 760f 2f40
00000120: 0400 0080 6c7b c040 b276 9a40 0400 0000
00000130: 6540 fa3f f2df 0041 9c2f 3740 0400 0080
00000140: 4ab7 4e40 0400 0080 80c1 8439 1a1b f540
00000150: 90b0 c540 0400 0080 98d6 b240 832c 8240
00000160: 0400 0080 f71b b840 037a 3540 ddff cc40
00000170: 87d3 b640 b6ab eb3e 0400 0080 71d9 d339
00000180: b69b 5f40 0400 0080 7bc2 0641 0400 0080
00000190: 0400 0080 ef85 b040 72e6 3340 0400 0080
000001a0: 6280 47ba 9aca 4540 367a 3140 0400 0080
000001b0: 6156 7d40 e694 693f 0400 0080 4fc3 0041
000001c0: 25ce b840 8055 d140 1828 9a40 b22f 2e40
000001d0: b9ed 3941 5a4e d23b 3db8 4a40 0400 0080
000001e0: 98d8 6540 6710 9d40 74d1 7540 8abd 6b40
000001f0: 00ac ec40 01bb aa40 0400 0080 b98a a040
00000200: a542 c1bf eb36 a638 d4c9 f3bf 0400 0080
00000210: f9c3 212b 0400 0080 b5e1 9fbf 1b26 d9bf
00000220: 9ef8 3bc0 0400 0080 c596 b137 d5e5 0d37
00000230: 10c6 82bf 0400 0000 c434 f935 0400 0000
00000240: 0000 0000 07e0 14bf 0400 0000 4a47 1bc0
00000250: 0400 0080 a685 edbf c472 06c0 3d31 7cbf
00000260: 6a8b 0238 c9bf ffbf 0000 0000 4102 6dbf
00000270: 9d47 e7bf c983 27bf 2d7e 26bf 938f 87bf
00000280: 0400 0000 0131 f0bf 9d95 b3bf 6641 b8bf
00000290: 5920 56bf 2b92 9cbf 35c4 e9bd 0400 0000
000002a0: 656f 10bf 0400 0000 e576 dabf fe60 18c0
000002b0: 4645 b9bf 0400 0000 0400 0080 0400 0080
000002c0: 33f7 30be 3e3f 12c0 0400 0000 c59e 00c0
000002d0: a59b 2abf 6878 5abf 896a 442c 2a43 ddbe
000002e0: 0400 0000 ecc9 fcbf a80c 32c0 0400 0000
000002f0: 0400 0080 5863 d3bf bcb4 1f39 ec47 ddbe
00000300: 0400 0080 24ea cb36 cd07 a6bf 0400 0000
00000310: d37e 78bf 04ed 16c0 0400 0080 057b 60bf
00000320: 0400 0000 bfe9 f6bf 8711 c6bf 0400 0080
00000330: 1b95 20bf c74c 25c0 15f4 6abf 0400 0000
00000340: 5693 84bf 0400 0000 bbeb 8736 8127 1dc0
00000350: 8d80 fdbf 0400 0000 895c e5bf 99f5 a6bf
00000360: 0400 0000 061d ecbf 20c0 68bf d673 03c0
00000370: 3c71 eabf f712 17be 0400 0000 06a7 af33
00000380: 295a 8fbf 0400 0080 7bca 2cc0 0400 0080
00000390: 0400 0080 c54a e2bf 41b0 66bf 0400 0000
000003a0: ce84 5b38 4ead 7dbf 4099 63bf 0400 0000
000003b0: 5860 a2bf 17ba 95be 0400 0000 4b1d 25c0
000003c0: 0402 edbf d440 06c0 80ac c5bf 196b 5fbf
000003d0: 326e 6ec0 f802 faba e0f6 81bf 0400 0000
000003e0: b162 93bf 2155 c9bf 0a9b 9dbf 6931 97bf
000003f0: 0ec3 17c0 91ec dabf 0400 0080 97c0 cdbf

exp_avg_sq f4 [128, 128]
2.2249117 0.016594961 3.5401149 2.6168911e-17 2.9791154e-05 1.430475e-20 1.5448711 2.8477385
8.5002165 1.9988368e-06 0.028866142 0.034765795 1.0886493 2.827496e-10 2.0785662e-07 4.8703314e-10
0.0 0.50442594 1.4644017e-07 5.7652993 1.0395503e-08 3.3864062 4.4419074 0.9681913
0.00061264564 3.9162233 0.0 0.83672345 3.3650594 0.48595586 0.4132388 1.0921129
4.112219e-10 3.658908 1.9227678 2.0174005 0.69149274 1.4569292 0.012762505 1.1344512e-09
0.36669034 7e-43 2.847885 5.611941 2.1160471 2.6063411e-09 6.9468086e-07 7.613509e-08
0.03489412 5.0930004 1.5530716e-10 3.952767 0.43227416 0.71164227 0.010446136 0.22148857
1.8330561e-11 3.9196615 7.6940727 3.8854377e-08 2.1862672e-16 2.6621742 0.027979376 0.18190074
2.1307376e-09 0.006712733 1.7073765 2.7175042e-07 0.9323341 5.447556 2.121256e-09 0.7540294
7.829058e-09 3.7294934 2.3868873 9.4008845e-17 0.44935355 6.6762924 0.82063735 1.1527804e-10
1.0514373 5.2120832e-08 0.0028456212 5.891015 3.908115 4.0233455e-10 3.2366674 1.6778462
1.2521228e-09 3.3994963 0.8466036 4.233019 3.3238368 0.10678881 2.1662236e-28 0.0032223712
1.2216605 2.1278147e-08 7.231466 4.1471417e-08 1.86035e-08 3.043781 0.81929076 2.632382e-10
0.04196572 0.9746536 0.78919977 1.9811809e-08 1.5737729 0.08421741 7.2316975e-10 6.615656
3.35296 4.405305 2.4707103 0.797916 13.701478 0.049076527 1.1235945 1.678392e-15
1.3077804 2.411751 1.6617484 1.404751 5.664217 2.8998146 9.840242e-10 2.5164607
0.22873175 0.0015522693 0.36392146 2.8170132e-18 3.462225e-08 2.623223e-23 0.15861323 0.29241595
0.8730461 4.359842e-09 0.0027007887 0.003252039 0.11128467 4.518591e-12 5.509006e-10 5.515399e-11
0.0 0.05028924 1.3858613e-08 0.5924867 1.8699813e-10 0.34793603 0.45544404 0.09934273
5.4340264e-05 0.40240636 0.0 0.086007714 0.34426373 0.049359355 0.04246998 0.11228393
1.2896318e-12 0.37415445 0.19765832 0.20742014 0.071009874 0.1497929 0.0013101519 2.2537628e-11
0.037201885 2.2773541e-17 0.29272288 0.57619 0.21686152 4.9618686e-12 1.9232915e-10 1.9837056e-10
0.0035338632 0.5235946 1.1830655e-11 0.40628105 0.0444445 0.07315954 0.00097647146 0.022406247
3.6155822e-12 0.401869 0.78970176 1.2544253e-10 2.3762924e-17 0.27369505 0.0026286277 0.018702932
4.5045245e-11 0.00062763854 0.17490615 2.6173145e-08 0.09573453 0.55984646 1.0919209e-10 0.077491164
7.9500895e-10 0.38250047 0.2449305 1.2368676e-17 0.045607682 0.6848617 0.084371105 1.3071776e-11
0.10804064 3.330637e-10 0.00026604158 0.60558206 0.40103644 5.4693892e-11 0.33176318 0.172335
5.316786e-11 0.348783 0.086687095 0.434134 0.34124154 0.010188712 7e-43 0.00030020616
0.12561451 1.117327e-10 0.7423366 2.0734266e-10 3.5642864e-10 0.3129464 0.0839706 3.4703046e-11
0.0039267857 0.10004553 0.08099419 5.5301142e-11 0.16175199 0.008650786 2.7396335e-11 0.67902064
0.34463993 0.45187524 0.2526671 0.08153144 1.4071 0.004589025 0.11440967 1.3031924e-14
0.13432209 0.2479533 0.16914104 0.14403072 0.5807175 0.29769883 9.777959e-11 0.25872675
00000000: f464 0e40 28f2 873c 3e91 6240 985d f123
00000010: 04e8 f937 c31a 871e 56be c53f 5941 3640
00000020: e300 0841 c123 0636 b078 ec3c 9466 0e3d
00000030: dc58 8b3f 7871 9b2f 312f 5f34 e9df 0530
00000040: 0000 0000 0f22 013f 2b3d 1d34 557d b840
00000050: e897 3232 e1ba 5840 1b24 8e40 63db 773f
00000060: f499 203a 67a3 7a40 0000 0000 8233 563f
00000070: 225d 5740 35cf f83e 0994 d33e 5bca 8b3f
00000080: 5612 e22f 8c2b 6a40 411d f63f 171d 0140
00000090: ab05 313f a87c ba3f d319 513c f4ea 9b30
000000a0: d6be bb3e f401 0000 bf43 3640 0595 b340
000000b0: 516d 0740 3d1b 3331 1b7a 3a35 b57f a333
000000c0: 23ed 0e3d dcf9 a240 14c3 2a2f 22fa 7c40
000000d0: 0a53 dd3e 302e 363f 4526 2b3c e6cd 623e
000000e0: c13c a12d bcdb 7a40 d835 f640 d7e0 2633
000000f0: 380f 7c25 1061 2a40 0135 e53c 3044 3a3e
00000100: 556c 1231 7cf6 db3b 508b da3f 18e5 9134
00000110: 73ad 6e3f 6152 ae40 88c5 1131 1208 413f
00000120: 9080 0632 05b0 6e40 c3c2 1840 07c5 d824
00000130: ab11 e63e 30a4 d540 4a15 523f c47f fd2e
00000140: 7f95 863f 76db 5f33 9a7d 3a3b 3283 bc40
00000150: 8e1e 7a40 8e2f dd2f 8f25 4f40 aac3 d63f
00000160: 2817 ac30 5991 5940 03bb 583f e474 8740
00000170: beb9 5440 17b4 da3d fd4c 8911 6b2e 533b
00000180: 5f5f 9c3f 24c7 b632 2b68 e740 4e1e 3233
00000190: 87cd 9f32 4fcd 4240 0abd 513f 7cb7 902f
000001a0: 3fe4 2b3d e682 793f ff08 4a3f a12e aa32
000001b0: 6471 c93f 2d7a ac3d 8cc8 4630 74b3 d340
000001c0: e696 5640 42f8 8c40 1e20 1e40 3944 4c3f
000001d0: 4139 5b41 7804 493d f2d1 8f3f bce1 f126
000001e0: 5965 a73f 215a 1a40 2cb4 d43f e1ce b33f
000001f0: 4441 b540 9096 3940 463e 8730 b10d 2140
00000200: a838 6a3e 8475 cb3a ea53 ba3e e0db 4f22
00000210: 91b3 1433 dbb3 fd19 826b 223e 8bb7 953e
00000220: f37f 5f3f 93cd 9531 b7ff 303b 2920 553b
00000230: 38e9 e33d d9fb 9e2c 2f6e 1730 df91 722e
00000240: 0000 0000 17fc 4d3d d316 6e32 35ad 173f
00000250: 4b9b 4d2f ac24 b23e f62f e93e 3474 cb3d
00000260: 6aeb 6338 3508 ce3e 0000 0000 d024 b03d
00000270: 5643 b03e 092d 4a3d 00f5 2d3d 1ef5 e53d
00000280: e27f b52b 2c91 bf3e f166 4a3e f265 543e
00000290: a06d 913d 4f63 193e 67b9 ab3a 3a3e c62d
000002a0: 0161 183d 810c d223 c6df 953e 3081 133f
000002b0: f210 5e3e 8a94 ae2c d877 532f 591c 5a2f
000002c0: 6398 673b 4c0a 063f 8920 502d 1204 d03e
000002d0: 700b 363d abd4 953d e4f9 7f3a 4e8d b73c
000002e0: 8a6c 7e2c c6c1 cd3e e529 4a3f efec 092f
000002f0: 9e2c db23 c221 8c3e 0e45 2c3b e436 993c
00000300: 701c 462e 1c88 243a 991a 333e 5bd3 e032
00000310: 7710 c43d 1952 0f3f af1d f02e b0b3 9e3d
00000320: c887 5a30 1ad7 c33e 10cf 7a3e 6c29 6423
00000330: 1fcf 3a3d 1953 2f3f c2ca ac3d 0cf6 652d
00000340: 6944 dd3d 8c1a b72f 7f7b 8b39 6d07 1b3f
00000350: a654 cd3e d98b 702e dddc a93e 9678 303e
00000360: b0d5 692e af93 b23e 0189 b13d d046 de3e
00000370: 36b7 ae3e 8eee 263c f401 0000 fd64 9d39
00000380: 17a1 003e ebb3 f52e c509 3e3f c5f9 632f
00000390: dff2 c32f 833a a03e c7f8 ab3d 28a0 182e
000003a0: 44ac 803b ace4 cc3d 48e0 a53d 8d37 732e
000003b0: 50a2 253e 07bc 0d3c 10fb f02d 4cd4 2d3f
000003c0: a574 b03e 315c e73e 955d 813e f5f9 a63d
000003d0: da1b b43f 885f 963b 9e4f ea3d 24c3 6a28
000003e0: bb8b 093e 78e7 7d3e 4f33 2d3e ca7c 133e
000003f0: e7a9 143f fb6b 983e 0405 d72e d577 843e
