assets/section_2/transfer_acrobot_to_cartpole/models/exp1/episode_best/actor.pth (torch, 828098 bytes, 18 tensors)

base.0.weight f4 [256, 6]
0.17936258 -0.07860746 0.09779335 -0.41055954 -0.35323286 -0.054895688 -0.1310415 0.20862995
-0.18901576 0.15365635 -0.3378495 0.27289468 0.12996909 -0.054992504 0.03235838 0.19588305
0.32851124 0.18238734 0.1868735 0.23346916 0.54050183 -0.14807768 -0.081488 0.2326913
0.29245612 -0.38920784 -0.029017901 -0.19021384 0.060745947 0.2271496 -0.3531058 0.14331341
-0.34225827 0.14256984 -0.16242567 -0.15129665 0.23665439 -0.083375454 0.15254474 0.22183053
-0.11128966 0.19425565 -0.3323728 0.043245237 -0.23045962 0.17410181 -0.39086974 0.1134168
0.36149472 0.19229907 0.42281988 0.14001128 -0.033722654 -0.25666654 -0.30293807 0.13042183
0.53152657 0.08280817 -0.13310668 0.3807103 0.20922415 0.39351022 -0.18704426 0.025911734
0.10052794 -0.21859318 -0.2822043 -0.024414062 -0.1806603 0.1691532 0.31038392 0.3433402
0.16881189 0.32541496 0.56347984 -0.12204253 -0.40785253 0.21721977 0.2439133 -0.3439859
0.26204208 0.43547732 0.22784242 -0.3767216 0.30808556 -0.43854427 -0.33084875 -0.10453356
0.20296507 0.008850924 -0.26348284 -0.20444684 0.027640056 0.17388725 -0.05348315 -0.23672022
-0.07314327 -0.19315481 -0.48937324 -0.05419563 0.27253896 0.17836255 0.3058215 -0.071806595
-0.47876483 -0.4106766 -0.29252738 -0.24800307 -0.38995087 -0.41854092 0.25418493 0.31321764
0.29056373 0.10917402 0.123325124 0.24107008 -0.019727802 0.3263059 0.14794269 0.24011026
-0.07427977 0.2820027 -0.5169145 -0.3921571 0.34259325 -0.18944924 0.09339989 0.17032082
0.09205156 -0.45142433 0.28716266 0.18571924 -0.25234917 0.2043765 -0.20388043 0.3291771
0.20440815 -0.20696938 -0.16088606 -0.30917418 -0.59650344 -0.16379395 -0.4225609 0.032380164
0.19580363 -0.13452028 0.7031859 0.24028865 -0.17499614 -0.2629931 0.08166379 0.32132417
-0.35565323 0.027783211 0.2963319 0.014288512 -0.20729479 -0.22579172 0.47165996 0.06189063
0.3672454 -0.043705817 0.38444668 -0.13669807 -0.026051998 0.24945265 -0.25951147 -0.25367814
0.11178218 0.18317251 -0.61091435 -0.34366134 0.22182065 0.3911352 0.0362672 0.09309746
-0.11336185 0.19085026 -0.17523041 -0.11223906 0.2811093 -0.1518181 -0.13804343 -0.45027322
0.18747354 -0.2909672 -0.109332375 0.33214772 0.5091273 0.3920763 0.2626342 -0.21403201
0.27785933 0.28293094 0.09981364 0.31571853 0.29080153 -0.40112314 0.13570186 -0.13890797
0.61984164 0.1365854 -0.06833051 0.08320371 -0.4086172 -0.31762677 -0.35785618 0.013411122
0.3048921 0.0663993 -0.38183734 -0.013266261 -0.43408412 0.036864486 -0.10936527 0.13098344
0.12213013 0.4564932 0.3367496 0.20738055 0.0030519408 0.22048813 -0.20143716 0.28510904
-0.28572044 0.045206852 -0.400566 0.25821355 0.26570976 -0.34331927 0.20162623 0.057700083
0.3462867 -0.18237564 -0.061947282 0.36445603 -0.27917033 0.12052606 0.23306882 -0.39570144
0.16937359 -0.40541893 -0.38665786 -0.08782002 -0.31080678 -0.35669878 0.18757671 -0.042898122
0.14707127 0.03512109 0.27096248 -0.24714506 0.20182465 0.4565196 0.53492737 0.15206991
00000000: d3aa 373e f3fc a0bd e147 c83d dc34 d2be
00000010: f0da b4be 4dda 60bd be2f 06be 17a3 553e
00000020: 598d 41be 1758 1d3e 9cfa acbe dab8 8b3e
00000030: 9e16 053e d23f 61bd 388a 043d 9195 483e
00000040: a032 a83e bfc3 3a3e c45b 3f3e 8a12 6f3e
00000050: 545e 0a3f ada1 17be 2ee3 a6bd a146 6e3e
00000060: cfbc 953e 4046 c7be f3b6 edbc 6bc7 42be
00000070: bed0 783d e899 683e 49ca b4be c0c0 123e
00000080: 7a3c afbe d4fd 113e ea52 26be 82ed 1abe
00000090: 8755 723e c0c0 aabd b034 1c3e 8b27 633e
000000a0: d5eb e3bd f4ea 463e c52c aabe eb21 313d
000000b0: 9bfd 6bbe bf47 323e 1420 c8be 1147 e83d
000000c0: d615 b93e 0cea 443e d97b d83e 1e5f 0f3e
000000d0: c420 0abd cc69 83be b31a 9bbe 4d8d 053e
000000e0: 2012 083f 5497 a93d 1e4d 08be 76ec c23e
000000f0: db3e 563e 2c7a c93e 8888 3fbe d844 d43c
00000100: 98e1 cd3d e4d6 5fbe 157d 90be 0000 c8bc
00000110: 04ff 38be 7f36 2d3e a4ea 9e3e 49ca af3e
00000120: 06dd 2c3e ca9c a63e 3740 103f 6ff1 f9bd
00000130: 0cd2 d0be dc6e 5e3e 68c4 793e eb1e b0be
00000140: 612a 863e e2f6 de3e 864f 693e a7e1 c0be
00000150: 64bd 9d3e e088 e0be 0265 a9be b115 d6bd
00000160: 13d6 4f3e 7703 113c 39e7 86be 835a 51be
00000170: 666d e23c 800f 323e 2611 5bbd c966 72be
00000180: 24cc 95bd 60ca 45be 218f fabe 3dfc 5dbd
00000190: 3a8a 8b3e aca4 363e a394 9c3e 560f 93bd
000001a0: aa20 f5be 3444 d2be 26c6 95be 84f4 7dbe
000001b0: a4a7 c7be ff4a d6be 8724 823e 105e a03e
000001c0: c5c4 943e a196 df3d e291 fc3d 13db 763e
000001d0: 339c a1bc 9111 a73e 4a7e 173e 77df 753e
000001e0: fe1f 98bd a862 903e 8254 04bf d1c8 c8be
000001f0: 6268 af3e fbfe 41be 7148 bf3d 9568 2e3e
00000200: 8785 bc3d 1721 e7be fc06 933e 2f2d 3e3e
00000210: e933 81be 1348 513e 08c6 50be e789 a83e
00000220: 5f50 513e c8ef 53be 51bf 24be 144c 9ebe
00000230: 73b4 18bf 9ab9 27be e759 d8be 10a1 043d
00000240: bf80 483e afbf 09be fe03 343f 3a0e 763e
00000250: 3032 33be 08a7 86be 583f a73d 9a84 a43e
00000260: 2e18 b6be 9e99 e33c d1b8 973e 5d1a 6a3c
00000270: 1645 54be f235 67be 6a7d f13e 0781 7d3d
00000280: 9707 bc3e df04 33bd 32d6 c43e 94fa 0bbe
00000290: 006b d5bc 8470 7f3e b0de 84be 1ae2 81be
000002a0: 0eee e43d 9391 3b3e e264 1cbf 61f4 afbe
000002b0: f424 633e df42 c83e ea8c 143d e2a9 be3d
000002c0: 422a e8bd 406e 433e 9a6f 33be 98dd e5bd
000002d0: 8fed 8f3e 3476 1bbe 425b 0dbe 368a e6be
000002e0: 10f9 3f3e a7f9 94be a7e9 dfbd 440f aa3e
000002f0: 2b56 023f 3abe c83e fd77 863e 352b 5bbe
00000300: 9443 8e3e 53dc 903e 186b cc3d dca5 a13e
00000310: f0e3 943e 0360 cdbe 6ef5 0a3e e43d 0ebe
00000320: f1ad 1e3f 0bdd 0b3e def0 8bbd b566 aa3d
00000330: 4636 d1be fa9f a2be ed38 b7be 53ba 5b3c
00000340: d11a 9c3e 5bfc 873d 2f80 c3be bb5a 59bc
00000350: 4640 debe 37ff 163d e6fa dfbd 8620 063e
00000360: 5d1f fa3d 7ab9 e93e 726a ac3e 915b 543e
00000370: 1203 483b a4c7 613e 8b45 4ebe d0f9 913e
00000380: f349 92be d22a 393d fd16 cdbe 9134 843e
00000390: 1c0b 883e 8bc7 afbe 1b77 4e3e ec56 6c3d
000003a0: 7e4c b13e aec0 3abe 6fbc 7dbd fb99 ba3e
000003b0: 6aef 8ebe 5ed6 f63d 98a9 6e3e 6199 cabe
000003c0: 4570 2d3e 1293 cfbe 05f8 c5be fcda b3bd
000003d0: 1122 9fbe 39a1 b6be 1c14 403e f1b5 2fbd
000003e0: da99 163e 22db 0f3d 98bb 8a3e 9813 7dbe
000003f0: 1fab 4e3e f0bc e93e 00f1 083f 37b8 1b3e

base.0.bias f4 [256]
0.12905192 -0.15585683 -0.17917252 0.0620855 0.35761854 -0.12586664 0.20884128 0.17391595
-0.21368845 -0.011551389 -0.083589695 -0.25773424 0.075322665 0.28500426 0.40359938 0.26204818
-0.07980418 0.20010541 -0.23395668 -0.33952507 0.09247568 0.22166398 0.22978976 0.30255556
0.2172919 0.15629229 0.10195526 0.121097066 0.37969303 -0.3453138 0.24542814 0.4008283
-0.0014952105 0.167938 0.2568402 -0.33990338 -0.17542541 -0.08275549 -0.17856658 0.44741622
0.32630014 -0.120462365 0.07897519 -0.108170755 0.43457666 0.07425161 0.11888809 -0.01854188
0.16934234 0.08821594 -0.2872401 0.0013593666 -0.16825223 -0.23793763 -0.16849236 0.29281762
0.41462058 0.33825395 -0.2081926 -0.24644853 -0.023480115 0.41984865 0.08914485 0.17524856
0.08740155 0.27234143 -0.2660507 -0.3441079 0.35947785 -0.23267221 0.065730505 0.19868454
-0.28756917 0.008612809 -0.31281933 0.1577839 -0.2265319 -0.08027229 0.3896201 0.2844948
0.05868709 -0.004159994 -0.37030968 0.17808013 -0.1704392 0.41950998 0.41332176 0.18383835
0.2148091 0.44786248 0.14246449 -0.029075736 -0.10752627 0.17082548 -0.2746813 -0.3985636
0.24253365 0.20431447 -0.043807853 0.19666573 0.2566832 -0.035248343 0.017848238 0.42770216
0.12342 0.38476902 0.10464012 -0.044479884 0.30479237 0.3731314 -0.30053425 -0.3123651
-0.051956933 0.2951495 0.21241519 -0.10703863 -0.3281683 0.35253078 -0.20639071 -0.029258307
0.34342703 -0.34834325 -0.3137741 -0.18470955 -0.35984722 0.2495517 0.1108039 -0.14637406
0.45062295 -0.28599158 0.052268535 -0.03138768 -0.35346186 -0.215711 0.03662998 0.2972562
0.0750331 0.30211514 -0.008490474 0.1878645 0.0042874133 -0.17584552 0.40941346 0.115415245
-0.32736728 0.25652635 0.1789185 0.00588214 0.05035916 0.3677137 0.13767934 0.10664681
0.24005583 -0.32860577 -0.10412975 0.33623552 0.14737265 0.41175413 -0.22436984 -0.29535514
-0.0589898 -0.109441735 0.16509144 -0.3718495 0.32043347 -0.32840765 0.13392016 -0.17872038
-0.20158595 0.12107638 0.21659286 0.0054888953 -0.23048735 -0.40544924 0.25783214 0.06853123
0.123536475 0.33068475 -0.083950184 0.21076417 0.16413118 -0.34021756 -0.35005 0.20830967
-0.043010708 0.09987 -0.21464965 0.24136253 0.4267479 0.3988512 0.24382956 -0.18728633
-0.35211277 -0.10353772 0.058282994 0.37296164 -0.34693253 0.12030204 -0.33532068 -0.17812225
0.04855681 0.094743215 -0.29480025 0.29003426 0.17011802 -0.27757245 -0.08023789 0.4309451
-0.120109886 -0.25665626 -0.08150398 0.04572547 -0.24079067 0.10529563 0.047047812 0.4226363
0.16525194 0.33559453 0.42924327 -0.36059862 -0.050021537 0.24470174 -0.1963671 0.07742866
0.4176305 -0.27934074 0.3693367 -0.11737639 -0.26752472 0.39383104 -0.24157465 0.33756328
0.23944092 -0.29854393 -0.20819044 -0.15654229 -0.15597346 0.2631771 0.07219083 -0.03967297
-0.2690231 0.25398007 -0.33413625 0.31071553 -0.20754018 0.25452143 -0.09517326 -0.12299163
-0.28139344 -0.15042341 0.3046968 -0.25200272 -0.3925215 0.03715475 0.021152383 -0.024690056
00000000: 3026 043e ef98 1fbe 0079 37be 5e4d 7e3d
00000010: c719 b73e 2fe3 00be 7dda 553e 0617 323e
00000020: 25d1 5abe 0942 3dbc 1331 abbd bef5 83be
00000030: c542 9a3d 14ec 913e 94a4 ce3e 2e2b 863e
00000040: 6070 a3bd 6fe8 4c3e 5792 6fbe 3bd6 adbe
00000050: e463 bd3d e2fb 623e 024e 6b3e 90e8 9a3e
00000060: c581 5e3e 160b 203e ebcd d03d bd01 f83d
00000070: 2067 c23e f8cc b0be 8451 7b3e 5e39 cd3e
00000080: f0fa c3ba f0f7 2b3e 8f80 833e d107 aebe
00000090: b8a2 33be b67b a9bd 28da 36be bd13 e53e
000000a0: d010 a73e f9b4 f6bd bfbd a13d a188 ddbd
000000b0: d580 de3e 3a11 983d 997b f33d 24e5 97bc
000000c0: 1468 2d3e 8faa b43d 2211 93be c62c b23a
000000d0: 504a 2cbe eca5 73be 4389 2cbe 31ec 953e
000000e0: 2649 d43e 9f2f ad3e 7130 55be 015d 7cbe
000000f0: 5f59 c0bc 67f6 d63e 9391 b63d 5c74 333e
00000100: 95ff b23d 5670 8b3e cc37 88be e92e b0be
00000110: 7b0d b83e a041 6ebe b79d 863d f673 4b3e
00000120: 443c 93be bd1c 0d3c db29 a0be 1a92 213e
00000130: faf7 67be cc65 a4bd 497c c73e 4da9 913e
00000140: e061 703d 8f50 88bb 3b99 bdbe a35a 363e
00000150: 9d87 2ebe 03ca d63e e99e d33e 1f40 3c3e
00000160: ebf6 5b3e 3b4e e53e 36e2 113e 3d30 eebc
00000170: bc36 dcbd e0ec 2e3e 07a3 8cbe 8710 ccbe
00000180: be5a 783e d037 513e dd6f 33bd be62 493e
00000190: fb6b 833e 9160 10bd 7836 923c c7fb da3e
000001a0: a0c3 fc3d 7200 c53e 8f4d d63d 8a30 36bd
000001b0: bf0d 9c3e 140b bf3e a0df 99be 52ee 9fbe
000001c0: cbd0 54bd d61d 973e 5e83 593e 1237 dbbd
000001d0: ad05 a8be ea7e b43e 1658 53be 1eaf efbc
000001e0: abd5 af3e 0c5a b2be 00a7 a0be 8024 3dbe
000001f0: e53d b8be 7b8a 7f3e 28ed e23d 15e3 15be
00000200: 0db8 e63e 7d6d 92be 8817 563d 5e90 00bd
00000210: f4f8 b4be 58e3 5cbe 5109 163d f731 983e
00000220: f4aa 993d d6ae 9a3e a11b 0bbc 8d5f 403e
00000230: 6e7d 8c3b d910 34be a49e d13e d45e ec3d
00000240: af9c a7be 6c57 833e 6936 373e f7be c03b
00000250: 6845 4e3d f844 bc3e d0fb 0c3e a569 da3d
00000260: 32d1 753e 043f a8be fa41 d5bd 1027 ac3e
00000270: dbe8 163e 70d1 d23e 35c1 65be ca38 97be
00000280: 4a9f 71bd fd22 e0bd bb0d 293e 0f63 bebe
00000290: db0f a43e 0c25 a8be 5e22 093e 7a02 37be
000002a0: 8c6c 4ebe e5f6 f73d 85ca 5d3e 31dc b33b
000002b0: e004 6cbe 0b97 cfbe 9302 843e 1a5a 8c3d
000002c0: b100 fd3d 834f a93e 13ee abbd 90d2 573e
000002d0: 0112 283e ff30 aebe c139 b3be 214f 553e
000002e0: ff2b 30bd a488 cc3d 1ecd 5bbe bd27 773e
000002f0: b37e da3e 3936 cc3e 75ae 793e fdc7 3fbe
00000300: 2048 b4be 960b d4bd 26ba 6e3d d4f4 be3e
00000310: 24a1 b1be ea60 f63d 27af abbe ae65 36be
00000320: 81e3 463d bb08 c23d 0ff0 96be 5f7f 943e
00000330: 6b33 2e3e fa1d 8ebe c353 a4bd d6a4 dc3e
00000340: 2cfc f5bd 7368 83be 8feb a6bd a14a 3b3d
00000350: d491 76be 3ca5 d73d 35b5 403d c963 d83e
00000360: ce37 293e 0cd3 ab3e c6c5 db3e 62a0 b8be
00000370: 62e3 4cbd 1893 7a3e 7514 49be eb92 9e3d
00000380: aad3 d53e c005 8fbe b319 bd3e 0863 f0bd
00000390: 00f9 88be 39a4 c93e 585f 77be 18d5 ac3e
000003a0: 0030 753e c0da 98be e02f 55be 9f4c 20be
000003b0: 82b7 1fbe 26bf 863e c9d8 933d 2080 22bd
000003c0: 65bd 89be ad09 823e e813 abbe 1b16 9f3e
000003d0: 6a85 54be a250 823e 33ea c2bd 09e3 fbbd
000003e0: cd12 90be 9808 1abe 3801 9c3e 8006 81be
000003f0: 94f8 c8be 942f 183d c347 ad3c cd42 cabc

base.2.weight f4 [256, 256]
-0.033278126 0.046009645 -0.05186642 -0.06539652 0.01929335 0.034107577 -0.037096407 -0.029956866
-0.04383675 0.0051280484 -0.039847113 0.022919735 -0.03932165 -0.047612935 0.054704733 -0.054599375
0.015035195 0.026330179 -0.04551493 -0.023230305 -0.035389252 -0.0456139 -0.022379478 -0.03208562
0.04325911 0.018945277 -0.057223246 0.023688901 -0.07413178 0.014058891 -0.058528118 -0.045481008
0.0018109432 -0.06488555 -0.070701376 0.030330146 0.0051108594 -0.044755418 0.0069668 0.030046543
0.04823268 0.04627338 0.0014290187 0.022804892 0.0063072857 0.042542126 -0.010755822 -0.040529016
0.05647353 0.04209787 0.048110474 0.021742491 -0.01165818 -0.026060745 0.0060566147 -0.015297736
-0.0072892685 0.024776781 0.038954902 -0.027283045 -0.019090876 0.028692989 -0.02370932 0.023445664
0.014355045 -0.049495265 -0.055253875 -0.021666953 0.032251514 -0.0058205435 -0.031869896 0.00945648
-0.044990078 0.03015153 0.044533007 0.02804623 -0.020549405 -0.030470297 0.001299852 -0.050694674
0.0099620875 -0.007848949 -0.053035244 -0.019057382 -0.005234381 0.008295741 -0.072545774 0.034350272
-0.05808456 0.032411642 -0.065248795 0.038730863 -0.0136992615 -0.009037162 0.06221181 0.028910311
-0.08484724 -0.00053957757 -0.017490985 0.0114833135 -0.012016347 -0.07443456 -0.040418673 -0.022942947
0.0016249015 0.021400621 -0.0077434857 0.050357006 0.02374109 -0.000108361695 0.04623833 0.057337176
-0.033643737 0.003939329 0.04002117 -0.033967014 0.009545078 0.025004411 -0.008936592 0.03822501
-0.059621084 0.031942587 0.061329775 -0.06519185 -0.024425572 0.00066174415 -0.021575958 0.013561335
-0.07268643 0.002816242 -0.020640116 -0.03657767 -0.05402187 0.023276683 0.0116944 -0.015261655
-0.041090693 0.021364981 0.048341073 0.022946695 -0.0007192374 -0.043771785 -0.017948184 -0.06337794
0.020317798 -0.03113527 0.027959596 -0.02792564 -0.02085051 0.0008981803 -0.070977636 -0.0152092725
0.016841117 0.054163784 -0.054582573 0.05582968 0.033774182 -0.02803611 0.041845508 0.012067437
0.028965246 0.018548312 0.044574454 0.016732866 -0.033483524 -0.00665278 -0.05507536 0.062101983
0.07848345 -0.07893304 -0.00883009 -0.019782241 0.04628776 0.006691222 -0.03240817 0.05929939
-0.004868782 -0.0108905975 0.034331992 0.04449647 -0.0005061317 0.0022248446 0.06858234 -0.0694341
0.05840859 -0.07142726 0.020766612 -0.07060874 -0.027465552 -0.028362563 -0.056851666 0.0654483
0.006328692 0.060660668 -0.036820576 0.02270051 -0.03831155 0.015093962 -0.042578448 0.029926421
0.019589419 -0.026243238 -0.042429447 -0.04865821 -0.07400998 -0.0055686436 -0.06402907 0.038887158
0.017852105 0.03387805 0.025859954 -0.043476008 -0.048427425 -0.031560216 -0.0063658818 0.042737722
-0.014394809 -0.019480044 0.012352916 -0.04374578 -0.007110934 0.048040397 -0.07230155 -0.009934017
-0.033253726 0.025638096 -0.0050318213 -0.019090073 -0.008028518 -0.060571976 -0.06495747 -0.014754864
-0.053490404 0.05756081 0.05170553 -0.029371224 -0.020674605 -0.07384283 -0.04974773 0.017167214
0.0018150257 0.029400853 -0.019065175 -0.011967511 -0.007350585 0.005980689 0.057219062 -0.07310536
-0.046020463 0.056391563 0.040046714 -0.013987329 -0.025637113 -0.038284652 -0.055690885 -0.0153868
00000000: a54e 08bd 9c74 3c3d e271 54bd 9cee 85bd
00000010: 160d 9e3c 63b4 0b3d 67f2 17bd 1a68 f5bc
00000020: 2a8e 33bd 3009 a83b ba36 23bd 2bc2 bb3c
00000030: bd0f 21bd c805 43bd 1212 603d 98a3 5fbd
00000040: 2e56 763c 63b2 d73c dd6d 3abd 7b4d bebc
00000050: 52f4 10bd a4d5 3abd 2b55 b7bc 366c 03bd
00000060: 7730 313d 2033 9b3c ec62 6abd 3a0f c23c
00000070: 67d2 97bd 4357 663c 2ebb 6fbd 4b4a 3abd
00000080: 2c5d ed3a b7e2 84bd e2cb 90bd ed76 f83c
00000090: ff78 a73b 7551 37bd c149 e43b 2b24 f63c
000000a0: a18f 453d 2889 3d3d e94d bb3a 53d1 ba3c
000000b0: 59ad ce3b a740 2e3d 3039 30bc c101 26bd
000000c0: ca50 673d d16e 2c3d 7d0f 453d 4f1d b23c
000000d0: f301 3fbc 587d d5bc 9176 c63b 5ba3 7abc
000000e0: d1da eebb adf8 ca3c 2d8f 1f3d b180 dfbc
000000f0: 7864 9cbc 8f0d eb3c 0c3a c2bc 1f11 c03c
00000100: 6c31 6b3c 8cbb 4abd e351 62bd e57e b1bc
00000110: 2a1a 043d 42ba bebb 028a 02bd 5aef 1a3c
00000120: 8447 38bd 5700 f73c 3e68 363d 35c1 e53c
00000130: 3a57 a8bc d89c f9bc cc5f aa3a 38a5 4fbd
00000140: 0638 233c e198 00bc 7c3b 59bd 3a1e 9cbc
00000150: 2c85 abbb dcea 073c e192 94bd dfb2 0c3d
00000160: 13ea 6dbd 12c2 043d 29a1 85bd 41a4 1e3d
00000170: de72 60bc 9b10 14bc d0d1 7e3d 51d5 ec3c
00000180: 64c4 adbd 7072 0dba 4149 8fbc 8224 3c3c
00000190: 36e0 44bc 2671 98bd 0d8e 25bd d9f2 bbbc
000001a0: a6fa d43a 5b50 af3c 11bd fdbb 2643 4e3d
000001b0: ad7c c23c 3e40 e3b8 6764 3d3d 63da 6a3d
000001c0: 04ce 09bd 7d15 813b 3ded 233d ff20 0bbd
000001d0: f562 1c3c 0dd6 cc3c c96a 12bc d491 1c3d
000001e0: 3d35 74bd 3bd6 023d ee34 7b3d 4e83 85bd
000001f0: 2318 c8bc e678 2d3a 10c0 b0bc 5d30 5e3c
00000200: 9fdc 94bd b390 383b 7615 a9bc 78d2 15bd
00000210: 0946 5dbd beae be3c de99 3f3c 050c 7abc
00000220: b74e 28bd 9d05 af3c 4a01 463d b5fa bb3c
00000230: 348b 3cba 0b4a 33bd 1208 93bc 4bcc 81bd
00000240: 8371 a63c 650f ffbc 860b e53c 50c4 e4bc
00000250: b0ce aabc dc73 6b3a b95c 91bd 5030 79bc
00000260: 62f6 893c d8da 5d3d fa91 5fbd aaad 643d
00000270: cc56 0a3d fcab e5bc 3266 2b3d 80b6 453c
00000280: 8648 ed3c a1f2 973c b493 363d 5d13 893c
00000290: 0526 09bd 90ff d9bb b396 61bd a65e 7e3d
000002a0: eebb a03d a5a7 a1bd 15ac 10bc 5e0e a2bc
000002b0: 3c98 3d3d 0a42 db3b 6ebe 04bd ebe3 723d
000002c0: 4e8a 9fbb 7a6e 32bc b49f 0c3d ee41 363d
000002d0: ecad 04ba b3ce 113b e674 8c3d 7733 8ebd
000002e0: d83d 6f3d 7548 92bd be1e aa3c 519b 90bd
000002f0: 70ff e0bc 9b58 e8bc 4bdd 68bd c209 863d
00000300: eb60 cf3b 5277 783d 2cd1 16bd 6cf6 b93c
00000310: 92ec 1cbd aa4c 773c bd66 2ebd 4128 f53c
00000320: fd79 a03c 0ffc d6bc 80ca 2dbd d54d 47bd
00000330: 8b92 97bd 2b79 b6bb ac21 83bd 2448 1f3d
00000340: 943e 923c b6c3 0a3d 41d8 d33c e613 32bd
00000350: d65b 46bd 4945 01bd e398 d0bb c00d 2f3d
00000360: 34d8 6bbc 9d94 9fbc e363 4a3c c62e 33bd
00000370: d602 e9bb 02c6 443d d612 94bd 4ac2 22bc
00000380: 0f35 08bd fc06 d23c fae1 a4bb c962 9cbc
00000390: 0c8a 03bc 521a 78bd 6c08 85bd 63be 71bc
000003a0: c118 5bbd e2c4 6b3d 2ec9 533d ec9b f0bc
000003b0: ca5d a9bc e93a 97bd 47c4 4bbd 42a2 8c3c
000003c0: 28e6 ed3a 0fda f03c 922e 9cbc 6113 44bc
000003d0: 2ddd f0bb a8f9 c33b 895e 6a3d 43b8 95bd
000003e0: f47f 3cbd d7fa 663d 0608 243d 1c2b 65bc
000003f0: ec04 d2bc 5ed0 1cbd 201c 64bd eb18 7cbc

base.2.bias f4 [256]
0.033411372 -0.011515787 0.029414162 0.07851974 0.009568776 0.0011698093 -0.026295401 -0.045086082
-0.04510883 -0.012873773 0.006918679 -0.051174138 0.016998986 0.04098846 -0.020380069 -0.029458206
-0.01123018 0.0630105 0.0052327123 0.0119256675 -0.033161025 0.070650466 -0.022223927 0.010767795
-0.077914916 0.022283254 0.0060929973 0.06278226 0.008909896 0.05149626 -0.03426904 0.052747764
0.0122678885 0.04092063 0.019012706 0.066072755 -0.061007474 -0.074109316 -0.00990175 0.051821087
0.021560056 0.011261208 0.07967257 0.035115913 0.08131877 -0.0020366798 0.054230057 -0.014676329
0.0786163 0.011177599 0.0030275676 -0.03544503 -0.058647614 0.086695984 0.029325785 0.06960265
-0.05662014 -0.019767286 0.07469425 -0.0416714 0.031180758 0.06639188 -0.0034819823 -0.026027527
0.06333482 -0.02712866 0.027519112 0.0046523763 -0.013277494 -0.01675695 0.030139998 0.06493599
0.021479046 0.07527553 0.05466749 0.054175965 0.010880126 -0.03371546 0.07096659 0.009816629
0.0022195422 0.018219154 -0.04992723 0.030315837 0.013381342 0.033206236 0.065533035 0.046083137
-0.012040261 -0.018868882 -0.017338905 0.065304995 0.019966392 0.018228745 -0.0037555003 -0.015562293
-0.02914593 0.03435852 0.05872573 -0.01036164 0.07868919 0.028504053 0.06198312 0.025500398
0.0769321 -0.010011352 -0.025673537 -0.0130338045 0.011421579 -0.061295528 0.04460962 -0.03049329
-0.039510027 -0.0066518807 -0.0077340915 -0.0328567 0.0791808 -0.07012773 -0.05979829 0.0002741189
-0.003816514 -0.046342343 0.014884199 -0.021846518 0.039746124 0.047931828 0.048598085 -0.04105652
-0.010333621 0.020988336 0.016021881 -0.03835939 -0.06309483 0.009364309 -0.02765696 0.049192645
-0.016948247 -0.01497507 -0.052008357 -0.02162271 0.08553852 0.08345624 -0.0016402793 0.0060592596
-0.043179445 -0.051866725 0.0062128655 0.011748358 0.06477109 -0.0018282385 -0.012314692 -0.016954547
0.02836862 -0.028981373 0.0032473383 -0.038049076 0.05556102 -0.032414816 -0.024127178 0.0015847856
0.020513305 0.09031457 -0.041888814 0.0067493753 0.015000535 -0.00761886 0.044300444 0.02565502
-0.0034013132 0.08649833 0.05037445 0.042854343 -0.023896461 -0.010519489 0.013128281 0.06829808
-0.047073796 0.040093 0.029465074 0.041319557 0.0885646 0.038439583 0.029836668 0.03891315
0.028795851 -0.053848736 0.052290674 0.0366335 0.009631954 -0.05172098 -0.06566962 -0.023163317
0.02146837 0.009474282 -0.011608276 0.029820697 0.04326239 -0.018687326 -0.00034628215 0.05113362
-0.014890284 -0.0059803296 -0.001172028 0.005010405 -0.0039497386 0.064058155 0.04198101 -0.04427822
0.07670221 0.055718258 0.06978247 -0.009148117 0.03779159 -0.039925545 0.08466526 0.09008188
0.01588261 0.038377922 0.01309853 0.046027884 0.0016669079 0.032722488 0.01810792 0.0057426696
0.009985168 0.025754968 0.021062281 0.084189564 0.09021133 0.0550639 0.018660424 0.052983485
0.08483219 -0.059552826 0.010140642 -0.03809126 -0.017748525 0.057912007 0.06775061 -0.044223834
0.055316214 -0.0472329 0.05673325 -0.0068973633 0.04117272 0.036528606 0.082832254 0.058259387
0.05975279 -0.028637365 -0.047469366 0.060307093 0.07168621 -0.06690773 0.098123096 0.032255523
00000000: 5dda 083d b6ac 3cbc f8f5 f03c f5ce a03d
00000010: 5bc6 1c3c 4954 993a 7469 d7bc 2fac 38bd
00000020: 09c4 38bd 85ec 52bc 16b6 e23b f99b 51bd
00000030: 7541 8b3c 84e3 273d 1af4 a6bc 5652 f1bc
00000040: cafe 37bc a60b 813d 2c77 ab3b e063 433c
00000050: dbd3 07bd 31b1 903d f40e b6bc 686b 303c
00000060: db91 9fbd 5f8b b63c c4a7 c73b fc93 803d
00000070: d0fa 113c beed 523d b15d 0cbd 0a0e 583d
00000080: 41ff 483c 649c 273d 89c0 9b3c 2751 873d
00000090: f9e2 79bd a0c6 97bd f33a 22bc 5942 543d
000000a0: b79e b03c ee80 383c 5f2b a33d b4d5 0f3d
000000b0: 758a a63d d179 05bb 5620 5e3d fc74 70bc
000000c0: 9501 a13d 4022 373c 286a 463b cf2e 11bd
000000d0: 7b38 70bd aa8d b13d a13c f03c d68b 8e3d
000000e0: 85ea 67bd 01ef a1bc 4df9 983d a1af 2abd
000000f0: ca6e ff3c 77f8 873d f831 64bb ae37 d5bc
00000100: b0b5 813d ec3c debc c36f e13c f672 983b
00000110: d989 59bc df45 89bc 28e8 f63c 29fd 843d
00000120: d3f4 af3c 0f2a 9a3d 05eb 5f3d 9ee7 5d3d
00000130: 8e42 323c 3919 0abd ee56 913d edd5 203c
00000140: bd75 113b 5640 953c 7f80 4cbd eb58 f83c
00000150: 6b3d 5b3c 4303 083d 2f36 863d acc1 3c3d
00000160: 8444 45bc ea92 9abc 520a 8ebc a0be 853d
00000170: 8f90 a33c 7354 953c d71e 76bb fdf8 7ebc
00000180: 72c3 eebc 85bb 0c3d 648a 703d dec3 29bc
00000190: cc27 a13d 5581 e93c 03e2 7d3d 36e6 d03c
000001a0: 948e 9d3d a706 24bc 4f51 d2bc bd8b 55bc
000001b0: 9321 3b3c 0511 7bbd 94b8 363d 10cd f9bc
000001c0: 44d5 21bd 05f8 d9bb 436e fdbb bf94 06bd
000001d0: 8b29 a23d 219f 8fbd 0def 74bd 9eb7 8f39
000001e0: 7b1e 7abb 78d1 3dbd dbdc 733c 78f7 b2bc
000001f0: d5cc 223d 2a54 443d c90e 473d e22a 28bd
00000200: 594e 29bc bbef ab3c 5240 833c bc1e 1dbd
00000210: dd37 81bd c26c 193c d990 e2bc 3a7e 493d
00000220: 0dd7 8abc ff59 75bc b706 55bd 1c22 b1bc
00000230: d22e af3d 1beb aa3d a4fe d6ba c18c c63b
00000240: eedc 30bd 3472 54bd 4b95 cb3b 2f7c 403c
00000250: b5a6 843d 81a1 efba 90c3 49bc 43e4 8abc
00000260: 4f65 e83c 586a edbc 4cd1 543b 59d9 1bbd
00000270: f493 633d 66c5 04bd 5ca6 c5bc 95b8 cf3a
00000280: 850b a83c d8f6 b83d 9b93 2bbd dd29 dd3b
00000290: cec4 753c a1a7 f9bb 6274 353d 7a2a d23c
000002a0: 91e8 5ebb 0926 b13d 7055 4e3d 0988 2f3d
000002b0: 83c2 c3bc ef59 2cbc 0018 573c dddf 8b3d
000002c0: 74d0 40bd 8f38 243d bd60 f13c b23e 293d
000002d0: 5b61 b53d d372 1d3d 076c f43c 6563 1f3d
000002e0: 47e5 eb3c 7e90 5cbd bf2e 563d 020d 163d
000002f0: 58cf 1d3c 61d9 53bd cb7d 86bd ffc0 bdbc
00000300: 6fde af3c 053a 1b3c a330 3ebc 894a f43c
00000310: e733 313d 2a16 99bc 348d b5b9 7d71 513d
00000320: 61f6 73bc a4f6 c3bb bc9e 99ba 532e a43b
00000330: cf6c 81bb ec30 833d 48f4 2b3d 145d 35bd
00000340: 0c16 9d3d d438 643d 1dea 8e3d fce1 15bc
00000350: 5bcb 1a3d f888 23bd fb64 ad3d d97c b83d
00000360: 3f1c 823c 2b32 1d3d 379b 563c bc87 3c3d
00000370: 267c da3a 0408 063d 1057 943c 012d bc3b
00000380: d598 233c 15fc d23c ce8a ac3c 946b ac3d
00000390: b8c0 b83d af8a 613d bfdd 983c 3605 593d
000003a0: 80bc ad3d aaed 73bd ef24 263c 9505 1cbd
000003b0: 5b65 91bc 2435 6d3d d5c0 8a3d 0d24 35bd
000003c0: 4193 623d 4977 41bd 2061 683d 4703 e2bb
000003d0: baa4 283d 059f 153d f5a3 a93d 65a1 6e3d
000003e0: 57bf 743d e898 eabc 3d6f 42bd 9204 773d
000003f0: 38d0 923d ec06 89bd c3f4 c83d 5e1e 043d

base.4.weight f4 [3, 256]
0.08196647 0.010023826 0.124939434 0.070321225 -0.11245859 -0.10553651 0.13978937 0.11631437
-0.10990703 0.110856324 0.053590633 -0.10179715 0.04308406 0.038861427 0.042268474 0.06753548
-0.104566395 -0.07125787 0.12750241 0.023799699 0.011155039 -0.10883505 -0.013960372 -0.048060853
0.023700751 -0.13789257 -0.098837286 -0.076761015 0.0026277932 -0.1310834 -0.022306254 -0.021335406
0.13670303 0.1362737 -0.054360498 -0.07407954 0.009505623 0.07303895 0.014866392 0.10633611
0.088517755 0.055203415 -0.0690922 -0.103580244 0.14446281 -0.07481748 0.06818287 0.100332834
-0.113574915 -0.025157666 -0.02361244 0.05976118 -0.04461675 -0.03296938 -0.028295545 -0.09071106
-0.021099208 -0.012059705 0.12245955 -0.13237408 0.122065075 0.089539446 0.09722159 -0.09928167
0.060969118 0.06678837 0.07813207 0.04274324 -0.11843797 0.030642623 0.09426362 0.004923404
0.061688542 -0.08806913 0.06692001 0.029032893 -0.070615456 0.024206154 0.0749636 0.08209125
-0.1215655 -0.10731134 0.061896477 0.043707293 0.09730475 -0.116090685 0.08404575 0.07420371
-0.05225065 0.10726309 -0.107643686 0.041828535 0.09932739 0.054703657 0.072386146 -0.07806656
0.0014468292 -0.11870535 -0.0022003427 0.06919717 0.08634107 0.0791984 -0.04960582 0.14111519
0.08918923 0.087063715 0.0038899542 0.040085603 -0.09212715 -0.0013679956 0.0881015 0.03588745
0.13196255 -0.08828439 0.13948457 -0.09086061 0.13933976 -0.03183176 0.025646588 -0.0017397708
0.016802795 0.037797786 -0.06187343 -0.11815336 0.14512122 0.071606494 0.05790883 0.021195443
-0.032464586 -0.10688027 -0.07678861 0.08242211 -0.058789283 0.11359823 -0.12857305 -0.08547041
0.06440393 -0.020360382 -0.08256572 0.13147631 0.069485374 0.10607106 0.028408831 0.09139078
-0.02431642 -0.0757902 -0.1361872 0.1188978 -0.11167419 -0.100468434 -0.040478773 -0.09306849
0.071392246 -0.05837288 0.017054066 -0.00461158 0.12953596 -0.03972068 0.026006324 -0.018785775
-0.04341647 0.07360195 -0.12149662 -0.025422066 -0.06989592 0.114446834 -0.094898365 0.06743091
0.12101133 0.021925017 -0.055118363 0.1268716 -0.057439435 0.06573941 -0.08384238 0.07307978
-0.12556016 -0.09674206 -0.14379616 -0.00060053373 0.07168754 -0.016715597 0.1390172 -0.06368286
0.07071154 -0.05351473 0.1091398 -0.11307581 -0.11761548 0.09286843 0.06860358 -0.13548912
0.14543167 -0.07069368 -0.07366413 0.08963002 -0.14214677 0.049299747 0.09359567 -0.024165934
0.05883204 0.10871595 0.008057287 -0.042231005 -0.035391103 0.13097917 0.10045994 -0.104206875
0.086524025 0.06031649 -0.08037751 -0.068683244 -0.09602779 -0.1311084 0.0045344587 0.058169987
0.08474957 0.13826653 -0.0834396 0.07325612 0.038671967 0.13213627 -0.07107331 0.08890415
-0.06797126 0.08902738 0.0778561 0.12900884 0.08720425 0.014333687 0.080050014 0.15875696
0.05707507 -0.039827105 0.12486874 0.12092286 0.11248658 0.14307202 -0.053735554 0.113963895
0.12308822 -0.10865193 0.14875706 -0.02968055 -0.028908553 -0.036388833 -0.0149233 0.11210102
-0.0932066 0.043829795 -0.120379046 -0.10880817 0.055467345 -0.028335037 0.0067594373 0.1011491
00000000: 09de a73d f93a 243c 3fe0 ff3d 9304 903d
00000010: b050 e6bd 8723 d8bd f224 0f3e 3a36 ee3d
00000020: f016 e1bd a408 e33d da81 5b3d 067b d0bd
00000030: e978 303d 292d 1f3d b521 2d3d 0b50 8a3d
00000040: e826 d6bd a5ef 91bd fe8f 023e 96f7 c23c
00000050: a0c3 363c e9e4 debd 0bba 64bc 75db 44bd
00000060: 1428 c23c b633 0dbe 346b cabd e134 9dbd
00000070: 0e37 2c3b ba3a 06be 9bbb b6bc 97c7 aebc
00000080: e1fb 0b3e 558b 0b3e 1da9 5ebd 04b7 97bd
00000090: 79bd 1b3c 7295 953d 2b92 733c bfc6 d93d
000000a0: cc48 b53d fa1c 623d 3680 8dbd e121 d4bd
000000b0: 0fee 133e e839 99bd 76a3 8b3d 4d7b cd3d
000000c0: f799 e8bd 7317 cebc e06e c1bc 24c8 743d
000000d0: 0ec0 36bd e70a 07bd 0fcc e7bc b8c6 b9bd
000000e0: 3fd8 acbc 1296 45bc 13cc fa3d 128d 07be
000000f0: 41fd f93d 7560 b73d 1d1c c73d 3054 cbbd
00000100: c1ba 793d 57c8 883d b503 a03d 8913 2f3d
00000110: 9b8f f2bd 3d06 fb3c 490d c13d 8254 a13b
00000120: 20ad 7c3d 975d b4bd 5c0d 893d 64d6 ed3c
00000130: d69e 90bd fc4b c63c 8486 993d 751f a83d
00000140: 55f7 f8bd 0cc6 dbbd 2987 7d3d 6b06 333d
00000150: b647 c73d f4c0 edbd 2e20 ac3d 1df8 973d
00000160: c704 56bd c0ac db3d 4b74 dcbd 6654 2b3d
00000170: 296c cb3d f110 603d 303f 943d 5ce1 9fbd
00000180: 88a3 bd3a ca1b f3bd a033 10bb 3fb7 8d3d
00000190: 96d3 b03d c532 a23d 792f 4bbd 8080 103e
000001a0: d8a8 b63d 764e b23d 9aee 7e3b cd30 243d
000001b0: 29ad bcbd 514e b3ba 8f6e b43d b8fe 123d
000001c0: 3121 073e 72ce b4bd 0bd5 0e3e 2115 babd
000001d0: 15af 0e3e 0562 02bd cb18 d23c 0509 e4ba
000001e0: 04a6 893c dad1 1a3d fe6e 7dbd 64fa f1bd
000001f0: a89a 143e 6da6 923d cf31 6d3d 11a2 ad3c
00000200: 96f9 04bd 0be4 dabd 5943 9dbd eccc a83d
00000210: 08cd 70bd 30a6 e83d a7a8 03be 1c0b afbd
00000220: 35e6 833d d1ca a6bc 3718 a9bd baa1 063e
00000230: 594e 8e3d c93b d93d a3b9 e83c 172b bb3d
00000240: 3b33 c7bc e437 9bbd a874 0bbe b180 f33d
00000250: 70b5 e4bd 65c2 cdbd 12cd 25bd b19a bebd
00000260: 1936 923d 6718 6fbd f8b4 8b3c bd1c 97bb
00000270: 13a5 043e 27b2 22bd 370b d53c a0e4 99bc
00000280: 78d5 31bd 9fbc 963d 38d3 f8bd f041 d0bc
00000290: 9825 8fbd 1a63 ea3d 135a c2bd 3819 8a3d
000002a0: cad4 f73d 189c b33c cbc3 61bd a1ea 013e
000002b0: 9d45 6bbd 62a2 863d 8eb5 abbd daaa 953d
000002c0: d892 00be b320 c6bd 4d3f 13be 236d 1dba
000002d0: ebd0 923d 26ef 88bc 865a 0e3e 296c 82bd
000002e0: 36d1 903d 4332 5bbd b084 df3d 4a94 e7bd
000002f0: 63e0 f0bd ce31 be3d 0980 8c3d a9bd 0abe
00000300: 0aec 143e d9c7 90bd 38dd 96bd f28f b73d
00000310: ec8e 11be 88ee 493d 16af bf3d a3f7 c5bc
00000320: ddf9 703d 78a6 de3d b602 043c 6bfa 2cbd
00000330: 43f6 10bd 671f 063e f1bd cd3d 6a6a d5bd
00000340: 8233 b13d 6c0e 773d f79c a4bd cda9 8cbd
00000350: 38aa c4bd 4841 06be cc95 943b a743 6e3d
00000360: 2f91 ad3d be95 0d3e 62e2 aabd 4e07 963d
00000370: 7f66 1e3d bb4e 073e e28e 91bd 6113 b63d
00000380: 8434 8bbd fd53 b63d 0573 9f3d e51a 043e
00000390: 2498 b23d d7d7 6a3c 43f1 a33d 2f91 223e
000003a0: 8cc7 693d bf21 23bd 2fbb ff3d 68a6 f73d
000003b0: 5d5f e63d 7981 123e d019 5cbd e765 e93d
000003c0: ad15 fc3d e784 debd c553 183e a024 f3bc
000003d0: a1d1 ecbc 750c 15bd db80 74bc 3895 e53d
000003e0: 1ae3 bebd df86 333d 4a89 f6bd d1d6 debd
000003f0: ba31 633d e11e e8bc 457e dd3b 4227 cf3d

base.4.bias f4 [3]
0.035844494 -0.035964467 0.015136416
00000000: add1 123d 7a4f 13bd bbfe 773c

exp_avg f4 [256, 6]
0.00014307996 0.0006641878 5.2576193e-05 -0.00097251334 -6e-45 6e-45 -6e-45 6e-45
6e-45 -6e-45 6e-45 -6e-45 -0.0006712459 0.00013507051 8.013732e-07 -0.00015780937
-6e-45 -6e-45 -0.0004315277 -0.0020772952 -0.00016440854 0.0030412932 -6e-45 6e-45
0.00013660324 0.00063228485 5.0051145e-05 -0.0009258695 6e-45 6e-45 -6e-45 6e-45
6e-45 -6e-45 6e-45 -6e-45 -4.304409e-05 -0.00022463451 -1.7775348e-05 0.00032871796
6e-45 6e-45 6e-45 -6e-45 6e-45 6e-45 6e-45 -6e-45
-0.00025405776 -0.0012284017 -9.7225835e-05 0.0017983854 -6e-45 6e-45 6e-45 -6e-45
-6e-45 6e-45 -6e-45 6e-45 -0.0004857971 -0.0013367243 -0.0001103269 0.001972977
-6e-45 6e-45 -6e-45 -6e-45 6e-45 6e-45 6e-45 6e-45
-0.00038149836 -0.0018376159 -0.00014543872 0.0026903923 -6e-45 6e-45 2.0496316e-05 8.1329374e-05
6.441546e-06 -0.00011925759 -6e-45 -6e-45 0.00026833912 0.0012609455 9.981041e-05 -0.0018462975
-6e-45 -6e-45 -0.00347344 0.0006662735 1.1717172e-05 -0.00074374746 6e-45 -6e-45
6e-45 -6e-45 -6e-45 6e-45 6e-45 6e-45 0.00037206014 0.0017573144
0.00013909822 -0.002572969 -6e-45 6e-45 6e-45 -6e-45 -6e-45 6e-45
-6e-45 -6e-45 -6e-45 -6e-45 6e-45 -6e-45 -6e-45 6e-45
0.0038713205 0.00039575537 7.4274285e-05 -0.000822394 6e-45 6e-45 5.674141e-05 0.0002533283
2.0055002e-05 -0.0003709436 6e-45 6e-45 -0.0022683765 0.0004636745 -1.5001223e-06 -0.00054514897
6e-45 6e-45 0.00043910695 0.0020778477 0.00016446864 -0.003042324 -6e-45 -6e-45
-0.0003358675 -0.0016207014 -0.00012827586 0.002372689 6e-45 -6e-45 0.00010550717 0.00048711916
3.8559796e-05 -0.0007132649 6e-45 6e-45 -5.7276094e-07 2.0985527e-07 -5.2345035e-09 -2.6271337e-07
-6e-45 -6e-45 2.9865054e-05 0.0001258109 9.962263e-06 -0.00018435824 6e-45 -6e-45
0.00028922255 0.0013629541 0.00010788369 -0.0019955658 6e-45 6e-45 -6e-45 -6e-45
6e-45 6e-45 6e-45 6e-45 0.00034858866 0.0016445486 0.00013017318 -0.0024078789
-6e-45 -6e-45 -0.00013995722 -0.00068383006 -5.4121745e-05 0.0010010584 -6e-45 -6e-45
-0.00046938343 -0.0022553683 -0.00017851197 0.0033019353 -6e-45 -6e-45 -0.0003349572 -0.0016173183
-0.00012800778 0.0023677354 6e-45 6e-45 1.6869303e-07 -9.266976e-08 -1.356532e-09 1.3482865e-07
-6e-45 -6e-45 6e-45 -6e-45 -6e-45 -6e-45 6e-45 -6e-45
-0.00023426309 -9.0442605e-05 2.6467321e-06 0.00013449903 -6e-45 6e-45 -6e-45 -6e-45
6e-45 6e-45 6e-45 -6e-45 -0.00051285006 0.00048450197 3.9914143e-05 -0.0006603604
-6e-45 -6e-45 0.00013564229 0.0006302014 4.9885428e-05 -0.00092277734 -6e-45 -6e-45
0.0003310154 0.0015616812 0.0001236136 -0.0022866013 -6e-45 -6e-45 -2.8653318e-05 -0.00015270073
-1.2082437e-05 0.00022340863 -6e-45 -6e-45 -0.00054057105 -0.0025963138 -0.0002054976 0.0038011633
00000000: bc07 1639 e41c 2e3a 4285 5c38 44f0 7eba
00000010: 0400 0080 0400 0000 0400 0080 0400 0000
00000020: 0400 0000 0400 0080 0400 0000 0400 0080
00000030: 8df6 2fba b7a1 0d39 f21d 5735 a179 25b9
00000040: 0400 0080 0400 0080 ab3e e2b9 3b23 08bb
00000050: 1565 2cb9 6f50 473b 0400 0080 0400 0000
00000060: 273d 0f39 ebbf 253a 02ee 5138 0db6 72ba
00000070: 0400 0000 0400 0000 0400 0080 0400 0000
00000080: 0400 0000 0400 0080 0400 0000 0400 0080
00000090: 3d8a 34b8 de8b 6bb9 451c 95b7 c757 ac39
000000a0: 0400 0000 0400 0000 0400 0000 0400 0080
000000b0: 0400 0000 0400 0000 0400 0000 0400 0080
000000c0: 0e33 85b9 5202 a1ba b9e5 cbb8 cdb7 eb3a
000000d0: 0400 0080 0400 0000 0400 0000 0400 0080
000000e0: 0400 0080 0400 0000 0400 0080 0400 0000
000000f0: 95b2 feb9 0635 afba 4e5f e7b8 104d 013b
00000100: 0400 0080 0400 0000 0400 0080 0400 0080
00000110: 0400 0000 0400 0000 0400 0000 0400 0000
00000120: d803 c8b9 28dc f0ba e980 18b9 4b51 303b
00000130: 0400 0080 0400 0000 81ef ab37 608f aa38
00000140: 7524 d836 ee19 fab8 0400 0080 0400 0080
00000150: deaf 8c39 4f46 a53a 4e51 d138 77ff f1ba
00000160: 0400 0080 0400 0080 a7a2 63bb dca8 2e3a
00000170: df94 4437 0cf8 42ba 0400 0000 0400 0080
00000180: 0400 0000 0400 0080 0400 0080 0400 0000
00000190: 0400 0000 0400 0000 1111 c339 b055 e63a
000001a0: e5da 1139 429f 28bb 0400 0080 0400 0000
000001b0: 0400 0000 0400 0080 0400 0080 0400 0000
000001c0: 0400 0080 0400 0080 0400 0080 0400 0080
000001d0: 0400 0000 0400 0080 0400 0080 0400 0000
000001e0: fbb5 7d3b 637d cf39 b4c3 9b38 ed95 57ba
000001f0: 0400 0000 0400 0000 a0fd 6d38 26d1 8439
00000200: ca3b a837 357b c2b9 0400 0000 0400 0000
00000210: 0ba9 14bb 5719 f339 cf57 c9b5 54e8 0eba
00000220: 0400 0000 0400 0000 f037 e639 802c 083b
00000230: 3775 2c39 ba61 47bb 0400 0080 0400 0080
00000240: 5f17 b0b9 b76d d4ba ca81 06b9 1e7f 1b3b
00000250: 0400 0000 0400 0080 bb43 dd38 0764 ff39
00000260: 44bb 2138 66fa 3aba 0400 0000 0400 0000
00000270: d5bf 19b5 9454 6134 2edb b3b1 0d0b 8db4
00000280: 0400 0080 0400 0080 b786 fa37 1bec 0339
00000290: 9823 2737 4a50 41b9 0400 0000 0400 0080
000002a0: cba2 9739 27a5 b23a 9d3f e238 0ac8 02bb
000002b0: 0400 0000 0400 0000 0400 0080 0400 0080
000002c0: 0400 0000 0400 0000 0400 0000 0400 0000
000002d0: c7c2 b639 e58d d73a 197f 0839 81cd 1dbb
000002e0: 0400 0080 0400 0080 7bc1 12b9 0f43 33ba
000002f0: c800 63b8 f235 833a 0400 0080 0400 0080
00000300: 9417 f6b9 cdce 13bb f12e 3bb9 4865 583b
00000310: 0400 0080 0400 0080 329d afb9 32fc d3ba
00000320: d439 06b9 022c 1b3b 0400 0000 0400 0000
00000330: fd21 3534 bd01 c7b3 ba70 bab0 6bc5 1034
00000340: 0400 0080 0400 0080 0400 0000 0400 0080
00000350: 0400 0080 0400 0080 0400 0000 0400 0080
00000360: 85a4 75b9 01ac bdb8 839e 3136 4f08 0d39
00000370: 0400 0080 0400 0000 0400 0080 0400 0080
00000380: 0400 0000 0400 0000 0400 0000 0400 0080
00000390: c970 06ba c104 fe39 7c69 2738 091c 2dba
000003a0: 0400 0080 0400 0080 333b 0e39 1a34 253a
000003b0: 123c 5138 8ae6 71ba 0400 0080 0400 0080
000003c0: 238c ad39 53b1 cc3a 469e 0139 ceda 15bb
000003d0: 0400 0080 0400 0080 885c f0b7 4a1e 20b9
000003e0: acb5 4ab7 cc42 6a39 0400 0080 0400 0080
000003f0: 1cb5 0dba eb26 2abb d87a 57b9 f01c 793b

exp_avg_sq f4 [256, 6]
0.00021943582 1.227806e-05 2.0394268e-07 1.7159029e-05 7e-43 7e-43 2.0753e-41 1.77966e-40
7e-43 2.4157e-41 7e-43 7e-43 1.145929e-05 8.610787e-07 1.0586554e-08 1.479856e-06
7e-43 7e-43 0.0020692593 0.00011735928 2.0380762e-06 0.00016249437 7e-43 7e-43
0.00020496736 1.1568235e-05 1.9220577e-07 1.6231977e-05 7e-43 7e-43 3.0501458e-38 5.8011374e-38
1.218763e-39 1.3111504e-38 7e-43 7e-43 2.1085152e-05 1.3524366e-06 2.382862e-08 1.89076e-06
7e-43 7e-43 3.2269857e-06 2.718537e-06 5.56053e-08 2.775154e-06 7e-43 7e-43
0.0007112361 4.0048944e-05 6.801115e-07 5.740592e-05 7e-43 7e-43 1.2366349e-08 1.8293655e-06
4.328504e-08 8.594744e-07 7e-43 7e-43 0.0008895076 4.3451713e-05 8.7724544e-07 5.9092763e-05
7e-43 7e-43 3.045e-41 9.0252e-41 3.535e-42 6.6916e-41 7e-43 7e-43
0.0016039442 8.691059e-05 1.5792458e-06 0.00011934671 7e-43 7e-43 6.0057896e-06 2.9619912e-07
4.73831e-09 4.0898306e-07 7e-43 7e-43 0.00079339027 4.5540295e-05 7.624222e-07 6.392228e-05
7e-43 7e-43 0.00017183447 1.2286475e-05 2.1325981e-07 1.9162659e-05 7e-43 7e-43
1.697679e-16 8.929354e-16 2.5110472e-18 1.0886855e-15 7e-43 7e-43 0.0015099517 8.6661064e-05
1.4552065e-06 0.00012139095 7e-43 7e-43 2.6910406e-11 3.3073905e-11 1.7813585e-13 7.730476e-11
7e-43 7e-43 1.091163e-39 7.46532e-40 5.46e-42 8.4634e-41 7e-43 7e-43
0.0002911542 2.009563e-05 2.4696686e-07 2.6366777e-05 7e-43 7e-43 3.0804735e-05 1.5267232e-06
2.6561233e-08 2.108681e-06 7e-43 7e-43 0.00012486256 1.0632773e-05 1.9524289e-07 1.6525762e-05
7e-43 7e-43 0.002108408 0.00012189983 2.0512825e-06 0.0001711838 7e-43 7e-43
0.0012374375 7.244543e-05 1.2342929e-06 0.00010207192 7e-43 7e-43 0.00011361486 6.3620746e-06
1.0494951e-07 8.985733e-06 7e-43 7e-43 2.9069541e-08 6.1172525e-09 3.3866472e-11 1.0115898e-08
7e-43 7e-43 1.068699e-05 5.614859e-07 8.82523e-09 7.851203e-07 7e-43 7e-43
0.0009008038 5.172739e-05 8.6657326e-07 7.268607e-05 7e-43 7e-43 7e-43 7e-43
7e-43 7e-43 7e-43 7e-43 0.0013297817 7.6434495e-05 1.2823532e-06 0.00010745123
7e-43 7e-43 0.00021906366 1.3112101e-05 2.2358782e-07 1.837123e-05 7e-43 7e-43
0.0024465788 0.0001438562 2.4337592e-06 0.00020190368 7e-43 7e-43 0.0012305552 7.214009e-05
1.2287439e-06 0.00010165774 7e-43 7e-43 5.159553e-05 1.22216225e-05 1.0665725e-07 1.8854578e-05
7e-43 7e-43 7e-43 7e-43 7e-43 7e-43 7e-43 7e-43
0.00049691234 5.2931e-05 2.9877322e-07 6.362763e-05 7e-43 7e-43 8.5491575e-10 2.5010184e-08
3.9454198e-10 9.2135455e-09 7e-43 7e-43 0.00016821516 5.8692067e-06 1.5968917e-07 9.260635e-06
7e-43 7e-43 0.00019413812 1.0960726e-05 1.8257141e-07 1.5434573e-05 7e-43 7e-43
0.0012105292 6.9658534e-05 1.1706941e-06 9.783281e-05 7e-43 7e-43 7.821796e-06 4.398314e-07
8.36576e-09 6.4397534e-07 7e-43 7e-43 0.0032604786 0.00019087113 3.2366245e-06 0.0002669323
00000000: 5b18 6639 defd 4d37 56fb 5a34 bcf0 8f37
00000010: f401 0000 f401 0000 da39 0000 19f0 0100
00000020: f401 0000 5743 0000 f401 0000 f401 0000
00000030: 4741 4037 e124 6735 28e0 3532 779f c635
00000040: f401 0000 f401 0000 699c 073b c91e f638
00000050: e2c5 0836 4063 2a39 f401 0000 f401 0000
00000060: 82ec 5639 3115 4237 1f61 4e34 e829 8837
00000070: f401 0000 f401 0000 d410 2601 07ec 9d01
00000080: 6a45 0d00 8ac5 8e00 f401 0000 f401 0000
00000090: 05e0 b037 5e85 b535 b1af cc32 05c6 fd35
000000a0: f401 0000 f401 0000 318f 5836 1c70 3636
000000b0: add2 6e33 c83c 3a36 f401 0000 f401 0000
000000c0: 3f72 3a3a 3afa 2738 e890 3635 23c7 7038
000000d0: f401 0000 f401 0000 c773 5432 8588 f535
000000e0: 68e8 3933 a2b6 6635 f401 0000 f401 0000
000000f0: d82d 693a ec3f 3638 d97b 6b35 5fda 7738
00000100: f401 0000 f401 0000 e254 0000 96fb 0000
00000110: db09 0000 89ba 0000 f401 0000 f401 0000
00000120: 703b d23a c543 b638 79f6 d335 c749 fa38
00000130: f401 0000 f401 0000 5785 c936 4c05 9f34
00000140: 9ece a231 3492 db34 f401 0000 f401 0000
00000150: 85fb 4f3a 8502 3f38 41a9 4c35 030e 8638
00000160: f401 0000 f401 0000 772e 3439 0222 4e37
00000170: 69fc 6434 7fbf a037 f401 0000 f401 0000
00000180: a4ba 4325 80af 8026 5748 3922 68e5 9c26
00000190: f401 0000 f401 0000 92e9 c53a cebd b538
000001a0: 8450 c335 4593 fe38 f401 0000 f401 0000
000001b0: d9b4 ec2d e875 112e 2a90 482a b6fe a92e
000001c0: f401 0000 f401 0000 b8e1 0b00 0721 0800
000001d0: 380f 0000 edeb 0000 f401 0000 f401 0000
000001e0: 0ea6 9839 0993 a837 de96 8434 392e dd37
000001f0: f401 0000 f401 0000 5534 0138 cfe9 cc35
00000200: c528 e432 dd82 0d36 f401 0000 f401 0000
00000210: 8aed 0239 6a63 3237 f5a3 5134 cea0 8a37
00000220: f401 0000 f401 0000 372d 0a3b 79a4 ff38
00000230: c4a8 0936 cd7f 3339 f401 0000 f401 0000
00000240: 8331 a23a d8ed 9738 fba9 a535 720f d638
00000250: f401 0000 f401 0000 8344 ee38 ce79 d536
00000260: 9a60 e133 6ec1 1637 f401 0000 f401 0000
00000270: 99b4 f932 ec2f d231 42f2 142e 31ca 2d32
00000280: f401 0000 f401 0000 464c 3337 04b9 1635
00000290: c69d 1732 0ec1 5235 f401 0000 f401 0000
000002a0: eb23 6c3a ddf5 5838 769e 6835 096f 9838
000002b0: f401 0000 f401 0000 f401 0000 f401 0000
000002c0: f401 0000 f401 0000 f401 0000 f401 0000
000002d0: 124c ae3a 754b a038 521d ac35 7157 e138
000002e0: f401 0000 f401 0000 74b4 6539 0cfc 5b37
000002f0: 5a13 7034 eb1b 9a37 f401 0000 f401 0000
00000300: c856 203b 1bd8 1639 aa53 2336 1bb6 5339
00000310: f401 0000 f401 0000 954a a13a ea49 9738
00000320: 52eb a435 1531 d538 f401 0000 f401 0000
00000330: 4768 5838 780b 4d37 710b e533 e629 9e37
00000340: f401 0000 f401 0000 f401 0000 f401 0000
00000350: f401 0000 f401 0000 f401 0000 f401 0000
00000360: 3943 023a 3a02 5e38 1467 a034 d36f 8538
00000370: f401 0000 f401 0000 59ff 6a30 fad5 d632
00000380: d9e6 d82f 9a49 1e32 f401 0000 f401 0000
00000390: ea62 3039 1af0 c436 0677 2b34 205e 1b37
000003a0: f401 0000 f401 0000 8e91 4b39 f6e3 3737
000003b0: d908 4434 7e79 8137 f401 0000 f401 0000
000003c0: 9faa 9e3a a415 9238 be20 9d35 972b cd38
000003d0: f401 0000 f401 0000 5c3a 0337 f821 ec34
000003e0: 00b9 0f32 a6dd 2c35 f401 0000 f401 0000
000003f0: c1ad 553b 9424 4839 c934 5936 0cf3 8b39

exp_avg f4 [256]
0.00018230024 6e-45 -0.0006558321 -0.0005547509 0.0001739331 6e-45 -5.6487443e-05 6e-45
-0.00032696457 -6e-45 -0.00056320184 6e-45 -0.000490513 2.5207784e-05 0.00034292336 -0.0033796583
6e-45 0.00047606218 6e-45 -6e-45 0.0038377454 7.1619084e-05 -0.0022216728 0.0005621156
-0.00043202707 0.00013425153 -5.6343777e-07 3.720733e-05 0.00036985992 6e-45 0.0004459039 -0.00018058963
-0.00060313765 -0.00043092444 1.6295417e-07 -6e-45 -0.00022367098 -6e-45 -0.00046829658 0.00017286363
0.00042343416 -3.780906e-05 -0.0006945451 -0.00030708621 0.00022510492 0.0003461136 -0.00025473372 0.008899474
-0.0007736491 -1.2402633e-06 -6e-45 -6e-45 -0.005120091 -6e-45 6e-45 4.8943017e-05
7.757688e-05 0.000269653 -0.0009457493 -1.4986478e-16 -0.00015642474 -0.0013688108 6.1931336e-05 0.0031208484
0.00069354224 0.00034537097 -6e-45 6e-45 0.00039020364 8.3849756e-08 -6e-45 0.00016386661
6e-45 0.0007933657 -6e-45 -0.00067123654 6e-45 6e-45 0.00030371602 0.00012148405
2.038731e-05 -7.2375165e-05 -6.244078e-17 -0.00011333701 8.437e-42 0.0003028773 0.000110936846 -0.0007592363
-0.0004616132 8.30212e-05 -0.0005997255 0.00052673457 -0.00016569415 -0.0006707458 -0.0026954724 6e-45
0.0011616354 -0.00013971035 -0.0005609749 0.0019244786 4.2921678e-05 6e-45 -0.0007804104 0.00033591787
-0.0006334245 -3.7994356e-05 -0.00081827556 6.3762856e-10 0.00037912466 0.0004252548 -0.0024678472 1.644958e-16
0.00056889694 -1.0401874e-05 0.0006745991 -6e-45 6e-45 -0.00012618698 6e-45 -6e-45
-8.358237e-05 6e-45 -0.002235992 -6e-45 6e-45 -0.00026946093 0.0011658502 9.33e-43
9.413394e-05 -0.00014707563 0.0019695114 -0.0004713613 3.5995514e-22 -0.006248495 6e-45 0.00017925915
-6.3878884e-05 0.0007591283 -8.6615604e-05 -0.00011993851 8.055902e-05 -0.000703086 7.9026584e-05 -0.00020814512
-0.0021597524 0.00049019296 -0.0001535328 -2.5776357e-22 -0.00040975836 -0.0009867192 0.0001224132 -3.3427972e-05
-0.00017410524 -6e-45 -1.3876898e-07 -0.00017019972 0.00022419376 0.00013845813 6e-45 -6e-45
0.0006279302 -0.00068666984 -0.00062220864 -6e-45 -3.4053173e-05 -6e-45 0.005330626 -0.0004851206
2.0271713e-07 -6e-45 -0.00031770708 -1.1e-44 -6e-45 6e-45 -0.0032341422 -0.0005295213
-0.00046686138 -2.7980925e-05 2.4727227e-05 -0.00013156903 0.0004562002 -6e-45 3.7837952e-22 -0.0006940911
0.0002093293 -0.001741262 1.6151324e-08 -0.0027184284 -0.00026092702 -8.6874876e-05 0.0004112788 -2.4744015e-05
6e-45 -0.0005588315 -6e-45 0.00020061107 -6.509451e-05 -0.0030427175 6.7844754e-05 -0.0050902534
0.00058135955 -6e-45 1.1e-44 0.00042141243 5.8676695e-05 -0.0005320632 -6e-45 0.0002886535
6e-45 -6e-45 -8.2773195e-06 6e-45 6e-45 0.00066427124 0.0033540823 0.00011795086
-0.0005906016 0.00031930456 -0.00033827938 2.900389e-22 1.4472576e-07 -5.780599e-05 -0.0005229137 6.437275e-05
6.4829495e-05 6e-45 0.000359009 -2.3306797e-16 6e-45 1.8940644e-05 -0.00011620104 -0.00013073902
0.0004312824 -0.0021894055 -0.0006233225 -0.0025545473 6e-45 0.00024443702 -0.0002754442 -6.452045e-05
-6e-45 0.00028291254 6e-45 0.00024941078 6e-45 0.0002712256 6e-45 -0.0072905794
-6e-45 -6e-45 0.0003271135 -0.0036107397 -6e-45 0.00045066883 6e-45 -0.0006369844
00000000: d927 3f39 0400 0000 26ec 2bba b46c 11ba
00000010: d061 3639 0400 0000 eeec 6cb8 0400 0000
00000020: 716c abb9 0400 0080 d6a3 13ba 0400 0000
00000030: c595 00ba 4e75 d337 65ca b339 427d 5dbb
00000040: 0400 0000 fc97 f939 0400 0000 0400 0080
00000050: af82 7b3b 3432 9638 7c99 11bb f05a 133a
00000060: b181 e2b9 dfc5 0c39 263f 17b5 110f 1c38
00000070: c2e9 c139 0400 0000 35c8 e939 a95c 3db9
00000080: e21b 1eba b3ed e1b9 80f8 2e34 0400 0080
00000090: 3989 6ab9 0400 0080 b485 f5b9 ba42 3539
000000a0: 5f00 de39 2b95 1eb8 2212 36ba 6a00 a1b9
000000b0: 240a 6c39 9576 b539 c88d 85b9 19cf 113c
000000c0: b6ce 4aba 1f77 a6b5 0400 0080 0400 0080
000000d0: 70c6 a7bb 0400 0080 0400 0000 2a48 4d38
000000e0: c5b0 a238 3760 8d39 29ec 77ba 47c8 2ca5
000000f0: f205 24b9 ab69 b3ba 22e1 8138 2687 4c3b
00000100: d5ce 353a e812 b539 0400 0080 0400 0000
00000110: 3f94 cc39 e410 b433 0400 0080 9cd3 2b39
00000120: 0400 0000 dff9 4f3a 0400 0080 ecf5 2fba
00000130: 0400 0000 0400 0000 133c 9f39 41c5 fe38
00000140: 6a05 ab37 1fc8 97b8 88fa 8fa4 58af edb8
00000150: 8517 0000 81cb 9e39 c4a6 e838 7c07 47ba
00000160: ad04 f2b9 ab1b ae38 e636 1dba 8f14 0a3a
00000170: 2fbe 2db9 fdd4 2fba 86a6 30bb 0400 0000
00000180: 0442 983a 367f 12b9 630e 13ba c93e fc3a
00000190: cd06 3438 0400 0000 7594 4cba 221e b039
000001a0: 660c 26ba 215c 1fb8 8b81 56ba 1f45 2f30
000001b0: 40c5 c639 bcf4 de39 9bbb 21bb 97a6 3d25
000001c0: 0722 153a b583 2eb7 94d7 303a 0400 0080
000001d0: 0400 0000 0f51 04b9 0400 0000 0400 0080
000001e0: f148 afb8 0400 0000 b989 12bb 0400 0080
000001f0: 0400 0000 6f46 8db9 71cf 983a 9a02 0000
00000200: c669 c538 5038 1ab9 eb12 013b 0b21 f7b9
00000210: 5c94 d91b 2dc0 ccbb 0400 0000 83f7 3b39
00000220: b7f6 85b8 3d00 473a 66a5 b5b8 7f87 fbb8
00000230: cbf1 a838 4e4f 38ba 13bb a538 8841 5ab9
00000240: a28a 0dbb 4b80 003a a6fd 20b9 fbce 9b9b
00000250: d6d4 d6b9 cd54 81ba 0b5c 0039 0335 0cb8
00000260: 0590 36b9 0400 0080 8700 15b4 a477 32b9
00000270: 8e15 6b39 122f 1139 0400 0000 0400 0080
00000280: af9b 243a a201 34ba b71b 23ba 0400 0080
00000290: 51d4 0eb8 0400 0080 88ac ae3b c957 feb9
000002a0: 76aa 5934 0400 0080 ec91 a6b9 0800 0080
000002b0: 0400 0080 0400 0000 e7f3 53bb 93cf 0aba
000002c0: 13c5 f4b9 94b8 eab7 516d cf37 cbf5 09b9
000002d0: 282e ef39 0400 0080 65b7 e41b aaf3 35ba
000002e0: 687f 5b39 0f3b e4ba 23bd 8a32 a927 32bb
000002f0: 08cd 88b9 9830 b6b8 e8a0 d739 5e91 cfb7
00000300: 0400 0000 8c7e 12ba 0400 0080 205b 5239
00000310: 5983 88b8 5468 47bb e047 8e38 24cc a6bb
00000320: 6166 183a 0400 0080 0800 0000 05f1 dc39
00000330: 9f1b 7638 287a 0bba 0400 0080 6b56 9739
00000340: 0400 0000 0400 0080 d1de 0ab7 0400 0000
00000350: 0400 0000 7d22 2e3a 2ad0 5b3b 635c f738
00000360: 9ad2 1aba 5568 a739 175b b1b9 5951 af1b
00000370: ea65 1b34 b674 72b8 2514 09ba dbff 8638
00000380: 12f5 8738 0400 0000 5f39 bc39 c35a 86a5
00000390: 0400 0000 b9e2 9e37 f5b0 f3b8 fd16 09b9
000003a0: be1d e239 217c 0fbb 7766 23ba 316a 27bb
000003b0: 0400 0000 c827 8039 7f69 90b9 274f 87b8
000003c0: 0400 0080 e153 9439 0400 0000 59c3 8239
000003d0: 0400 0000 4933 8e39 0400 0000 d0e5 eebb
000003e0: 0400 0080 0400 0080 6e80 ab39 29a2 6cbb
000003f0: 0400 0080 bf47 ec39 0400 0000 4dfb 26ba
