assets/section_2/transfer_acrobot_to_cartpole/models/exp1/episode_best/critic.pth (torch, 820786 bytes, 15 tensors)

net.0.weight f4 [256, 6]
-0.28070554 -0.20260936 -0.6661961 -0.22063245 0.16411448 -0.28151715 -0.053553164 0.4457203
-0.12366803 -0.09502649 0.21099861 -0.06434398 -0.03936847 0.6554613 0.20357376 -0.50812185
0.29902565 0.14379293 0.17748907 0.4203605 0.6059883 0.13111047 0.18393558 0.12712078
0.05241078 -0.5594746 -0.10456464 -0.07214934 -0.22732303 -0.35726956 -0.20982562 0.28950623
-0.21392079 -0.13871191 0.15470216 -0.23196352 0.18856487 0.18274769 0.031665377 0.0795583
0.04750433 0.115742385 -0.13218197 -0.47188511 -0.28159267 0.37930354 -0.34008953 -0.36425477
0.4608884 0.3019484 0.32615748 -0.007220212 0.2509285 0.1800943 0.31164002 0.2628278
-0.3258773 0.19421208 -0.42032894 -0.067823164 -0.18341967 0.19105387 0.30480248 0.24139576
0.069907226 -0.145765 -0.52803767 -0.13615194 -0.30664515 0.28815314 -0.38046023 0.2606625
0.19172525 0.53175807 0.32369027 -0.17593145 -0.267085 -0.22181588 -0.14475365 -0.5232031
-0.38220197 -0.19794165 0.36682302 -0.28525382 0.46210533 0.43768317 0.36584607 -0.5764431
0.08631956 0.13919415 0.2936878 -0.1969835 0.12921426 -0.277783 0.21844755 -0.18471202
0.472054 0.31771997 0.63545907 0.2218898 -0.09922604 -0.094479576 0.63987476 -0.13241613
0.61219835 -0.065250285 0.30429533 0.20804723 -0.18655758 0.39650393 0.07633427 0.13145557
0.12879093 0.29156342 0.21868767 0.22520234 0.66529596 0.13644426 -0.16799238 -0.03207214
-0.09290088 -0.28993523 -0.19422856 -0.23807913 -0.23665828 -0.36589465 -0.021498017 -0.2609188
-0.5991067 0.00471511 -0.2954804 -0.3118353 0.38556257 0.074668325 0.3922722 0.35253564
-0.43481237 -0.3765216 -0.28057328 0.32354337 0.16810082 -0.28364354 0.3143838 -0.058140215
0.3796642 -0.057524644 0.46236634 0.3577154 -0.31048268 -0.24576919 -0.30781624 -0.22891992
-0.5763293 -0.18911184 -0.009007067 0.30912384 -0.20961335 0.3607166 -0.4395814 0.20840739
-0.06725991 -0.17451167 -0.32545662 -0.38313764 -0.15872511 -0.25595942 -0.005335945 -0.03993249
-0.5831621 0.49428415 -0.65622395 -0.36203542 0.022155307 0.21032612 -0.31158414 -0.4269886
-0.28499934 -0.18643555 -0.18651704 -0.3312456 -0.2149712 -0.23474991 0.43583962 0.3836657
-0.06380149 -0.096690156 0.20969462 0.09873852 -0.023711491 0.20886606 0.1804596 -0.10915959
0.40126404 -0.14368084 -0.15387997 0.032493446 -0.14969929 -0.051407635 0.084141046 0.15423506
-0.21337348 0.078367725 0.052160207 -0.2435909 0.08264505 -0.1852793 -0.14627816 -0.258044
-0.15803847 0.07138379 -0.10092585 -0.2956981 0.6162813 0.39673913 0.19337985 0.050331052
0.8029775 -0.22345823 0.08827132 -0.2942493 0.2863275 0.15702952 0.2344934 0.23169428
-0.15515845 0.25669107 0.09283537 -0.23635887 0.4062147 -0.19533284 0.49774626 -0.13393676
0.35129008 0.17215498 0.4783466 0.25326198 -0.11253223 -0.54638416 0.31683612 0.38451704
-0.33793807 -0.33582997 -0.7908275 -0.38699412 0.11291126 0.09358799 -0.30600107 0.13483134
-0.06867162 -0.18245132 0.18345642 0.17422268 0.19762124 0.3846642 0.35024214 -0.22998011
00000000: a3b8 8fbe d478 4fbe d48b 2abf 79ed 61be
00000010: a00d 283e 0423 90be 905a 5bbd 7335 e43e
00000020: aa45 fdbd 409d c2bd 0510 583e c7c6 83bd
00000030: d540 21bd 50cc 273f a475 503e 4614 02bf
00000040: e419 993e 743e 133e b2bf 353e 7e39 d73e
00000050: 0d22 1b3f d341 063e 9c59 3c3e f32b 023e
00000060: b0ac 563d ba39 0fbf fc25 d6bd 08c3 93bd
00000070: 5ec7 68be 09ec b6be 87dc 56be 293a 943e
00000080: 0d0e 5bbe 7f0a 0ebe 3e6a 1e3e d887 6dbe
00000090: 2617 413e 3622 3b3e 8eb3 013d 76ef a23d
000000a0: e693 423d 580a ed3d b65a 07be ed9a f1be
000000b0: ea2c 90be 1334 c23e 3720 aebe 9a7f babe
000000c0: 90f9 eb3e fb98 9a3e 1dfe a63e 8797 ecbb
000000d0: b379 803e a46a 383e 488f 9f3e 5e91 863e
000000e0: 64d9 a6be 88df 463e 5b35 d7be dfe6 8abd
000000f0: 5ed2 3bbe a0a3 433e 120f 9c3e 7330 773e
00000100: 852b 8f3d 6c43 15be 7a2d 07bf 6a6b 0bbe
00000110: 9800 9dbe cf88 933e afcb c2be 8e75 853e
00000120: a053 443e 4c21 083f bbba a53e 6027 34be
00000130: 5dbf 88be b423 63be 4d3a 14be a3f0 05bf
00000140: faaf c3be 37b1 4abe 3ad0 bb3e ca0c 92be
00000150: 1299 ec3e 0218 e03e 2d50 bb3e c691 13bf
00000160: 4fc8 b03d e988 0e3e 3f5e 963e 0bb6 49be
00000170: be50 043e 9339 8ebe b7b0 5f3e 2625 3dbe
00000180: 10b1 f13e 31ac a23e 72ad 223f 1437 633e
00000190: 0637 cbbd 827e c1bd d5ce 233f 1898 07be
000001a0: 08b9 1c3f f1a1 85bd 99cc 9b3e 550a 553e
000001b0: f308 3fbe 9002 cb3e 2455 9c3d 4a9c 063e
000001c0: c5e1 033e cd47 953e a9ef 5f3e 719b 663e
000001d0: d650 2a3f 0bb8 0b3e 3206 2cbe 145e 03bd
000001e0: d142 bebd 6472 94be dae3 46be 04cb 73be
000001f0: 8c56 72be 8b56 bbbe 9c1c b0bc 2697 85be
00000200: 0f5f 19bf 3681 9a3b 3549 97be e0a8 9fbe
00000210: 7568 c53e b5eb 983d e7d7 c83e 8d7f b43e
00000220: ba9f debe 70c7 c0be 4da7 8fbe 7aa7 a53e
00000230: 9f22 2c3e ba39 91be eaf6 a03e 6f24 6ebd
00000240: 5963 c23e f69e 6bbd 48bb ec3e 7926 b73e
00000250: 96f7 9ebe ebaa 7bbe 179a 9dbe fc69 6abe
00000260: 518a 13bf 89a6 41be 6192 13bc 7b45 9e3e
00000270: e2a4 56be d9af b83e d010 e1be bf68 553e
00000280: 90bf 89bd 30b3 32be 40a2 a6be 9e2a c4be
00000290: d688 22be 1d0d 83be 27d9 aebb 4090 23bd
000002a0: 1d4a 15bf d012 fd3e 4bfe 27bf b55c b9be
000002b0: 0c7f b53c bb5f 573e f587 9fbe 409e dabe
000002c0: 6feb 91be f6e8 3ebe 53fe 3ebe 0699 a9be
000002d0: 6921 5cbe 4862 70be 5f26 df3e d56f c43e
000002e0: 5baa 82bd 7d05 c6bd 30ba 563e 6c37 ca3d
000002f0: 9a3e c2bc fce0 553e 67ca 383e 108f dfbd
00000300: 7b72 cd3e 1221 13be b692 1dbe d917 053d
00000310: c54a 19be d090 52bd 2452 ac3d ccef 1d3e
00000320: 947e 5abe 427f a03d f1a5 553d e56f 79be
00000330: cf41 a93d dbb9 3dbe f1c9 15be 581e 84be
00000340: d6d4 21be aa31 923d 36b2 cebd be65 97be
00000350: 9cc4 1d3f 6421 cb3e 5e05 463e ef27 4e3d
00000360: ef8f 4d3f 3cd2 64be 98c7 b43d d8a7 96be
00000370: 8599 923e 59cc 203e 0a1f 703e 4441 6d3e
00000380: dbe1 1ebe 036d 833e 7820 be3d 0f08 72be
00000390: 60fb cf3e 5505 48be 99d8 fe3e b826 09be
000003a0: 4bdc b33e 6549 303e d8e9 f43e 8eab 813e
000003b0: 4c77 e6bd d5df 0bbf 5838 a23e 6bdf c43e
000003c0: 3806 adbe e8f1 abbe ac73 4abf 1824 c6be
000003d0: 053e e73d 0fab bf3d 2cac 9cbe 3a11 0a3e
000003e0: b5a3 8cbd 85d4 3abe 00dc 3b3e 6e67 323e
000003f0: 395d 4a3e b5f2 c43e f052 b33e e87f 6bbe

net.0.bias f4 [256]
-0.12186349 -0.28960863 0.36421037 0.6714255 -0.22230044 0.36860773 0.68171895 0.19603302
0.51358795 -0.40576777 -0.33262977 -0.3448664 0.3826005 0.009310899 -0.30481485 0.55019975
-0.0077679055 0.0074090003 0.20268664 0.5073662 0.42098764 0.23787975 -0.09963967 -0.40864682
0.66234565 0.52236646 0.4538862 0.599012 0.008928918 0.31438223 0.30382732 0.5224819
0.4742953 0.30623367 -0.47934183 0.17664996 0.0058416724 0.37362927 0.55954546 -0.08770287
0.47382903 0.5976398 -0.43499812 -0.15077405 -0.017145619 0.49012354 -0.23471577 0.7677211
0.46510068 0.2664331 -0.25162643 -0.0013748467 0.22283062 -0.014676696 0.5973624 0.497453
0.69690406 0.18361475 0.47777578 0.43288937 -0.28905544 0.10954503 0.60842174 -0.067172684
0.033860944 -0.50387627 -0.36466998 0.36716366 0.7019392 0.33595198 0.25501555 0.5352412
-0.021100808 0.33514822 0.4096701 0.6969888 0.56666166 0.44995227 -0.19229898 0.48681325
-0.27293137 -0.1964909 -0.14127076 0.24845454 0.1846199 0.6800933 0.32386935 -0.08126046
0.42977464 0.52891463 0.18904842 0.34329534 0.43896812 -0.20582847 -0.31975845 0.62001824
-0.2809442 -0.31700888 -0.26520127 -0.101464994 0.35828876 0.503302 0.57529086 0.11842921
0.58601093 0.48913828 0.40067443 -8.603552e-05 0.47120708 0.50081795 -0.33718428 -0.403395
-0.14914726 0.5903868 -0.38233346 0.5956688 0.710135 0.13685843 -0.36535445 -0.3548735
0.6601384 0.14286102 -0.42788303 0.371276 0.37304953 0.481101 -0.034883138 0.605787
0.3800525 -0.034422293 0.47490928 0.5273439 0.5062953 0.6640204 0.6649198 0.46803626
0.2943279 0.50329703 -0.15624245 0.5007658 0.420239 0.55563885 -0.1207555 0.55678374
0.72579575 0.5916509 0.09043875 -0.34158617 -0.054107934 -0.37500083 -0.20822057 0.40025333
-0.015988376 0.6755999 -0.016519377 0.30215183 0.21204422 0.5235237 -0.095850594 -0.5295149
-0.19116266 0.47579053 -0.2015077 0.23463127 0.5000537 -0.12682392 0.49468422 -0.40963793
0.116133474 0.52204067 -0.32039765 0.6527048 0.62428874 -0.22321394 -0.17811388 0.4505802
0.36257577 -0.19859283 -0.17777057 0.6411569 0.32825395 -0.30819896 0.6816611 -0.018919127
-0.18427068 0.17024331 0.29108864 -0.3495877 0.20386326 -0.28524205 -0.10339044 -0.07083212
0.65252227 0.63454765 0.6973975 -0.4900506 -0.033542626 0.4142026 -0.08798204 -0.2706499
-0.06749631 -0.2741881 0.58993423 0.6532918 0.3853485 -0.057399016 0.29329875 0.39123377
0.6249122 0.5433784 0.5483833 0.29556 0.760099 -0.5127535 -0.19750702 0.62263906
0.47871816 0.49671185 -0.40201926 0.35019422 -0.3423712 -0.030200513 -0.4063747 0.53020275
0.49366298 -0.30753192 0.34270954 0.37293354 -0.15693446 -0.18723477 -0.3799844 0.7063077
0.22829407 -0.27736807 0.4002143 -0.23370337 0.0060866554 0.107931435 0.37352222 0.39591914
-0.33876553 0.29627234 -0.19674401 -0.4230083 -0.066649154 0.2030637 -0.46814838 0.29467905
0.28884807 -0.44188902 0.50170356 -0.03716684 0.68946904 -0.46748143 -0.25499475 0.252515
00000000: 9193 f9bd 9547 94be c879 ba3e 8be2 2b3f
00000010: baa2 63be 27ba bc3e 2285 2e3f e1bc 483e
00000020: 807a 033f cbc0 cfbe 734e aabe 5492 b0be
00000030: 36e4 c33e be8c 183c b110 9cbe e4d9 0c3f
00000040: ea89 febb 33c7 f23b 168d 4f3e c0e2 013f
00000050: b18b d73e c096 733e e20f ccbd 283a d1be
00000060: 7c8f 293f cfb9 053f c663 e83e da58 193f
00000070: 994a 123c b5f6 a03e 418f 9b3e 60c1 053f
00000080: d5d6 f23e a9ca 9c3e 4b6c f5be bae3 343e
00000090: 806b bf3b 564c bf3e 5f3e 0f3f 909d b3bd
000000a0: b899 f23e ecfe 183f 13b8 debe 8364 1abe
000000b0: f874 8cbc 79f1 fa3e 5559 70be 5f89 443f
000000c0: ad21 ee3e eb69 883e 2ed5 80be 3334 b4ba
000000d0: b62d 643e 8676 70bc beec 183f 29b2 fe3e
000000e0: 4e68 323f 8105 3c3e 079f f43e ada3 dd3e
000000f0: 13ff 93be 2559 e03d 87c1 1b3f d591 89bd
00000100: c6b1 0a3d 09fe 00bf 06b6 babe e0fc bb3e
00000110: 4ab2 333f e601 ac3e 6691 823e 9105 093f
00000120: 9adb acbc 8c98 ab3e 48c0 d13e dc6d 323f
00000130: bd10 113f 2560 e63e 06ea 44be 963f f93e
00000140: a9bd 8bbe e934 49be 48a9 10be de6a 7e3e
00000150: 000d 3d3e 981a 2e3f 34d2 a53e e26b a6bd
00000160: 6c0b dc3e f366 073f e995 413e 68c4 af3e
00000170: 6ec0 e03e b3c4 52be 61b7 a3be 84b9 1e3f
00000180: ebd7 8fbe fd4e a2be 76c8 87be e1cc cfbd
00000190: a071 b73e 66d8 003f 4346 133f 038b f23d
000001a0: d004 163f 5570 fa3e 3325 cd3e f86d b4b8
000001b0: 0e42 f13e 9b35 003f 6ba3 acbe ca89 cebe
000001c0: 0fba 18be 9723 173f 36c1 c3be c07d 183f
000001d0: 68cb 353f 9e24 0c3e bd0f bbbe fbb1 b5be
000001e0: d5fe 283f 294a 123e 7c13 dbbe e317 be3e
000001f0: 5900 bf3e df52 f63e 9fe1 0ebd db14 1b3f
00000200: 3e96 c23e 64fe 0cbd 4f27 f33e 0300 073f
00000210: 929c 013f 3efd 293f 2f38 2a3f 73a2 ef3e
00000220: 26b2 963e 13d8 003f 05fe 1fbe 3032 003f
00000230: 9129 d73e 593e 0e3f a94e f7bd 6189 0e3f
00000240: c0cd 393f 6f76 173f f437 b93d 62e4 aebe
00000250: 48a0 5dbd 1c00 c0be c637 55be 01ee cc3e
00000260: 0efa 82bc 1df4 2c3f a553 87bc a5b3 9a3e
00000270: 1f22 593e a605 063f 514d c4bd 4a8e 07bf
00000280: 25c0 43be d19a f33e 0958 4ebe 2e43 703e
00000290: 8503 003f 21de 01be 4047 fd3e 10bc d1be
000002a0: 63d7 ed3d 75a4 053f 290b a4be a917 273f
000002b0: 63d1 1f3f 3292 64be 7c63 36be 73b2 e63e
000002c0: 88a3 b93e eb5b 4bbe 7d09 36be dc22 243f
000002d0: e710 a83e 41cc 9dbe 5881 2e3f 49fc 9abc
000002e0: 74b1 3cbe 4354 2e3e 9209 953e 29fd b2be
000002f0: 88c1 503e 3f0b 92be 5ebe d3bd 6e10 91bd
00000300: b30b 273f b771 223f a488 323f eae7 fabe
00000310: fe63 09bd 5d12 d43e ee2f b4bd a092 8abe
00000320: 813b 8abd 6262 8cbe ee05 173f 223e 273f
00000330: 664c c53e 3b1b 6bbd 412b 963e cb4f c83e
00000340: 3ffa 1f3f d91a 0b3f d962 0c3f a453 973e
00000350: d995 423f d043 03bf 483f 4abe 4665 1f3f
00000360: 8c1a f53e 0451 fe3e 78d5 cdbe a84c b33e
00000370: 474b afbe 1167 f7bc 5810 d0be 5ebb 073f
00000380: 65c1 fc3e d374 9dbe a077 af3e 25f1 be3e
00000390: 6db3 20be 79ba 3fbe 518d c2be 95d0 343f
000003a0: ecc5 693e 3003 8ebe e4e8 cc3e f04f 6fbe
000003b0: 9172 c73b 280b dd3d 4e3e bf3e eab5 ca3e
000003c0: ad72 adbe 02b1 973e 4377 49be 8b94 d8be
000003d0: 5a7f 88bd eeef 4f3e 25b1 efbe 2ce0 963e
000003e0: e5e3 933e 473f e2be a56f 003f 423c 18bd
000003f0: 0b81 303f ba59 efbe ac8e 82be a549 813e

net.2.weight f4 [256, 256]
-0.074844524 -0.15105142 0.0038796507 0.09054531 -0.07187769 0.04619718 0.14334257 0.15584193
0.05847242 0.06672019 0.023886526 -0.08400578 0.107961476 0.014856767 -0.12374893 0.19087136
-0.23394789 -0.24483755 0.1619205 0.278279 0.18353562 0.14428517 -0.04398575 -0.16927287
0.11481091 0.21220614 0.21296297 0.22671843 0.109945014 0.10310604 0.10729651 0.094823755
0.2547592 0.08473779 0.037961844 -0.020821633 -0.26064694 0.17467254 0.1255149 -0.07839473
0.050458916 0.047196157 -0.06812563 0.0718911 -0.23037867 0.021387367 -0.08022974 0.24395862
0.0788625 0.08171355 -0.04454807 -0.0147002 0.18315569 0.059047155 -0.00880963 0.13586839
0.1689081 -0.046128668 0.14995962 0.10434454 -0.09351217 0.013622679 0.07123509 0.019338245
0.018736431 -0.095433526 -0.10267707 0.24247448 0.21530136 -0.0045889327 0.05408486 0.055686545
-0.14515594 0.3440382 0.3022207 0.27638584 0.26364186 0.11809669 -0.092417926 0.25864175
-0.21123996 -0.012916709 -0.06557723 0.08215895 0.16628395 0.28095302 0.07527754 0.051332165
0.15969154 0.19755039 0.054303076 0.11522227 0.16834174 0.043898657 -0.14140214 0.1414486
-0.11521007 0.016843114 -0.07215351 0.049501073 0.17508563 0.13961147 0.2959976 0.073797844
0.09224962 0.28282058 0.22486384 -0.13767311 -0.022842282 0.16243264 -0.17987306 -0.07100774
-0.15658286 0.10645346 -0.037944928 0.18349037 0.21668546 0.041279778 -0.07631389 0.017759409
0.1902483 0.01776056 -0.033487413 0.21013854 0.16941558 0.23003621 -0.10999698 0.2399964
0.15356223 0.043502934 0.18695593 0.16045158 0.21532957 0.23343588 0.2084988 0.26034042
0.11972926 0.22065942 -0.09835761 0.22285803 0.0597919 0.26669613 0.004875061 0.16836849
0.23530754 0.12108021 0.043522738 0.01453683 -0.07783341 -0.19928506 -0.1165978 0.16236493
-0.10924226 0.13496372 0.06487238 0.24900669 0.21662575 0.13598831 0.034845807 0.028092835
-0.14610785 0.099759296 -0.09958548 0.08262484 0.17436971 -0.12035599 0.23433344 -0.034165844
0.1419622 0.06149143 0.0021851112 0.19809543 0.25427836 0.013627153 0.016436454 0.17320079
0.12811787 -0.09287507 -0.09550194 0.20133868 0.24331748 -0.048549443 0.15294498 0.037481863
-0.07117738 0.038865943 0.18181397 0.04676692 0.015464977 -0.04587491 -0.20615324 -0.15416808
0.22221012 0.26731482 0.09944314 -0.13320848 -0.15053724 0.038871374 -0.037364833 -0.03770509
-0.37961006 -0.23131073 0.23267522 0.1876067 0.07866878 -0.21505389 0.22625946 0.2582622
0.15925987 0.12671453 0.21777038 0.19215767 0.13828616 0.06854849 0.044551935 0.11354992
0.2668767 0.18176848 -0.018424004 0.07634637 0.09041103 -0.028330015 0.015241358 0.22465093
0.1883727 0.037987832 0.11106264 0.22891632 -0.012455203 -0.035183158 0.014044321 0.24961297
0.25511026 -0.13897848 0.23118813 -0.16367052 -0.2605513 0.08087507 0.100261696 0.17465293
-0.029761272 0.23008895 -0.02502072 -0.15252028 -0.058690924 0.15118311 -0.24451208 0.17665733
0.2364205 -0.002719476 0.21250583 -0.032786448 0.22805375 0.053801242 -0.06803161 0.22233519
00000000: 1648 99bd 39ad 1abe bd41 7e3b d26f b93d
00000010: 9c34 93bd 4139 3d3d 65c8 123e 0795 1f3e
00000020: c780 6f3d 98a4 883d adad c33c 390b acbd
00000030: e81a dd3d cc69 733c 1470 fdbd c873 433e
00000040: 0990 6fbe b2b6 7abe 7dce 253e 967a 8e3e
00000050: c3f0 3b3e 7ebf 133e 672a 34bd de55 2dbe
00000060: fb21 eb3d 914c 593e f712 5a3e e028 683e
00000070: da2a e13d 4229 d33d 46be db3d f532 c23d
00000080: cc6f 823e 028b ad3d e17d 1b3d 2192 aabc
00000090: 8473 85be 5cdd 323e fa86 003e 6b8d a0bd
000000a0: 02ae 4e3d c250 413d 7385 8bbd a43b 933d
000000b0: 63e8 6bbe 8f34 af3c 7d4f a4bd 4ad0 793e
000000c0: aa82 a13d 6f59 a73d 0978 36bd 1cd9 70bc
000000d0: 2a8d 3b3e 6edb 713d 4456 10bc 1521 0b3e
000000e0: 3ff6 2c3e 6af1 3cbd 048f 193e 97b2 d53d
000000f0: 4f83 bfbd a831 5f3c b4e3 913d 3d6b 9e3c
00000100: 257d 993c a772 c3bd 5b48 d2bd 3b4b 783e
00000110: f677 5c3e c25e 96bb 1688 5d3d 9317 643d
00000120: c2a3 14be c625 b03e acbc 9a3e 7282 8d3e
00000130: 11fc 863e addc f13d 9c45 bdbd b16c 843e
00000140: 4a4f 58be 9ba0 53bc 5b4d 86bd f442 a83d
00000150: 5746 2a3e 13d9 8f3e 1c2b 9a3d ad41 523d
00000160: 2e86 233e a64a 4a3e e76c 5e3d a7f9 eb3d
00000170: c761 2c3e 14cf 333d b9cb 10be e7d7 103e
00000180: 42f3 ebbd 92fa 893c 38c5 93bd a3c1 4a3d
00000190: a649 333e 4ff6 0e3e ff8c 973e 5323 973d
000001a0: 5eed bc3d dccd 903e b542 663e 2efa 0cbe
000001b0: bd1f bbbc be54 263e a530 38be 826c 91bd
000001c0: 4257 20be 4604 da3d 246c 1bbd e6e4 3b3e
000001d0: cbe2 5d3e fc14 293d 754a 9cbd 2e7c 913c
000001e0: 73d0 423e 987e 913c 192a 09bd 8f2e 573e
000001f0: 477b 2d3e 9d8e 6b3e 1946 e1bd 9ec1 753e
00000200: 6b3f 1d3e 2230 323d 6071 3f3e 6b4d 243e
00000210: 5b7f 5c3e d109 6f3e b680 553e 574b 853e
00000220: 9d34 f53d 8bf4 613e b76f c9bd e534 643e
00000230: 5ae8 743d 658c 883e fabe 9f3b ca68 2c3e
00000240: 76f4 703e e7f8 f73d e644 323d e22b 6e3c
00000250: 1f67 9fbd 6211 4cbe d4ca eebd fe42 263e
00000260: 68ba dfbd ee33 0a3e cfdb 843d 9cfb 7e3e
00000270: 24d3 5d3e 8540 0b3e 7aba 0e3d f222 e63c
00000280: 4c9d 15be 9a4e cc3d 79f3 cbbd 3637 a93d
00000290: f98d 323e 347d f6bd 1bf5 6f3e 7cf1 0bbd
000002a0: 8a5e 113e 70de 7b3d 1534 0f3b 87d9 4a3e
000002b0: c630 823e 6c44 5f3c bea5 863c 8c5b 313e
000002c0: 5531 033e 4935 bebd 8596 c3bd ba2b 4e3e
000002d0: 3828 793e c8db 46bd 9c9d 1c3e 9586 193d
000002e0: 72c5 91bd e531 1f3d 712d 3a3e ab8e 3f3d
000002f0: d160 7d3c 54e7 3bbd d619 53be 3dde 1dbe
00000300: 0d8b 633e 7ddd 883e d8a8 cb3d ce67 08be
00000310: 6f26 1abe 9737 1f3d de0b 19bd a770 1abd
00000320: 405c c2be b8dc 6cbe 6a42 6e3e f91b 403e
00000330: 191d a13d 1637 5cbe 8fb0 673e f13a 843e
00000340: 0515 233e 74c1 013e 33ff 5e3e fbc4 443e
00000350: e39a 0d3e 2763 8c3d 177c 363d dc8c e83d
00000360: 10a4 883e 8421 3a3e f0ed 96bc 7c5b 9c3d
00000370: 6b29 b93d 5914 e8bc e4b6 793c e50a 663e
00000380: c6e4 403e 2199 1b3d cf74 e33d 0a69 6a3e
00000390: e810 4cbc 371c 10bd 271a 663c 8b9a 7f3e
000003a0: d09d 823e 6050 0ebe 95bc 6c3e 3f99 27be
000003b0: fb66 85be d4a1 a53d 0156 cd3d 38d8 323e
000003c0: e9cd f3bc 709c 6b3e 41f8 ccbc 472e 1cbe
000003d0: e565 70bd bfcf 1a3e 6061 7abe a9e5 343e
000003e0: 3718 723e 3c39 32bb 219b 593e 154b 06bd
000003f0: ec86 693e b15e 5c3d 2854 8bbd d6ab 633e

net.2.bias f4 [256]
0.17658891 0.012994743 0.07067633 0.08301495 -0.04290019 -0.03936076 0.016523229 -0.048937064
0.1005077 -0.03640336 0.018772455 0.21194969 -0.035468955 0.028460734 -0.033116333 -0.047621988
0.057616502 -0.044394568 -0.039217353 0.17533238 0.057716772 0.026037363 -0.013062615 0.0620525
-0.045985613 0.060410637 -0.026551899 0.013895506 0.0091870725 0.23566295 -0.018781764 0.010996774
-0.078401536 -0.053560387 -0.028627051 0.017507274 -0.03181385 -0.020058304 0.00998094 0.14570098
-0.07127662 -0.048224274 0.18153693 -0.09887999 -0.0491727 -0.058787793 0.18364576 0.044060353
0.009630177 0.18423161 -0.04114399 0.08478436 0.10857656 0.022138024 -0.052754335 0.10652382
-0.038224194 -0.014872185 0.00963731 -0.01234341 0.021807587 -0.0318906 -0.02388903 -0.11782365
0.0090113245 -0.01874119 -0.05600127 -0.03340283 0.19173777 -0.016027791 0.04230041 -0.022807842
-0.057347044 0.0045229457 0.063160546 -0.034054507 0.10956734 -0.09175341 0.024163308 -0.030007992
-0.007065773 0.043878905 -0.017839652 0.0014540611 -0.003940368 -0.0032494124 -0.06073102 -0.04698857
0.07894083 -0.022647306 0.2268887 -0.088151544 -0.087489076 -0.038076412 0.22971222 -0.075387396
0.046520844 -0.014698819 -0.052297726 0.0041335826 0.015192115 -0.047146924 -0.05806285 -0.03794454
-0.043044753 -0.058100734 0.13995908 0.1932723 0.04938038 0.012736125 -0.0037245532 0.053546734
0.05732661 -0.006185414 -0.0688993 -0.021494942 -0.0045458493 -0.048843104 0.0061694537 0.028003683
0.027387576 0.08013639 0.082878634 0.019643733 0.12560242 -0.0482343 0.011272531 -0.03774159
-0.02574832 0.04609435 0.028126167 -0.028203154 0.007112799 -0.105729714 -0.0012591103 -0.01038643
-0.0036703802 0.23125578 0.21925713 -0.03283646 0.014625894 -0.03233078 -0.13872476 0.02644773
-0.0011593212 0.078726284 -0.008451597 -0.07512905 0.016330242 -0.023790026 0.011841462 0.059937466
0.07774291 0.041393604 0.041627716 -0.06254549 -0.01063729 0.037496727 -0.036973964 -0.024661541
0.007939672 0.095780365 0.012496334 -0.052552436 0.07029256 0.16003868 0.17440423 -0.0002259597
0.026071694 -0.015951136 -0.074602075 -0.09358091 0.042693388 0.15788044 0.17375326 -0.028487805
0.034270473 0.066210225 -0.058015894 -0.037271462 -0.051597 0.0040327464 -0.028154891 -0.017998464
-0.049483024 0.03401546 0.04992984 -0.043382894 0.18749817 -0.11988699 -0.04351133 0.13068931
0.046346724 0.0036041976 -0.016195832 0.010713408 0.03661344 -0.06870228 0.078856274 0.06313522
0.038795132 0.09535527 0.059295297 -0.027014453 0.016132884 -0.013450791 0.082035355 -0.007473961
0.00018535201 -0.07566209 0.06988957 0.017358182 -0.077690445 -0.029038515 -0.054342646 0.04361343
0.07333991 -0.008645993 0.027874824 -0.119614206 0.1155075 -0.046994083 -0.11752544 0.1013699
-0.030952433 0.13232236 0.10538852 0.043459624 0.188514 0.04270282 0.09439761 0.2515187
0.018865151 0.19266327 0.10628556 -0.11125772 0.012885853 -0.013363314 0.08050039 -0.022790378
-0.064346805 0.051820647 0.0716663 6.612122e-05 0.21425296 0.014081653 -0.044434674 0.078438036
0.07269293 -0.054007135 0.116460785 0.031563003 -0.008724093 0.08614807 0.13288437 0.03566108
00000000: b9d3 343e e7e7 543c c0be 903d be03 aa3d
00000010: 1cb8 2fbd c038 21bd b95b 873c 3b72 48bd
00000020: fbd6 cd3d b11b 15bd b1c8 993c 5709 593e
00000030: e547 11bd 7c26 e93c fea4 07bd 460f 43bd
00000040: 48ff 6b3d 14d7 35bd 60a2 20bd 558a 333e
00000050: 6c68 6c3d 4f4c d53c 9404 56bc c32a 7e3d
00000060: 695b 3cbd 2571 773d 5e83 d9bc faa9 633c
00000070: 6085 163c a151 713e 37dc 99bc d02b 343c
00000080: fc90 a0bd 2362 5bbd 4783 eabc 6a6b 8f3c
00000090: 3d4f 02bd 5051 a4bc 1987 233c a332 153e
000000a0: 7af9 91bd d186 45bd d1e4 393e 9881 cabd
000000b0: 5069 49bd 78cb 70bd a20d 3c3e a178 343d
000000c0: e4c7 1d3c 36a7 3c3e 9a86 28bd 6ca3 ad3d
000000d0: 635d de3d cd5a b53c ee14 58bd 2929 da3d
000000e0: f990 1cbd 77aa 73bc cfe5 1d3c 043c 4abc
000000f0: d3a5 b23c b89f 02bd edb2 c3bc 874d f1bd
00000100: 3ca4 133c 2087 99bc 9661 65bd 68d1 08bd
00000110: e856 443e b74c 83bc 3243 2d3d 83d7 babc
00000120: bce4 6abd 3835 943b 515a 813d bd7c 0bbd
00000130: d764 e03d 36e9 bbbd 21f2 c53c 52d3 f5bc
00000140: 0088 e7bb 5eba 333d 7624 92bc 3296 be3a
00000150: 341e 81bb 18f4 54bb 17c1 78bd 1677 40bd
00000160: bbab a13d d886 b9bc 8355 683e cc88 b4bd
00000170: 792d b3bd 03f6 1bbd ae39 6b3e b564 9abd
00000180: a48c 3e3d 51d3 70bc 2436 56bd 0173 873b
00000190: 59e8 783c 221d 41bd 50d3 6dbd bc6b 1bbd
000001a0: b24f 30bd 09fb 6dbd 6f51 0f3e 2ce9 453e
000001b0: 1543 4a3d 2eab 503c a217 74bb d253 5b3d
000001c0: 4fcf 6a3d 03af cabb 141b 8dbd 2916 b0bc
000001d0: 59f5 94bb b50f 48bd 2129 ca3b fb67 e53c
000001e0: e95b e03c 8c1e a43d 46bc a93d e5eb a03c
000001f0: ec9d 003e 5491 45bd 6cb0 383c ed96 1abd
00000200: 24ee d2bc 6ecd 3c3d d968 e63c 4d0a e7bc
00000210: 7c12 e93b d288 d8bd bb08 a5ba d82b 2abc
00000220: c38a 70bb 51ce 6c3e f184 603e 867f 06bd
00000230: 72a1 6f3c 486d 04bd dd0d 0ebe e9a8 d83c
00000240: 5df4 97ba 3f3b a13d 9178 0abc 42dd 99bd
00000250: 00c7 853c 4de3 c2bc b102 423c fd80 753d
00000260: ad37 9f3d 578c 293d d381 2a3d da17 80bd
00000270: 0748 2ebc 2b96 193d 0372 17bd 0007 cabc
00000280: 6615 023c 7f28 c43d 6cbd 4c3c 3941 57bd
00000290: 8cf5 8f3d 2ee1 233e 0697 323e 98ef 6cb9
000002a0: 4e94 d53c f5ab 82bc f9c8 98bd 59a7 bfbd
000002b0: 43df 2e3d 69ab 213e 60ec 313e 425f e9bc
000002c0: 325f 0c3d 3a99 873d 13a2 6dbd f6a9 18bd
000002d0: 6057 53bd 2125 843b 16a5 e6bc 8471 93bc
000002e0: b6ae 4abd cc53 0b3d 3b83 4c3d 43b2 31bd
000002f0: 85ff 3f3e 4f87 f5bd f038 32bd 6bd3 053e
00000300: 10d6 3d3d 6734 6c3b 1fad 84bc 4a87 2f3c
00000310: f9f7 153d c8b3 8cbd 667f a13d 0a4d 813d
00000320: a5e7 1e3d a049 c33d a0df 723d 6a4d ddbc
00000330: 1c29 843c b560 5cbc 2702 a83d 21e8 f4bb
00000340: 0d5b 4239 baf4 9abd 4322 8f3d bf32 8e3c
00000350: 2b1c 9fbd 2ee2 edbc 6596 5ebd ffa3 323d
00000360: 3c33 963d eca7 0dbc be59 e43c 4bf8 f4bd
00000370: 328f ec3d de7c 40bd 2eb1 f0bd 069b cf3d
00000380: f58f fdbc 837f 073e f0d5 d73d b802 323d
00000390: d009 413e 27e9 2e3d 8953 c13d 0fc7 803e
000003a0: 178b 9a3c 8549 453e 3eac d93d 16db e3bd
000003b0: 2f1f 533c cdf1 5abc 63dd a43d e3b2 babc
000003c0: 42c8 83bd e341 543d c8c5 923d 8faa 8a38
000003d0: 2165 5b3e bcb6 663c 2201 36bd 1fa4 a03d
000003e0: 08e0 943d 9636 5dbd fe82 ee3d 3548 013d
000003f0: 80ef 0ebc 666e b03d d712 083e 5a11 123d

net.4.weight f4 [1, 256]
0.27416483 -0.16671446 0.2533579 -0.06816412 0.0137264505 -0.22569281 -0.14339177 0.12221302
0.24789949 -0.19073056 0.04651902 0.18942653 -0.33281937 0.21169688 0.03866183 0.042562198
-0.1331361 -0.19858778 0.009543588 0.25906 0.09136157 -0.17374727 0.23574826 -0.10690613
0.18251689 -0.17924993 0.020161934 0.040836792 -0.18654665 0.19016774 -0.13670877 0.0350053
0.07657861 -0.0018051203 0.037514877 -0.17853415 0.13410755 0.047517996 -0.11470516 0.3035371
-0.1265189 0.1860076 0.19575812 0.12934053 -0.09846108 0.011833534 0.10413663 0.021770552
-0.19519813 0.33061364 0.01633886 -0.16617878 -0.19900602 -0.11409011 0.0015821769 -0.13296421
0.11932352 0.025522752 -0.10472317 -0.2606991 -0.27854407 -0.1349054 -0.11662022 0.15098307
0.021992406 -0.13744545 0.041792743 0.030848129 0.18339895 -0.186759 0.0056402343 0.16141552
0.18502726 0.05820156 -0.10284748 0.046877626 -0.15539947 -0.3287815 0.031518705 -0.1623907
0.051488414 -0.0012044552 0.0017683557 0.026704663 -0.107775435 -0.37375596 0.023570003 0.045309544
-0.28478056 -0.23256531 0.34644747 0.13473664 0.17371312 0.0035406458 0.31527138 -0.12874433
-0.17649645 -0.16611758 -0.116460614 -0.11989595 -0.12800452 0.06392031 0.14046618 -0.10072609
0.18800388 0.026773902 0.26316258 0.26141462 0.025309328 -0.10457069 -0.24623483 -0.21472485
-0.2528353 -0.11845168 0.090412036 -0.16665758 0.20771284 -0.14900936 -0.1042788 0.23541786
-0.098498955 0.24863316 -0.20860061 -0.09624879 0.17288055 0.03201453 -0.1366139 0.0581192
0.0014846723 -0.16048802 -0.14149734 0.1507608 -0.15034519 0.13416094 -0.1837356 -0.12508205
-0.14418466 0.33692566 0.34657547 -0.0012636516 -0.101737104 0.1453588 0.120786354 -0.16994289
0.047892462 -0.19214383 -0.19031157 0.087453686 -0.12185745 0.045733854 0.13436146 -0.13050453
-0.12154036 -0.19992618 -0.18934041 0.042213194 -0.091271095 0.027318792 0.033971474 0.09883759
-0.3242803 -0.22558464 0.05234979 0.018548602 -0.17455523 -0.2899452 0.26481962 0.04587219
-0.10915396 0.052218504 0.08100599 0.13661042 0.0030116746 0.3006184 0.21653147 0.033098944
-0.0037083328 -0.19324212 -0.26960516 -0.20733345 -0.14788568 0.122909345 -0.10496497 0.14590716
-0.11474658 0.051436823 -0.14255665 -0.13086408 0.32653838 0.114019305 -0.18306391 -0.10025364
-0.18378063 -0.2153197 0.023976732 -0.09860949 -0.1796121 0.004342338 -0.20282936 -0.36807048
-0.20206128 -0.2571044 0.2954075 0.021625664 0.008417306 -0.002395678 -0.25651142 0.12971157
0.0028977364 0.13977966 -0.056529798 0.02391833 -0.15478618 0.0008043187 0.019846052 0.046882033
-0.06844105 -0.1721778 -0.1458495 0.17359072 -0.21477972 -0.3987735 0.16021211 0.24799944
-0.40821293 0.3294988 -0.205114 0.041263692 0.28429317 0.28110984 -0.24489911 0.23566772
0.15540472 0.38663045 -0.200619 0.1548486 -0.32882252 0.016831372 -0.21703349 -0.12629719
0.13919182 -0.11691759 -0.20337203 0.22359699 0.36382663 -0.13798371 -0.1779062 -0.21795957
-0.26663643 0.014479165 0.26783228 -0.2251911 -0.066882096 -0.17754309 0.25887105 -0.18450028
00000000: 555f 8c3e 32b7 2abe 20b8 813e a199 8bbd
00000010: e8e4 603c 041c 67be 4bd5 12be d24a fa3d
00000020: 5dd9 7d3e df4e 43be ba8a 3e3d 07f9 413e
00000030: 4d67 aabe 11c7 583e de5b 1e3d b355 2e3d
00000040: d454 08be 985a 4bbe b65c 1c3c 83a3 843e
00000050: c61b bb3d ceea 31be fe67 713e 9af1 dabd
00000060: b5e5 3a3e 4b8d 37be a42a a53c 7b44 273d
00000070: 1606 3fbe 55bb 423e 62fd 0bbe b861 0f3d
00000080: 3fd5 9c3d c999 ecba 33a9 193d a8d1 36be
00000090: 7d53 093e 3ba2 423d 8aea eabd 3769 9b3e
000000a0: 2c8e 01be c778 3e3e d174 483e d871 043e
000000b0: f6a5 c9bd 70e1 413c 9645 d53d 2858 b23c
000000c0: 05e2 47be 3146 a93e 13d9 853c c52a 2abe
000000d0: 3cc8 4bbe 13a8 e9bd 0c61 cf3a c527 08be
000000e0: e45f f43d 1715 d13c 1a79 d6bd 5a7a 85be
000000f0: 549d 8ebe a424 0abe 95d6 eebd 4e9b 1a3e
00000100: 6b29 b43c 80be 0cbe de2e 2b3d 37b5 fc3c
00000110: efcc 3b3e c03d 3fbe b7d1 b83b 1c4a 253e
00000120: c977 3d3e c264 6e3d b3a1 d2bd c102 403d
00000130: 0a21 1fbe 0c56 a8be c219 013d bf49 26be
00000140: 84e5 523d cfde 9dba 2cc8 e73a bdc3 da3c
00000150: 5eb9 dcbd f15c bfbe e115 c13c 8096 393d
00000160: c2ce 91be 9a25 6ebe 9061 b13e 67f8 093e
00000170: dae1 313e 2e0a 683b 406b a13e 8ed5 03be
00000180: 7cbb 34be ba1a 2abe e782 eebd 028c f5bd
00000190: 9e13 03be a7e8 823d 5ed6 0f3e 7b49 cebd
000001a0: 1784 403e f154 db3c 3fbd 863e 23d8 853e
000001b0: 8255 cf3c 2829 d6bd fc24 7cbe d5e0 5bbe
000001c0: a173 81be cb96 f2bd f229 b93d 49a8 2abe
000001d0: adb2 543e e995 18be 2090 d5bd 6111 713e
000001e0: d2b9 c9bd b199 7e3e 669b 55be 161e c5bd
000001f0: 9907 313e ab21 033d 84e4 0bbe 660e 6e3d
00000200: 5699 c23a f956 24be aee4 10be 0a61 1a3e
00000210: 17f4 19be 7c61 093e 2f25 3cbe 8215 00be
00000220: 25a5 13be 8581 ac3e 5772 b13e 1da1 a5ba
00000230: 8b5b d0bd f0d8 143e d65e f73d 8205 2ebe
00000240: e32a 443d 5ac1 44be 09e1 42be eb1a b33d
00000250: 6690 f9bd 6c53 3b3d 0d96 093e fba2 05be
00000260: 27ea f8bd 73b9 4cbe 74e2 41be bee7 2c3d
00000270: 57ec babd a9cb df3c ac25 0b3d 5d6b ca3d
00000280: 1108 a6be a9ff 66be bc6c 563d 3df3 973c
00000290: 9bbe 32be b273 94be 7096 873e 7ae4 3b3d
000002a0: 1d8c dfbd 12e3 553d 78e6 a53d 9ae3 0b3e
000002b0: 845f 453b a8ea 993e 6dba 5d3e c292 073d
000002c0: 8007 73bb 43e1 45be b009 8abe 384f 54be
000002d0: 586f 17be e5b7 fb3d e0f7 d6bd b068 153e
000002e0: 4100 ebbd 6baf 523d 5ffa 11be 3c01 06be
000002f0: 0a30 a73e f482 e93d 1b75 3bbe c851 cdbd
00000300: fd30 3cbe c47c 5cbe da6a c43c c6f3 c9bd
00000310: 3cec 37be 2c4a 8e3b 80b2 4fbe bc73 bcbe
00000320: 27e9 4ebe 30a3 83be a73f 973e 4e28 b13c
00000330: bde8 093c cf00 1dbb 7755 83be 1cd3 043e
00000340: f3e7 3d3b 6622 0f3e ca8b 67bd 60f0 c33c
00000350: 4580 1ebe ead8 523a 3094 a23c 6007 403d
00000360: d22a 8cbd 614f 30be 9259 15be c4c1 313e
00000370: 37ef 5bbe 0a2c ccbe a50e 243e 91f3 7d3e
00000380: 4901 d1be 11b4 a83e 6809 52be 1e04 293d
00000390: e08e 913e a1ed 8f3e d5c6 7abe e152 713e
000003a0: 6a22 1f3e 6df4 c53e 116f 4dbe a290 1e3e
000003b0: 6d5b a8be f2e1 893c 073e 5ebe 0d54 01be
000003c0: 4d88 0e3e 7d72 efbd c240 50be 9cf6 643e
000003d0: 7c47 ba3e 9a4b 0dbe 0b2d 36be cb30 5fbe
000003e0: 9284 88be 053a 6d3c 5021 893e 7f98 66be
000003f0: 7bf9 88bd dbcd 35be bf8a 843e a4ed 3cbe

exp_avg f4 [256, 6]
-6e-45 -6e-45 -6e-45 -6e-45 -6e-45 6e-45 -9.136e-42 -7.636e-42
9.5e-44 9.148e-42 -6e-45 -6e-45 -0.011483913 0.002943309 -3.8087746e-05 -0.0037560426
-6e-45 6e-45 -0.010066243 0.0021071397 -9.615635e-05 -0.0026409987 -6e-45 6e-45
-0.0018353579 0.00065229717 2.8575912e-05 -0.00083692506 -6e-45 -6e-45 -0.012574658 0.003206597
-4.2821415e-05 -0.004091989 -6e-45 -6e-45 -0.019470895 0.0041991877 -0.00018231008 -0.005299625
-6e-45 6e-45 -0.029382199 -0.0014698872 -0.00041852365 0.00410673 6e-45 -6e-45
-0.011710969 0.0025338635 -0.000111886744 -0.0032028428 -6e-45 6e-45 6e-45 -6e-45
-6e-45 6e-45 6e-45 -6e-45 -6e-45 -6e-45 6e-45 6e-45
6e-45 -6e-45 -6e-45 -6e-45 6e-45 6e-45 6e-45 -6e-45
-0.0049457317 0.0010567982 -4.920399e-05 -0.0013346713 -6e-45 6e-45 -4.278953e-21 3.1153205e-21
9.8114714e-23 -4.3245673e-21 -6e-45 6e-45 0.015893191 -0.004465697 -7.6028516e-07 0.0056638843
-6e-45 6e-45 -0.02735185 0.0060080285 -0.00027300173 -0.0076424647 6e-45 6e-45
0.027521577 -0.006071718 0.0002772402 0.0077341027 -6e-45 6e-45 0.026481051 -0.005845525
0.00026479218 0.0074460316 -6e-45 6e-45 -0.015452679 0.0046496787 -4.1870928e-05 -0.00593879
6e-45 -6e-45 -0.012619021 0.0026702764 -0.00011559504 -0.003346825 -6e-45 6e-45
-0.026468167 0.0058961404 -0.00028207962 -0.007557246 6e-45 -6e-45 -0.016195573 0.0037374736
-0.0001776074 -0.0048409444 -6e-45 6e-45 0.010072846 -0.0022460932 0.00010118198 0.0028679934
-6e-45 6e-45 6e-45 -6e-45 -6e-45 6e-45 -6e-45 -6e-45
-0.007386156 0.0015592062 -7.0886075e-05 -0.0019579546 -6e-45 6e-45 -0.029231707 0.0065817432
-0.00030522214 -0.00844634 -6e-45 6e-45 -0.013984135 0.0030653877 -0.00014030711 -0.0039049904
6e-45 -6e-45 -0.033403132 0.0075421436 -0.00034737238 -0.009679878 6e-45 -6e-45
-4.491e-42 -1.607e-42 7.6e-44 1.673e-42 6e-45 -6e-45 -0.060088802 -0.0032843538
-0.001025499 0.009022805 6e-45 -6e-45 -0.008900023 -0.00039703454 -0.0001190697 0.0011802712
-6e-45 6e-45 -0.015085706 0.003323592 -0.0001443792 -0.004220909 6e-45 6e-45
-0.023521181 0.005198137 -0.00022248607 -0.0066009387 -6e-45 6e-45 -0.012445008 0.0026453575
-0.00012847992 -0.0033442383 6e-45 6e-45 -6e-45 -6e-45 -6e-45 -6e-45
6e-45 -6e-45 0.00025486294 8.355802e-05 1.359188e-05 -0.00013459692 -6e-45 6e-45
0.013989144 -0.0030428597 0.00013725008 0.0038583148 -6e-45 6e-45 -0.012191191 0.0026085686
-0.00012038939 -0.0032952998 6e-45 6e-45 -0.012889271 0.0027608867 -0.00012014444 -0.0034780838
-6e-45 6e-45 -0.0024825193 0.0005325601 -2.9969999e-05 -0.0006815257 6e-45 -6e-45
-0.0323461 0.0072058057 -0.00034460495 -0.009235837 -6e-45 6e-45 -0.018076228 0.0039559333
-0.00019578896 -0.0050544124 6e-45 -6e-45 -0.00051112607 -0.00019777393 6.2459717e-06 0.00029614105
00000000: 0400 0080 0400 0080 0400 0080 0400 0080
00000010: 0400 0080 0400 0000 7819 0080 4915 0080
00000020: 4400 0000 8019 0000 0400 0080 0400 0080
00000030: 0627 3cbc 88e4 403b 68c0 1fb8 f027 76bb
00000040: 0400 0080 0400 0000 e2ec 24bc f017 0a3b
00000050: 8ca7 c9b8 9b14 2dbb 0400 0080 0400 0000
00000060: 6490 f0ba ecfe 2a3a 4eb6 ef37 1765 5bba
00000070: 0400 0080 0400 0080 f005 4ebc c525 523b
00000080: 259b 33b8 1716 86bb 0400 0080 0400 0080
00000090: 6d81 9fbc 5799 893b 7d2a 3fb9 7aa8 adbb
000000a0: 0400 0080 0400 0000 f0b2 f0bc 3ba9 c0ba
000000b0: 4b6d dbb9 c091 863b 0400 0000 0400 0080
000000c0: 5ddf 3fbc 2d0f 263b bda4 eab8 c9e6 51bb
000000d0: 0400 0080 0400 0000 0400 0000 0400 0080
000000e0: 0400 0080 0400 0000 0400 0000 0400 0080
000000f0: 0400 0080 0400 0080 0400 0000 0400 0000
00000100: 0400 0000 0400 0080 0400 0080 0400 0080
00000110: 0400 0000 0400 0000 0400 0000 0400 0080
00000120: ce0f a2bb 4384 8a3a 6260 4eb8 23f0 aeba
00000130: 0400 0080 0400 0000 7ea7 a19d 1063 6b1d
00000140: 113a ed1a a660 a39d 0400 0080 0400 0000
00000150: 7032 823c fb54 92bb 6616 4cb5 1b98 b93b
00000160: 0400 0080 0400 0000 fd10 e0bc ffde c43b
00000170: ac21 8fb9 a46d fabb 0400 0000 0400 0000
00000180: ee74 e13c 43f5 c6bb 8d5a 9139 5b6e fd3b
00000190: 0400 0080 0400 0000 caee d83c d18b bfbb
000001a0: ced3 8a39 d7fd f33b 0400 0080 0400 0000
000001b0: 3c2d 7dbc 555c 983b 919e 2fb8 2e9a c2bb
000001c0: 0400 0000 0400 0080 03c0 4ebc ceff 2e3b
000001d0: 9d6b f2b8 6856 5bbb 0400 0080 0400 0000
000001e0: c5d3 d8bc 6934 c13b 16e4 93b9 c6a2 f7bb
000001f0: 0400 0000 0400 0080 94ac 84bc 67f0 743b
00000200: 203c 3ab9 c9a0 9ebb 0400 0080 0400 0000
00000210: 9408 253c 3133 13bb a931 d438 f2f4 3b3b
00000220: 0400 0080 0400 0000 0400 0000 0400 0080
00000230: 0400 0080 0400 0000 0400 0080 0400 0080
00000240: 9107 f2bb 475e cc3a aca8 94b8 0751 00bb
00000250: 0400 0080 0400 0000 5577 efbc aaab d73b
00000260: 3906 a0b9 8562 0abc 0400 0080 0400 0000
00000270: b71d 65bc ace4 483b 671f 13b9 deea 7fbb
00000280: 0400 0000 0400 0080 b9d1 08bd 1624 f73b
00000290: 881f b6b9 5a98 1ebc 0400 0000 0400 0080
000002a0: 850c 0080 7b04 0080 3600 0000 aa04 0000
000002b0: 0400 0000 0400 0080 ad1f 76bd 503e 57bb
000002c0: 096a 86ba 63d4 133c 0400 0000 0400 0080
000002d0: 67d1 11bc 1329 d0b9 0fb5 f9b8 54b3 9a3a
000002e0: 0400 0080 0400 0000 092a 77bc 9fd0 593b
000002f0: 7f64 17b9 8d4f 8abb 0400 0000 0400 0000
00000300: 7eaf c0bc 2255 aa3b 264b 69b9 b04c d8bb
00000310: 0400 0080 0400 0000 26e6 4bbc bc5d 2d3b
00000320: 91b8 06b9 022b 5bbb 0400 0000 0400 0000
00000330: 0400 0080 0400 0080 0400 0080 0400 0080
00000340: 0400 0000 0400 0080 209f 8539 df3b af38
00000350: ae08 6437 9622 0db9 0400 0080 0400 0000
00000360: b932 653c b76a 47bb caea 0f39 c8db 7c3b
00000370: 0400 0080 0400 0000 90bd 47bc 85f4 2a3b
00000380: 9079 fcb8 f5f5 57bb 0400 0000 0400 0000
00000390: 852d 53bc feef 343b 0ef6 fbb8 90f0 63bb
000003a0: 0400 0080 0400 0000 c3b1 22bb 819b 0b3a
000003b0: 1568 fbb7 6aa8 32ba 0400 0000 0400 0080
000003c0: 587d 04bd ae1e ec3b 18ac b4b9 e851 17bc
000003d0: 0400 0080 0400 0000 9914 94bc c6a0 813b
000003e0: b34c 4db9 7c9f a5bb 0400 0000 0400 0080
000003f0: 17fd 05ba 8961 4fb9 7d94 d136 6143 9b39

exp_avg_sq f4 [256, 6]
1.0983991e-34 3.7777833e-34 5.1493153e-36 1.5505445e-34 7e-43 7e-43 0.00013711628 0.00011446816
3.1502648e-07 0.00015518612 7e-43 7e-43 0.011100605 0.00045150315 1.0184825e-05 0.0006564583
7e-43 7e-43 0.016646672 0.0009997004 1.6270686e-05 0.0014698217 7e-43 7e-43
0.0005608826 0.00010507913 4.810517e-07 0.00016788421 7e-43 7e-43 0.015168873 0.0006707253
1.378085e-05 0.0009876405 7e-43 7e-43 0.06537341 0.0038800908 6.277009e-05 0.0057327542
7e-43 7e-43 0.016598282 0.0008478926 1.4832681e-05 0.0013400932 7e-43 7e-43
0.024358781 0.0014509815 2.3448856e-05 0.002143907 7e-43 7e-43 0.0034784304 0.00012595418
2.8638717e-06 0.0001903704 7e-43 7e-43 6.078389e-37 6.762602e-35 1.0642199e-36 1.5600159e-34
7e-43 7e-43 5.6323047e-23 2.5512274e-20 8.580382e-23 5.4040918e-20 7e-43 7e-43
0.0041950606 0.00023910515 4.0737227e-06 0.0003470014 7e-43 7e-43 8.545194e-06 2.8532163e-06
6.0924346e-09 4.111049e-06 7e-43 7e-43 0.032532256 0.0014811655 2.8332583e-05 0.0021340083
7e-43 7e-43 0.14921743 0.00874108 0.00013893766 0.013045625 7e-43 7e-43
0.1576961 0.009173133 0.00014531003 0.013734646 7e-43 7e-43 0.14494517 0.008419339
0.00013326902 0.012612986 7e-43 7e-43 0.022764113 0.0015186182 2.4407953e-05 0.002200954
7e-43 7e-43 0.024402749 0.0014866076 2.4269168e-05 0.0021723234 7e-43 7e-43
0.16563441 0.009475743 0.00014852488 0.014314795 7e-43 7e-43 0.07134912 0.0040064817
6.231162e-05 0.006096652 7e-43 7e-43 0.02092227 0.0011626633 1.9032059e-05 0.0017704883
7e-43 7e-43 1.512454e-08 1.3372203e-05 1.3677068e-07 8.59384e-06 7e-43 7e-43
0.009086419 0.0005506228 8.94368e-06 0.00080656103 7e-43 7e-43 0.19958945 0.011454557
0.00017951579 0.017281454 7e-43 7e-43 0.039935745 0.0023188214 3.6867306e-05 0.0034647472
7e-43 7e-43 0.2608289 0.014943212 0.0002352723 0.02252279 7e-43 7e-43
0.00015656918 0.0001012187 3.8008275e-07 0.00012473919 7e-43 7e-43 0.05720606 0.00422205
6.1459876e-05 0.0062531945 7e-43 7e-43 0.0010850407 5.180264e-05 1.1023235e-06 7.532352e-05
7e-43 7e-43 0.04316742 0.0025484874 4.0975658e-05 0.0037797373 7e-43 7e-43
0.10153671 0.006010792 9.686737e-05 0.008895903 7e-43 7e-43 0.030393338 0.001787206
2.8278475e-05 0.00266818 7e-43 7e-43 7e-43 7e-43 7e-43 7e-43
7e-43 7e-43 0.00015905368 9.186737e-06 1.05130844e-07 1.6208642e-05 7e-43 7e-43
0.037490357 0.0022016056 3.4978333e-05 0.0032762373 7e-43 7e-43 0.027735556 0.0016366666
2.6139618e-05 0.0024332881 7e-43 7e-43 0.027729632 0.0016581655 2.6881715e-05 0.0024443301
7e-43 7e-43 0.0015000353 7.090336e-05 1.3008188e-06 0.0001020305 7e-43 7e-43
0.23557931 0.012565909 0.00022000127 0.017952027 7e-43 7e-43 0.075273655 0.0041050245
6.821724e-05 0.0060960995 7e-43 7e-43 0.005229567 0.00094031374 4.2827373e-06 0.001356664
00000000: 9600 1207 a713 fb07 1407 db04 4c1a 4e07
00000010: f401 0000 f401 0000 dfc6 0f39 a00e f038
00000020: e920 a934 75b9 2239 f401 0000 f401 0000
00000030: 50df 353c bab7 ec39 7edf 2a37 2c16 2c3a
00000040: f401 0000 f401 0000 9a5e 883c 6108 833a
00000050: 087d 8837 08a7 c03a f401 0000 f401 0000
00000060: 3208 133a ee5d dc38 9f21 0135 130a 3039
00000070: f401 0000 f401 0000 dd86 783c 9dd3 2f3a
00000080: 4d34 6737 b773 813a f401 0000 f401 0000
00000090: 7fe2 853d 1f49 7e3b 6fa3 8338 d4d9 bb3b
000000a0: f401 0000 f401 0000 1ff9 873c 1c45 5e3a
000000b0: e1d9 7837 11a6 af3a f401 0000 f401 0000
000000c0: 118c c73c dc2e be3a 09b4 c437 ca80 0c3b
000000d0: f401 0000 f401 0000 61f6 633b 9112 0439
000000e0: f130 4036 2a9e 4739 f401 0000 f401 0000
000000f0: 3cd6 4e03 e2c7 b306 5011 b503 975c 4f07
00000100: f401 0000 f401 0000 472e 881a e5f4 f01e
00000110: fe75 cf1a 7633 7f1f f401 0000 f401 0000
00000120: b876 893b 4db8 7a39 03b1 8836 bded b539
00000130: f401 0000 f401 0000 545d 0f37 e279 3f36
00000140: 9f55 d131 a4f1 8936 f401 0000 f401 0000
00000150: 8b40 053d ab23 c23a c2ab ed37 b8da 0b3b
00000160: f401 0000 f401 0000 74cc 183e bf36 0f3c
00000170: cbaf 1139 51bd 553c f401 0000 f401 0000
00000180: 167b 213e e94a 163c 5d5e 1839 4807 613c
00000190: f401 0000 f401 0000 826c 143e 44f1 093c
000001a0: 21be 0b39 b3a6 4e3c f401 0000 f401 0000
000001b0: ce7b ba3c 5f0c c73a aebf cc37 e13d 103b
000001c0: f401 0000 f401 0000 46e8 c73c 46da c23a
000001d0: a495 cb37 8a5d 0e3b f401 0000 f401 0000
000001e0: 119c 293e 2640 1b3c 58bd 1b39 9a88 6a3c
000001f0: f401 0000 f401 0000 7d1f 923d ce48 833b
00000200: 4cad 8238 6cc6 c73b f401 0000 f401 0000
00000210: 2e65 ab3c 8264 983a 09a7 9f37 bb0f e83a
00000220: f401 0000 f401 0000 37eb 8132 2d59 6037
00000230: 3ddb 1234 432e 1037 f401 0000 f401 0000
00000240: 34df 143c ac57 103a d00c 1637 656f 533a
00000250: f401 0000 f401 0000 2d61 4c3e e5ab 3b3c
00000260: 673c 3c39 d691 8d3c f401 0000 f401 0000
00000270: aa93 233d 5ef7 173b f8a1 1a38 d010 633b
00000280: f401 0000 f401 0000 5e8b 853e 60d4 743c
00000290: 6db3 7639 b781 b83c f401 0000 f401 0000
000002a0: b82c 2439 6045 d438 2d0e cc34 6ccc 0239
000002b0: f401 0000 f401 0000 e750 6a3d 1f59 8a3b
000002c0: 05e4 8038 99e7 cc3b f401 0000 f401 0000
000002d0: ed37 8e3a a946 5938 8cf3 9335 02f7 9d38
000002e0: f401 0000 f401 0000 52d0 303d 8604 273b
000002f0: 47dd 2b38 78b5 773b f401 0000 f401 0000
00000300: 7bf2 cf3d 2ef6 c43b 4625 cb38 1fc0 113c
00000310: f401 0000 f401 0000 73fb f83c af40 ea3a
00000320: 9037 ed37 a2dc 2e3b f401 0000 f401 0000
00000330: f401 0000 f401 0000 f401 0000 f401 0000
00000340: f401 0000 f401 0000 a6c7 2639 bc20 1a37
00000350: 4bc4 e133 cbf7 8737 f401 0000 f401 0000
00000360: 7d8f 193d d048 103b b3b5 1238 24b6 563b
00000370: f401 0000 f401 0000 ad35 e33c 6b85 d63a
00000380: 6746 db37 cd77 1f3b f401 0000 f401 0000
00000390: 4129 e33c cd56 d93a 0b80 e137 0e31 203b
000003a0: f401 0000 f401 0000 d59c c43a f4b1 9438
000003b0: cb97 ae35 35f9 d538 f401 0000 f401 0000
000003c0: b43b 713e 3ee1 4d3c 24b0 6639 2110 933c
000003d0: f401 0000 f401 0000 1329 9a3d 7183 863b
000003e0: da0f 8f38 cac1 c73b f401 0000 f401 0000
000003f0: ca5c ab3b 637f 763a 6fb4 8f36 17d2 b13a

exp_avg f4 [256]
6e-45 -9.733e-42 -0.011301894 -0.00998923 -0.0017590222 -0.012376972 -0.019320073 -0.029141143
-0.011623732 6e-45 6e-45 6e-45 -0.0049114837 -4.0458894e-21 0.015525907 -0.027168388
0.02734098 0.026304742 -0.015140423 -0.012515535 -0.026320454 -0.016117059 0.010007265 -6e-45
-0.007330312 -0.029060848 -0.013892566 -0.03320553 -4.777e-42 -0.05981757 -0.008816696 -0.014975287
-0.023345316 -0.012365561 6e-45 0.0002649719 0.013890872 -0.0121055525 -0.012788364 -0.002473455
-0.032165382 -0.017978178 -0.00048758526 6e-45 0.028410582 -0.015403623 0.0058906064 -0.009607511
-0.012983605 -0.0032426857 1.967e-42 0.006727722 -0.030313391 -8.472489e-07 -0.0009980625 -0.011947522
-0.017009383 -0.00073226576 -0.0064187055 -0.039098755 -6e-45 0.0073925476 -0.012101035 3.374e-42
0.008258559 6e-45 -6e-45 -0.02158826 -0.022980448 -0.0075917463 0.032558165 -0.015525965
6e-45 -0.02549125 -0.021099864 -0.020011885 -0.030277714 -0.011529057 6e-45 -0.02203211
-0.032913238 0.002508661 0.012620795 6.2127816e-05 -0.0060323537 -0.016448352 -0.019722242 6e-45
-0.01212635 -0.014637182 -3.539945e-06 -0.019345772 -0.018849391 -0.0052359235 6e-45 -0.01186704
0.00343738 -0.005629506 -0.00047472236 0.0011390077 -0.024190517 -0.014075039 -0.023278771 -0.0028477884
-0.016624141 -0.029304203 -0.02322217 -6e-45 -0.012750812 -0.01178014 6e-45 6e-45
6e-45 -0.014500256 6e-45 -0.02123993 -0.013911586 0.019623978 6e-45 1.1767582e-06
-0.004124883 0.005602998 6e-45 -0.023503834 -0.01151908 -0.026610604 6e-45 -0.011598777
-0.017867668 0.00015611017 -0.010492219 -0.014572236 -0.02976678 -0.021490743 -0.016778896 -0.019834962
-0.020831766 -0.020706072 0.022670137 -0.023179768 1.3653844e-34 -0.031278074 1.24251e-20 -0.018935617
-0.008135587 -0.015915569 -0.0018464598 -0.00040506735 0.01110177 6e-45 6e-45 -0.026248537
-0.000200819 -0.018555507 -0.009193466 -0.0801392 -0.02183381 -0.022695018 6e-45 -6e-45
6e-45 -0.010142207 6e-45 -0.012662855 -0.023721883 -6e-45 -0.013385309 6e-45
0.00012657404 -0.013824847 6e-45 -0.024435205 -0.015377095 5.334148e-10 4.003244e-07 -0.02091859
-0.018172149 6e-45 -0.015152218 -0.021021273 -0.037672512 -6e-45 -0.012977831 0.011435501
6e-45 0.006556641 -0.01366361 -6e-45 0.009428698 6e-45 6e-45 6e-45
-0.020147081 -0.034882583 -0.0071821227 6e-45 0.026238428 -0.011395576 2.2682992e-16 -6e-45
6e-45 -6e-45 -0.01850964 -0.018921401 -0.0055915024 6e-45 -0.021694306 -0.033093918
-0.007728432 -0.012525081 -0.030527567 0.00060309446 -0.0145746255 6e-45 -4.20799e-07 -0.011692416
-0.01902586 -0.018491048 6e-45 -0.010548482 6e-45 0.01030336 2.0171321e-06 -0.020833423
-0.01762555 0.025833387 -0.036841318 -0.021563096 0.0069841663 -0.00034839014 3.0094918e-20 -0.0165839
-0.035274655 -6e-45 -0.016396645 6e-45 0.027519425 -0.00032561284 -0.020516336 -0.016790457
6e-45 -0.017248109 0.004715415 6e-45 0.01194303 -0.008197504 6e-45 -0.014907188
-1.8197937e-31 6e-45 -0.01966165 0.0031823833 -0.013527168 -6e-45 -0.0018974199 -0.017283699
00000000: 0400 0000 221b 0080 942b 39bc dea9 23bc
00000010: fe8e e6ba c8c8 4abc 2145 9ebc 68b9 eebc
00000020: 7771 3ebc 0400 0000 0400 0000 0400 0000
00000030: 83f0 a0bb 71d9 989d 6060 7e3c 3d90 debc
00000040: 31fa df3c 0b7d d73c 890f 78bc f50d 4dbc
00000050: fe9d d7bc ec07 84bc 83f5 233c 0400 0080
00000060: 1d33 f0bb 0411 eebc a59d 63bc 8602 08bd
00000070: 510d 0080 4503 75bd e773 10bc e85a 75bc
00000080: ad3e bfbc ec98 4abc 0400 0000 edeb 8a39
00000090: 8a96 633c 5e56 46bc 4986 51bc b019 22bb
000000a0: d9bf 03bd f946 93bc 96a2 ffb9 0400 0000
000000b0: 4fbd e83c 7a5f 7cbc fd05 c13b d268 1dbc
000000c0: 30b9 54bc 3d83 54bb 7c05 0000 3974 dc3b
000000d0: ca53 f8bc 806e 63b5 6cd1 82ba 8abf 43bc
000000e0: 4357 8bbc 86f5 3fba 0154 d2bb 0426 20bd
000000f0: 0400 0080 2f3d f23b 6b43 46bc 6809 0000
00000100: e84e 073c 0400 0000 0400 0080 ddd9 b0bc
00000110: 7e41 bcbc 2fc4 f8bb b65b 053d 9e60 7ebc
00000120: 0400 0000 07d3 d0bc 9fd9 acbc f7ef a3bc
00000130: f808 f8bc 5fe4 3cbc 0400 0000 af7c b4bc
00000140: 08d0 06bd 5968 243b 73c7 4e3c 9e4a 8238
00000150: 0dab c5bb b2be 86bc 8a90 a1bc 0400 0000
00000160: 99ad 46bc cad0 6fbc cb8f 6db6 067b 9ebc
00000170: 0a6a 9abc 1c92 abbb 0400 0000 f96d 42bc
00000180: ab45 613b b877 b8bb 28e4 f8b9 c24a 953a
00000190: 312b c6bc fe9a 66bc 1fb3 bebc f6a1 3abb
000001a0: 5a2f 88bc 5e0f f0bc 6c3c bebc 0400 0080
000001b0: c8e8 50bc 7d01 41bc 0400 0000 0400 0000
000001c0: 0400 0000 7b92 6dbc 0400 0000 5dff adbc
000001d0: 6ced 63bc 77c2 a03c 0400 0000 1bf1 9d35
000001e0: 072a 87bb 5b99 b73b 0400 0000 1d8b c0bc
000001f0: 86ba 3cbc 7bfe d9bc 0400 0000 cc08 3ebc
00000200: 375f 92bc 81b1 2339 8ee7 2bbc 63c0 6ebc
00000210: 76d9 f3bc 5b0d b0bc e573 89bc ee7c a2bc
00000220: 61a7 aabc c89f a9bc b9b6 b93c 7fe3 bdbc
00000230: a07d 3507 701d 00bd 19b4 6a1e de1e 9bbc
00000240: 204b 05bc 5e61 82bc e904 f2ba 385f d4b9
00000250: 33e4 353c 0400 0000 0400 0000 2c07 d7bc
00000260: f192 52b9 b801 98bc 31a0 16bc 0520 a4bd
00000270: d1dc b2bc e7ea b9bc 0400 0000 0400 0080
00000280: 0400 0000 802b 26bc 0400 0000 dd77 4fbc
00000290: 6554 c2bc 0400 0080 0e4e 5bbc 0400 0000
000002a0: f6b8 0439 9c81 62bc 0400 0000 572c c8bc
000002b0: 36f0 7bbc bb9f 1230 2bec d634 765d abbc
000002c0: c2dd 94bc 0400 0000 0241 78bc ce34 acbc
000002d0: 7e4e 1abd 0400 0080 f8a0 54bc f85b 3b3c
000002e0: 0400 0000 17d9 d63b 56dd 5fbc 0400 0080
000002f0: d37a 1a3c 0400 0000 0400 0000 0400 0000
00000300: 7e0b a5bc 0ae1 0ebd 0358 ebbb 0400 0000
00000310: f9f1 d63c 83b4 3abc 30c2 8225 0400 0080
00000320: 0400 0000 0400 0080 87a1 97bc 0e01 9bbc
00000330: ec38 b7bb 0400 0000 42b8 b1bc 7d8d 07bd
00000340: c93e fdbb ff35 4dbc f314 fabc fc18 1e3a
00000350: 69ca 6ebc 0400 0000 2dea e1b4 8c91 3fbc
00000360: 1fdc 9bbc 8a7a 97bc 0400 0000 8ad3 2cbc
00000370: 0400 0000 6dcf 283c 115e 0736 dbaa aabc
00000380: 7563 90bc 8aa0 d33c ece6 16bd 17a5 b0bc
00000390: 6fdb e43b 22a8 b6b9 861e 0e1f f6da 87bc
000003a0: 287c 10bd 0400 0080 4252 86bc 0400 0000
000003b0: 6b70 e13c 04b7 aab9 e011 a8bc 248c 89bc
000003c0: 0400 0000 e84b 8dbc c583 9a3b 0400 0000
000003d0: b3ac 433c d34e 06bc 0400 0000 473d 74bc
000003e0: 0539 6c8c 0400 0000 7811 a1bc 888f 503b
000003f0: 0ea1 5dbc 0400 0080 d9b2 f8ba 8b96 8dbc
