assets/section_1/actor_critic/mountain_car/models/mountaincar_exp/episode_best/actor.pth (torch, 831366 bytes, 18 tensors)

base.0.weight f4 [256, 6]
0	0xbd6b8117	-0.057496157
1	0x3e0d4077	0.13794123
2	0xbd81380e	-0.0630952
3	0xbd185ef4	-0.03719993
4	0xbdf2c82e	-0.118545875
5	0xbe008eaf	-0.1255443
6	0xbec68e40	-0.38780403
7	0xbe92dfd8	-0.28686404
8	0x3eb84c03	0.35995492
9	0xbd52112c	-0.051285908
10	0xbe7686af	-0.24074815
11	0x3e799426	0.2437292
12	0xbec24970	-0.37946653
13	0x3f45f743	0.77330416
14	0xbe4414dc	-0.19148582
15	0x3eab2ced	0.33432713
16	0x3e855b25	0.260461
17	0x3e571f1d	0.21007963
18	0x3e955dd7	0.29173157
19	0xbef20382	-0.472683
20	0x3d3eb8f7	0.046563115
21	0x3ea0607c	0.31323612
22	0x3dcf5e92	0.1012546
23	0xbecb621f	-0.39723298
24	0x3ecc83bf	0.39944264
25	0x3e251184	0.16119963
26	0xbebdc018	-0.37060618
27	0xbe9073be	-0.28213304
28	0x3de48b3d	0.1115937
29	0xbddaf6b6	-0.106915876
30	0x3e8efe33	0.27928314
31	0x3eec648f	0.4617047
32	0x3eb00d87	0.3438532
33	0xbeb88ec3	-0.3604642
34	0xbe565c65	-0.20933683
35	0x3ea8ae9c	0.32945716
36	0x3d81fcf2	0.063470736
37	0x3d261c8a	0.04055456
38	0xbc29cfea	-0.010364512
39	0x3e46fb3f	0.1943178
40	0x3e87824a	0.2646659
41	0x3eb0a9e5	0.3450462
42	0xbcad31e9	-0.021141963
43	0xbeab9408	-0.33511376
44	0xbdc006bc	-0.093762845
45	0xbe8a1315	-0.26967683
46	0xbe2ce8a7	-0.16885625
47	0xbdebe536	-0.11518328
48	0xbde79c86	-0.11309151
49	0xbe40178f	-0.18758987
50	0x3e6006dd	0.21877618
51	0x3e2cf6bd	0.16890998
52	0x3c8612c3	0.016366368
53	0xbe3f2a10	-0.1866839
54	0x3edbf053	0.4295679
55	0x3f454ca4	0.7707007
56	0xbca9b165	-0.020714471
57	0xbe8c8ab2	-0.27449566
58	0x3e1bf981	0.15231897
59	0xbd0a26a7	-0.033728268
60	0xbc907703	-0.017634874
61	0x3eb97a6b	0.3622621
62	0xbe6656ed	-0.22494097
63	0x3e931d17	0.2873313
64	0xbd58c28a	-0.052919902
65	0xbe033f93	-0.1281722
66	0x3e3ff8b0	0.1874721
67	0x3f4469f0	0.7672415
68	0x3e3f09ea	0.18656126
69	0xbebd4e54	-0.36973822
70	0xbeb2e581	-0.34940723
71	0x3eb50d9c	0.35361946
72	0xbe645c88	-0.22300923
73	0x3f11fd78	0.5702739
74	0xbdea9751	-0.114546426
75	0x3d2d2d78	0.04227969
76	0x3ecabd8f	0.39597747
77	0xbe2c7eba	-0.16845217
78	0x3e7368aa	0.23770395
79	0x3f4a0db7	0.7892718
80	0xbde63764	-0.11241034
81	0xbdfa8fe6	-0.12234478
82	0xbec8b557	-0.3920085
83	0xbecebddf	-0.40379235
84	0xbec7ee7d	-0.3904914
85	0x3f41b754	0.7567036
86	0x3eb0f6f7	0.3456342
87	0xbdc1487c	-0.094376534
88	0x3ea1d4f0	0.3160777
89	0x3d2e1af8	0.04250619
90	0xbe97a822	-0.29620463
91	0x3f3a1776	0.7269205
92	0x3e411c6f	0.18858503
93	0xbc16c124	-0.009201322
94	0x3e63495f	0.22195958
95	0x3ecc2c82	0.39877707
96	0x3e801302	0.25014502
97	0xbe04b1ee	-0.129585
98	0x3e2d5c54	0.16929752
99	0xbe8997ea	-0.26873714
100	0xbeae2f51	-0.34020475
101	0xbd957598	-0.0729782
102	0xbe2615b4	-0.16219217
103	0xbf1ce082	-0.6128007
104	0x3da5a7fe	0.080886826
105	0x3deabe96	0.11462133
106	0xbcdb75e8	-0.02678962
107	0xbd46308a	-0.048386134
108	0x3e39f5cc	0.1816017
109	0xbe9d4d7b	-0.30723175
110	0xb9b60090	-0.00034714164
111	0xbead8b0b	-0.33895144
112	0x3a60db03	0.0008577557
113	0xbe129156	-0.14313254
114	0xbee2aecf	-0.44273993
115	0x3f6349a5	0.8878425
116	0xbe901e74	-0.28148234
117	0x3e75d9ad	0.24008818
118	0x3e129279	0.14313687
119	0xbdd43e82	-0.10363485
120	0x3ed1d6a3	0.40984067
121	0x3c4f97ed	0.012670499
122	0x3eaa247a	0.33230954
123	0x3ec4e498	0.38455653
124	0xbe269e96	-0.16271433
125	0x3dfbbb94	0.12291637
126	0x3c332f08	0.010936506
127	0x3ec99dab	0.39378104
128	0xbda84c7c	-0.08217713
129	0x3eaa675f	0.3328199
130	0xbe5897f4	-0.21151716
131	0x3ded2105	0.115785636
132	0x37de7ece	2.652351e-05
133	0x3ea4a1be	0.3215465
134	0xbd5ae0e5	-0.053437132
135	0x3e8c7b6b	0.2743791
136	0xbc71d6db	-0.014760698
137	0x3ea53782	0.32268912
138	0xbe6eab0e	-0.2330744
139	0x3ed9a030	0.42505026
140	0xbda096c8	-0.07841259
141	0x3dc6c7cb	0.09706076
142	0xbeb79069	-0.35852364
143	0x3e2703e2	0.16310075
144	0x3e4666ee	0.19375202
145	0x3f23a95f	0.63930315
146	0xbe53f710	-0.20699716
147	0x3e60bb00	0.21946335
148	0x3e2de3c7	0.16981421
149	0xbe2da97d	-0.16959186
150	0xbe20e3fa	-0.15711966
151	0x3e1ef314	0.15522414
152	0x3ea311dc	0.31849563
153	0x3eafbf5e	0.3432569
154	0xbe85652c	-0.2605375
155	0x3d1191e0	0.035539508
156	0xbd90a05f	-0.07061838
157	0x3e234779	0.15945233
158	0xbea35241	-0.31898692
159	0x3e9757bd	0.29559126
160	0xbd788663	-0.060675036
161	0x3d88c5bf	0.06678342
162	0x3e8e4ff8	0.27795386
163	0x3e80a97b	0.25129303
164	0xbe00bed8	-0.12572801
165	0x3eb13712	0.34612328
166	0xbe5b3d1f	-0.21410035
167	0x3ec6b9ec	0.38813722
168	0x3e90f943	0.28315172
169	0x3ee22331	0.44167474
170	0xbdb01c36	-0.08599131
171	0x3e575aae	0.21030685
172	0x3e39ad9a	0.1813263
173	0x3e843d17	0.25827858
174	0x3de5a09e	0.11212276
175	0xbe820ccc	-0.25400388
176	0xbebc1c50	-0.3674035
177	0x3ddfe5ae	0.1093248
178	0x3eca8d78	0.39561057
179	0xbc9d325d	-0.019189054
180	0xbe9ecae8	-0.3101418
181	0x3efa58e8	0.48895955
182	0x3d91cd0c	0.07119188
183	0xbe587b87	-0.21140872
184	0xbcab6997	-0.020924373
185	0x3e469208	0.19391644
186	0x3dc61ea2	0.096738115
187	0x3ebc6ec9	0.36803272
188	0xbe905178	-0.28187156
189	0xbec1ab14	-0.37825835
190	0xbe3537f2	-0.17697123
191	0xbe584450	-0.21119809
192	0xbec7b016	-0.3900153
193	0x3ef74937	0.48298046
194	0x3e92b797	0.28655693
195	0x3ea42780	0.32061386
196	0x3ec44a90	0.38338137
197	0xbddd5b85	-0.108084716
198	0x3d9113a7	0.070838265
199	0x3e8331e2	0.25623995
200	0xbd84f481	-0.06491948
201	0xbe2e7c42	-0.17039588
202	0xbe83bc0e	-0.25729412
203	0x3ebfb720	0.374444
204	0x3b4dafde	0.0031385343
205	0xbca826ed	-0.020526374
206	0x3e900f45	0.2813665
207	0xbe988898	-0.29791713
208	0xbecaef0f	-0.39635512
209	0xbe1673ce	-0.14692613
210	0xbd44e331	-0.04806823
211	0x3dc43bc5	0.09581713
212	0x3c06de2c	0.008231681
213	0x3ec45731	0.38347772
214	0xbc236934	-0.009973813
215	0x3e960c55	0.29306284
216	0x3ea7276b	0.3264726
217	0x3ed5e524	0.41776383
218	0x3d8e13fd	0.06937406
219	0x3ec15cf5	0.37766233
220	0x3e944ba1	0.2896395
221	0x3e436979	0.19083203
222	0xbe168a0d	-0.147011
223	0x3f1d52d0	0.61454487
224	0x3dd2c89a	0.10292168
225	0x3e8b3126	0.27185935
226	0x3e176fe6	0.1478878
227	0xbd8f10d9	-0.06985635
228	0xbdb8f54a	-0.0903116
229	0x3f48afb4	0.783931
230	0xbe0e1115	-0.13873704
231	0xbe9be156	-0.30445355
232	0xbeb95d04	-0.36203778
233	0xbe822660	-0.25419903
234	0xbdca97c0	-0.09892225
235	0x3f17ad14	0.5924847
236	0x3e7bbf61	0.24584724
237	0xbea14e9a	-0.3150528
238	0xbd301b38	-0.042994708
239	0x3e6271f5	0.22113784
240	0x3e72c40f	0.23707603
241	0x3bca293b	0.006169466
242	0x3e793548	0.24336731
243	0x3de7736d	0.113013126
244	0xbdc6269d	-0.09675334
245	0xbe6f3cc6	-0.23363027
246	0x3e216803	0.15762334
247	0x3ee98078	0.45605826
248	0xba8d2d68	-0.0010770978
249	0x3e7de1db	0.24793188
250	0xbeca8a7b	-0.39558777
251	0x3e15a432	0.14613417
252	0xbe6bfd56	-0.23045859
253	0xbe8e45d1	-0.2778764
254	0xbcc8a7f2	-0.024494145
255	0xbe86918c	-0.26282918

base.0.bias f4 [256]
0	0xbe88485d	-0.2661771
1	0x3ccd7d56	0.025084179
2	0x3d194cee	0.03742688
3	0x3e83f48f	0.2577252
4	0xbec2979f	-0.38006303
5	0x3da3ccf4	0.07998076
6	0xbd00ce19	-0.03144655
7	0x3eb22901	0.34796908
8	0x3ebe1017	0.3712165
9	0x3e775efb	0.24157326
10	0xbe5c3304	-0.21503836
11	0x3ea98ce5	0.33115306
12	0xbcc0eeb4	-0.023551323
13	0x3e0cfb71	0.13767792
14	0x3e6984da	0.22804585
15	0x3e360a24	0.17777306
16	0x3ec3316f	0.38123652
17	0x3ca90d58	0.020636246
18	0xbeb57f19	-0.3544853
19	0xbdc80a76	-0.0976762
20	0xbd2422ec	-0.040072367
21	0x3d991e0b	0.07476433
22	0xbdaca97a	-0.084307626
23	0x3d9af2f9	0.075658746
24	0x3e619ff9	0.22033681
25	0x3e0fffe4	0.14062458
26	0xbde94288	-0.11389643
27	0x3bc52a8f	0.0060170363
28	0x3ebf7c6d	0.37399617
29	0xbe439aa4	-0.1910196
30	0x3ea6c316	0.32570714
31	0x3e03329c	0.12812275
32	0xbd99756c	-0.074930996
33	0x3ea03043	0.3128682
34	0xbd3ab970	-0.045587003
35	0x3e1472b8	0.14496887
36	0x3e984011	0.2973638
37	0x3e1b80fe	0.15185925
38	0x3e4d3aec	0.20042008
39	0x3e0422ef	0.12903951
40	0xbe8c904f	-0.2745385
41	0x3e3bca79	0.18338956
42	0x3e88d656	0.26726025
43	0x3e96484c	0.29352033
44	0xbd596bbf	-0.05308127
45	0xbe1b38e6	-0.15158424
46	0xbe999de0	-0.30003262
47	0x3e1aebb4	0.15128976
48	0xbdba7ead	-0.09106193
49	0x3ecd0b24	0.40047562
50	0x3e8dd0c5	0.2769834
51	0x3e52897d	0.2056026
52	0x3e54c66c	0.20778817
53	0x3e8325e3	0.25614843
54	0x3e0e7e2d	0.1391532
55	0xbe1c204a	-0.15246692
56	0x3d4ab059	0.049484584
57	0xbe41049a	-0.18849412
58	0x3e8aeac7	0.27132246
59	0x3d6e33d2	0.05815489
60	0x3e5bce5c	0.21465439
61	0x3db7ce7d	0.089749314
62	0xbe18ddee	-0.1492841
63	0x3dc41073	0.0957345
64	0xbe89775b	-0.26848873
65	0xbecd9a86	-0.40156955
66	0xbd82d2d4	-0.063878685
67	0x3ec70545	0.38871208
68	0x3bae760f	0.0053241323
69	0x3e09dad2	0.1346238
70	0x3e840b49	0.2578986
71	0xbda1bbea	-0.0789717
72	0xbe7139a4	-0.23557144
73	0xbe5ba684	-0.2145024
74	0x3e1ae40a	0.15126052
75	0x3caaba9a	0.020840932
76	0xbea46811	-0.32110646
77	0x3d9d8f54	0.07693353
78	0x3e0d017b	0.13770096
79	0xbe6ff69a	-0.23433915
80	0x3e26eeef	0.16302083
81	0x3ead7d7e	0.33884805
82	0x3e849c37	0.25900432
83	0x3e501320	0.20319796
84	0xbdd438dc	-0.103624076
85	0x3c986376	0.018602114
86	0xbe84cda1	-0.25938132
87	0x3ec266a9	0.37968948
88	0xbeb7cdb1	-0.35899118
89	0xbe7451da	-0.23859349
90	0xbe55df57	-0.20885979
91	0xbe0222ae	-0.12708542
92	0xbeab7566	-0.33488005
93	0xbd3be4a3	-0.04587234
94	0x3ebd30c1	0.3695126
95	0xbe7fad00	-0.24968338
96	0xbebb274f	-0.36553428
97	0xbddf242c	-0.10895571
98	0x3e929e68	0.2863648
99	0x3e918422	0.28421122
100	0xbcc6aed8	-0.024253294
101	0xbed0a647	-0.4075186
102	0x3e0ed8dd	0.13949914
103	0x3de48ddb	0.11159869
104	0x3cc4d99d	0.024029547
105	0x3d89a96b	0.06721767
106	0x3e8d3d89	0.2758601
107	0x3e116569	0.14198841
108	0xbe6083f7	-0.2192534
109	0x3eaecb94	0.34139693
110	0xbcba547f	-0.022745369
111	0xbde85910	-0.11345112
112	0xbebb1cd0	-0.3654542
113	0xbeb4ab62	-0.35287005
114	0xbd23506e	-0.039871626
115	0xbe7e9169	-0.24860157
116	0x3ec00f2c	0.37511575
117	0x3df90922	0.12159945
118	0xbe9cc3ea	-0.3061822
119	0xbebffb73	-0.37496528
120	0xbe87cb39	-0.26522234
121	0x3dc39c5f	0.0955131
122	0xbca56a2f	-0.020192234
123	0xbe0720ef	-0.13196157
124	0xbe8da021	-0.2766123
125	0x3e8ea5f7	0.27860996
126	0xbe09a9f5	-0.1344374
127	0x3d8ee7a3	0.06977775
128	0x3e1b5803	0.15170293
129	0xbdfbbc09	-0.12291724
130	0xbe639ac1	-0.22227003
131	0xbda1b84c	-0.0789648
132	0x3e03ea22	0.12882283
133	0xbeccccf5	-0.4000012
134	0xbd4b19e2	-0.04958523
135	0xbe92e96c	-0.28693712
136	0x3e9cac71	0.30600312
137	0x3da1796b	0.07884487
138	0xbeac1e65	-0.3361694
139	0xbdea819a	-0.11450501
140	0xbe89b9f2	-0.26899678
141	0x3e44fe1c	0.1923756
142	0x3d42219b	0.04739533
143	0xbe08052b	-0.13283221
144	0x3e1cbb39	0.15305795
145	0x3e23b596	0.15987238
146	0xbec8e54f	-0.3923745
147	0xbeb28b8f	-0.348721
148	0x3e2804d3	0.1640809
149	0x3d801fd4	0.06256071
150	0xbe491101	-0.19635393
151	0xbe80cf2e	-0.25158066
152	0xbe626e3f	-0.22112368
153	0xbd1a43d0	-0.037662327
154	0x3e5a1393	0.2129653
155	0x3ed786fc	0.42095172
156	0xbd44780a	-0.04796604
157	0xbd1c62d6	-0.038180195
158	0xbe53d74c	-0.20687598
159	0xbe97346c	-0.29532182
160	0x3ebc8bd9	0.36825445
161	0xbd182332	-0.03714294
162	0x3e3834dd	0.17988916
163	0x3d77311a	0.06034956
164	0x3cf680bc	0.030090682
165	0xbe9cb5f0	-0.30607557
166	0x3e95e081	0.29272845
167	0x3e7bf0ed	0.24603625
168	0x3e51e22e	0.20496437
169	0x3e98c180	0.2983513
170	0x3ea89387	0.32925054
171	0x3ddb322b	0.10702928
172	0xbd6e2914	-0.058144644
173	0x3e04ccb2	0.1296871
174	0xbd89019a	-0.066897586
175	0x3e1c5c2f	0.1526954
176	0x3e3a24c0	0.18178082
177	0x3e504c70	0.20341659
178	0x3e523021	0.20526172
179	0xbea1f0db	-0.3162907
180	0x3e2c757d	0.16841693
181	0xbe685f5e	-0.2269263
182	0xbe278f0f	-0.16363166
183	0xbe355360	-0.17707586
184	0xbec5a4b3	-0.38602218
185	0xbe82ce62	-0.25548083
186	0xbb97f0b0	-0.0046368465
187	0x3dca3b56	0.09874599
188	0x3e48f5db	0.19625036
189	0xbcd13d4d	-0.025541926
190	0x3e6ae4b4	0.22938806
191	0xbeba9dfb	-0.36448655
192	0xbeb2225d	-0.34791842
193	0x3db5c7cd	0.088759996
194	0xbe019f22	-0.1265836
195	0xbe9706c1	-0.2949734
196	0x3e1b22cc	0.15149993
197	0x3e41520e	0.18878958
198	0x3e132cec	0.14372605
199	0x3e5bb3e6	0.21455345
200	0xbe499b02	-0.19688037
201	0x3e403b90	0.18772721
202	0xbecbf285	-0.39833465
203	0x3d918ee8	0.07107335
204	0x3de71dc7	0.112849765
205	0x3dd99379	0.10623831
206	0xbe9a69ee	-0.30158943
207	0x3ece6f42	0.40319258
208	0xbe9f505f	-0.31116006
209	0x3e378c1f	0.17924546
210	0x3cc37443	0.023859149
211	0xbdd7c605	-0.10535816
212	0xbe3d5998	-0.18491209
213	0x3d6e5eeb	0.05819599
214	0xbd817c35	-0.06322519
215	0x3e416494	0.18886024
216	0xbe84337a	-0.25820524
217	0x3ea9f19f	0.33192155
218	0x3eb80096	0.35937947
219	0x3e5456c4	0.20736223
220	0x3dee5503	0.116373084
221	0xbe50723f	-0.20356081
222	0xbe5bc0a1	-0.21460201
223	0x3c9c6793	0.019092357
224	0x3e0c4639	0.13698663
225	0x3e8bfeab	0.27342734
226	0xbe81092f	-0.2520232
227	0x3e83be96	0.25731343
228	0x3e76953b	0.24080364
229	0x3d206b64	0.039164916
230	0xbdedb26c	-0.11606297
231	0xbdc25d1a	-0.09490414
232	0xbe42a61c	-0.19008678
233	0x3ebeb127	0.37244532
234	0x3e87f2f2	0.2655254
235	0x3e1fec2f	0.1561744
236	0x3d3ab662	0.04558409
237	0xbe28c111	-0.16479899
238	0xbccd37bf	-0.025050996
239	0x3e4a7799	0.19772185
240	0x3e61f8ec	0.22067612
241	0x3e839145	0.2569677
242	0xbe5f2e56	-0.2179502
243	0xbe8df877	-0.27728626
244	0x3ce13afe	0.02749395
245	0x3cc12164	0.023575492
246	0x3eaff4e2	0.34366518
247	0x3e5102e5	0.2041126
248	0xbe879f74	-0.2648884
249	0xbd950101	-0.07275582
250	0xbe94d655	-0.29069772
251	0x3eafee06	0.34361285
252	0xbeb0073d	-0.34380522
253	0xba275088	-0.00063825445
254	0xbe40b6eb	-0.18819778
255	0xbe2f9c6e	-0.17149517

base.2.weight f4 [256, 256]
0	0xbb4d0a20	-0.0031286553
1	0x3c9fdf02	0.019515518
2	0xbc9b135f	-0.018930135
3	0x3d2016a8	0.039084107
4	0xbc566fe8	-0.013088204
5	0x3d00700e	0.031356864
6	0xbd6ad4f8	-0.05733201
7	0xbd03dc37	-0.032192435
8	0xbd83706b	-0.064179264
9	0x3d507756	0.050895058
10	0xbc6acac8	-0.014330573
11	0x3d67a3c3	0.05655266
12	0xbd6c79c7	-0.057733323
13	0x3d851c07	0.064994864
14	0x3b3f3bd3	0.0029179945
15	0xbd311ba8	-0.043239266
16	0x3d18c0d5	0.037293274
17	0x3c0aa4c9	0.008462139
18	0xbd3e6364	-0.046481505
19	0x3d4cc169	0.049989138
20	0x3c93e706	0.018054496
21	0x3c9e2b92	0.019307885
22	0x3d7cc146	0.061707757
23	0x3c8aa92d	0.016926372
24	0x3d81ba2b	0.06334337
25	0xbd054fc8	-0.03254679
26	0xbc06e3d8	-0.008233033
27	0x3c2e2634	0.0106292255
28	0x3c55ac99	0.013041639
29	0xbd3c8a58	-0.046030372
30	0xbcd7d1b5	-0.026345113
31	0x3cba4493	0.022737777
32	0xbc95cca8	-0.018286064
33	0x3d5dfcbf	0.054196116
34	0xbbd3b940	-0.0064612925
35	0x3cbf1f23	0.023330277
36	0x3d889ae0	0.06670165
37	0xbd0194e9	-0.031636152
38	0x3d5ffe0b	0.054685634
39	0x3c683368	0.014172412
40	0x3d226e44	0.03965594
41	0xbc386508	-0.0112545565
42	0x3d1fe01a	0.03903208
43	0x3a499b2b	0.00076906633
44	0xbd386577	-0.04501864
45	0x3d712a9c	0.058878526
46	0x3d4f9354	0.050677612
47	0xbc8df63c	-0.017329328
48	0xbbdf2140	-0.0068093836
49	0xbc6a4491	-0.014298574
50	0xbc5fccfb	-0.013659711
51	0xbccba415	-0.024858514
52	0x3be51dca	0.0069920765
53	0x3d7367a7	0.059425022
54	0xbc631dfc	-0.013862129
55	0xbca5c8f4	-0.020237423
56	0xbcba467b	-0.022738686
57	0xbd1eea4c	-0.03879766
58	0xbd8f186d	-0.06987081
59	0x3c98aa91	0.01863602
60	0x3d8ac18a	0.06775196
61	0x3d8141f2	0.06311406
62	0x3c2d1c10	0.010565773
63	0x3d0844d6	0.033268772
64	0x3caed828	0.021343306
65	0x3d3ade56	0.045622192
66	0xbc6e1b18	-0.014532827
67	0x3d286205	0.041109104
68	0xb9a1c46b	-0.00030854656
69	0x3d68a7fe	0.056800835
70	0xbd4f3826	-0.050590657
71	0xbc9d86f7	-0.019229395
72	0x3c5e6f90	0.013576403
73	0xbc0792c0	-0.008274734
74	0x3c42afb2	0.011882709
75	0xbd82e117	-0.06390589
76	0xbcd08d94	-0.025458135
77	0xbd585609	-0.052816425
78	0x3d32f54e	0.043690972
79	0xbced6358	-0.028978035
80	0xbd06b77a	-0.03288982
81	0x3d022a67	0.03177872
82	0x3d3cdbfd	0.046108235
83	0x3d07db02	0.033167847
84	0xbd71dad4	-0.05904658
85	0x3d058873	0.03260083
86	0xbd44c23a	-0.04803679
87	0xbce3e0af	-0.027817098
88	0x3cafab30	0.021443933
89	0xbc9c7ad4	-0.019101538
90	0x3d638cd8	0.05555424
91	0x3d04259c	0.03226243
92	0x3c5fde68	0.013663866
93	0x3cc211b7	0.023690088
94	0x3cc78a7b	0.024358025
95	0xbc63a639	-0.013894611
96	0x3c5f1b80	0.013617396
97	0x3c2b3b0e	0.010451091
98	0x3c3cf112	0.011532085
99	0xbcfb1274	-0.030648448
100	0x3d69386e	0.05693858
101	0x3c238b78	0.009981982
102	0xbcf708c8	-0.030155554
103	0xbd0d3dce	-0.03448277
104	0xbd5132a9	-0.051073704
105	0x3d60f7ac	0.0549237
106	0x3d8482a7	0.064702325
107	0x3cc66e8c	0.024222635
108	0x3d0af9e0	0.033929706
109	0xbba0512a	-0.004892488
110	0xbd59af2e	-0.05314558
111	0x3d57224a	0.052522935
112	0xbd67665c	-0.056494102
113	0x3cc4c1a4	0.024018116
114	0x3d0b519f	0.034013387
115	0xbb98c6b1	-0.0046623577
116	0xbc81f6eb	-0.01586481
117	0x3d2ae598	0.041722864
118	0xbd9942da	-0.07483454
119	0xbc98da9c	-0.018658929
120	0x3d31a5d8	0.04337105
121	0x3c1675c5	0.009183352
122	0x3cfdc6be	0.030978557
123	0xbd0da434	-0.034580424
124	0xbd2b4e6a	-0.04182283
125	0x3d5dec86	0.054180644
126	0x3d157d88	0.03649667
127	0x3cbb4510	0.02286008
128	0xbd4ae9ca	-0.049539365
129	0xbd7aa006	-0.061187766
130	0x3d675478	0.05647704
131	0x3d3d1e70	0.046171606
132	0x3cc049b1	0.023472639
133	0xbd78115e	-0.060563438
134	0x3d1ce845	0.038307447
135	0x3c6f5068	0.014606573
136	0x3d6956e3	0.056967627
137	0x3d58e073	0.052948426
138	0xbca08ea4	-0.019599266
139	0xbab76507	-0.00139919
140	0x3d153b8a	0.036433734
141	0x3d35072e	0.0441963
142	0x3ce41a30	0.027844518
143	0xbd055158	-0.03254828
144	0xbd3207b6	-0.043464385
145	0x3d8adf21	0.0678084
146	0x3c381ec0	0.0112378
147	0x3d0f4d3c	0.034985766
148	0xbd760f22	-0.060073026
149	0xbcd2214a	-0.02565064
150	0xbcd9fe58	-0.026610538
151	0xbd4fd774	-0.05074258
152	0xbd357b78	-0.044307202
153	0xbd381299	-0.04493961
154	0x3d4734e4	0.048634425
155	0xbc95348d	-0.018213535
156	0x3c951bf0	0.018201798
157	0x3b9c7327	0.0047744694
158	0x3cbe9eec	0.02326914
159	0xbd2f2b98	-0.042766184
160	0xbc1aac95	-0.009440561
161	0xbc6e24e8	-0.014535166
162	0xbd29f37d	-0.041491974
163	0x3b9a5980	0.0047103763
164	0x3ce012b1	0.027352663
165	0xbcc0bb34	-0.023526765
166	0x3bd03ef1	0.0063551595
167	0x3d402454	0.046909645
168	0xbd44a774	-0.04801126
169	0xbc44ef93	-0.01202001
170	0x3c498658	0.012300096
171	0x3d40e3af	0.047092136
172	0xb852c800	-5.0254166e-05
173	0xbd457656	-0.048208557
174	0x3cefd1e2	0.029274885
175	0xbcf76659	-0.03020017
176	0xbd23f57a	-0.040029027
177	0x3d77f772	0.060538717
178	0xbccca780	-0.024982214
179	0xbd5bc9d2	-0.053659268
180	0x3d6fec68	0.058575064
181	0x3d46975c	0.04848419
182	0xbd0bd34c	-0.034137055
183	0x39ee4b00	0.00045450777
184	0xbd1a96c0	-0.037741423
185	0x3c8c2d5c	0.017111473
186	0x3dbd82b3	0.092534445
187	0x3cd3ee12	0.025870357
188	0x3a6371d8	0.0008676327
189	0x3d0d9dde	0.034574382
190	0x3c36f50c	0.011166822
191	0xbd99fcaa	-0.07518895
192	0x3d5de15e	0.054170005
193	0xbc1df2ca	-0.009640405
194	0xbb634958	-0.0034681167
195	0x3c8d1b24	0.017224856
196	0x3d0088cc	0.03138046
197	0xbd1df5f0	-0.038564622
198	0x3d86fa44	0.06590703
199	0xbb913503	-0.0044313683
200	0xbdb68b3d	-0.08913276
201	0xbd5a8a54	-0.053354576
202	0x3d2a3a38	0.041559428
203	0x3d5d1af2	0.053980775
204	0x3b652efc	0.0034970632
205	0xbd2aa08b	-0.041657012
206	0x3cecf578	0.028925642
207	0xbd28bc66	-0.041195296
208	0x3d3d1726	0.046164654
209	0xbd1f44f6	-0.038884126
210	0x3ba8262b	0.005131503
211	0x3d2de8b2	0.042458244
212	0xbc5f2160	-0.013618797
213	0xbd1dbe17	-0.038511362
214	0x3d474bef	0.0486564
215	0x3c8c3f7e	0.01712012
216	0x3c95defc	0.018294804
217	0xbd6fdf09	-0.058562312
218	0xbc5b68aa	-0.013391653
219	0x3c956710	0.01823762
220	0xbcc1af40	-0.023643136
221	0x3b5728fa	0.003283082
222	0x3d6650c4	0.056229368
223	0x3d2f2d20	0.042767644
224	0xbc4213e6	-0.0118455645
225	0x3d078a73	0.03309102
226	0xbcc9fe48	-0.024657384
227	0xbd369408	-0.044574767
228	0xbbb020b4	-0.0053749923
229	0xbd3e05e1	-0.046392325
230	0x3cc5e5d4	0.024157442
231	0xbd1b24bb	-0.037876826
232	0x3c95141b	0.018198064
233	0xbccd8fea	-0.025093038
234	0x3cb44247	0.02200426
235	0xbbce46d4	-0.0062950645
236	0x3d885e88	0.066586554
237	0xbc6a2ed0	-0.0142933875
238	0x3d04556f	0.03230804
239	0xbc6525c6	-0.013986057
240	0xbb79833d	-0.003807261
241	0x3d6ef0e9	0.05833522
242	0xbddba5fb	-0.10725018
243	0xbc353350	-0.011059597
244	0x3d39a684	0.045324817
245	0xbcd4bb2a	-0.025968153
246	0x3c6af0b2	0.014339613
247	0xbc10afb2	-0.0088309515
248	0x3c6cbe98	0.014449738
249	0xbcb74c21	-0.022375168
250	0x3cadd134	0.02121792
251	0xbb2b75a2	-0.0026162644
252	0x3c8c1add	0.017102653
253	0xbd8e36c1	-0.06944037
254	0x3cb09d6c	0.02155944
255	0xbd0a70aa	-0.03379885

base.2.bias f4 [256]
0	0x3d6887a5	0.056769986
1	0xbb084ac8	-0.0020796526
2	0x3d236f1a	0.039900877
3	0x3ce7f22f	0.028313724
4	0x3d02c649	0.03192738
5	0x3d693781	0.0569377
6	0x3c8f81ff	0.017518042
7	0xbd249104	-0.04017736
8	0xbd4663c2	-0.04843498
9	0x3d672d8a	0.056439914
10	0x3d21b179	0.03947589
11	0xbc9dacb2	-0.019247387
12	0x3d62d33f	0.05537724
13	0xbd369c3f	-0.0445826
14	0xbb587ece	-0.0033034566
15	0xbd000f3f	-0.03126454
16	0xbcd8e500	-0.026476383
17	0x3b5bc808	0.0033535976
18	0x3b618dca	0.0034416788
19	0x3ce02abd	0.02736413
20	0x3bb62c9f	0.0055595185
21	0xbd515280	-0.05110407
22	0x3d4230ee	0.047409944
23	0xbd7d6440	-0.061863184
24	0x3b16ff65	0.002304041
25	0xbd22a0d2	-0.03970415
26	0x3d522d1a	0.051312543
27	0xbd1b6fce	-0.037948422
28	0xbd061d74	-0.032742932
29	0x3d44256c	0.04788725
30	0xbd50b172	-0.050950475
31	0xbc7d4a9d	-0.015459684
32	0xbcf9042f	-0.030397503
33	0xbc31d453	-0.010853845
34	0x3bd38376	0.0064548803
35	0xbd468036	-0.048462115
36	0x3c0d20c0	0.008613765
37	0x3d26c6f0	0.040717065
38	0x3c3aff80	0.011413455
39	0x3d0dd7a7	0.03462949
40	0xbb0a9780	-0.002114743
41	0x3cd730d4	0.0262684
42	0x3bcf5d70	0.0063282773
43	0xbd4eb6e6	-0.050467394
44	0xbcd370cc	-0.025810622
45	0xbcc9102e	-0.024543848
46	0x3d4855e7	0.048910048
47	0x3d401f27	0.04690471
48	0x3c3a5f6c	0.011375289
49	0x3d848d3a	0.06472249
50	0x3cc2c637	0.023776157
51	0x3d9378d0	0.072007775
52	0x3cadb830	0.021205992
53	0xbd08ad65	-0.033368487
54	0xbd33ba46	-0.043878816
55	0x3c3b418d	0.011429203
56	0x3ce463df	0.027879653
57	0x3ce4ee02	0.027945522
58	0x3cdd4ce0	0.027014196
59	0x3903649b	0.00012530612
60	0xbb880c2c	-0.0041518416
61	0x3d17bd46	0.03704574
62	0xbd20112c	-0.039078876
63	0x3d4c4989	0.049874816
64	0x3c421713	0.011846322
65	0x3d02dd8d	0.03194957
66	0xbc6af5db	-0.014340843
67	0xbd18c75f	-0.03729951
68	0x3d0a820f	0.03381544
69	0xb97b8200	-0.00023985654
70	0x3d6b24e9	0.057408247
71	0x3d610a33	0.054941367
72	0xbc396534	-0.011315633
73	0xbce4b577	-0.02791856
74	0xbd578b3b	-0.052623015
75	0x3d59ef7a	0.0532069
76	0x3c29ca20	0.010363132
77	0xbd176d95	-0.03696974
78	0x3c144350	0.009049252
79	0xbba8a510	-0.00514663
80	0x3b020d28	0.0019844268
81	0x3cd82b59	0.026387857
82	0x3d483a03	0.04888345
83	0x3cca1fbc	0.024673335
84	0x3c8ccb18	0.017186686
85	0x3cf34ad0	0.02969876
86	0x3c3c64e1	0.011498661
87	0xbd62cc52	-0.055370636
88	0xbcedb689	-0.029017704
89	0xbd371329	-0.044696007
90	0xbd05a0d9	-0.0326241
91	0x3d2788c2	0.040901907
92	0x3d603654	0.05473931
93	0x3c332d70	0.010936126
94	0xbd0d8492	-0.034550257
95	0x3d485079	0.04890487
96	0xbc014a6e	-0.007891281
97	0xbd41d158	-0.047318786
98	0xbcc804a4	-0.024416275
99	0xbd3fba97	-0.046808805
100	0x3d7cd65f	0.061727878
101	0xbd0a511a	-0.03376875
102	0x3d49caaf	0.04926556
103	0xbd73e448	-0.059543878
104	0x3d4fd3fe	0.05073928
105	0x3d40c167	0.047059443
106	0x3bf960a0	0.0076103956
107	0xbc9a36f4	-0.018825032
108	0x3b70d949	0.0036750606
109	0xbd350106	-0.04419043
110	0xbd493ef8	-0.049132317
111	0x3c202d81	0.009776474
112	0x3d527285	0.051378746
113	0x3d3d283a	0.04618094
114	0x3bbd939a	0.0057854177
115	0x3cc67374	0.024224974
116	0x3d162242	0.036653765
117	0xba7b1957	-0.0009578666
118	0x3d2ed052	0.04267914
119	0x3c331eb8	0.010932617
120	0x3c2290b0	0.0099221915
121	0xbc93e295	-0.018052379
122	0x3d47a5ad	0.048741985
123	0xbd702402	-0.05862809
124	0xbd4c883e	-0.04993462
125	0xbcd97850	-0.026546627
126	0xbca34f38	-0.019935235
127	0xbc1771c1	-0.00924343
128	0xbd002364	-0.03128375
129	0x3d36a060	0.04458654
130	0x3d531a64	0.05153884
131	0x3cc9043a	0.024538148
132	0xbd23af43	-0.039962064
133	0xbd59f1dc	-0.05320917
134	0x3d55c76f	0.052192148
135	0xbd6a828a	-0.057253398
136	0xbd1eb742	-0.038748987
137	0xba9c5164	-0.0011926112
138	0x3d12fe95	0.03588732
139	0x3d1dc015	0.03851326
140	0x3cbcf330	0.02306518
141	0xbd0ed692	-0.0348726
142	0x3d0c2704	0.034216896
143	0x3d858f25	0.06521443
144	0x3d1fd360	0.039019942
145	0x3d27d682	0.040976055
146	0x3c9d741d	0.019220406
147	0x3d942a0f	0.072345845
148	0xbd69f974	-0.057122663
149	0xbc9c34e3	-0.019068187
150	0xbd179835	-0.03701039
151	0x3d64b182	0.055833347
152	0x3be9f020	0.007139221
153	0x3d4735c8	0.048635274
154	0xbd624cca	-0.055249013
155	0xbce5bc7e	-0.028043982
156	0xbd3d2982	-0.046182163
157	0xbd776f5c	-0.060408935
158	0x3d8fab0e	0.07015048
159	0xbb2eefee	-0.0026693302
160	0x3d58fca1	0.0529753
161	0xbd2717eb	-0.040794294
162	0xbd2f0e04	-0.042737976
163	0xbd32e026	-0.043670796
164	0xbd092628	-0.033483654
165	0x3ccd3b9b	0.025052836
166	0xbd70e108	-0.058808357
167	0xbd069bb2	-0.032863326
168	0xbcedc5ee	-0.029025044
169	0xbd13a162	-0.03604258
170	0xbd2462ee	-0.04013341
171	0xbd13c117	-0.036072817
172	0x3d134256	0.035951935
173	0xbd7d3b35	-0.061824042
174	0xbc56d6fa	-0.013112778
175	0x3a11f180	0.00055672973
176	0x3d684cc5	0.056713838
177	0x3aa297f3	0.0012404904
178	0x3d2b4af6	0.041819535
179	0xbd562168	-0.052277952
180	0xbb928314	-0.004471192
181	0xbd69371c	-0.056937322
182	0xbc8210b0	-0.015877098
183	0xbd42a4a1	-0.047520284
184	0x3d29a527	0.041417267
185	0xbc3f3110	-0.011669412
186	0x3c7d94a8	0.015477337
187	0xbcb5e69e	-0.022204693
188	0xbcfe240a	-0.031023044
189	0x3d48a08d	0.04898124
190	0xbd1aedae	-0.037824325
191	0xbd008ee0	-0.031386256
192	0x3d56623f	0.05233979
193	0x3d325942	0.043542154
194	0x3d590846	0.052986406
195	0xbd024c77	-0.031811204
196	0xbd47a52a	-0.048741497
197	0x3d0cf917	0.034417238
198	0x3b97a6cc	0.004628038
199	0x3d362430	0.044468105
200	0x3cc44812	0.023960147
201	0x3b4301f7	0.002975581
202	0x3c416e60	0.011806101
203	0x3c95e140	0.018295884
204	0x3d0d95f4	0.034566835
205	0x3d69d74a	0.05709008
206	0xbcf17ec4	-0.029479392
207	0x3d29e018	0.041473478
208	0xbd25eb9e	-0.040507905
209	0x3d6dbf06	0.058043502
210	0x3d8283ea	0.06372817
211	0xbd74a6fc	-0.05972956
212	0xbcafbb4e	-0.021451619
213	0xbc998ec4	-0.018744834
214	0x3cad89fa	0.021183956
215	0x3ca00661	0.019534292
216	0xbd209a08	-0.039209396
217	0x3c8e681c	0.017383628
218	0xbc5ba0ff	-0.013405084
219	0x3d004fd7	0.03132614
220	0x3d0a98f8	0.03383729
221	0xbcbf8f9f	-0.023383914
222	0x3d73520e	0.059404425
223	0xbccc7fa4	-0.024963208
224	0x3d59fe9d	0.053221334
225	0xbc587b08	-0.013212927
226	0xbc9d9429	-0.019235687
227	0x3c1c099e	0.009523777
228	0x3b03eaa0	0.002012886
229	0x3d334642	0.043768175
230	0xbc13d1d8	-0.009022199
231	0x3bb68ef1	0.005571239
232	0xbd094476	-0.033512555
233	0xbc00c27b	-0.007858868
234	0x3d3ddfeb	0.046356123
235	0x3d4e00aa	0.050293602
236	0xbd3d5b18	-0.046229452
237	0x3c708c20	0.014681846
238	0x3c1d2c67	0.009593106
239	0xbbce2374	-0.0062908474
240	0x3d093c55	0.033504803
241	0xbc015b54	-0.0078953095
242	0x3cab3072	0.020897124
243	0x3d90b010	0.07064831
244	0xbc82fdac	-0.0159901
245	0x3bc08db5	0.005876268
246	0x3a156a80	0.00056997687
247	0xbcf29a8d	-0.029614711
248	0xbcb0d8cf	-0.021587757
249	0xba5aafae	-0.00083422184
250	0xbd31bfe2	-0.043395884
251	0x3d2446b9	0.04010651
252	0xbcd2fda3	-0.025755709
253	0x3beb2bf5	0.007176871
254	0xbd0a0fe1	-0.03370655
255	0x3c8f21f5	0.017472247

base.4.weight f4 [3, 256]
0	0xbcdc50cb	-0.026893994
1	0xbd64aed9	-0.05583081
2	0x3d897630	0.067119956
3	0x3dc5ad58	0.09652203
4	0xbb690ccc	-0.0035560606
5	0xbcbf0739	-0.023318874
6	0x3d57a9d2	0.052652188
7	0x3d0b5818	0.03401956
8	0xbd13fc88	-0.036129504
9	0x3d9fc784	0.078017265
10	0x3d62dfae	0.0553891
11	0xbdb03939	-0.08604664
12	0x3d905e1e	0.070492014
13	0x3ddf2202	0.10895158
14	0xbd0c1909	-0.034203563
15	0x3dc8e54e	0.098093614
16	0x3d54b5d6	0.051931225
17	0x3dd900fd	0.105958916
18	0x3de0586f	0.10954367
19	0xbd5f02e6	-0.054446124
20	0x3e056d9e	0.13030097
21	0x3c0d1968	0.008612014
22	0xbd806eaf	-0.06271111
23	0xbca30020	-0.01989752
24	0x3d91488a	0.07093914
25	0xbd61a0e7	-0.05508509
26	0x3ddf6343	0.109076045
27	0xbd06dfee	-0.0329284
28	0x3cf3a2ec	0.029740773
29	0xbd7453a7	-0.05965009
30	0xbc269988	-0.010168441
31	0x3d6ca504	0.05777456
32	0x3da888e2	0.08229233
33	0xbd894a6b	-0.06703647
34	0xbb80375e	-0.0039128503
35	0x3e004512	0.12526348
36	0x3cf69210	0.030098945
37	0x3d43b568	0.047780424
38	0xbd6c6644	-0.057714716
39	0x3dbe5269	0.09293062
40	0xbd71d8c6	-0.059044622
41	0xbd4ed1a8	-0.050492913
42	0xbd439e3c	-0.047758326
43	0x3d692604	0.05692102
44	0xbcd61cac	-0.026136719
45	0x3d8c34c3	0.06846001
46	0xbdf0d420	-0.1175921
47	0xbd6d2483	-0.05789615
48	0xbd952e1e	-0.07284187
49	0xbd6fd5a8	-0.058553368
50	0x3d6f26ad	0.058386493
51	0xbd9e2a6a	-0.077229336
52	0xbd06f5de	-0.03294932
53	0x3d5418e7	0.05178156
54	0x3db7be12	0.089718
55	0x3ddd1508	0.10795027
56	0x3df381e9	0.11890013
57	0xbd09483f	-0.033516165
58	0x3d719475	0.05897947
59	0xbd859c5d	-0.065239646
60	0x3deb1fc8	0.11480671
61	0xbd4436be	-0.04790377
62	0xbd11a6ba	-0.035559393
63	0xbd545f20	-0.05184853
64	0x3dde170e	0.10844241
65	0xbd72105f	-0.059097644
66	0xbe29fd1e	-0.16600463
67	0xbdc64659	-0.096813865
68	0xbd893ad4	-0.06700674
69	0x3cab19b8	0.020886287
70	0xbd3befa6	-0.045882843
71	0x3dcdbd9d	0.100459315
72	0x3dd960d2	0.1061417
73	0x3dbf90c0	0.09353781
74	0x3c0ad8df	0.008474558
75	0x3cd3aa40	0.025838017
76	0x3d3c972c	0.046042606
77	0x3de24508	0.11048323
78	0xbd4f853a	-0.050664164
79	0xbd85f95d	-0.06541703
80	0x3dc4f091	0.09616197
81	0xbc0d7274	-0.008633245
82	0x3db37b11	0.087637074
83	0x3d5f948e	0.054585032
84	0xbd2538c0	-0.040337324
85	0xbc8e6b21	-0.017385067
86	0xbc96da14	-0.018414535
87	0x3bd40df0	0.006471388
88	0xbd4bef64	-0.049788848
89	0x3d85eaab	0.065389
90	0xbd5ae4b9	-0.053440783
91	0xbca6a22c	-0.020341001
92	0x3d6cb0bb	0.05778573
93	0xbcadd004	-0.021217354
94	0xbd02d1d2	-0.03193838
95	0x3db03ae0	0.086049795
96	0xbdf195ab	-0.11796125
97	0xbd13088e	-0.03589683
98	0xbc03db88	-0.008047946
99	0xbc4a18ce	-0.012335015
100	0x3dc166f4	0.09443465
101	0x3d10af4f	0.035323437
102	0x3dc7cce7	0.09755879
103	0xbcb3201c	-0.021865897
104	0x3d948c02	0.07253267
105	0xbcf1b2e0	-0.02950424
106	0x3c349770	0.011022434
107	0x3d14f9ba	0.03637097
108	0x3da8bab8	0.08238739
109	0x3b8d3510	0.004309304
110	0xbc8cab55	-0.017171541
111	0x3dde9b46	0.1086946
112	0xbd89c85a	-0.06727667
113	0xbc180bc8	-0.009280153
114	0xbd07c7ee	-0.033149652
115	0xbdaa0cfe	-0.08303259
116	0xbd2637ec	-0.040580675
117	0xbd00973e	-0.031394236
118	0xbd8d6f94	-0.069060475
119	0x3d204c1e	0.03913509
120	0x3d335fdf	0.0437926
121	0x3c3a1b9f	0.011359124
122	0xbd6b7f5b	-0.057494503
123	0x3d56290c	0.05228524
124	0xbd7096f9	-0.05873773
125	0xbe17ba49	-0.14817156
126	0xbcb68bfe	-0.02228355
127	0x3d76670b	0.060156863
128	0x3c109e10	0.008826748
129	0xbc205e56	-0.009788116
130	0x3d463c10	0.048397124
131	0x3d7d2bcc	0.061809346
132	0x3de935b5	0.11387197
133	0xbcc17e78	-0.023619875
134	0x3c6177b2	0.013761448
135	0xbd4bf777	-0.049796548
136	0x3d5da928	0.054116398
137	0xbafda109	-0.001935036
138	0xbd38f1f3	-0.045152616
139	0xbe86d8b7	-0.26337215
140	0xbd345918	-0.04403028
141	0x3d84352b	0.064554535
142	0x3d3bea68	0.045877844
143	0x3d437e97	0.047728147
144	0xbd83244a	-0.06403406
145	0xbc21238a	-0.009835133
146	0xbd96e2a6	-0.073674485
147	0xbd94dd19	-0.072687335
148	0xbd40b13a	-0.047044016
149	0x3d9312ec	0.071813434
150	0x3dc68a49	0.096943446
151	0x3d95225e	0.07281946
152	0x3d096ca8	0.03355089
153	0x3dc4dc22	0.096122995
154	0xbd173926	-0.036919735
155	0xbbcb01e5	-0.006195294
156	0xbbabda79	-0.00524455
157	0x3cf197ac	0.029491268
158	0xbdcdc83b	-0.100479566
159	0x3d96d45b	0.07364722
160	0x3d2cda40	0.042200327
161	0xbcc3ecf3	-0.023916697
162	0xbc25df40	-0.010124028
163	0x3cb2ea04	0.021840103
164	0x3d5c10e4	0.053727046
165	0x3daf26d2	0.08552326
166	0x3c7463ba	0.014916355
167	0x3c971d50	0.018446594
168	0xbd3953fa	-0.045246102
169	0x3c506330	0.012718961
170	0x3dd7a329	0.10529167
171	0xbd8dd4f8	-0.06925386
172	0x3dc0d543	0.094156764
173	0xbbc629b1	-0.0060474505
174	0x3d7469b7	0.05967113
175	0xbce570ac	-0.028007828
176	0xbdf0a6b2	-0.117505446
177	0xbd5a4f2e	-0.053298168
178	0x3dc73e41	0.09728671
179	0x3d1a2f96	0.037643038
180	0x3dd57b7c	0.104239434
181	0xb97f9000	-0.00024372339
182	0x3d46a1a2	0.04849399
183	0xbc51f900	-0.012815714
184	0x3d878938	0.06617969
185	0x3d6043a8	0.054752022
186	0x3dc34fe6	0.09536724
187	0xbc85ac89	-0.016317623
188	0xbce22209	-0.02760412
189	0xbd617b56	-0.055049263
190	0x3c8903d4	0.016725458
191	0xbcc35e00	-0.023848534
192	0xbdb61c12	-0.08892073
193	0xbc316660	-0.010827631
194	0xbd92dc94	-0.07170978
195	0x3d3472b0	0.044054687
196	0x3d69a1df	0.057039138
197	0x3d35c8ce	0.044380955
198	0x3db1960d	0.08671198
199	0x3dafc631	0.08582724
200	0xbd47317f	-0.048631188
201	0xbda38b44	-0.07985547
202	0xbc7e0038	-0.015502982
203	0x3b8772a0	0.0041335374
204	0xbbdf1530	-0.0068079457
205	0xbe1b2cba	-0.1515378
206	0x3daddb66	0.084891126
207	0xbd916717	-0.07099741
208	0xbdcddff3	-0.100524805
209	0x3dee2e2d	0.11629901
210	0xbe087d58	-0.13329065
211	0xbd5d15ae	-0.053975753
212	0x3d65b6e9	0.05608264
213	0xbd4add76	-0.049527608
214	0x3d2fb530	0.042897403
215	0x3dd98267	0.106205754
216	0x3d34ec2c	0.044170544
217	0x3cd0c665	0.025485227
218	0xbd18fbd9	-0.037349556
219	0x3d82d9df	0.06389212
220	0x3d80409b	0.062623225
221	0xbe1463ec	-0.14491242
222	0xbe20500b	-0.15655534
223	0xbd4c9a5a	-0.04995189
224	0x3d5e3a6e	0.05425494
225	0x3d875bca	0.06609304
226	0xbc804414	-0.015657462
227	0xbd56f3ad	-0.05247848
228	0xbddeaf87	-0.10873323
229	0x3d5d598c	0.054040477
230	0xbd10cc7c	-0.03535126
231	0x3dc28dee	0.09499727
232	0x3d2126fe	0.039343826
233	0x3dbeca10	0.09315884
234	0xbe171889	-0.14755453
235	0xbd4c30d1	-0.049851242
236	0x3d6da4a3	0.058018338
237	0x3d6827d4	0.056678608
238	0x3d8d2481	0.06891728
239	0xbcd13b30	-0.025540918
240	0x3da7175f	0.081587546
241	0xbcaa2202	-0.02076817
242	0xbe638d34	-0.22221833
243	0xbe0da7f3	-0.13833599
244	0xbd7ec194	-0.06219633
245	0xbd701f8e	-0.058623843
246	0x3cc40db0	0.023932308
247	0x3d7f3950	0.062310517
248	0x3dea134c	0.11429462
249	0x3d81e752	0.06342949
250	0x3d4ebc5f	0.050472613
251	0x3d8f0a3d	0.06984375
252	0xbdc62b9d	-0.09676287
253	0x3d8c86a5	0.06861619
254	0x3da86e6f	0.082241885
255	0x3dfdde98	0.12395972

base.4.bias f4 [3]
0	0xbc97650e	-0.018480804
1	0xbc22bcd0	-0.009932712
2	0xbc921870	-0.017833918

exp_avg f4 [256, 6]
0	0x00000000	0.0
1	0x00000000	0.0
2	0x00000000	0.0
3	0x00000000	0.0
4	0x00000000	0.0
5	0x00000000	0.0
6	0x3c6eb3c0	0.014569223
7	0x3a1b9241	0.00059345743
8	0x00000000	0.0
9	0x00000000	0.0
10	0x00000000	0.0
11	0x00000000	0.0
12	0xbcd9741c	-0.026544623
13	0xba59af76	-0.0008304039
14	0x00000000	0.0
15	0x00000000	0.0
16	0x00000000	0.0
17	0x00000000	0.0
18	0x3d5db8d2	0.054131337
19	0x3b76114e	0.0037546935
20	0x00000000	0.0
21	0x00000000	0.0
22	0x00000000	0.0
23	0x00000000	0.0
24	0x00000000	0.0
25	0x00000000	0.0
26	0x00000000	0.0
27	0x00000000	0.0
28	0x00000000	0.0
29	0x00000000	0.0
30	0x3bf75c98	0.00754888
31	0x3af7a270	0.0018893015
32	0x00000000	0.0
33	0x00000000	0.0
34	0x00000000	0.0
35	0x00000000	0.0
36	0x00000004	6e-45
37	0x00000004	6e-45
38	0x00000000	0.0
39	0x00000000	0.0
40	0x00000000	0.0
41	0x00000000	0.0
42	0x3b806bd8	0.003919106
43	0xb9906e9e	-0.00027548237
44	0x00000000	0.0
45	0x00000000	0.0
46	0x00000000	0.0
47	0x00000000	0.0
48	0x3b02f9e9	0.0019985384
49	0xb7c4b8c0	-2.3451052e-05
50	0x00000000	0.0
51	0x00000000	0.0
52	0x00000000	0.0
53	0x00000000	0.0
54	0x3bce96f2	0.006304615
55	0xbae3ed7d	-0.0017389503
56	0x00000000	0.0
57	0x00000000	0.0
58	0x00000000	0.0
59	0x00000000	0.0
60	0x00000000	0.0
61	0x00000000	0.0
62	0x00000000	0.0
63	0x00000000	0.0
64	0x00000000	0.0
65	0x00000000	0.0
66	0xbcecc1b3	-0.028900957
67	0xbb0858d7	-0.0020804906
68	0x00000000	0.0
69	0x00000000	0.0
70	0x00000000	0.0
71	0x00000000	0.0
72	0xbd0510d7	-0.032486763
73	0xba72d68b	-0.0009263537
74	0x00000000	0.0
75	0x00000000	0.0
76	0x00000000	0.0
77	0x00000000	0.0
78	0xbc9eba4b	-0.01937594
79	0xbba6df41	-0.005092532
80	0x00000000	0.0
81	0x00000000	0.0
82	0x00000000	0.0
83	0x00000000	0.0
84	0xbcb0906c	-0.02155324
85	0xbacb4026	-0.0015506789
86	0x00000000	0.0
87	0x00000000	0.0
88	0x00000000	0.0
89	0x00000000	0.0
90	0xbcd04639	-0.02542411
91	0xbad80133	-0.001647985
92	0x00000000	0.0
93	0x00000000	0.0
94	0x00000000	0.0
95	0x00000000	0.0
96	0x3c09f1b2	0.008419441
97	0x398b9336	0.00026621827
98	0x00000000	0.0
99	0x00000000	0.0
100	0x00000000	0.0
101	0x00000000	0.0
102	0x3d6efd20	0.058346868
103	0x3ac3abfe	0.0014928577
104	0x00000000	0.0
105	0x00000000	0.0
106	0x00000000	0.0
107	0x00000000	0.0
108	0x00000000	0.0
109	0x00000000	0.0
110	0x00000000	0.0
111	0x00000000	0.0
112	0x00000000	0.0
113	0x00000000	0.0
114	0xbdaad4a2	-0.08341338
115	0x3a7d24d5	0.00096566725
116	0x00000000	0.0
117	0x00000000	0.0
118	0x00000000	0.0
119	0x00000000	0.0
120	0xb9a375ba	-0.00031177496
121	0xb7f63483	-2.9349938e-05
122	0x00000000	0.0
123	0x00000000	0.0
124	0x00000000	0.0
125	0x00000000	0.0
126	0xbcfc9dfe	-0.030837055
127	0xbb087866	-0.0020823716
128	0x00000000	0.0
129	0x00000000	0.0
130	0x00000000	0.0
131	0x00000000	0.0
132	0x00000000	0.0
133	0x00000000	0.0
134	0x00000000	0.0
135	0x00000000	0.0
136	0x00000000	0.0
137	0x00000000	0.0
138	0xbc4ce375	-0.012505402
139	0xbac308f0	-0.0014879983
140	0x00000000	0.0
141	0x00000000	0.0
142	0x00000000	0.0
143	0x00000000	0.0
144	0xbd08252b	-0.03323857
145	0xbad1acc5	-0.0015996924
146	0x00000000	0.0
147	0x00000000	0.0
148	0x00000000	0.0
149	0x00000000	0.0
150	0xbbe8471b	-0.0070885546
151	0xb9dafe76	-0.00041769788
152	0x00000000	0.0
153	0x00000000	0.0
154	0x00000000	0.0
155	0x00000000	0.0
156	0x00000000	0.0
157	0x00000000	0.0
158	0x00000000	0.0
159	0x00000000	0.0
160	0x00000000	0.0
161	0x00000000	0.0
162	0x3b67316c	0.003527726
163	0x39cd65a8	0.00039176387
164	0x00000000	0.0
165	0x00000000	0.0
166	0x00000000	0.0
167	0x00000000	0.0
168	0xbb8836fe	-0.004156946
169	0xb991856e	-0.00027755968
170	0x00000000	0.0
171	0x00000000	0.0
172	0x00000000	0.0
173	0x00000000	0.0
174	0x00000000	0.0
175	0x00000000	0.0
176	0x00000000	0.0
177	0x00000000	0.0
178	0x00000000	0.0
179	0x00000000	0.0
180	0xbc1fbdb8	-0.009749822
181	0xba5c9d0f	-0.00084157375
182	0x00000000	0.0
183	0x00000000	0.0
184	0x00000000	0.0
185	0x00000000	0.0
186	0xbc6ebc77	-0.014571301
187	0xba113e61	-0.0005540606
188	0x00000000	0.0
189	0x00000000	0.0
190	0x00000000	0.0
191	0x00000000	0.0
192	0xbd1905f8	-0.037359208
193	0x39fdc091	0.00048399394
194	0x00000000	0.0
195	0x00000000	0.0
196	0x00000000	0.0
197	0x00000000	0.0
198	0xb9bf7f7c	-0.00036525342
199	0xb9f08d68	-0.00045881723
200	0x00000000	0.0
201	0x00000000	0.0
202	0x00000000	0.0
203	0x00000000	0.0
204	0x00000000	0.0
205	0x00000000	0.0
206	0x00000000	0.0
207	0x00000000	0.0
208	0x00000000	0.0
209	0x00000000	0.0
210	0xbb84e0ef	-0.0040551345
211	0xb905ae8c	-0.00012748892
212	0x00000000	0.0
213	0x00000000	0.0
214	0x00000000	0.0
215	0x00000000	0.0
216	0x3ba191a9	0.004930694
217	0x38b68c4f	8.704571e-05
218	0x00000000	0.0
219	0x00000000	0.0
220	0x00000000	0.0
221	0x00000000	0.0
222	0xbcf496db	-0.02985709
223	0xbaf4420e	-0.0018635408
224	0x00000000	0.0
225	0x00000000	0.0
226	0x00000000	0.0
227	0x00000000	0.0
228	0xbd05e39d	-0.032687772
229	0xbaf14cad	-0.0018409692
230	0x00000000	0.0
231	0x00000000	0.0
232	0x00000000	0.0
233	0x00000000	0.0
234	0xbcfbaa13	-0.030720746
235	0xbb09eb1c	-0.0021044677
236	0x00000000	0.0
237	0x00000000	0.0
238	0x00000000	0.0
239	0x00000000	0.0
240	0x00000000	0.0
241	0x00000000	0.0
242	0x00000000	0.0
243	0x00000000	0.0
244	0x00000000	0.0
245	0x00000000	0.0
246	0xbc76c40e	-0.0150613915
247	0xb99dd379	-0.00030102933
248	0x00000000	0.0
249	0x00000000	0.0
250	0x00000000	0.0
251	0x00000000	0.0
252	0x3c02abd6	0.007975539
253	0x3996b4a4	0.00028744817
254	0x00000000	0.0
255	0x00000000	0.0

exp_avg_sq f4 [256, 6]
0	0x00000000	0.0
1	0x00000000	0.0
2	0x00000000	0.0
3	0x00000000	0.0
4	0x00000000	0.0
5	0x00000000	0.0
6	0x3a40e0bd	0.00073577074
7	0x3608bdb0	2.0375992e-06
8	0x00000000	0.0
9	0x00000000	0.0
10	0x00000000	0.0
11	0x00000000	0.0
12	0x3b142fbd	0.0022611462
13	0x36d9cb7d	6.490793e-06
14	0x00000000	0.0
15	0x00000000	0.0
16	0x00000000	0.0
17	0x00000000	0.0
18	0x3c0250c5	0.007953827
19	0x37c02377	2.2904698e-05
20	0x00000000	0.0
21	0x00000000	0.0
22	0x00000000	0.0
23	0x00000000	0.0
24	0x00000000	0.0
25	0x00000000	0.0
26	0x00000000	0.0
27	0x00000000	0.0
28	0x00000000	0.0
29	0x00000000	0.0
30	0x38b46798	8.602365e-05
31	0x35ac94fd	1.285836e-06
32	0x00000000	0.0
33	0x00000000	0.0
34	0x00000000	0.0
35	0x00000000	0.0
36	0x000001f4	7e-43
37	0x000001f4	7e-43
38	0x00000000	0.0
39	0x00000000	0.0
40	0x00000000	0.0
41	0x00000000	0.0
42	0x38648b03	5.44889e-05
43	0x34011aa0	1.2023747e-07
44	0x00000000	0.0
45	0x00000000	0.0
46	0x00000000	0.0
47	0x00000000	0.0
48	0x3809c288	3.2844517e-05
49	0x33857900	6.215305e-08
50	0x00000000	0.0
51	0x00000000	0.0
52	0x00000000	0.0
53	0x00000000	0.0
54	0x39f5cab7	0.00046881076
55	0x35df2256	1.6624788e-06
56	0x00000000	0.0
57	0x00000000	0.0
58	0x00000000	0.0
59	0x00000000	0.0
60	0x00000000	0.0
61	0x00000000	0.0
62	0x00000000	0.0
63	0x00000000	0.0
64	0x00000000	0.0
65	0x00000000	0.0
66	0x3aa03911	0.0012224038
67	0x36aab325	5.08725e-06
68	0x00000000	0.0
69	0x00000000	0.0
70	0x00000000	0.0
71	0x00000000	0.0
72	0x3b89a8d2	0.004201033
73	0x372a9947	1.0168477e-05
74	0x00000000	0.0
75	0x00000000	0.0
76	0x00000000	0.0
77	0x00000000	0.0
78	0x3ba5564a	0.005045687
79	0x37afc02f	2.0951118e-05
80	0x00000000	0.0
81	0x00000000	0.0
82	0x00000000	0.0
83	0x00000000	0.0
84	0x3a2f8819	0.00066960003
85	0x3639e323	2.769936e-06
86	0x00000000	0.0
87	0x00000000	0.0
88	0x00000000	0.0
89	0x00000000	0.0
90	0x3a512715	0.0007978541
91	0x36630cba	3.3833044e-06
92	0x00000000	0.0
93	0x00000000	0.0
94	0x00000000	0.0
95	0x00000000	0.0
96	0x38da4e2f	0.00010409613
97	0x34959a09	2.7865488e-07
98	0x00000000	0.0
99	0x00000000	0.0
100	0x00000000	0.0
101	0x00000000	0.0
102	0x3c3dfeda	0.011596406
103	0x37fb56f3	2.996202e-05
104	0x00000000	0.0
105	0x00000000	0.0
106	0x00000000	0.0
107	0x00000000	0.0
108	0x00000000	0.0
109	0x00000000	0.0
110	0x00000000	0.0
111	0x00000000	0.0
112	0x00000000	0.0
113	0x00000000	0.0
114	0x3ca72d1e	0.020407256
115	0x38423b04	4.6308167e-05
116	0x00000000	0.0
117	0x00000000	0.0
118	0x00000000	0.0
119	0x00000000	0.0
120	0x36087f45	2.033966e-06
121	0x32d8c0db	2.523341e-08
122	0x00000000	0.0
123	0x00000000	0.0
124	0x00000000	0.0
125	0x00000000	0.0
126	0x3ade47fb	0.0016958708
127	0x36d4f3ad	6.34646e-06
128	0x00000000	0.0
129	0x00000000	0.0
130	0x00000000	0.0
131	0x00000000	0.0
132	0x00000000	0.0
133	0x00000000	0.0
134	0x00000000	0.0
135	0x00000000	0.0
136	0x00000000	0.0
137	0x00000000	0.0
138	0x391bdb30	0.00014863606
139	0x356e73d4	8.883046e-07
140	0x00000000	0.0
141	0x00000000	0.0
142	0x00000000	0.0
143	0x00000000	0.0
144	0x3ae2b690	0.001729684
145	0x36ad7eaa	5.1705474e-06
146	0x00000000	0.0
147	0x00000000	0.0
148	0x00000000	0.0
149	0x00000000	0.0
150	0x382c38a2	4.106074e-05
151	0x343a91d8	1.7375658e-07
152	0x00000000	0.0
153	0x00000000	0.0
154	0x00000000	0.0
155	0x00000000	0.0
156	0x00000000	0.0
157	0x00000000	0.0
158	0x00000000	0.0
159	0x00000000	0.0
160	0x00000000	0.0
161	0x00000000	0.0
162	0x36c7c8ed	5.954053e-06
163	0x33bfe285	8.935334e-08
164	0x00000000	0.0
165	0x00000000	0.0
166	0x00000000	0.0
167	0x00000000	0.0
168	0x383ef015	4.5523124e-05
169	0x34324029	1.6600883e-07
170	0x00000000	0.0
171	0x00000000	0.0
172	0x00000000	0.0
173	0x00000000	0.0
174	0x00000000	0.0
175	0x00000000	0.0
176	0x00000000	0.0
177	0x00000000	0.0
178	0x00000000	0.0
179	0x00000000	0.0
180	0x38ef95d7	0.00011424318
181	0x351f7816	5.9406864e-07
182	0x00000000	0.0
183	0x00000000	0.0
184	0x00000000	0.0
185	0x00000000	0.0
186	0x3a3b99fa	0.0007156428
187	0x35bd7a31	1.411716e-06
188	0x00000000	0.0
189	0x00000000	0.0
190	0x00000000	0.0
191	0x00000000	0.0
192	0x3b79e553	0.0038131073
193	0x370c7d45	8.373817e-06
194	0x00000000	0.0
195	0x00000000	0.0
196	0x00000000	0.0
197	0x00000000	0.0
198	0x3794470b	1.7676057e-05
199	0x33e4de4d	1.06575136e-07
200	0x00000000	0.0
201	0x00000000	0.0
202	0x00000000	0.0
203	0x00000000	0.0
204	0x00000000	0.0
205	0x00000000	0.0
206	0x00000000	0.0
207	0x00000000	0.0
208	0x00000000	0.0
209	0x00000000	0.0
210	0x372e3197	1.0382754e-05
211	0x331112de	3.3777603e-08
212	0x00000000	0.0
213	0x00000000	0.0
214	0x00000000	0.0
215	0x00000000	0.0
216	0x370b6b9b	8.3100995e-06
217	0x32879f46	1.5788498e-08
218	0x00000000	0.0
219	0x00000000	0.0
220	0x00000000	0.0
221	0x00000000	0.0
222	0x3ab72f49	0.0013975884
223	0x36a8601c	5.0179788e-06
224	0x00000000	0.0
225	0x00000000	0.0
226	0x00000000	0.0
227	0x00000000	0.0
228	0x3ad5d161	0.001631301
229	0x36bf13c4	5.6945446e-06
230	0x00000000	0.0
231	0x00000000	0.0
232	0x00000000	0.0
233	0x00000000	0.0
234	0x3ad21a8f	0.0016029644
235	0x36cb8421	6.0652533e-06
236	0x00000000	0.0
237	0x00000000	0.0
238	0x00000000	0.0
239	0x00000000	0.0
240	0x00000000	0.0
241	0x00000000	0.0
242	0x00000000	0.0
243	0x00000000	0.0
244	0x00000000	0.0
245	0x00000000	0.0
246	0x39f6dce1	0.00047085344
247	0x3583cfb4	9.82071e-07
248	0x00000000	0.0
249	0x00000000	0.0
250	0x00000000	0.0
251	0x00000000	0.0
252	0x3900665f	0.00012245167
253	0x349eb8fa	2.9564382e-07
254	0x00000000	0.0
255	0x00000000	0.0
