assets/section_1/actor_critic/mountain_car/models/mountaincar_exp/episode_best/actor.pth (torch, 831366 bytes, 18 tensors)

base.0.weight f4 [256, 6]
00000000: 923e 82be 080b 853d ce7f c83e d920 93be
00000010: 7038 933d 4668 a73e 3afc aebe 6c5f 9a3e
00000020: a77c b8be fbe6 443d 53de 463e ca92 923d
00000030: c157 38be 62ca 1abe 92e2 cd3e d240 d0be
00000040: 9902 8bbc 9081 8bbe 3090 243e 93db c1be
00000050: c298 a33e 4b30 cb3e 2dcb 5d3a 4969 a6be
00000060: b920 b1be 5709 923e 054c aabb 98d4 533d
00000070: 1eee c93e 14c9 a83d 7dbc c33e 1467 303e
00000080: 4a2c 4f3e 73d3 1b3e 73e3 babe 6e4e 0abe
00000090: 7e7a 64bd fa29 713e f803 df3d 81cb a53e
000000a0: 3d45 9c3e 338c 3e3e 5564 0cbe e082 45bd
000000b0: eb28 b9bd 68d1 b73e 950f ccbd cf43 7bbe
000000c0: 0dc1 8ebe 9f4f cebd 0b55 b73b a867 803e
000000d0: d5dd 80bc bf80 d3bc 082f bf3e a722 8bbe
000000e0: c651 783c 84f4 76be 6b50 223e 5325 b6be
000000f0: 03dd 863e fb13 98be 5647 993e cce3 9dbd
00000100: 97d0 1bbe 292f 943e 514e df3c 52bb ccbe
00000110: bef2 b23e aead 4abe d986 f73d a2df 5f3d
00000120: 7892 06be 9b98 3e3e ba9e 743e e303 26be
00000130: d827 86be b1ef 8cbe b202 7a3d 3dcf c93e
00000140: ddd8 c6bd 08b1 1a3e c7c2 3a3c aaaf c33e
00000150: c065 863e 41be 813e 7909 06bd 181b 8fbe
00000160: fc9a 1e3e 51d0 a1bd c279 20be 418c bfbe
00000170: 72c3 8abd 6dd4 653e c34d 03be 220c 24be
00000180: 50cb 9e3e cbf0 b6be c34d 35be 0b54 993e
00000190: a51f 073e 9a60 c03d 12d0 633e 5b98 63be
000001a0: 6789 56be 5172 cf3e 71f2 273e a4a5 803e
000001b0: 2bf7 d2bc ba7f 9dbe 64b6 1dbe 579a 3c3e
000001c0: f90f f7bd 9c38 15bb 6954 c5be 11f0 b03e
000001d0: 7b2f 8d3e fb1a 13be fe5e 833e 6bea 92be
000001e0: 2611 753e 94b6 c33d 1c5c a3be d751 a0be
000001f0: 249c a5be 281b c1be aef7 04be d58d b03d
00000200: 9c52 86be c28c 9fbe 019e ccbe c780 97be
00000210: ade3 8fbe e4c7 c13e 5d1f 62bc 17df 863d
00000220: a3a2 6dbe fabd 04be 0221 893e 9434 c9be
00000230: e592 edbc 2959 af3e 9d78 bfbd d3e8 78bd
00000240: 9af4 7cbe faac 973e 8872 0b3e 1732 673e
00000250: fa2d 6e3e f925 c73e f46f aabe 4dd2 aa3e
00000260: 65bb b3be bc2f 4bbd cc28 9e3e 2671 243e
00000270: 77c7 40bd 831d ca3e 80bd ef3c 8ccd a6bd
00000280: 3e95 cfbe c5fe 6abe 6bce ad3d a929 a43e
00000290: 8e48 32be 3326 08be 7b65 223e 200e 8f3e
000002a0: 4fbb b9be afe6 be3e 2d9c 543d 6936 0abe
000002b0: 4260 823e 46cf 85be 001e 3dbe 04c8 853e
000002c0: 93d1 9a3e 93ff 8c3e a08b b0be 5714 a03e
000002d0: 405d c7be afb5 9d3e 44bf d23d ed7d 463e
000002e0: b82f 23be e381 903e 15bd c0be d833 b2bd
000002f0: 35e9 53bd 0fa2 05be c235 8d3e 2ade 76be
00000300: a14f a9be d57a a2be ec9c 2d3d eef9 0cbe
00000310: 1fcd 8d3e 88f0 b6be c20c 3c3e 189d 1abe
00000320: f700 0abe 6371 cc3e 0f21 aebe 1e12 da3d
00000330: 94ae 0d3e 1ba5 163e 1b50 b43e b07c 5e3e
00000340: 22bd b9be c8e5 9b3e c5c1 42be 63b4 be3e
00000350: f431 afbe 0df3 233e 5920 54be 6422 1cbe
00000360: a3c3 81be 1cbf 943d f6eb a9be 5af1 b7bd
00000370: f92a bbbe 012b 453d 8923 6c3e 9381 063e
00000380: b483 ccbd 762e af3e 21d6 e3bc a20f 9cbe
00000390: 2fd4 4a3d b295 a13d 93f7 77be 0528 cbbe
000003a0: 8570 413d b4a4 843e 9f24 8bbe 7038 fd3d
000003b0: 7e26 7abd 54e7 e23d 9372 c7be e24b 09be
000003c0: ea55 083e 63dd f0bd 81f5 503e 229f c93e
000003d0: 56dc aa3d ae08 c73d 8ce3 773d 5e21 3d3e
000003e0: 0122 b23e 5932 87be 78e8 41be dea4 523e
000003f0: fdf5 cf3e 3519 c1bd e863 8d3e 7598 913d
-0.25438362 0.06496245 0.39160007 -0.28735998 0.07188499 0.32696742 -0.3417681 0.30150926
-0.36032602 0.048071843 0.19420747 0.07156904 -0.18002225 -0.15116265 0.40211922 -0.40674454
-0.016969012 -0.27247286 0.16070628 -0.37862834 0.31952482 0.39685282 0.00084607565 -0.325022
-0.34595278 0.2852275 -0.0051970505 0.051716417 0.39439481 0.082414776 0.38229743 0.17226821
0.20231739 0.1521738 -0.36501655 -0.13506481 -0.05578088 0.23551169 0.10889429 0.32381824
0.30521575 0.1860817 -0.13710149 -0.048220515 -0.090410076 0.35901952 -0.099639095 -0.24537586
-0.2788166 -0.1007378 0.0055948547 0.25079083 -0.015730778 -0.025818227 0.3734057 -0.27174875
0.015156215 -0.24116713 0.1585099 -0.3557535 0.26340494 -0.29702744 0.29937238 -0.077094644
-0.1521629 0.2894223 0.027259024 -0.39986664 0.34950823 -0.19792816 0.12086267 0.054656632
-0.13141811 0.18612902 0.23888674 -0.1621242 -0.26202273 -0.2752662 0.061037727 0.39415923
-0.09709332 0.15106595 0.011398978 0.3821996 0.26249504 0.25340465 -0.032723878 -0.27950358
0.1548881 -0.07901061 -0.15671447 -0.37411693 -0.067755595 0.22444315 -0.12822632 -0.16020253
0.3101449 -0.35730585 -0.17705445 0.29946932 0.13195665 0.09393425 0.22247341 -0.22226088
-0.20950852 0.40516904 0.16401078 0.25126374 -0.025752624 -0.3076151 -0.15401608 0.18418251
-0.120635934 -0.0022769338 -0.38540962 0.34558156 0.27575287 -0.14365761 0.2565841 -0.28694472
0.23932323 0.095563084 -0.3190621 -0.3131244 -0.32345688 -0.3771603 -0.12985107 0.08620802
-0.262349 -0.31162077 -0.39964297 -0.29590437 -0.2810339 0.37847817 -0.013801423 0.0658552
-0.23206572 -0.12963095 0.26782995 -0.39297926 -0.029000709 0.3424771 -0.09349177 -0.060768913
-0.24702683 0.29624158 0.13617909 0.22577702 0.23259726 0.38896158 -0.33288538 0.33363572
-0.35103908 -0.04960607 0.308905 0.16058788 -0.047065224 0.3947564 0.029265165 -0.08144674
-0.4054355 -0.2294875 0.08486637 0.32063034 -0.1741049 -0.13295822 0.15859024 0.27940464
-0.36275718 0.37285373 0.051906753 -0.13497318 0.25464064 -0.261347 -0.18468475 0.26129162
0.30238017 0.27538738 -0.34481525 0.31265518 -0.38938332 0.30802676 0.10290387 0.19383974
-0.15936172 0.28224096 -0.37644258 -0.08701295 -0.051736075 -0.13050102 0.27580076 -0.24108186
-0.33068565 -0.31734338 0.04238598 -0.13767216 0.27695557 -0.35730386 0.18364242 -0.15098989
-0.1347693 0.39930257 -0.34009597 0.10647987 0.13836128 0.1471142 0.35217366 0.21727252
-0.3627711 0.30448747 -0.1901923 0.37247 -0.342178 0.16010685 -0.20715465 -0.15247494
-0.2534457 0.07263014 -0.33187836 -0.08981581 -0.36556223 0.048136715 0.2306043 0.13135366
-0.09986058 0.34215134 -0.027812066 -0.30480677 0.04951876 0.0788988 -0.24215536 -0.3967897
0.047226448 0.2590691 -0.27176377 0.1236428 -0.061071865 0.110792786 -0.389546 -0.13407853
0.13314024 -0.11760976 0.20406152 0.3937922 0.08342807 0.097184524 0.06051974 0.1846976
0.34791568 -0.264056 -0.18936336 0.20570704 0.40617362 -0.09428636 0.27615285 0.07109157

base.0.bias f4 [256]
00000000: db47 a4bd 9789 ba3e 0119 493e fa0a 7a3e
00000010: 452c c93e 5c25 2ebe 0398 cb3e e80d 093e
00000020: 429e ad3e 9cde 8cbd 856b af3e 0cf8 ca3e
00000030: 03a8 c53e 1012 883e 48a2 31be 95f8 83be
00000040: f376 bfbe 1d81 c5be 2e5d 2fbe 3d8d 813e
00000050: 5923 b3be 9f01 24be e7ed ad39 ab11 c63e
00000060: 7141 8abe 1666 453c 7428 c33e f055 ca3d
00000070: 6393 103e 0916 9abe 1e12 883e eb70 05be
00000080: 2eaf 93bd 0168 b63d ae09 6c3e b4e7 73be
00000090: b4b9 9c3e 8759 2bbe 5ce5 9b3e 292f 86be
000000a0: ce30 8c3e f4a6 85be d06a c7be 1b61 6bbe
000000b0: d48d c0be c049 c23d 4410 adbe dd12 cb3e
000000c0: de35 cd3e 94fd 8d3e 8203 b8bd 8cf1 623e
000000d0: 9258 b63e 6482 8cbe c87d 30bd f83c 45bc
000000e0: 5274 813e b634 463e aee0 473e 2b0d 80bd
000000f0: 6928 e23d 4fe4 bd3e fabe 513e c60b a03e
00000100: 8bf3 be3d 695b a43e bc4b a5be 1bd5 6a3d
00000110: bd75 d63e 4935 b1be 290e 05be 9779 4fbe
00000120: 7e11 9e3e b440 50be 3734 90bd 93dd ae3e
00000130: a08c cfbe 65cf 86be cdec 58bd 0c41 9c3e
00000140: eb66 c8be 9080 bdbe 9aad 713e 1c45 b03e
00000150: a8e6 923e 37a6 613e 9a53 b4be a1cc 8f3e
00000160: 0b18 353e 4022 0abe 8eff 0d3e 6404 073e
00000170: d522 af3d c117 6e3b f285 cfbe 6a1b d7bd
00000180: b1f9 aebd 2834 9dbe cf6a ffbd afb7 c9be
00000190: 25ed d33e f510 173d 01c1 a83e 5e42 bbbe
000001a0: 41ca 4bbe 7f73 57bd b61c c53e 7f5f aebe
000001b0: c1d7 7d3e fb66 b23e fdec 60be 3090 4ebe
000001c0: aa14 0a3e aa5f 433e ac96 483d 3775 25be
000001d0: 1662 0abc 255b c1be 169a 81be 9fe9 8dbd
000001e0: 27ad de3d 200c 1dbe 2f4d 603e f359 783e
000001f0: 2f39 1a3e 185b 63be bcde 41be 7ed9 d13e
00000200: 3c43 bb3e 0986 8c3e d021 ce3e 5a06 8a3e
00000210: 7eac 25bd 2048 aa3e 8fc7 58bd fdd6 d33d
00000220: b777 36be 6021 efbd a5cc a43e cccd 51be
00000230: 9750 40be 271e 973e 0482 00be 17a3 863e
00000240: 20ae e53c 2893 f3bd fe70 78bd 3b1a a13e
00000250: 81de 663e 94a4 473e 14a9 c33d fbe1 e4bd
00000260: 3f8a 643e b06b 803e 38a4 4abe 8e82 cbbd
00000270: 5b72 dd3b 47f4 b2bc 0b97 80be 9c75 6abe
00000280: a084 033e 3544 893d 7317 8e3d 68f0 b53e
00000290: cf0a 1ebe c088 cfbe db8f 683e aeb2 f43d
000002a0: 3e82 99be 4985 b2be dbfc 75bc 7685 bf3e
000002b0: e4b1 313e 2134 cf3e d1e8 39be c3b2 9e3d
000002c0: fc2a 2ebe cf53 803e 4522 b53c 8869 76bd
000002d0: 462e 91be 930b 9b3e 31c0 54be 1bf6 d13e
000002e0: d0b7 b2be 4c12 bc3e 3660 95be 4b57 70be
000002f0: 290e 80be 9459 413e 117a b7bd ec9c 31be
00000300: c6a7 dabd 6073 a8be 2933 d1bd 9d99 873e
00000310: d976 c5be 6030 a03e 6df9 0c3e f4ae a2bc
00000320: 9458 e43d 3bef a63b 0b64 783d ce5b c63e
00000330: f67c c0be 4ff4 d3bd 94c7 693d 3534 20bc
00000340: 0dd9 b2be a608 b33e d8a9 c7be b818 9dbd
00000350: 3263 af3e 97af c5be ca7c 743d 5ee8 543e
00000360: c73e 0a3e 7137 da3d 7c3b bf3e 020b ba3e
00000370: 9981 a43e af9e 243e 1fa3 5bbc be4a e4bc
00000380: d1c8 68bd 07c0 ac3e eea8 483e 9c88 90be
00000390: d317 a4be f1b3 9c3d 3977 c63c 16db ca3e
000003a0: a2b6 88bd 5518 f83d 724c a2be 85ef 8d3e
000003b0: 62f1 fdbd a946 203e a842 d0be ece1 62be
000003c0: b79f 9fbe 5ce6 55be c2fd 6fbe 847c 7fbe
000003d0: 392e 9d3e 334c 453e 0168 a23d 2fd5 4abe
000003e0: ead0 6c3d 0ffc b7be 8790 9f3e 79f6 4b3e
000003f0: 08f8 433e 338b bbbe c920 acbe 0d5b dabd
-0.08021518 0.36433098 0.19638444 0.2441825 0.39291587 -0.17006439 0.39764413 0.13384211
0.33909804 -0.06878397 0.34261718 0.3964237 0.38604745 0.2657628 -0.17347062 -0.2577559
-0.3739544 -0.38575068 -0.17125389 0.2530307 -0.34987906 -0.16016243 0.00033174382 0.38685355
-0.27003053 0.012048265 0.381168 0.098796725 0.14118724 -0.30094936 0.26576322 -0.13031356
-0.07211147 0.08906556 0.23050568 -0.23818856 0.3061043 -0.1673337 0.30448425 -0.26207855
0.27380985 -0.26103938 -0.3894868 -0.22986262 -0.37608206 0.09486723 -0.33801472 0.3966283
0.4008016 0.27732527 -0.08985044 0.22162455 0.3561445 -0.2744323 -0.043088704 -0.012038462
0.25284058 0.19356045 0.19519302 -0.062525116 0.11042864 0.37088248 0.20483008 0.31258982
0.09323796 0.3210099 -0.32284343 0.05733214 0.41886702 -0.34610966 -0.12993683 -0.20261227
0.3087272 -0.20337182 -0.07041209 0.34153423 -0.40536976 -0.26330104 -0.052960206 0.30518377
-0.3914102 -0.37012148 0.2360138 0.34427726 0.28691602 0.22036062 -0.35220033 0.28085807
0.17684953 -0.13489628 0.13867018 0.13185269 0.085515656 0.0036330076 -0.4053188 -0.10503276
-0.085437186 -0.30703855 -0.12471544 -0.39397952 0.41391864 0.036881406 0.3295975 -0.36574072
-0.19901372 -0.05260038 0.38498467 -0.34057233 0.24789335 0.34844193 -0.21965404 -0.2017219
0.13484445 0.19079462 0.048971817 -0.16157995 -0.008446237 -0.3776485 -0.2531287 -0.06929325
0.1087287 -0.15336657 0.21904443 0.24253063 0.15060876 -0.22202718 -0.18932623 0.40986246
0.36574733 0.2744601 0.40260172 0.2695797 -0.040447704 0.33258152 -0.05292469 0.1034374
-0.17819105 -0.11676288 0.3218738 -0.20488662 -0.18780743 0.29515192 -0.12549597 0.26296303
0.02803713 -0.11893302 -0.060654633 0.31465325 0.22545816 0.19496375 0.095537335 -0.11175915
0.22318362 0.2508216 -0.19789207 -0.09937011 0.006758017 -0.021844996 -0.25115237 -0.22896427
0.12843561 0.067024626 0.06938066 0.35534978 -0.1543381 -0.4053402 0.22711127 0.11948143
-0.2998218 -0.34867314 -0.015013899 0.3740651 0.17353016 0.4046946 -0.18155219 0.0774894
-0.17008585 0.2506394 0.022111068 -0.060159236 -0.28355616 0.30282268 -0.2077644 0.41008076
-0.34905863 0.3673271 -0.29174966 -0.234708 -0.25010803 0.18881828 -0.08958829 -0.17345017
-0.106765315 -0.32900524 -0.10214836 0.26484385 -0.38567236 0.31286907 0.13767023 -0.019858815
0.111497074 0.0050944365 0.060642283 0.38741916 -0.37595338 -0.103493325 0.0570751 -0.009778072
-0.34931222 0.34967536 -0.38996768 -0.0767073 0.34255368 -0.38610527 0.05968932 0.20791766
0.1350051 0.10655106 0.3735007 0.36336523 0.32130125 0.16076158 -0.01340559 -0.027867671
-0.05683214 0.33740255 0.19595692 -0.28229225 -0.32049426 0.076515086 0.024226772 0.39620274
-0.066754594 0.12114016 -0.31698948 0.277218 -0.12399556 0.15651955 -0.40675855 -0.22156495
-0.3117654 -0.20888656 -0.23436645 -0.24949843 0.30699328 0.19267349 0.079299934 -0.19807886
0.057816423 -0.35934493 0.31164953 0.1991824 0.19137585 -0.36629638 -0.33618763 -0.10661898

base.2.weight f4 [256, 256]
00000000: 9c68 e33c 2979 2f3c ee8f 65bd 05a5 d1bb
00000010: cc13 0abd 31ff 3c3d 043c b4bc c709 383d
00000020: 3dfe 42bd 93c9 d2bc 94e0 a83c d485 9dbc
00000030: 2005 4dbd 0dc4 833b 32fc 21bd f85b 7c3d
00000040: e89c 60bc 101b 0dbd 30da c9bc 421f 96bc
00000050: e4c5 3c3d 5208 12bd 24a5 3ebd 9a1b e63c
00000060: 30ca d83c 42e4 04bd 396c fb3b 8e71 14bd
00000070: 36f5 bfbc 1804 66bd b61f 5ebd 40f1 3e3d
00000080: 6895 023c aaa1 48bd 24d1 26bd 7046 be3c
00000090: 6c18 b8bc 7cac 283d 37c8 f6bb 76ac 7bbd
000000a0: 9673 dc3c 2e88 6b3d 42e5 7d3d 6263 463d
000000b0: f80f 903c 3bf0 0c3d 9a12 3dbd 6a53 55bd
000000c0: 6091 1bbc 2e28 55bc 96c0 463d 0665 f03b
000000d0: 994b 54bd 069b 3fbd ff77 f93c b881 393c
000000e0: 31d4 aa3b e195 85bc 92e1 a13c 689f 523c
000000f0: 538f 2e3d 836d 2c3d 848d 1bbd 8e28 993c
00000100: 44dd a9bc fc52 fb3c 7ca5 74bd 0b79 46bd
00000110: 111e 4ebd 6a68 533d 504b f73c 80f5 eaba
00000120: e1d6 713d 0ca2 8cbc a08f 943b 9f0a 5a3d
00000130: 4037 603c 00f8 f6bb e44b 0ebd d01f f63b
00000140: d0f6 80bc 3825 663c 5a12 a4bc d0ae 5fbc
00000150: ab36 423d c486 b5bc f05a dfbc 2f7b 473d
00000160: f99b 133d 60f9 54bd 6789 c1bc d06e 183d
00000170: 45cb 403d d2ac 733d c09e 163c 3658 0cbd
00000180: dcf9 65bd 7082 a2bb 4c49 52bd aef5 5abd
00000190: 8cb8 7a3d 08f5 0bbd c494 8a3c 54ec 753d
000001a0: f2fe 6f3d f8e5 41bd ba19 ca3c 4039 fc3b
000001b0: 088f 66bc 8f52 4b3d 7c71 b33c 7ac4 70bd
000001c0: 4d4d 3f3d dfac f53c 81c9 3ebd 807c bfbb
000001d0: 532c 953c b068 60bc 0051 65ba cd9e e03c
000001e0: 36f3 68bd 1a97 313d 109d 8dbc 4e59 773d
000001f0: 6b1c 753d 68b7 48bc d06b 053c cecf 6a3c
00000200: 860a 443d a638 53bd 8f19 57bd b8a2 4bbd
00000210: 842d 68bd 3359 213c 2dae c53c a749 203d
00000220: 9c4f bdbc 10e7 be3b bf48 5c3d e867 a53c
00000230: d848 49bc fc65 303c a8ba 2e3c e717 423d
00000240: 0a3a b3bc d85f 1c3c f9ec 2a3d cf10 9d3c
00000250: 33ec c33c c3fa 9dbc 92e9 523c 2b80 3d3d
00000260: fbcf e03b c890 693d 9afe 3f3d 3024 f7bb
00000270: 05a5 0f3c 0309 603d 908e 68bd c455 783d
00000280: 81a1 3c3d d9e2 68bd 66cf 203b 1b4c 15bd
00000290: 88af 88bc 58a5 293c 174c d53c 4551 68bd
000002a0: a403 29bd 847a 043d 7494 c13c 53ea 8cba
000002b0: 0cc5 d6bc 2c88 4cbd 5096 39bd f14a c0bc
000002c0: 4f59 4b3d 91cb 26bd b42b ed3c 7038 babc
000002d0: 3887 f7bc f05e 18bd f8ae a23c 4163 053c
000002e0: 300f 62bc 12d5 26bb 2ee7 08bd f8f6 27bc
000002f0: a407 9e3c 8df2 37bd e06e 603d 849d 41bd
00000300: 1587 793d c08c ddba 482d 15bd 118d 253b
00000310: 002b 6a3c 38e9 04bd ad5b 2bbd 2276 0d3d
00000320: 60bb 4bbd 771a 363d 9ba9 043d 0063 433b
00000330: 08dd 52bd e289 20bd ff61 d43c 984c 3d3d
00000340: a4b2 193d 0496 933c 92ca 483d 26e7 80bd
00000350: 0d9c 57bc c6ae 273d 1ea5 86bc 38ea eb3a
00000360: 5f3a 16bc 7f28 23bd 51fb 873b 2a12 feb8
00000370: 0e48 d5bc 8de7 febc 10f3 d33c 74ed f83b
00000380: 40c9 4e3d 64be 753c f361 11bc 6884 5f3d
00000390: 0c9f 653d b539 f73c 4064 4f3d e354 87bc
000003a0: 10e9 75bc 87e0 04bd 2024 5abc f071 743a
000003b0: 28f2 103d a459 e43c a0e9 75bc f215 613d
000003c0: acc0 a6bc d8a9 2dbc 48c8 76bd e03d 28bc
000003d0: fb92 71bd ee57 503d 1742 753d 063c 603d
000003e0: 69f1 bbbc 180e f8bc c01d 30bd 3207 44bd
000003f0: 4cb4 353d a8b1 4cbc 9067 353c 78e1 043c
0.027759843 0.010710039 -0.056045465 -0.0063978457 -0.033710286 0.046141807 -0.022001274 0.0449312
-0.04760574 -0.025730884 0.0206149 -0.019228853 -0.050053716 0.004021174 -0.039547153 0.061611146
-0.013709284 -0.034449637 -0.024640173 -0.018325452 0.04608716 -0.035652466 -0.04654421 0.028089333
0.026463598 -0.032444246 0.0076728133 -0.036241107 -0.023432355 -0.056156248 -0.05422946 0.046616793
0.007970192 -0.0489823 -0.040726796 0.023226947 -0.022472583 0.04118012 -0.0075311917 -0.06144377
0.026910584 0.057502918 0.061986215 0.048434623 0.01758574 0.03440879 -0.046160318 -0.052081503
-0.009495109 -0.013010068 0.048523508 0.0073362617 -0.051829908 -0.0467787 0.030452726 0.011322431
0.0052132835 -0.01630682 0.01976088 0.012855388 0.042617153 0.042096626 -0.037976757 0.018696096
-0.02073539 0.030679218 -0.05972813 -0.04845528 -0.050321642 0.05161325 0.030187279 -0.0017925948
0.059042815 -0.017167114 0.004533723 0.053232785 0.013685048 -0.007536888 -0.034740344 0.0075111166
-0.01574269 0.01404696 -0.020028282 -0.013652518 0.047415417 -0.022158988 -0.027265042 0.04870146
0.03603742 -0.051995635 -0.023625089 0.037215054 0.047068853 0.059490986 0.009193122 -0.034263812
-0.056146488 -0.004959397 -0.051339433 -0.053456955 0.061211154 -0.034169227 0.01691664 0.060039833
0.058592744 -0.047338456 0.02467047 0.0076972544 -0.014072187 0.04963928 0.0219047 -0.058781125
0.04670458 0.029989658 -0.046578888 -0.005843699 0.018209612 -0.013696834 -0.00087477267 0.027419472
-0.05687257 0.043356992 -0.017286807 0.060387902 0.059841555 -0.012250759 0.00814338 0.014331771
0.0478616 -0.051567696 -0.05251461 -0.049715728 -0.056684032 0.009847927 0.024130905 0.03913274
-0.02310925 0.0058258846 0.053780314 0.020191148 -0.012285434 0.0107665025 0.0106646195 0.047386076
-0.021878261 0.009544335 0.0417299 0.019173054 0.02391634 -0.019284612 0.01287307 0.04626481
0.0068607307 0.05702284 0.046873666 -0.0075421557 0.008767371 0.054696094 -0.056776583 0.060628667
0.04605246 -0.056856964 0.0024537682 -0.036449533 -0.016685262 0.010354362 0.026037259 -0.05671813
-0.041263238 0.032343403 0.023630358 -0.0010750986 -0.026217006 -0.04993455 -0.045309365 -0.023473235
0.04964572 -0.04072148 0.028951503 -0.02273199 -0.030215845 -0.037199914 0.019858822 0.00814134
-0.013797566 -0.002545659 -0.033423595 -0.010251753 0.019290753 -0.04490905 0.05479324 -0.04726936
0.06091984 -0.0016902909 -0.036420137 0.0025261084 0.014292479 -0.032448977 -0.041835476 0.03453649
-0.04973924 0.044458833 0.03238831 0.0029813647 -0.051480323 -0.039193995 0.025925634 0.046215624
0.03752388 0.018015869 0.04902131 -0.06294088 -0.013159764 0.04093816 -0.016436156 0.001799888
-0.00916919 -0.039833542 0.0041498323 -0.00012115047 -0.026035335 -0.031116271 0.025872737 0.007596666
0.050484896 0.014999006 -0.008873451 0.05456963 0.056059882 0.030178884 0.050632715 -0.01651997
-0.01500918 -0.03244069 -0.013314277 0.00093248393 0.03538719 0.027874775 -0.015009314 0.05495257
-0.020355545 -0.010599576 -0.060249597 -0.010268658 -0.058978062 0.050865106 0.05987748 0.054744743
-0.022942262 -0.030280158 -0.04299712 -0.047858424 0.044361398 -0.012493528 0.0110720545 0.008110397

base.2.bias f4 [256]
00000000: fd2c bf3c 473b 0f3d f63e 2cbd 1d90 323a
00000010: 6f33 043d af4f d53c 9c41 60bd 26ae 3d3d
00000020: a47d 29bd 4090 f73c d6c4 433d 0e16 1d3d
00000030: 3806 56bd b6ea 653d edf5 1a3d 22f1 783d
00000040: b8bb 283c 5d10 9b3c 6cba c1bc 7a9f 6cbd
00000050: c290 543d 1807 883c 3261 363d b5ec 963c
00000060: 08a6 85bc 11f8 483c cff3 b03c a852 523d
00000070: 10a8 8936 8716 293d de71 383d 622f f6ba
00000080: d8de 1d3d e099 4cbd 2882 803d 521c 2b3d
00000090: f88a 663d bcd7 873d f2b3 37bd 26aa e13c
000000a0: 5b28 733d 6199 6dbc ac0f a43c 377a 3b3d
000000b0: 2e89 1abc 20ac 60bb 6651 d5bc 22b6 28bd
000000c0: c095 52bc 4363 263d a12c 0b3d beca 333d
000000d0: 682e b7bc a5c1 8f3c 8387 9a3d cb27 053d
000000e0: 883c 383d df06 943d e03b 943d c678 4d3d
000000f0: ae45 3f3d 75f0 023d cf0e f63c e428 44bd
00000100: dbc8 b1bb bab6 4bbd 02e5 663d 2bc9 693d
00000110: dbfb 813d 10ac 45bc ff49 24bd 8ece 763c
00000120: a5b5 4dbc b4c6 d23c 5dad 3b3c 272c bcbc
00000130: 5794 5cbc 8ff4 083d 9201 4fbd 5627 183b
00000140: a8c9 fbbc 6107 ae3b e016 5abd a5dd 993d
00000150: b4d0 30bd fa72 40bc 5c70 71bd 7e44 a53c
00000160: 94d7 483d 7e8f 54bd 8e2f 5cbd 98e2 3cbc
00000170: d17b 32bd 4443 623b ba16 1f3d ffc2 913d
00000180: e6ad 81bd b83e a93c 1093 943c c52a 5e3d
00000190: 4466 013d bf13 77bc 81a1 563d db81 743d
000001a0: 8fe2 1ebd cff6 f4bc 20b8 943d 3cfa 8b3d
000001b0: 8301 423d 7459 f13c 5d63 7c3d 7e7e 5f3d
000001c0: 3222 40bd 9918 9c3d 0177 d73c 3a5b 36bd
000001d0: bac4 263c c768 983d 78dd 2bbd 427a d63c
000001e0: 8992 203d 118b 73bd 01cd 80bd 0d54 21bc
000001f0: d68f d13c 8a8b 843d 6f63 623d f656 c33b
00000200: 481c 70bd f8f6 873c 0024 e9bc e42a 363c
00000210: d8da 2bbd e24b 80bc 288b 1e3c 93b3 813d
00000220: 1fe7 633d 900c a5bc 1ed4 65bd 4b17 4fbd
00000230: 8a49 0d3d dfc2 883c 6664 8a3c 84ac b23c
00000240: 88c0 163c 6c65 093d 4cd5 ba3c 5628 1d3c
00000250: 85e5 86bd d827 91bc ab2d 2c3d 81d7 a53b
00000260: ce1c fcbc 20ec 003b f0ee 4e3d d1c5 fcbc
00000270: f1aa 38bd 9f3d f23c cbec d13c 266b f63c
00000280: 565c 373d 482e 823c abdf 563d 4cc8 dd3c
00000290: 4363 22bb a206 6e3d ced6 7e3d 7ca0 a63c
000002a0: b584 a03c 1512 30bd 7f7b 093d 1060 933d
000002b0: 9158 423d ac37 69bc 11dd 473d 30ae 283c
000002c0: f144 e6bc 9818 16bd 64c2 95bc 898c 61bc
000002d0: ec56 8e3d 3386 693d 4845 a43c a7ef f03c
000002e0: f4b6 4cbd 3846 3e3d 3950 9e3c 4a72 34bd
000002f0: e895 18bd 3a52 52bd fe08 3e3d 6088 12bd
00000300: c089 9c3a 7d5d 1bbd 9c12 9dbc 322c 263d
00000310: 0416 59bd 8316 dbbb 555a 1cbd 8bab e4bb
00000320: 160e 16bc 9d20 933d 9a89 ad38 ff94 a13c
00000330: 0e01 d53c befc 103d ad9a 8bbc 6871 93bc
00000340: c81e 9dbc d070 6a3c deba 0a3d bc51 803d
00000350: 2012 22bd 15b5 6a3d e237 79bd 6435 f53b
00000360: e527 69bd 9206 48bb fbdd 1b3d 2d7c debc
00000370: dea0 0a3d 3ed5 04bd ccda 3a3d bdf1 d93b
00000380: 8ae2 693d 0999 d2bb 6a6e 453d c1fa 803d
00000390: bfd6 443d 9e55 fb3c c002 353a 2678 5b3d
000003a0: e64e f7bc 9dd8 d43c f905 a23c 7fa7 d33a
000003b0: d718 16bb f6c6 5bbc d89e 64bd b854 b9bc
000003c0: a813 2c3d 9598 903d d024 a13c 766c aebc
000003d0: c71c a13c 9014 5a3c 1cf9 2bbd 4a50 243c
000003e0: 3ee9 703d f222 39bd 7be1 243d 70da 20bd
000003f0: 22a2 4abc b8b0 533d 5c6b 02bd 8cd3 613d
0.023336882 0.03496864 -0.04205223 0.00068116357 0.032275613 0.026038973 -0.05475007 0.04630866
-0.041379586 0.030220151 0.04779514 0.03835111 -0.052252024 0.05613204 0.03783219 0.060776837
0.010298662 0.018928701 -0.023648463 -0.057769276 0.051895864 0.016604945 0.044526286 0.018423418
-0.016314521 0.012266175 0.021600632 0.05134836 4.102483e-06 0.04128125 0.045030467 -0.0018782432
0.0385426 -0.049951434 0.06274825 0.041775055 0.056284875 0.06632945 -0.044849344 0.027546953
0.059364658 -0.0145019 0.020027004 0.04577085 -0.00943212 -0.0034282282 -0.02603979 -0.04118932
-0.012853086 0.040622007 0.03397811 0.043894522 -0.022360995 0.017548392 0.07545378 0.032508653
0.044979602 0.07227873 0.07237983 0.050164007 0.04669731 0.0319676 0.030036358 -0.04789056
-0.005425555 -0.04973481 0.056370743 0.057076614 0.06346866 -0.012064949 -0.04010963 0.015063895
-0.012555514 0.025729515 0.011454907 -0.022970272 -0.013463101 0.033436354 -0.050538607 0.0023216805
-0.030735806 0.005310938 -0.05324447 0.075129785 -0.043167785 -0.011746163 -0.058945045 0.020174261
0.049033716 -0.051894657 -0.05375629 -0.011528634 -0.04357511 0.0034524957 0.038840033 0.07117271
-0.063319966 0.02065979 0.018136531 0.054240007 0.03159167 -0.015080391 0.052400116 0.059694152
-0.03879028 -0.029902844 0.072616816 0.06834838 0.047364723 0.0294616 0.061618198 0.05456399
-0.04690761 0.07621879 0.026301863 -0.044520594 0.010178739 0.0744186 -0.041959256 0.026181344
0.039202247 -0.059458796 -0.062891014 -0.009846699 0.025581282 0.064719275 0.05527061 0.0059612943
-0.05862072 0.016597256 -0.028459549 0.011118624 -0.041956753 -0.015661184 0.009676732 0.06333079
0.055640336 -0.020147592 -0.056110494 -0.050559323 0.03449396 0.016694484 0.016893577 0.021810777
0.009201176 0.03354399 0.022806786 0.009592136 -0.06586746 -0.017719194 0.04203574 0.0050610905
-0.030775454 0.0019671991 0.050520837 -0.030856045 -0.045084897 0.029570399 0.025625607 0.03008039
0.044765793 0.01589121 0.0524594 0.027073048 -0.0024778403 0.058111794 0.062216572 0.020340197
0.01959453 -0.042985994 0.03356504 0.07196057 0.047447745 -0.014234465 0.04879481 0.010295436
-0.028109046 -0.03664455 -0.01828117 -0.013766416 0.06950173 0.057012748 0.020052567 0.02941115
-0.049979165 0.046453685 0.019325363 -0.044054307 -0.037252337 -0.05134795 0.046395294 -0.03577459
0.0011942908 -0.037930954 -0.019173913 0.04056949 -0.05299951 -0.006686033 -0.038172085 -0.0069784573
-0.009158632 0.07183955 8.274913e-05 0.019724367 0.02600148 0.035397284 -0.017041529 -0.017998412
-0.019179717 0.014309123 0.033869617 0.062655896 -0.039568067 0.0573016 -0.06084431 0.0074831713
-0.056922812 -0.0030521494 0.038053494 -0.027158821 0.03384482 -0.032429926 0.045618817 0.006651132
0.05710081 -0.0064269346 0.048201002 0.062978275 0.04805636 0.030680474 0.0006905012 0.05358138
-0.030188989 0.025982196 0.019778239 0.001614794 -0.002290299 -0.013414135 -0.055815548 -0.022623405
0.042010933 0.07060353 0.019670874 -0.021291953 0.019667042 0.013310567 -0.041985616 0.010028908
0.058816187 -0.045199342 0.040254097 -0.03927082 -0.012367757 0.051682204 -0.031840667 0.055133387

base.4.weight f4 [3, 256]
00000000: f41c 19bc 0495 fa3c f6d3 05bd 9a68 04bc
00000010: bce4 8e3d bfdd 2a3d e2bf 633d 6514 e3bb
00000020: 800f f6bc c9f6 d9bc 89b6 3ebc f47b 7fbd
00000030: 74ba 6fbd ba5e 5c3d f3a8 f4bc a03d 26bb
00000040: 576a 8f3d da89 613d 2a39 6c3d f037 d73b
00000050: d668 87bc 3f05 d73c f992 3c3d 0082 833d
00000060: a26c 2bbd 8703 dfbc 1722 01bc c8a6 723d
00000070: f32a 4abd 43e6 923c dd3f 33bc aafc 153d
00000080: 3d48 14bd 249a b93c f798 103d 1c36 9e3d
00000090: 1844 0a3d 2e3c 343d 7067 9dbc be4d 4b3d
000000a0: ac7c 2f3d 3919 fe3c 44b0 8bbb 0672 0f3d
000000b0: 9bae 8b3d 80b7 f33b be15 183d 337e bc3c
000000c0: 2052 363d ff0d 1b3c 96fa d53c e0df df3b
000000d0: 8752 4b3d 03f8 08bc fd84 a13c 05dd 843d
000000e0: 1519 893d 8bc5 6e3d 569c 203d 2329 903d
000000f0: 4944 2ebb 7bdb b53c 37cf 80ba 7ade 193d
00000100: 946a 923d 203c 3abc 206c 58bd 0952 9a3d
00000110: 6a28 343d 7654 433d d3fb 6abd 6ba6 95bc
00000120: f1e6 43bd 51cf d5bb 03e6 3dbd 2b28 143d
00000130: a779 27bc 4da6 a5bc 748c c6bc 6066 9d3d
00000140: e04b d7bc 7ce6 79bb b1ba 99bc e65a 163d
00000150: d0e7 963b b496 7dbd 4532 dabc d757 033d
00000160: 6010 9fbb cee3 7bbd 888e 293c 58b8 743d
00000170: f6c6 3c3d 4dc8 203d 509a 01bd af6d 253d
00000180: c78d c1bb 6cae 473d b2a8 143a 22f0 0a3d
00000190: a5ae 17bd eef8 f1bc 6ba9 863d 4e80 8a3d
000001a0: 1e63 6dbd 39c4 933d 8eb3 593d afa5 923d
000001b0: 572f 193d ca35 0abd 01ad d43c 8198 2a3d
000001c0: bc33 e23c 0d0a 6f3c 58cc e0bc 1014 f93b
000001d0: 3e25 df3c 8247 ba3c 7c7c 7e3d 903e 6cbb
000001e0: 9c2a 5abd 4dff a5bc dcca dabc 79ed cbbc
000001f0: 05c6 23bd 9ff6 2a3d 928d d6bc ded6 803d
00000200: 98d0 013c a0ee 90bc 3098 033c 906d 933d
00000210: 12ae 7b3d 4fe7 0d3d 2422 28bd d515 243d
00000220: c18e abbc 1271 2cbd 8cac 71bd 686d 10bd
00000230: 641f 563d d178 563d c1de 2ebd 26f8 11bd
00000240: d696 213d 747d 123d 8e74 243d ba05 d2bc
00000250: dd90 21bc d892 533d 2561 16bd db77 2b3d
00000260: e356 833d 72f0 3abd d22d 8e3d ee83 3f3d
00000270: eae9 e43c 6312 443d 92ff 7e3d a3e6 873d
00000280: 05f8 7d3d 4587 e5bc 76ae 44bd 20c6 5d3c
00000290: 9a92 39bd 80a0 fc3b b0e8 ebbb 4f46 9ebc
000002a0: d2fd 363d 1177 293d 524b 853d 2b06 743d
000002b0: d70a 343d ebc2 163d c75f 21bc 14f5 02bd
000002c0: 9bbc b43c 58bc 4c3d c4de ccbc f957 eebb
000002d0: d481 323d 0b93 593d 3e7e 243d 41ed 3ebd
000002e0: c470 03bd 3c97 e23c 4455 9dbc 287e bd3c
000002f0: cef9 633d 3862 e6bc 17a4 97bc 2048 83bc
00000300: b8c8 98bc 4bca 47bd 84ad 183d 04c9 1cbd
00000310: 24b3 dcbc b098 db3c e0b3 be3c 33d5 963d
00000320: bbb6 633d 0eca 523d 85b4 a9bc 222b 13bd
00000330: ac33 b8ba ea43 3ebd fd07 f63c 484d 133d
00000340: 3527 8f3d d57a afbc bc5d 96bc 0936 8e3d
00000350: 90b7 0dbc 486f 483d a8ec 653c 6f45 4bbd
00000360: 206e 52bd 883b 003d 4185 bf3c e62c 833d
00000370: e6e9 293d a5c8 363d fc81 d9bc 76f6 b5bc
00000380: 2a6a 9bba fe30 78bc 8718 e3bc cf25 973d
00000390: 8002 26bd f294 363d e30c 81bc 0845 67bc
000003a0: 576b d63c 0cce 7e3d 7c48 b4bc a42e 8b3d
000003b0: 36fb b7bc 9b65 a93b 2e5c 4ebd 64fa 873c
000003c0: 1ac5 153d 40bb 823d 6f73 903d 258d 403d
000003d0: 0a3f 9d3d ea65 b73c c0e9 f93a 4db9 333d
000003e0: 008f f03c 8823 213d c226 0ebd 8482 d03c
000003f0: 0e1c 16bd 6fe8 18bd b9f4 703d a914 d6bc
-0.009345282 0.030588634 -0.032672845 -0.00808158 0.06977221 0.04171538 0.055602916 -0.0069299215
-0.030036688 -0.026606934 -0.011640199 -0.06237407 -0.058527425 0.053801276 -0.029865718 -0.0025366321
0.070027046 0.055063106 0.057671703 0.0065679476 -0.016529482 0.026247619 0.0460386 0.0642128
-0.041851647 -0.027223362 -0.007881663 0.059241086 -0.049357366 0.017932063 -0.010940519 0.036617912
-0.036201704 0.022656508 0.03530213 0.07725164 0.033756346 0.044002704 -0.019214362 0.049634688
0.042843506 0.031017886 -0.004262956 0.03502085 0.06820413 0.0074376464 0.03713011 0.023009395
0.044511914 0.009463786 0.026120465 0.006832108 0.04963925 -0.008359912 0.019716734 0.06487469
0.06694237 0.05829386 0.039211594 0.07039096 -0.0026590994 0.022199383 -0.000982738 0.037565686
0.071492344 -0.011366874 -0.05283749 0.07535178 0.043983854 0.04768797 -0.057369065 -0.01826783
-0.047827665 -0.006524958 -0.046361934 0.03617112 -0.010221875 -0.0202209 -0.024236895 0.07685542
-0.026281297 -0.0038131764 -0.01876578 0.03670778 0.004605271 -0.0619113 -0.026635299 0.032066192
-0.004854247 -0.06149655 0.0103489235 0.059746116 0.04608818 0.03925352 -0.031641304 0.040387806
-0.0059067938 0.048750326 0.00056708895 0.033920415 -0.03703179 -0.029537644 0.06575283 0.067627534
-0.057955854 0.07215161 0.053149752 0.07160508 0.037398662 -0.033742703 0.025961401 0.041649345
0.02761256 0.014589799 -0.027441189 0.0076012686 0.027239438 0.022739176 0.062130436 -0.0036048032
-0.05326329 -0.020263338 -0.026708059 -0.02489351 -0.039983768 0.041739102 -0.026190553 0.06290983
0.007923268 -0.01769191 0.00803189 0.07198632 0.061445303 0.03464442 -0.041048184 0.040059883
-0.020942094 -0.04210002 -0.059002444 -0.035260588 0.05227603 0.052361313 -0.042692903 -0.035637043
0.03945049 0.035764173 0.040150218 -0.025637496 -0.009861198 0.051653713 -0.036713738 0.04186235
0.06413057 -0.045639463 0.06942333 0.046756677 0.02794357 0.047869097 0.06225545 0.06635787
0.062004108 -0.028018603 -0.04801794 0.013536006 -0.045305826 0.007709563 -0.0071993694 -0.019320635
0.044675656 0.041373316 0.06508507 0.059576195 0.04395565 0.036806982 -0.009849495 -0.031972006
0.02206259 0.049984306 -0.025008567 -0.0072736708 0.043580845 0.053118747 0.040159456 -0.04661298
-0.032089964 0.027660005 -0.019205697 0.023131445 0.055658154 -0.028123006 -0.018510861 -0.016025603
-0.018650398 -0.048776906 0.037274852 -0.03827764 -0.02694089 0.026806206 0.02327913 0.07364883
0.055594187 0.051462226 -0.020715961 -0.035929807 -0.0014053485 -0.046451487 0.030033106 0.035962373
0.069899 -0.021420876 -0.018355243 0.069439 -0.008649722 0.04893425 0.014033474 -0.049626764
-0.051374555 0.031306773 0.02337897 0.06405048 0.04148283 0.044624943 -0.02655124 -0.022212248
-0.0011857201 -0.015148399 -0.027721656 0.07380258 -0.040529728 0.04457564 -0.015753215 -0.014115579
0.02617423 0.06220822 -0.02200722 0.06796005 -0.022458654 0.005169583 -0.05038088 0.016598888
0.036564924 0.06383371 0.07053267 0.047009606 0.07678039 0.022387464 0.0019066855 0.04387789
0.029365063 0.039340526 -0.03470493 0.02545286 -0.03664785 -0.03733104 0.058827136 -0.026132898

base.4.bias f4 [3]
00000000: 3bc5 2dbd 90f9 6ebc e48c 41bd
-0.04242442 -0.0145858675 -0.047253504

exp_avg f4 [256, 6]
00000000: 4040 23b9 431a 2137 0000 0000 0000 0000
00000010: 0000 0000 0000 0000 26df 36ba aeca e038
00000020: 0000 0000 0000 0000 0000 0000 0000 0000
00000030: 164e 3bba 5147 ea38 0000 0000 0000 0000
00000040: 0000 0000 0000 0000 8951 72ba 7121 1139
00000050: 0000 0000 0000 0000 0000 0000 0000 0000
00000060: 0702 deb9 1d96 7138 0000 0000 0000 0000
00000070: 0000 0000 0000 0000 0400 0080 0400 0080
00000080: 0000 0000 0000 0000 0000 0000 0000 0000
00000090: 277a 54ba 2616 d638 0000 0000 0000 0000
000000a0: 0000 0000 0000 0000 714d 1cba 91f7 ae38
000000b0: 0000 0000 0000 0000 0000 0000 0000 0000
000000c0: 4df9 55ba d89e e738 0000 0000 0000 0000
000000d0: 0000 0000 0000 0000 0ee1 55b8 5b11 4eb6
000000e0: 0000 0000 0000 0000 0000 0000 0000 0000
000000f0: f903 1bba fa19 ab38 0000 0000 0000 0000
00000100: 0000 0000 0000 0000 3a6c c2b9 a394 6438
00000110: 0000 0000 0000 0000 0000 0000 0000 0000
00000120: 1242 36ba 6c63 df38 0000 0000 0000 0000
00000130: 0000 0000 0000 0000 a906 85b9 e055 8738
00000140: 0000 0000 0000 0000 0000 0000 0000 0000
00000150: 0000 0000 0000 0000 0000 0000 0000 0000
00000160: 0000 0000 0000 0000 0000 0000 0000 0000
00000170: 0000 0000 0000 0000 0000 0000 0000 0000
00000180: 0000 0000 0000 0000 0000 0000 0000 0000
00000190: 0000 0000 0000 0000 0000 0000 0000 0000
000001a0: 0000 0000 0000 0000 0000 0000 0000 0000
000001b0: 0000 0000 0000 0000 0000 0000 0000 0000
000001c0: 0000 0000 0000 0000 0739 1aba 2c14 9c38
000001d0: 0000 0000 0000 0000 0000 0000 0000 0000
000001e0: 0000 0000 0000 0000 0000 0000 0000 0000
000001f0: 0000 0000 0000 0000 0000 0000 0000 0000
00000200: 0000 0000 0000 0000 0000 0000 0000 0000
00000210: 49f3 59b9 4d77 3537 0000 0000 0000 0000
00000220: 0000 0000 0000 0000 773c 4aba 58f8 0439
00000230: 0000 0000 0000 0000 0000 0000 0000 0000
00000240: fc09 c4b8 ef2c 6535 0000 0000 0000 0000
00000250: 0000 0000 0000 0000 e2f4 9bb9 5bd2 8837
00000260: 0000 0000 0000 0000 0000 0000 0000 0000
00000270: 66bf 18ba 4db4 b138 0000 0000 0000 0000
00000280: 0000 0000 0000 0000 1b93 57ba ed95 1a39
00000290: 0000 0000 0000 0000 0000 0000 0000 0000
000002a0: 46f4 5f39 822a e238 0000 0000 0000 0000
000002b0: 0000 0000 0000 0000 0000 0000 0000 0000
000002c0: 0000 0000 0000 0000 0000 0000 0000 0000
000002d0: 4759 39ba b1fd 9438 0000 0000 0000 0000
000002e0: 0000 0000 0000 0000 828b c5b8 4a87 cb36
000002f0: 0000 0000 0000 0000 0000 0000 0000 0000
00000300: 9f66 4eb9 d128 2f37 0000 0000 0000 0000
00000310: 0000 0000 0000 0000 3025 ecb9 c8ec c338
00000320: 0000 0000 0000 0000 0000 0000 0000 0000
00000330: a635 2aba 3446 9b38 0000 0000 0000 0000
00000340: 0000 0000 0000 0000 0000 0000 0000 0000
00000350: 0000 0000 0000 0000 0000 0000 0000 0000
00000360: 52f8 1cba e579 9738 0000 0000 0000 0000
00000370: 0000 0000 0000 0000 0000 0000 0000 0000
00000380: 0000 0000 0000 0000 0000 0000 0000 0000
00000390: 0b3f 1eba 23d3 b838 0000 0000 0000 0000
000003a0: 0000 0000 0000 0000 1dcb afb6 a1a4 3e33
000003b0: 0000 0000 0000 0000 0000 0000 0000 0000
000003c0: 7546 24ba dbef aa38 0000 0000 0000 0000
000003d0: 0000 0000 0000 0000 0000 0000 0000 0000
000003e0: 0000 0000 0000 0000 0000 0000 0000 0000
000003f0: 0000 0000 0000 0000 0000 0000 0000 0000
-0.00015568826 9.602462e-06 0.0 0.0 0.0 0.0 -0.0006976001 0.000107189044
0.0 0.0 0.0 0.0 -0.00071451196 0.00011171273 0.0 0.0
0.0 0.0 -0.0009243717 0.00013840735 0.0 0.0 0.0 0.0
-0.0004234465 5.759868e-05 0.0 0.0 0.0 0.0 -6e-45 -6e-45
0.0 0.0 0.0 0.0 -0.00081053603 0.00010208441 0.0 0.0
0.0 0.0 -0.00059624674 8.3430794e-05 0.0 0.0 0.0 0.0
-0.0008162454 0.00011044525 0.0 0.0 0.0 0.0 -5.0992756e-05 -3.0706494e-06
0.0 0.0 0.0 0.0 -0.0005913373 8.158754e-05 0.0 0.0
0.0 0.0 -0.000370832 5.4497865e-05 0.0 0.0 0.0 0.0
-0.0006952594 0.000106519874 0.0 0.0 0.0 0.0 -0.000253727 6.453297e-05
0.0 0.0 0.0 0.0 0.0 0.0 0.0 0.0
0.0 0.0 0.0 0.0 0.0 0.0 0.0 0.0
0.0 0.0 0.0 0.0 0.0 0.0 0.0 0.0
0.0 0.0 0.0 0.0 0.0 0.0 0.0 0.0
0.0 0.0 -0.00058831315 7.442417e-05 0.0 0.0 0.0 0.0
0.0 0.0 0.0 0.0 0.0 0.0 0.0 0.0
0.0 0.0 0.0 0.0 -0.00020785363 1.0816218e-05 0.0 0.0
0.0 0.0 -0.00077146984 0.00012681016 0.0 0.0 0.0 0.0
-9.347868e-05 8.5374535e-07 0.0 0.0 0.0 0.0 -0.00029746356 1.6310418e-05
0.0 0.0 0.0 0.0 -0.00058268604 8.473601e-05 0.0 0.0
0.0 0.0 -0.00082235195 0.00014742436 0.0 0.0 0.0 0.0
0.00021357936 0.000107844375 0.0 0.0 0.0 0.0 0.0 0.0
0.0 0.0 0.0 0.0 -0.00070704933 7.104444e-05 0.0 0.0
0.0 0.0 -9.4196774e-05 6.065621e-06 0.0 0.0 0.0 0.0
-0.0001968392 1.0440316e-05 0.0 0.0 0.0 0.0 -0.00045041135 9.3424285e-05
0.0 0.0 0.0 0.0 -0.00064929796 7.404052e-05 0.0 0.0
0.0 0.0 0.0 0.0 0.0 0.0 0.0 0.0
-0.00059879303 7.222946e-05 0.0 0.0 0.0 0.0 0.0 0.0
0.0 0.0 0.0 0.0 -0.0006036616 8.813131e-05 0.0 0.0
0.0 0.0 -5.239052e-06 4.438755e-08 0.0 0.0 0.0 0.0
-0.00062666024 8.150908e-05 0.0 0.0 0.0 0.0 0.0 0.0
0.0 0.0 0.0 0.0 0.0 0.0 0.0 0.0

exp_avg_sq f4 [256, 6]
00000000: ae77 9636 4c8b dd31 0000 0000 0000 0000
00000010: 0000 0000 0000 0000 1388 c037 0e35 4a33
00000020: 0000 0000 0000 0000 0000 0000 0000 0000
00000030: c71a cd37 cb42 5533 0000 0000 0000 0000
00000040: 0000 0000 0000 0000 d85a 2838 7c17 ad33
00000050: 0000 0000 0000 0000 0000 0000 0000 0000
00000060: f478 ec36 2aa1 7632 0000 0000 0000 0000
00000070: 0000 0000 0000 0000 a8fe d72e e618 842a
00000080: 0000 0000 0000 0000 0000 0000 0000 0000
00000090: 38ec c337 de00 4c33 0000 0000 0000 0000
000000a0: 0000 0000 0000 0000 6172 7b37 4eb7 0033
000000b0: 0000 0000 0000 0000 0000 0000 0000 0000
000000c0: 7495 ed37 23db 6f33 0000 0000 0000 0000
000000d0: 0000 0000 0000 0000 769c 9930 51d3 a42c
000000e0: 0000 0000 0000 0000 0000 0000 0000 0000
000000f0: 3cb1 7937 f92a fc32 0000 0000 0000 0000
00000100: 0000 0000 0000 0000 750f d436 6d1e 5832
00000110: 0000 0000 0000 0000 0000 0000 0000 0000
00000120: 4632 c437 a16b 4933 0000 0000 0000 0000
00000130: 0000 0000 0000 0000 02ea b636 d6d3 3a32
00000140: 0000 0000 0000 0000 0000 0000 0000 0000
00000150: 0000 0000 0000 0000 0000 0000 0000 0000
00000160: 0000 0000 0000 0000 0000 0000 0000 0000
00000170: 0000 0000 0000 0000 0000 0000 0000 0000
00000180: 0000 0000 0000 0000 0000 0000 0000 0000
00000190: 0000 0000 0000 0000 0000 0000 0000 0000
000001a0: 0000 0000 0000 0000 0000 0000 0000 0000
000001b0: 0000 0000 0000 0000 0000 0000 0000 0000
000001c0: 0000 0000 0000 0000 636f 6137 cfa8 e732
000001d0: 0000 0000 0000 0000 0000 0000 0000 0000
000001e0: 0000 0000 0000 0000 0000 0000 0000 0000
000001f0: 0000 0000 0000 0000 0000 0000 0000 0000
00000200: 0000 0000 0000 0000 0000 0000 0000 0000
00000210: 7c8f f436 4434 6c32 0000 0000 0000 0000
00000220: 0000 0000 0000 0000 7c77 0538 8ff9 8633
00000230: 0000 0000 0000 0000 0000 0000 0000 0000
00000240: 1860 9235 ed13 672f 0000 0000 0000 0000
00000250: 0000 0000 0000 0000 f766 7137 374c e632
00000260: 0000 0000 0000 0000 0000 0000 0000 0000
00000270: 8929 8237 6fe2 0433 0000 0000 0000 0000
00000280: 0000 0000 0000 0000 8676 2c38 4a0f b733
00000290: 0000 0000 0000 0000 0000 0000 0000 0000
000002a0: 1a0a 0237 9080 8532 0000 0000 0000 0000
000002b0: 0000 0000 0000 0000 0000 0000 0000 0000
000002c0: 0000 0000 0000 0000 0000 0000 0000 0000
000002d0: ed1e 6137 5881 ef32 0000 0000 0000 0000
000002e0: 0000 0000 0000 0000 78de d435 1bb9 1331
000002f0: 0000 0000 0000 0000 0000 0000 0000 0000
00000300: cfa3 0737 533b 6632 0000 0000 0000 0000
00000310: 0000 0000 0000 0000 e141 4836 a5a9 be32
00000320: 0000 0000 0000 0000 0000 0000 0000 0000
00000330: ddff 5737 dfdd de32 0000 0000 0000 0000
00000340: 0000 0000 0000 0000 0000 0000 0000 0000
00000350: 0000 0000 0000 0000 0000 0000 0000 0000
00000360: ecbb 5437 37b9 d832 0000 0000 0000 0000
00000370: 0000 0000 0000 0000 0000 0000 0000 0000
00000380: 0000 0000 0000 0000 0000 0000 0000 0000
00000390: 3412 8b37 8052 0b33 0000 0000 0000 0000
000003a0: 0000 0000 0000 0000 c1ac 1933 1f43 402d
000003b0: 0000 0000 0000 0000 0000 0000 0000 0000
000003c0: 9dc0 6537 190b f432 0000 0000 0000 0000
000003d0: 0000 0000 0000 0000 0000 0000 0000 0000
000003e0: 0000 0000 0000 0000 0000 0000 0000 0000
000003f0: 0000 0000 0000 0000 0000 0000 0000 0000
4.484281e-06 6.4477828e-09 0.0 0.0 0.0 0.0 2.2951548e-05 4.7080043e-08
0.0 0.0 0.0 0.0 2.4450374e-05 4.9653675e-08 0.0 0.0
0.0 0.0 4.0138926e-05 8.060212e-08 0.0 0.0 0.0 0.0
7.047429e-06 1.4355729e-08 0.0 0.0 0.0 0.0 9.822304e-11 2.3465187e-13
0.0 0.0 0.0 0.0 2.335581e-05 4.749824e-08 0.0 0.0
0.0 0.0 1.4987397e-05 2.9969037e-08 0.0 0.0 0.0 0.0
2.8322196e-05 5.5845828e-08 0.0 0.0 0.0 0.0 1.1176684e-09 4.684621e-12
0.0 0.0 0.0 0.0 1.4882822e-05 2.9356203e-08 0.0 0.0
0.0 0.0 6.319892e-06 1.2579773e-08 0.0 0.0 0.0 0.0
2.3388431e-05 4.6896847e-08 0.0 0.0 0.0 0.0 5.4512648e-06 1.0874791e-08
0.0 0.0 0.0 0.0 0.0 0.0 0.0 0.0
0.0 0.0 0.0 0.0 0.0 0.0 0.0 0.0
0.0 0.0 0.0 0.0 0.0 0.0 0.0 0.0
0.0 0.0 0.0 0.0 0.0 0.0 0.0 0.0
0.0 0.0 1.3436979e-05 2.6968705e-08 0.0 0.0 0.0 0.0
0.0 0.0 0.0 0.0 0.0 0.0 0.0 0.0
0.0 0.0 0.0 0.0 7.2884704e-06 1.3748892e-08 0.0 0.0
0.0 0.0 3.182095e-05 6.285256e-08 0.0 0.0 0.0 0.0
1.0905815e-06 2.1016407e-10 0.0 0.0 0.0 0.0 1.4388693e-05 2.6810183e-08
0.0 0.0 0.0 0.0 1.5516549e-05 3.0939585e-08 0.0 0.0
0.0 0.0 4.111838e-05 8.5243826e-08 0.0 0.0 0.0 0.0
7.750956e-06 1.5541701e-08 0.0 0.0 0.0 0.0 0.0 0.0
0.0 0.0 0.0 0.0 1.34182455e-05 2.788208e-08 0.0 0.0
0.0 0.0 1.5859978e-06 2.1496536e-09 0.0 0.0 0.0 0.0
8.084767e-06 1.3401251e-08 0.0 0.0 0.0 0.0 2.984067e-06 2.2196057e-08
0.0 0.0 0.0 0.0 1.2874571e-05 2.5945097e-08 0.0 0.0
0.0 0.0 0.0 0.0 0.0 0.0 0.0 0.0
1.2679939e-05 2.5229935e-08 0.0 0.0 0.0 0.0 0.0 0.0
0.0 0.0 0.0 0.0 1.6578568e-05 3.2438493e-08 0.0 0.0
0.0 0.0 3.5780207e-08 1.092884e-11 0.0 0.0 0.0 0.0
1.369431e-05 2.8410385e-08 0.0 0.0 0.0 0.0 0.0 0.0
0.0 0.0 0.0 0.0 0.0 0.0 0.0 0.0

exp_avg f4 [256]
00000000: d65f 7d39 6d54 1d3b 2547 243b f221 4b3b
00000010: 5bc8 a53a 0400 0080 413b 113b 00d9 f13a
00000020: 4da4 1f3b 9693 d5b8 3069 ed3a 8c02 a03a
00000030: 0398 1c3b b57b c73a 0000 0000 0000 0000
00000040: 0000 0000 0000 0000 0000 0000 adf2 d43a
00000050: 0000 0000 0000 0000 cdc4 8e39 3b87 3c3b
00000060: 5bad a838 c61b d739 ca93 f73a 2124 593b
00000070: a1f3 3a3b 0000 0000 f8a0 c03a 0fa1 1d39
00000080: e31f 9139 94f9 003b 416f cf3a 0000 0000
00000090: fb5c cc3a 0000 0000 531c 013b a36a 9836
000000a0: 48af e83a 0000 0000 0000 0000 0000 0000
000000b0: 0000 0000 c2a9 e33a 0000 0000 4524 603b
000000c0: 4ebe 113b 2140 9f3a 4f58 1b39 166f 213b
000000d0: 30c2 223b 80f9 b2b7 e136 fb38 0000 0000
000000e0: 4b01 1c3b 42c3 4b3b ddf7 253b 9239 8939
000000f0: cf45 d43a fd69 e53a fe46 0e3b 56ee 913a
00000100: ff49 d63a 43df e33a 0000 0000 595b 8b39
00000110: cc8e 6a3b 0000 0000 3b41 d838 e387 a137
00000120: 6d1c 043b 267a 98b7 9337 f938 ce74 f83a
00000130: 0000 0000 20d8 f8b7 8851 89b8 e941 043b
00000140: 0000 0000 0000 0000 7f41 103b a1bd 873a
00000150: 53b0 2b3b d714 243b 0000 0000 3b9b 163b
00000160: 0477 143b 51bd 1139 4b8a af3a bd4c f73a
00000170: 94a8 a93a df33 0c3a 0000 0000 0000 0000
00000180: 0000 0000 0000 0000 0000 0000 0000 0000
00000190: 2254 1e3b 5852 d03a 5f8b 2d3b 0000 0000
000001a0: 0000 0000 2102 02b7 2d97 b23a 0000 0000
000001b0: 6ac8 243b a119 2a3b 0000 0000 0000 0000
000001c0: 5510 cd3a 29f9 093b ed69 bf3a 0000 0000
000001d0: 990f 8fba 0000 0000 0000 0000 fbbb 4bba
000001e0: d53a 273b e544 2938 e0fa e43a 9f4f 223b
000001f0: 17b3 2c3b 0000 0000 0000 0000 e21b f63a
00000200: a12f e13a e88e fa3a a7b5 0a3b 33a2 2e3b
00000210: 7eee 193a 85a0 133b aea8 e4b9 531d e33a
00000220: 38e5 aeb7 8ed9 5838 3570 0d3b 0000 0000
00000230: 0000 0000 ca07 243b 503b 95b8 c934 423b
00000240: 4ae7 8e3a 7f07 9e39 add2 9439 9e4f 3b3b
00000250: 8235 0e3b 8245 b03a 8b24 bd3a a177 55b8
00000260: 5eb5 0c3b 4037 093b 0d84 2e37 0000 0000
00000270: aaf8 5739 179f 8239 f3c8 35b7 0000 0000
00000280: c29f 8a3a bc4f 963a 6d80 ec3a 0a23 0c3b
00000290: 0000 0000 0000 0000 4e19 413b 3e8e 203b
000002a0: 0000 0000 0000 0000 c234 3eb8 3451 073b
000002b0: 042d 823b d8b6 f63a edf9 0eb6 ac8c d33a
000002c0: a838 6ab9 3191 d93a b6e2 2a39 c353 8bb6
000002d0: 0000 0000 5e77 ee3a 0000 0000 2ea9 0c3b
000002e0: 0000 0000 7892 413b 0000 0000 0000 0000
000002f0: 0000 0000 2ce0 ba3a 0000 0000 0000 0000
00000300: a9c9 3cb9 0000 0000 94ea 6538 7fb9 143b
00000310: 0000 0000 fb84 c93a bddb 0d3b 9bf2 123a
00000320: 9ce4 313b 712b 8039 b374 9d3a 95b6 0c3b
00000330: 0000 0000 0000 0000 d0b5 6b3a aff8 0e3a
00000340: babd a237 7d74 603b 0000 0000 032e 3fb9
00000350: 0cbe 0f3b 0000 0000 ca14 373b c51d 2d3b
00000360: 31af ed3a 3f02 6f3a 0b08 403b 6cb2 3b3b
00000370: 22ef 2d3b ab0e 0a3b ca2d fe39 9316 b339
00000380: 606e 6f39 5e92 223b 04b2 163b 0000 0000
00000390: 0000 0000 8854 583b 41c7 043a 5326 123b
000003a0: f9b7 e937 4c56 aa3a 0000 0000 5dda 033b
000003b0: 0000 0000 686b de3a 0000 0000 ebfc 9a37
000003c0: 0000 0000 0000 0000 0000 0000 0000 0000
000003d0: 4497 1b3b 711c 0f3b a9e1 0c3b 50fa b038
000003e0: 4920 b23a 0000 0000 29f2 2e3b 02f3 c93a
000003f0: f5ae 0d3b 0000 0000 0000 0000 2d3c ec38
0.00024163662 0.002400662 0.002506682 0.0030995575 0.0012648212 -6e-45 0.0022160562 0.0018451512
0.0024359406 -0.000101841215 0.0018113013 0.001220779 0.0023894317 0.0015219363 0.0 0.0
0.0 0.0 0.0 0.001624664 0.0 0.0 0.0002723098 0.0028767127
8.043154e-05 0.00041028688 0.0018888649 0.0033133107 0.0028526562 0.0 0.001469641 0.00015032686
0.00027680313 0.001968001 0.0015826003 0.0 0.0015591675 0.0 0.001970072 4.542367e-06
0.0017752433 0.0 0.0 0.0 0.0 0.0017369317 0.0 0.0034201306
0.0022238675 0.0012149849 0.0001481485 0.0024632863 0.0024834983 -2.1335436e-05 0.00011978835 0.0
0.0023804482 0.0031091725 0.002532474 0.0002617357 0.0016195121 0.00175029 0.0021709795 0.0011133652
0.0016348957 0.0017385263 0.0 0.00026580205 0.003579068 0.0 0.00010311833 1.9255973e-05
0.0020158545 -1.8176692e-05 0.00011883597 0.0018955709 0.0 -2.9664545e-05 -6.5478554e-05 0.0020180887
0.0 0.0 0.0022011695 0.0010356196 0.0026197627 0.0025036836 0.0 0.0022980708
0.0022653947 0.00013898803 0.0013392655 0.0018867474 0.0012943917 0.00053483056 0.0 0.0
0.0 0.0 0.0 0.0 0.0024159034 0.0015893681 0.0026480777 0.0
0.0 -7.7490995e-06 0.0013625376 0.0 0.002514387 0.0025955217 0.0 0.0
0.0015645126 0.0021053052 0.0014603712 0.0 -0.0010914683 0.0 0.0 -0.0007771847
0.0025517244 4.0356903e-05 0.0017469786 0.0024766696 0.0026351863 0.0 0.0 0.001877662
0.0017180332 0.0019116076 0.0021165402 0.0026646971 0.0005872025 0.0022526097 -0.00043613225 0.0017327465
-2.0849155e-05 5.1701027e-05 0.0021581773 0.0 0.0 0.0025029057 -7.1159215e-05 0.0029633513
0.001090267 0.00030141693 0.00028385725 0.002858139 0.0021699374 0.0013448449 0.0014430446 -5.089457e-05
0.0021470408 0.0020937473 1.0401954e-05 0.0 0.00020596632 0.00024914063 -1.0835228e-05 0.0
0.0010576176 0.0011467854 0.0018043645 0.002138319 0.0 0.0 0.0029464546 0.0024498845
0.0 0.0 -4.5348665e-05 0.0020647766 0.0039726514 0.0018822802 -2.1305125e-06 0.0016139946
-0.00022337085 0.0016599057 0.0001629692 -4.152274e-06 0.0 0.0018193533 0.0 0.0021463144
0.0 0.0029536765 0.0 0.0 0.0 0.0014257482 0.0 0.0
-0.00018004201 0.0 5.4816323e-05 0.0022693572 0.0 0.0015374714 0.0021645867 0.0005605609
0.0027144318 0.0002444643 0.0012012928 0.0021471132 0.0 0.0 0.0008991631 0.0005453927
1.9400253e-05 0.003424912 0.0 -0.0001823232 0.0021933345 0.0 0.0027935975 0.002641545
0.0018133876 0.0009117461 0.002930167 0.0028640283 0.002654024 0.0021065872 0.0004848077 0.0003415836
0.00022833934 0.002480648 0.002299429 0.0 0.0 0.003300937 0.00050650915 0.0022300675
2.7861433e-05 0.0012995689 0.0 0.0020119168 0.0 0.0016969265 0.0 1.8476005e-05
0.0 0.0 0.0 0.0 0.0023741284 0.002183702 0.0021496809 8.438958e-05
0.0013589944 0.0 0.0026694632 0.0015407505 0.0021619175 0.0 0.0 0.000112645655
