assets/section_1/actor_critic/mountain_car/models/mountaincar_exp/episode_best/actor.pth (torch, 831366 bytes, 18 tensors)

base.0.weight f4 [256, 6]
0	0x3e807497	0.2508895
1	0x3ea49231	0.32142785
2	0xbe9da016	-0.30786198
3	0xbe2db18a	-0.16962257
4	0xbe3c81e9	-0.18408932
5	0xbec39ae0	-0.38204098
6	0xbe4200a2	-0.18945554
7	0xbdf4ae36	-0.119472906
8	0x3eb31d55	0.34983316
9	0xbdbb18f1	-0.091356166
10	0xbe0b2cda	-0.13591328
11	0xbe337c97	-0.17527996
12	0xbea1125b	-0.31459317
13	0xbe96ff7a	-0.29491788
14	0xbd956fa6	-0.07296686
15	0xbe8b9637	-0.27263042
16	0xbe8fea81	-0.281086
17	0xbebd7c0f	-0.37008712
18	0xbc72665b	-0.014794911
19	0xbd4fdf79	-0.05075023
20	0xbeba009f	-0.363286
21	0x3eaa49bb	0.33259377
22	0x3e23c098	0.15991437
23	0xbe5b36dc	-0.21407646
24	0xbe35b84e	-0.17746088
25	0x3e99d01d	0.3004159
26	0xbe568bc0	-0.20951748
27	0x3e3c6365	0.18397291
28	0xbeaf7ebd	-0.3427638
29	0xbe85a868	-0.26105046
30	0x3e43fd7b	0.19139664
31	0x3d5a7125	0.05333056
32	0xbc947d6e	-0.018126216
33	0x3eb5db88	0.35519052
34	0x3e7b53de	0.24543712
35	0xbe86c431	-0.26321557
36	0xbe4340fe	-0.19067761
37	0x3dc6c42c	0.097053856
38	0x3e6cc789	0.23122992
39	0x3e8d68af	0.2761893
40	0x3e9f12f4	0.31069148
41	0x3e81d984	0.25361264
42	0x3db89f3a	0.09014745
43	0x3eafbb11	0.34322408
44	0x3eb580a6	0.35449713
45	0x3d615760	0.055014968
46	0x3e74be4d	0.23900719
47	0xbe860952	-0.26178986
48	0xbd1fab12	-0.038981505
49	0x3e559be6	0.20860252
50	0xbe163523	-0.14668708
51	0xbc9a0b41	-0.018804194
52	0xbdd03915	-0.101671375
53	0x3ea46274	0.32106364
54	0x3e4d771b	0.20064966
55	0x3deb11c4	0.11477998
56	0xbe243e8a	-0.16039482
57	0x3e507850	0.20358396
58	0xbec65c94	-0.38742507
59	0x3e5e6295	0.21717294
60	0x3d7ee2af	0.0622279
61	0x3e2b5cb4	0.16734582
62	0x3eb18685	0.34672943
63	0xbd599263	-0.05311812
64	0x3e8ff84e	0.2811913
65	0x3ec40d8d	0.38291588
66	0x3e611a8f	0.21982788
67	0xbe9b22cb	-0.30299982
68	0x3b8c6b14	0.0042852256
69	0xbe80ddb2	-0.2516914
70	0x3e880c0d	0.26571694
71	0x3cac8c5d	0.021063024
72	0x3e43b22d	0.19110937
73	0x3e82be6a	0.255359
74	0xbe826f87	-0.25475714
75	0x3d964881	0.07338048
76	0x3e8f04fd	0.27933493
77	0xbeb528eb	-0.3538278
78	0xbd9aea77	-0.07564252
79	0x3e9e7099	0.3094528
80	0x3e63cdd3	0.22246484
81	0x3bffd260	0.007807061
82	0x3ce7348e	0.028223302
83	0xbd01d133	-0.03169365
84	0xbe3e9b16	-0.18613848
85	0x3e97209c	0.29517066
86	0xbd97857c	-0.07398507
87	0x3e547152	0.20746353
88	0x3d9cb944	0.07652524
89	0xbec8a295	-0.3918654
90	0xbdd3fe6f	-0.10351264
91	0xbc3f9e7b	-0.0116954995
92	0xbe798ec4	-0.24370867
93	0xbeae6249	-0.3405936
94	0xbe5761f7	-0.21033464
95	0xbec6e4f7	-0.3884656
96	0xbda9e0e1	-0.08294845
97	0x3ecb6c34	0.3973099
98	0x3e393aef	0.18088888
99	0xbcaab74a	-0.020839352
100	0xbea4a85a	-0.32159692
101	0x3d9ad1c4	0.07559541
102	0x3e3d77a1	0.18502666
103	0xbe26c92b	-0.16287677
104	0xbe9dcf83	-0.3082238
105	0xbe4ea462	-0.20179895
106	0xbdae086b	-0.08497699
107	0xbebfb2bf	-0.3744106
108	0x3e961145	0.2931005
109	0xbeb2f2f5	-0.34950987
110	0x3e176adc	0.14786857
111	0x3dbf0000	0.09326172
112	0xbeb94179	-0.36182764
113	0x3d836f09	0.06417663
114	0xbd892e23	-0.06698253
115	0xbdbb872f	-0.091566436
116	0xbbc80b7c	-0.0061048847
117	0x3e034e97	0.12822948
118	0x3ec1bc9f	0.3783922
119	0x3eabb270	0.33534575
120	0x3d4c524c	0.049883172
121	0xbe47b6de	-0.19503352
122	0xbe08ebe5	-0.13371237
123	0xbe92aaa9	-0.28645828
124	0xbda87380	-0.08225155
125	0x3dfee60d	0.124462225
126	0x3e943118	0.28943706
127	0x3e724fe7	0.23663293
128	0x3ec829f0	0.39094496
129	0x3e304388	0.17213261
130	0x3d551da4	0.05203022
131	0xbeb504cf	-0.3535523
132	0x3e447dfc	0.19188684
133	0x3e7d67f8	0.24746692
134	0xbe84b75e	-0.25921148
135	0x3e99d7eb	0.30047545
136	0xbe8e601e	-0.27807707
137	0x3eb20fd3	0.34777698
138	0xbdf637dd	-0.12022374
139	0xbe51bcb0	-0.20482135
140	0x3e62acbf	0.2213621
141	0x3dcdbdd3	0.10045972
142	0x3e9860c7	0.29761335
143	0xbea470a0	-0.32117176
144	0x3ea38169	0.3193467
145	0xbe0f693d	-0.14004989
146	0xbe9aee15	-0.30259767
147	0xbe95cc7c	-0.29257572
148	0x3ecd0f23	0.4005061
149	0xbde8bb18	-0.1136381
150	0xbb2a0289	-0.0025941452
151	0x3e0beada	0.13663808
152	0x3d87a0ad	0.06622443
153	0xbebf4d3e	-0.3736362
154	0x3e65ee39	0.22454156
155	0xbe71aace	-0.23600313
156	0x3dee6402	0.11640169
157	0x3e60f4f1	0.21968438
158	0xbe424aa4	-0.18973786
159	0xbd647bba	-0.055782057
160	0xbec64fdf	-0.38732812
161	0xbd8fdd62	-0.07024647
162	0x3e9c1424	0.30484116
163	0xbdaaf72e	-0.08347927
164	0xbdc0c29b	-0.09412118
165	0xbda28db2	-0.079371825
166	0xbb8970e1	-0.0041943644
167	0xbe9068b5	-0.28204885
168	0xbda1dc38	-0.079033315
169	0x3ec8a752	0.39190155
170	0xbd4bd180	-0.04976034
171	0xbdb5f0d8	-0.08883828
172	0x3ea6023f	0.3242359
173	0x3dc7e107	0.097597174
174	0x3ea8a36c	0.3293718
175	0xbe8519df	-0.259963
176	0xbeb3333d	-0.3500003
177	0xbe87ac70	-0.26498747
178	0xbe92098d	-0.28522912
179	0x3e37f480	0.17964363
180	0x3e85cf98	0.26134944
181	0x3da2993a	0.07939382
182	0x3c48d24d	0.012257171
183	0x3ebf3f9d	0.3735322
184	0x3db4ecb0	0.08834207
185	0xbdd88c24	-0.10573605
186	0xbcd2bc2d	-0.025724495
187	0x3e2fd469	0.17170872
188	0xbd501de2	-0.05080975
189	0xbdc74034	-0.09729043
190	0x3e95d26e	0.29262108
191	0xbea80376	-0.3281514
192	0x3e5a7a3f	0.21335696
193	0x3e4454a9	0.1917292
194	0x3dda1218	0.10647982
195	0xbe81cdff	-0.25352475
196	0xbc7f6d22	-0.015589984
197	0x3ea8b2f6	0.32949036
198	0xbe959ed2	-0.29222733
199	0xbe10dc45	-0.14146526
200	0x3dcdf037	0.10055583
201	0xbe7b2e0b	-0.24529283
202	0x3d445910	0.0479365
203	0x3ecfa93f	0.40558812
204	0xbe2e7d99	-0.17040099
205	0xbe5d1091	-0.21588351
206	0x3dea0caa	0.11428197
207	0xbd384a9a	-0.04499302
208	0x3e4c25c4	0.19936281
209	0x3e0050dc	0.12530845
210	0xbea8caf3	-0.32967338
211	0xbe8ec625	-0.27885547
212	0xbc4d87dc	-0.012544598
213	0x3ebef3f2	0.3729549
214	0x3e8aca63	0.27107534
215	0xbeae4388	-0.34035897
216	0x3e56dd63	0.2098289
217	0x3dc91491	0.09818376
218	0xbeb01996	-0.3439452
219	0xbe7819c7	-0.24228583
220	0xbc8fe973	-0.017567372
221	0xbe2e5e85	-0.17028244
222	0x3d2ee51a	0.042698957
223	0x3e4967ab	0.19668452
224	0x3e8a8c9b	0.27060398
225	0x3c1fdd42	0.009757342
226	0xbe494611	-0.19655634
227	0xbe7fa064	-0.24963528
228	0x3e0863fc	0.13319391
229	0xbeaae2d3	-0.33376178
230	0x3bc6da1d	0.0060684816
231	0xbe4aa75a	-0.19790402
232	0x3ea35dbf	0.3190746
233	0xbe1e677c	-0.15469164
234	0x3e954580	0.29154587
235	0xbd9e629f	-0.07733654
236	0xbea6b82a	-0.3256238
237	0xbd218047	-0.039428975
238	0xbdd0d3c2	-0.101966396
239	0x3d0ef466	0.034901045
240	0x3e3323d9	0.17494144
241	0x3e46bd90	0.1940825
242	0xbd94f9bd	-0.07274196
243	0x3da28d28	0.0793708
244	0xbe03956c	-0.12849969
245	0x3ecd6308	0.40114617
246	0xbe21d133	-0.1580246
247	0x3e6c0ede	0.23052546
248	0x3d6e2567	0.05814114
249	0xbe45bfbc	-0.19311422
250	0xbdf627f5	-0.1201934
251	0x3e52dfae	0.2059314
252	0x3e400725	0.18752725
253	0x3e91e8af	0.28497836
254	0xbeb0ccfe	-0.34531397
255	0x3eb6d53e	0.35709566

base.0.bias f4 [256]
0	0xbdfa1023	-0.12210109
1	0xbd9ad2bb	-0.07559725
2	0x3e90ffa5	0.2832004
3	0xbdf7c4da	-0.12098093
4	0x3e788a29	0.24271454
5	0x3e51a033	0.20471267
6	0xbec580d7	-0.3857486
7	0x3cba159c	0.022715382
8	0x3e007c88	0.12547505
9	0xbe51b3b5	-0.20478709
10	0xbec04422	-0.3755198
11	0x3e54ba84	0.20774275
12	0x3e8f8db1	0.2803779
13	0xbe3dbb6b	-0.18528526
14	0xbea7a325	-0.32741657
15	0x3ebe2d76	0.3714406
16	0xbe8ac63f	-0.27104375
17	0x3df04b5d	0.117331244
18	0xbe4a7c24	-0.19773918
19	0x3e82db90	0.25558138
20	0x3eb42a6a	0.3518861
21	0xbea29199	-0.31751707
22	0xbe12b233	-0.1432579
23	0xbe1bcfba	-0.1521596
24	0x3ed0f078	0.40808463
25	0xbea3bd9f	-0.31980607
26	0x3ecd774e	0.40130085
27	0xbebdf558	-0.37101245
28	0x3e160e42	0.14653876
29	0xbeb2d9e5	-0.34931865
30	0xbec98b1a	-0.3936394
31	0xbd6d50dc	-0.05793844
32	0xbcec1aa8	-0.028821304
33	0x3eb6c6fa	0.35698682
34	0xbe47ae60	-0.19500113
35	0xbd208dc4	-0.0391977
36	0xbec67f60	-0.38769054
37	0xbec4f4ee	-0.38468117
38	0xbe5318c9	-0.20614924
39	0x3e7397bb	0.2378835
40	0xbe9e18d2	-0.3087831
41	0xbeb15953	-0.3463846
42	0xbe6840e0	-0.22680998
43	0x3d54555a	0.05183921
44	0xbe2cd9c7	-0.1687995
45	0xbebdfcf9	-0.37107065
46	0xbe4a50b7	-0.19757353
47	0x3dcc0ad0	0.09963
48	0x3ed167db	0.40899548
49	0xbe398240	-0.18116093
50	0x3ebe2d39	0.37143877
51	0x3e418eba	0.18902102
52	0xbeb392b9	-0.35072878
53	0xbe798954	-0.24368793
54	0xbe3f08ac	-0.18655652
55	0x3e78c43d	0.24293609
56	0xbe7061c1	-0.2347479
57	0x3e3a54a8	0.18196356
58	0x3ea605ca	0.32426292
59	0xbe569568	-0.20955431
60	0xbdce07b1	-0.10060061
61	0x3d42f8c0	0.047600508
62	0x3e8889ac	0.26667535
63	0x3e3450be	0.17608926
64	0xbeae4bc6	-0.34042186
65	0xbeab0c86	-0.33407992
66	0x3ebaf062	0.36511523
67	0x3ea076fb	0.31340775
68	0xbe120ec3	-0.14263444
69	0x3e8e92dd	0.27846423
70	0x3dcc0cd3	0.099633835
71	0x3ed6e248	0.41969514
72	0x3e6d526f	0.23175977
73	0x3e770b5e	0.2412543
74	0xbe741505	-0.23836143
75	0xbe4a657f	-0.1976528
76	0xbea91277	-0.330219
77	0xbec982be	-0.3935756
78	0xbe34e720	-0.17666292
79	0x3e904766	0.28179473
80	0x3dea83f3	0.114509486
81	0x3ec88495	0.39163652
82	0x3ead16d4	0.3380648
83	0xbe4f59b8	-0.20249069
84	0x3e828c14	0.25497496
85	0xbe1ed71d	-0.15511747
86	0x3e921ada	0.2853611
87	0x3e94f030	0.290895
88	0xbdab1ae5	-0.08354739
89	0x3eba44e2	0.36380678
90	0x3d81d89e	0.063401446
91	0x3a5d0b98	0.00084322086
92	0xbe943066	-0.28943175
93	0x3e090052	0.13379028
94	0x3e3f8235	0.18702014
95	0xbe144827	-0.14480649
96	0xbc333394	-0.01093759
97	0xbc6a4f16	-0.014301082
98	0xbea38639	-0.3193834
99	0xbde7ea0f	-0.1132394
100	0xbe6eb818	-0.23312414
101	0x3eca94a7	0.39566538
102	0xbe009807	-0.12557994
103	0xbe84a566	-0.2590744
104	0x3e7d3be7	0.24729882
105	0x3dc36a4a	0.095417574
106	0x3e90ea91	0.2830396
107	0xbe4855a2	-0.19563916
108	0x3d75e6a7	0.06003442
109	0x3e95b3ee	0.29238838
110	0xbe0a59bc	-0.13510793
111	0xbdb93e20	-0.090450525
112	0xbe9ccb77	-0.3062398
113	0xbe22298a	-0.15836158
114	0x3ec6bb4f	0.3881478
115	0xbe83227b	-0.25612244
116	0x3eb4bc0b	0.35299715
117	0x3eb2ad20	0.3489771
118	0xbebc6a1c	-0.36799705
119	0xbe88294e	-0.26594013
120	0x3db46806	0.088089034
121	0xbe3db2f2	-0.18525293
122	0xbd8fe6d9	-0.070264526
123	0xbeb46130	-0.35230398
124	0x3d6a6999	0.057229612
125	0x3eb4a82a	0.3528455
126	0xbe7cf7f8	-0.24703968
127	0xbeaa0e9b	-0.33214268
128	0xbe75b7c7	-0.23995887
129	0x3e9928b0	0.29913855
130	0xbe37e14a	-0.17957035
131	0xbe2793bd	-0.16364951
132	0x3e8a7bc7	0.2704756
133	0x3e708405	0.23487861
134	0x3e1a2303	0.15052418
135	0xbed08716	-0.40728062
136	0xbeb34497	-0.35013267
137	0x3e6fe4d0	0.23427129
138	0x3e35947e	0.17732427
139	0xbec2debe	-0.38060564
140	0x3dd27055	0.10275332
141	0xbebe6d98	-0.37192988
142	0xbe0f132c	-0.13972157
143	0xbea8c3cb	-0.32961878
144	0xbeb4510a	-0.35218078
145	0x3e2f8f78	0.17144573
146	0xbd6d8584	-0.05798866
147	0xbe89a570	-0.2688403
148	0x3e81a819	0.2532356
149	0xbecce5a8	-0.40018964
150	0x3ec3e720	0.38262272
151	0x3d320437	0.04346105
152	0x3dcc5323	0.099767946
153	0xbeb6dc8b	-0.35715136
154	0xbd235d95	-0.03988417
155	0x3df62ce1	0.12020279
156	0xbecd0a61	-0.4004698
157	0xbe791b55	-0.24326833
158	0x3eaa9f48	0.33324647
159	0x3e10aa96	0.14127573
160	0x3e5a76cc	0.2133438
161	0x3e8f2128	0.27954984
162	0xbec85595	-0.39127794
163	0xbe9dd7ad	-0.3082861
164	0xbdc96e28	-0.09835464
165	0xbeaf5a0d	-0.3424839
166	0xbe554e73	-0.20830707
167	0xbe9b7583	-0.30363092
168	0xbe26d4c1	-0.16292097
169	0x3e9b5919	0.30341414
170	0x3e7b75d0	0.2455666
171	0xbdde9c4b	-0.10869654
172	0x3db3ecd4	0.08785406
173	0x3e646af5	0.22306426
174	0xbd2b8800	-0.041877747
175	0xbebd5c49	-0.3698447
176	0xbea14e44	-0.31505024
177	0xbe72bd95	-0.23705132
178	0xbecaa712	-0.3958059
179	0x3e80aa1b	0.2512978
180	0xbe83f8f7	-0.25775883
181	0x3eb9c081	0.3627968
182	0xbed021df	-0.40650842
183	0x3ea622a9	0.3244832
184	0x3ea3a6a2	0.31963068
185	0x3ecf43cc	0.40481412
186	0x3db51bb4	0.088431746
187	0xbea1c038	-0.31591964
188	0xbe2dfaa4	-0.16990143
189	0x3e826ee9	0.25475243
190	0x3da774a2	0.08176543
191	0xbe267c5c	-0.16258377
192	0xbec52b16	-0.38509434
193	0xbdae58ae	-0.08513008
194	0xbe189295	-0.14899667
195	0x3ed1a01f	0.40942475
196	0xbeb15064	-0.34631646
197	0x3ebb29a0	0.36555195
198	0x3dfb11cc	0.12259254
199	0x3c71266b	0.014718632
200	0x3eca8511	0.39554647
201	0x3e4324fa	0.19057074
202	0xbe9d2c13	-0.30697688
203	0xbe9a0c42	-0.30087477
204	0xbec55b05	-0.38546005
205	0xbe29b26f	-0.16571973
206	0xbe85ccda	-0.26132852
207	0xbdd45411	-0.10367597
208	0xbe80a70e	-0.25127453
209	0x3be85df2	0.0070912773
210	0x3d2c136d	0.042010713
211	0xbe473db0	-0.19457126
212	0x3d8fa436	0.070137426
213	0xbea10a31	-0.31453088
214	0xbdd00924	-0.101579934
215	0x3e23e481	0.16005136
216	0xbc5656c1	-0.013082207
217	0x3e8a1477	0.26968738
218	0xbe6670a5	-0.22503908
219	0x3b4d3c9f	0.003131665
220	0x3e4f1932	0.20224455
221	0x3db6dc53	0.08928742
222	0xbecc195c	-0.39863098
223	0x3d1ae5f7	0.037816968
224	0xbe4e1135	-0.20123751
225	0xbec92576	-0.39286393
226	0x3e085cd1	0.13316657
227	0x3de4aa40	0.11165285
228	0xbe004f06	-0.12530145
229	0xbecb0a38	-0.39656234
230	0xbe33deb3	-0.17565422
231	0xbe458ceb	-0.19292037
232	0x3e217580	0.15767479
233	0x3e81d6f7	0.25359318
234	0xbeac1ca8	-0.33615613
235	0xbdd38149	-0.103273936
236	0x3e76707b	0.24066345
237	0xbe1c4e7f	-0.15264319
238	0x3ea524a0	0.32254505
239	0xbe5ba32f	-0.21448968
240	0xbde7742a	-0.113014534
241	0x3e845502	0.25846106
242	0x3cd3766a	0.0258133
243	0xbe91d6cc	-0.2848419
244	0xbebb25e6	-0.36552352
245	0xbe5c708c	-0.21527308
246	0xbe2d6728	-0.16933882
247	0x3ece2832	0.40265042
248	0x3d28b709	0.04119018
249	0x3ebea823	0.37237653
250	0xbe31a49e	-0.17347953
251	0x3de353bc	0.110999554
252	0xbe5692a7	-0.20954381
253	0x3e2299b5	0.15878947
254	0x3eb2ec6d	0.34946004
255	0xbe4a3672	-0.19747332

base.2.weight f4 [256, 256]
0	0x3d6a835e	0.057254188
1	0xbd662667	-0.056188967
2	0xbcf036a1	-0.029322924
3	0x3a828840	0.0009958819
4	0x3d9019ab	0.07036146
5	0x3d2384ef	0.039921697
6	0x3d383478	0.044971913
7	0x3b2ad5b4	0.0026067318
8	0xbd2ae9a9	-0.041726742
9	0x3b97a120	0.004627362
10	0x3ccb25fc	0.024798386
11	0xbcdc36b3	-0.026881551
12	0x3cc90766	0.02453966
13	0xbd16fcc6	-0.036862157
14	0x3d61096a	0.05494062
15	0xbcd6bede	-0.02621406
16	0x3c18c688	0.009324677
17	0xbd09488f	-0.033516463
18	0xbd619c0e	-0.055080466
19	0x3d9a05f9	0.075206704
20	0x3cf1eede	0.029532846
21	0xbc3031c0	-0.010754049
22	0xbc70d080	-0.014698148
23	0xbad8813b	-0.0016518006
24	0x3cfdb375	0.03096936
25	0xbd37992e	-0.044823818
26	0x3d2f8920	0.042855382
27	0x3d6b9526	0.057515286
28	0x3d8cdf58	0.06878537
29	0x3d705474	0.05867429
30	0x3cef6fe8	0.029228166
31	0x3c6aacc8	0.014323421
32	0x3d3895cb	0.04506473
33	0x3d312c28	0.043255
34	0xbc3041e6	-0.010757899
35	0xbd20fd7a	-0.039304234
36	0xbbc60540	-0.0060431063
37	0xbd5efe3a	-0.054441668
38	0x3d483f56	0.048888527
39	0x3d9fd222	0.078037515
40	0xbce97128	-0.02849634
41	0xbcd27804	-0.025691994
42	0xbd43bedc	-0.04778944
43	0xbba19c82	-0.0049319873
44	0x3cf7045c	0.030153446
45	0xbcd55888	-0.026043192
46	0x3cb46a5c	0.022023372
47	0xbc741eae	-0.014899893
48	0x3d079a65	0.033106226
49	0xbd20753e	-0.03917431
50	0x3d38c3a7	0.045108464
51	0x3d4cacfa	0.04996965
52	0xbae99f80	-0.0017824024
53	0x3d054a1c	0.03254138
54	0xbc868506	-0.016420852
55	0xbca08c2c	-0.01959809
56	0x3bab0c60	0.005219981
57	0x3d3066fd	0.043066967
58	0xbc6a2484	-0.014290933
59	0x3d1d3024	0.03837599
60	0xbd3058f6	-0.04305359
61	0x3d732b41	0.059367422
62	0xba30acae	-0.00067395985
63	0x3c7653e6	0.015034651
64	0x3d1b8fe0	0.037979007
65	0x3d602108	0.054719
66	0x3d2dc69e	0.042425744
67	0x3b9abe4e	0.004722393
68	0x3c9f9838	0.019481763
69	0x3d8b14eb	0.06791099
70	0xba8b86ab	-0.0010644993
71	0x3d3f6050	0.04672271
72	0xbd4b929e	-0.049700372
73	0xbc114393	-0.008866209
74	0xbc934640	-0.017977834
75	0x3cd27d17	0.025694413
76	0xbd611cb0	-0.054959
77	0xbd677148	-0.056504518
78	0xbb948e40	-0.004533559
79	0x3cd2260c	0.025652908
80	0xbc5c853f	-0.013459503
81	0x3d6a3fa1	0.057189588
82	0x3b25afdf	0.002528183
83	0x3d0c58dc	0.03426443
84	0x3bbc9eef	0.005756251
85	0xbc0b50f8	-0.008503191
86	0x3b5b48fc	0.003346025
87	0x3c9e673e	0.01933634
88	0x3cad537e	0.021157976
89	0xbc6dc11d	-0.014511374
90	0xbcc179f6	-0.023617726
91	0x3bb35023	0.0054721995
92	0x3ce1e4a0	0.027574837
93	0x3cd9b81d	0.02657705
94	0xbd1312c3	-0.035906564
95	0x3d258718	0.04041204
96	0x3d49973c	0.049216494
97	0xbd39bac7	-0.04534414
98	0x3d6aa85e	0.057289474
99	0x3d32ae87	0.043623473
100	0xbcd53490	-0.02602604
101	0x3d7d0600	0.0617733
102	0x3d4bfb57	0.049800243
103	0x3d03f37c	0.032214627
104	0xbc933618	-0.01797013
105	0x3c2c3e1c	0.010512855
106	0xbd021aab	-0.031763714
107	0x3bbe33a0	0.005804494
108	0x3c506eeb	0.012721757
109	0xbc4d261b	-0.012521292
110	0xbd3b488f	-0.045723494
111	0xbd5342ae	-0.051577263
112	0xbd234d02	-0.039868362
113	0xbd71036c	-0.058841154
114	0x3d68e164	0.056855574
115	0xbd2552fa	-0.040362336
116	0x3d0e3898	0.03472194
117	0x3d8e461b	0.06946965
118	0x3cfdae54	0.030966915
119	0x3cf8744c	0.030328892
120	0xbc80311b	-0.015648415
121	0x3c305894	0.010763306
122	0xbcac6a36	-0.02104674
123	0x3c4a4858	0.01234635
124	0xbbd63e04	-0.0065381546
125	0x3b002668	0.0019554142
126	0x3d57b0a2	0.052658685
127	0xbcabbda4	-0.020964451
128	0xbd21064e	-0.039312653
129	0x3d3150a5	0.0432898
130	0x3ca63cec	0.020292722
131	0x3d4f30b4	0.050583556
132	0xbc8b05e0	-0.016970575
133	0xbd428dbe	-0.047498457
134	0xbc8bb3e1	-0.017053546
135	0x3cda6044	0.026657231
136	0xbc462148	-0.012092896
137	0x3c3708b6	0.01117151
138	0x3d31de53	0.043424916
139	0xbcc6cef4	-0.024268605
140	0xbc3f0df9	-0.011661046
141	0xbd08e49c	-0.033421144
142	0xbd7bf49e	-0.061512582
143	0xbb3be361	-0.0028669464
144	0xbbcf62e0	-0.0063289255
145	0x3d4115ba	0.04713986
146	0x3c16f0e3	0.009212705
147	0xbc6a4e20	-0.014300853
148	0xbbe83cc7	-0.0070873233
149	0xbcde587f	-0.027141808
150	0x3c41a17c	0.011818286
151	0xbd82c4d3	-0.063851975
152	0x3d07042e	0.03296297
153	0xbd28e704	-0.04123594
154	0x3b541cdf	0.0032365841
155	0xbd13471d	-0.03595649
156	0xbd009a44	-0.03139712
157	0xbd269ff2	-0.04067988
158	0x3d97ca9d	0.07411692
159	0x3d850bf7	0.06496423
160	0x3c56dea7	0.013114608
161	0x3c645930	0.01393728
162	0xbd4b9162	-0.049699195
163	0xbd39cbd6	-0.04536041
164	0xbd4e0567	-0.05029812
165	0xbd260eb0	-0.04054135
166	0x3d2a23c4	0.041538015
167	0xbd6ea168	-0.058259398
168	0x3cefc3c5	0.029268155
169	0x3d0f06d8	0.034918636
170	0x3d384f42	0.04499746
171	0xbcad10fd	-0.021126265
172	0x3cd21e8c	0.025649332
173	0xbcbc05be	-0.022951957
174	0x394c7faf	0.00019502522
175	0xbd695c90	-0.05697304
176	0x3d012d2c	0.03153722
177	0xbd84d156	-0.0648524
178	0xbd6ed1ee	-0.058305673
179	0x3d19d3c2	0.037555464
180	0xbce6773c	-0.028133027
181	0xbc6133c9	-0.013745257
182	0xbc84c918	-0.01620917
183	0x3c12b147	0.008953399
184	0x3d899448	0.067177355
185	0x3d16b67e	0.03679513
186	0xbcd42ada	-0.02589934
187	0xbcf1598c	-0.029461645
188	0xbc3cf5b0	-0.011533186
189	0x3d05d5f1	0.032674734
190	0x3c2f94ea	0.010716656
191	0xbd52051e	-0.05127441
192	0xbd65dc96	-0.05611857
193	0x3b387d8c	0.0028151004
194	0xbd56eda4	-0.052472726
195	0xbbd99ef9	-0.0066412655
196	0x3bb601c0	0.005554408
197	0x3d0203e9	0.03174201
198	0x3d0eaed5	0.0348347
199	0x3d164821	0.03668988
200	0xbc8016f4	-0.015635945
201	0x3d3d12d6	0.04616054
202	0xbc8695e8	-0.016428903
203	0xbcb057b8	-0.021526203
204	0x3cee931c	0.029122882
205	0xbd34db07	-0.044154193
206	0x3b1bfc92	0.0023801667
207	0xbb254be0	-0.0025222227
208	0x3c0bf308	0.00854183
209	0x3bf5f8f4	0.007506484
210	0xbd74b373	-0.05974145
211	0x3c81834b	0.015809676
212	0x3b1ada3a	0.0023628608
213	0xbc02aeca	-0.007976243
214	0x3d674ed0	0.056471646
215	0xbce42ea6	-0.027854275
216	0x3d262379	0.040561173
217	0xbd1cc58d	-0.038274337
218	0xbd736bbc	-0.059428915
219	0x3bd0f17c	0.0063764434
220	0x3d370fd4	0.04469283
221	0xbc57a628	-0.013162173
222	0xbd77a43c	-0.06045936
223	0xbc873281	-0.016503574
224	0x3d70dd02	0.05880452
225	0x3bf8c700	0.007592082
226	0x3c409255	0.011753638
227	0xbd34b1a3	-0.04411472
228	0xbc294be8	-0.010333039
229	0xbcc847fc	-0.024448387
230	0x3bcf17f6	0.006319995
231	0xbd6604c9	-0.056156907
232	0xbcbea30d	-0.023271108
233	0xbc92a455	-0.017900625
234	0xbd29053c	-0.041264758
235	0xbcc555fb	-0.02408885
236	0xbd1912d3	-0.037371468
237	0xbd5d2112	-0.053986616
238	0xbcff4f13	-0.031165635
239	0xbd66a74c	-0.05631189
240	0xbcac5d50	-0.021040589
241	0xbd48a3ee	-0.04898446
242	0xbd2b3a6e	-0.04180377
243	0xbc043058	-0.008068167
244	0x3b01c7f5	0.0019803022
245	0xbd3fa115	-0.04678448
246	0xbc47fdf4	-0.012206543
247	0xbbc8cdd5	-0.0061280527
248	0x3cc9c28b	0.024628898
249	0xbc9a8452	-0.018861923
250	0x3d1c9f2b	0.038237732
251	0x3d4f0ed3	0.050551247
252	0x3d7ea26a	0.06216661
253	0x3c940415	0.018068353
254	0xbd3a7dac	-0.045530006
255	0xb9126400	-0.00013960898

base.2.bias f4 [256]
0	0x3c4b513c	0.0124095045
1	0xbd2b9d9e	-0.041898362
2	0xbb998c8f	-0.0046859453
3	0xbc5ac760	-0.013353199
4	0xbd17ae7b	-0.037031632
5	0xbcd99398	-0.026559636
6	0xbd567f2c	-0.052367374
7	0xbc8edd04	-0.017439373
8	0x3d68fc79	0.0568814
9	0x3cffc23e	0.031220552
10	0xbcbec9a0	-0.023289502
11	0x39b46100	0.00034404546
12	0x3a10f027	0.00055289496
13	0xbd437b8e	-0.047725253
14	0x3d2ab2a4	0.04167427
15	0x3d3ff137	0.0468609
16	0x3d8631be	0.06552456
17	0xbd70c635	-0.058782775
18	0x3b02283b	0.0019860405
19	0xbd3e7f31	-0.046508018
20	0x3b84bb58	0.0040506534
21	0x3d1e1969	0.03859845
22	0x3bae41dd	0.00531791
23	0x3cac5f1f	0.021041451
24	0xbc9deb53	-0.01927725
25	0x3cf4c212	0.029877696
26	0xb91616a1	-0.00014313545
27	0xbcfb8885	-0.030704746
28	0x3c9cb31e	0.019128378
29	0x3d5ec35c	0.054385528
30	0x3d31a0fc	0.043366417
31	0xbd347819	-0.044059847
32	0xbd2df8e7	-0.0424737
33	0xbd63b1b9	-0.05558941
34	0xbd193795	-0.037406523
35	0x3c6bb2f9	0.014385932
36	0x3cd626fc	0.026141636
37	0xbd346a8f	-0.044046935
38	0x3c1df7e9	0.009641626
39	0xbd019369	-0.031634722
40	0x3d1cdab2	0.0382945
41	0x3d6b7c84	0.057491794
42	0xbd1538f2	-0.03643126
43	0xbd1cd871	-0.038292352
44	0x3d7bc14c	0.06146364
45	0xbcffb8e9	-0.031216102
46	0x3d4d000d	0.050048877
47	0x3ce72710	0.028216869
48	0x3d99fc34	0.07518807
49	0xbc0a49f8	-0.008440487
50	0x3b667c44	0.0035169283
51	0x3d0f1311	0.034930293
52	0xbba3ab0e	-0.0049947565
53	0x3c6efbf8	0.014586441
54	0xbd248513	-0.040165972
55	0xbd20dd4e	-0.039273553
56	0xbc6adb2f	-0.014334484
57	0x3d232720	0.039832234
58	0xbb107420	-0.0022041872
59	0xbd254a93	-0.040354323
60	0xbc572410	-0.013131157
61	0x3d30eac8	0.043192655
62	0xbd0f2be2	-0.03495396
63	0x3d518036	0.051147662
64	0x3d5544d8	0.052067608
65	0xbd2728bb	-0.040810328
66	0xbd40e0e8	-0.047089487
67	0x3d19b91e	0.037530057
68	0xbc722728	-0.014779843
69	0x3d592f2c	0.053023502
70	0xbcc46b57	-0.023976965
71	0xbd021750	-0.031760514
72	0xbc736903	-0.01485658
73	0x3d2c6707	0.042090442
74	0xbd3b5d5a	-0.045743324
75	0x3b1cb880	0.0023913682
76	0xbcfe8089	-0.03106715
77	0x3cfd5e08	0.030928627
78	0x3cf270a6	0.02959473
79	0x3d16f0df	0.036850806
80	0xbb2e6d60	-0.0026615486
81	0xbd60ba51	-0.054865185
82	0xbd0d0ca0	-0.03443587
83	0x3d7d6914	0.06186779
84	0x3cd43b66	0.02590723
85	0xbd2406e0	-0.04004562
86	0xbd7b11be	-0.061296217
87	0xbd6caeb3	-0.057783794
88	0x3be8b754	0.0071019325
89	0x3c8c177a	0.017101038
90	0xba952566	-0.0011378943
91	0xbd2ddf44	-0.04244925
92	0x3cd2faf4	0.02575443
93	0x3d3fbde8	0.046811968
94	0xbd4a2366	-0.049350165
95	0x3d33c5f2	0.043889947
96	0x3d1bbc01	0.03802109
97	0x3b10f360	0.002211772
98	0xbc1a67d3	-0.009424168
99	0xbd547960	-0.051873565
100	0x3d79119b	0.060807806
101	0x3d8ed87d	0.069748856
102	0x39cded58	0.00039277482
103	0x3d29ebbf	0.04148459
104	0xbb9061c0	-0.004406184
105	0x3d0ea074	0.03482099
106	0xbcb4e7a1	-0.022083106
107	0xbb24afc0	-0.002512917
108	0xbd34776e	-0.04405921
109	0x3d9af810	0.075668454
110	0x3d294793	0.041328024
111	0x3cb2053c	0.021731012
112	0x3d62da97	0.055384245
113	0xbd7ab9f5	-0.0612125
114	0xbd1217dc	-0.035667285
115	0x3c2b9e3d	0.010474739
116	0x3c8ef43f	0.01745045
117	0xbd3a4f84	-0.04548599
118	0x3cab7303	0.020928865
119	0xbc470850	-0.012147978
120	0x3d92f3ed	0.071754314
121	0xbd6d314d	-0.057908345
122	0x3d0ff6db	0.03514753
123	0x3c506043	0.012718263
124	0x3d20662b	0.039159935
125	0xbd2610b5	-0.040543277
126	0xbc11f220	-0.008907825
127	0xbc42544d	-0.011860919
128	0x3d3b4f32	0.045729823
129	0xbc809206	-0.01569463
130	0x3ca8b14e	0.020592358
131	0xbd5467cc	-0.0518568
132	0xbd175bc4	-0.03695275
133	0x3c6fdd28	0.01464013
134	0xbcaaac2c	-0.020834051
135	0xbca37acc	-0.019956015
136	0x3d0309fe	0.03199195
137	0x3d6d44f0	0.057927072
138	0xbd02128c	-0.03175597
139	0xbd1342cc	-0.035952374
140	0xbca89e94	-0.020583428
141	0x3d2fd92c	0.04293172
142	0xbc158d21	-0.009127886
143	0x3d8e1054	0.06936708
144	0xbc240f63	-0.010013434
145	0xbd300f48	-0.042983323
146	0xbd4ea2fa	-0.050448395
147	0x3c11bc02	0.008894922
148	0xbd29c99e	-0.041452043
149	0x3c183919	0.009290957
150	0x3d4b56f5	0.049643476
151	0xbd838dda	-0.064235404
152	0xbc5cf4f6	-0.013486138
153	0xbcc73558	-0.024317428
154	0x3d927432	0.07151069
155	0x3d204ee9	0.039137755
156	0xbd571556	-0.052510582
157	0xbbd024d0	-0.0063520446
158	0x3ce151b8	0.027504787
159	0xbc2386d2	-0.009980874
160	0x3bb3b10f	0.0054837535
161	0x3d4dfaed	0.05028813
162	0x3d06885c	0.032844886
163	0xbcb43152	-0.021996174
164	0x3ccbcd31	0.024878116
165	0x3d4f1de0	0.0505656
166	0xbd20bc56	-0.03924211
167	0x3d48ee2c	0.049055263
168	0x3d96be2b	0.073604904
169	0xbd83fc81	-0.06444646
170	0x3c764f0f	0.0150334975
171	0xbc81be78	-0.015837893
172	0xbd1fbf94	-0.039001063
173	0x3c94a556	0.018145245
174	0x3d4a97f8	0.049461335
175	0xbd3295c3	-0.043599855
176	0x3d65f9ed	0.05614655
177	0xbcab3855	-0.020900885
178	0xbd6010a2	-0.054703362
179	0xbbfb1244	-0.0076620895
180	0xbd73ac62	-0.05949057
181	0xbd504476	-0.05084654
182	0x3c528d48	0.012851067
183	0xb8de7477	-0.00010607478
184	0x3d304a9d	0.043039907
185	0x3d0f459b	0.03497849
186	0x3ca534e4	0.020166822
187	0x3bb4caf5	0.0055173584
188	0xbcffbba0	-0.031217396
189	0x3cc7da32	0.024396036
190	0xbd567402	-0.052356727
191	0x3cbe2144	0.023209222
192	0xbbb765dc	-0.0055968594
193	0xbce8f5c0	-0.028437495
194	0x3d726bd1	0.059184853
195	0x3d01a9d5	0.031656105
196	0xbca4b5f4	-0.020106293
197	0xbd71ca9c	-0.059031114
198	0x3d6c2525	0.05765261
199	0x3d4a1f2e	0.04934614
200	0xbd0e5b2e	-0.034754924
201	0x3d2dcd02	0.04243184
202	0x3c965a80	0.0183537
203	0xbcb108e4	-0.021610685
204	0x3d103c70	0.035213888
205	0xbd15632e	-0.03647154
206	0x3c4549a3	0.012041482
207	0xbd602f7c	-0.054732785
208	0xbccb54a7	-0.024820639
209	0x3c903bd0	0.017606646
210	0x3c786a78	0.015162103
211	0xbd35c0de	-0.044373386
212	0xbca88f55	-0.020576159
213	0x3d3f2faa	0.046676315
214	0x3d7d4ae0	0.061838984
215	0x3cb9e50c	0.022692226
216	0xbcd66a03	-0.026173597
217	0xbd32ebf2	-0.043682046
218	0xbd0a9b85	-0.03383972
219	0xbd025b3e	-0.031825297
220	0x3d39cf57	0.04536375
221	0x3d18d8d5	0.037316162
222	0xbd18f936	-0.03734704
223	0x3d150772	0.036384054
224	0xbcf7666c	-0.030200206
225	0x3d309597	0.04311141
226	0x3a656fbf	0.0008752308
227	0x3c01e8de	0.007929055
228	0x3d054fcc	0.032546803
229	0x3aa6fd29	0.0012740243
230	0x3d01b4c2	0.031666525
231	0x3bc62816	0.006047259
232	0x3d52d988	0.051476985
233	0x3cf8deea	0.030379731
234	0xbce8fe15	-0.028441468
235	0x3d74c204	0.05975534
236	0x3ccaf823	0.024776524
237	0xbce944d8	-0.02847521
238	0xbbb73edd	-0.0055922107
239	0x3c87d674	0.016581751
240	0x3ca9c717	0.020724816
241	0x3b9946d0	0.004677631
242	0x3d49a4bc	0.04922937
243	0xbcff9f8d	-0.03120401
244	0xbd7d8e0c	-0.061903045
245	0xbd134b4a	-0.035960473
246	0x3d1f4517	0.03888425
247	0xbbaad5ba	-0.0052134665
248	0x3cbdc894	0.023166932
249	0xbcbdbc7d	-0.023161167
250	0x3c06fcd0	0.008238986
251	0x3d07ca58	0.033151954
252	0xbd311622	-0.043233998
253	0x3cf111b7	0.029427392
254	0x3c803067	0.01564808
255	0x3d1caa96	0.03824862

base.4.weight f4 [3, 256]
0	0x3d652d90	0.055951655
1	0x3d69422c	0.056947872
2	0xbd6cdad7	-0.05782589
3	0xbd3236fc	-0.04350947
4	0xbc98fcca	-0.018675227
5	0x3d2123d0	0.039340794
6	0x3c1b3318	0.009472631
7	0xbce34f62	-0.027747814
8	0xbc8e11d1	-0.01734248
9	0x3cbdf554	0.02318827
10	0x3d319c21	0.043361787
11	0x3ce61870	0.028087825
12	0xbc9afc55	-0.01891915
13	0x3d5984b5	0.053105075
14	0x3d681458	0.056660026
15	0xbc7ea6d0	-0.015542701
16	0x3d3fb592	0.04680402
17	0xbd792e27	-0.06083503
18	0x3ceec3d4	0.029146113
19	0xbd69fff5	-0.057128865
20	0x3d456aac	0.048197433
21	0xbd837331	-0.064184554
22	0xbd2bb610	-0.041921675
23	0xbd809128	-0.06277686
24	0x3c9e5740	0.019328713
25	0xbceb6367	-0.028733922
26	0x3d8e7569	0.06955988
27	0x3d44105d	0.047867168
28	0x3d87224d	0.06598339
29	0xbce1fbb4	-0.027585842
30	0xbd407848	-0.04698971
31	0x3d7174a6	0.058949135
32	0x3d8cb7bc	0.06870982
33	0xbd1c6528	-0.038182408
34	0xbd665ce4	-0.05624093
35	0xbd18aacd	-0.037272263
36	0xbd706b23	-0.058695924
37	0x3cecf23d	0.028924102
38	0x3d0256f9	0.031821225
39	0x3d822294	0.063542515
40	0x3d33f290	0.043932498
41	0xbd4231ec	-0.04741089
42	0x3ca6b88a	0.020351667
43	0x3d6ced99	0.05784378
44	0x3bf5b771	0.0074986746
45	0xbc93226b	-0.017960748
46	0xbcd6d644	-0.026225217
47	0xbcd8327f	-0.026391266
48	0x3d5e6e57	0.054304447
49	0xba8c5ac0	-0.0010708198
50	0xbd55f42b	-0.05223481
51	0x3d50ad3a	0.05094645
52	0xbbb12bae	-0.0054068184
53	0xbd7da2ec	-0.061922953
54	0xbc912fcc	-0.017722987
55	0xbbc89740	-0.006121546
56	0xbcc382eb	-0.023866137
57	0xbca32479	-0.019914852
58	0x3c956e38	0.018241033
59	0xbd205682	-0.039145
60	0xbd795248	-0.060869485
61	0xbd72f7d5	-0.059318382
62	0x3d1f6974	0.038918927
63	0x3c0dc5fe	0.008653162
64	0xbc43d151	-0.01195176
65	0x3d1c236a	0.03811971
66	0xbcf8f24c	-0.030388974
67	0xbd47c722	-0.048773892
68	0xbd4ec109	-0.05047706
69	0x3d4b3874	0.049614385
70	0xbd476d0f	-0.04868799
71	0xbcea8d44	-0.028631814
72	0x3d1c520b	0.03816418
73	0x3d0ee612	0.03488738
74	0xbbb6b4e0	-0.005575761
75	0x3c7f9ed0	0.015601829
76	0x3d2428ff	0.04007816
77	0x3d193b99	0.037410352
78	0x3c8c8769	0.017154412
79	0xbcfa72a7	-0.030572249
80	0xbd1f4ed4	-0.038893536
81	0xbd75431d	-0.059878457
82	0xbd27ca36	-0.040964328
83	0xbc743532	-0.014905261
84	0x3a067805	0.00051295786
85	0xbcee1fd4	-0.029067911
86	0xbc75c5f8	-0.015000813
87	0x3d66a07c	0.056305394
88	0xbd1adb52	-0.037806816
89	0x3d2925b1	0.04129571
90	0x3d978cbd	0.073998906
91	0xbd3e90a0	-0.046524644
92	0xbd00d1ae	-0.031449966
93	0x3d90888a	0.07057293
94	0x3d7ab7a2	0.061210282
95	0x38366800	4.348904e-05
96	0xbce61706	-0.02808715
97	0xbc02b850	-0.007978514
98	0x3d80155d	0.06254075
99	0xbcce87ac	-0.025211178
100	0x3d6e7d53	0.058224987
101	0x3d1ae4e9	0.037815962
102	0x3cb7a3af	0.022416918
103	0x3d2312fb	0.039813023
104	0x3cdbeefc	0.026847355
105	0x3d62da3d	0.05538391
106	0x3d20d3d5	0.03926452
107	0x3d75e996	0.060037218
108	0xb9ea1c00	-0.0004465282
109	0x3c72df7a	0.014823789
110	0xbc0b380b	-0.008497248
111	0xbd7d357c	-0.061818585
112	0x3cdb9a9c	0.026807122
113	0xbd762987	-0.060098197
114	0xbc5f5690	-0.013631478
115	0xbd4d29cb	-0.050088685
116	0x3d2dffa0	0.04248011
117	0xbd2d03bb	-0.042239886
118	0xbd152f6e	-0.036422186
119	0xbc9c8330	-0.019105524
120	0x3d73b057	0.059494343
121	0xbd8a967f	-0.06766986
122	0x3d8c91dc	0.06863758
123	0x3d46dba1	0.0485493
124	0xbc46f45e	-0.012143223
125	0xbd4e37c3	-0.050346147
126	0xbce4d73c	-0.027934663
127	0x3c32be9f	0.010909705
128	0x3d1874cf	0.037220772
129	0x3cd0ccac	0.02548822
130	0xbd135fb4	-0.03597994
131	0x3b791d00	0.003801167
132	0x3c5c32b0	0.013439819
133	0x3d2ebfae	0.04266327
134	0xbd289284	-0.041155353
135	0x3d36fcb8	0.044674605
136	0xbd62a3a3	-0.055331837
137	0x3d5fc482	0.054630764
138	0x3d844f1b	0.06460401
139	0x3d58aea7	0.052900936
140	0x3cea9340	0.028634667
141	0xbd250f40	-0.040297747
142	0xbd6716a5	-0.05641808
143	0x3d2fd487	0.04292729
144	0xbb8ea8bb	-0.0043536103
145	0xbc1ef086	-0.0097009
146	0xbd123270	-0.035692632
147	0xbc980361	-0.018556299
148	0xbd3f287e	-0.046669476
149	0x3d96d259	0.073643394
150	0x3d00b88e	0.031426005
151	0xbb95f5e8	-0.0045764334
152	0xbd4c5235	-0.049883086
153	0x3d3587f7	0.04431912
154	0x3d27d049	0.04097012
155	0x3d562d5d	0.052289356
156	0xbd6b5bbc	-0.05746053
157	0x3b715bc0	0.003682837
158	0x3b506600	0.0031799078
159	0x3d26c469	0.040714655
160	0x3d6cbe75	0.05779882
161	0xbd6d5866	-0.05794563
162	0xbc270910	-0.010195032
163	0xbc80e25a	-0.015732933
164	0xbd55dece	-0.052214436
165	0x3d7ff631	0.062490646
166	0x3d83973d	0.06425331
167	0x3cafc1bd	0.021454686
168	0x3d3590e9	0.04432765
169	0xbd68e738	-0.056861132
170	0xbd80b233	-0.06283989
171	0x3d281998	0.041040033
172	0xbc85e457	-0.016344232
173	0xbc9efc7c	-0.019407503
174	0xbc497598	-0.012296103
175	0xbcd3426e	-0.025788512
176	0xbc992d68	-0.01869841
177	0xbcb0c797	-0.021579547
178	0xbc9db7e4	-0.019252725
179	0xbca98c6c	-0.020696841
180	0x3d098496	0.03357371
181	0x3ca8ead0	0.02061978
182	0x3d1fafca	0.038986005
183	0x3d8203b7	0.06348365
184	0xbce0b7cf	-0.027431397
185	0x3d5c46aa	0.053778328
186	0xbd588866	-0.052864455
187	0x3d8f41fc	0.069950074
188	0x3d6b6052	0.057464905
189	0xbc7687fa	-0.015047068
190	0x3cf9a35c	0.030473404
191	0xbcdb0f04	-0.026740558
192	0x3d6008af	0.05469578
193	0xbd30565c	-0.04305111
194	0x3d805ee1	0.06268097
195	0x3d2afd0a	0.041745223
196	0xbd789beb	-0.06069557
197	0xbb9bb6a0	-0.004751995
198	0x3d8c7c01	0.06859589
199	0xbc188da2	-0.009311112
200	0xbc01fe68	-0.00793419
201	0x3d1ceeab	0.03831355
202	0xbd38b2d2	-0.04509241
203	0xbcd70185	-0.026245842
204	0x3d2ea29c	0.042635545
205	0xbd506e24	-0.05088629
206	0xbd3141ed	-0.043275762
207	0xbc8ea720	-0.017413676
208	0x3d87cca9	0.06630833
209	0xbd323215	-0.043504793
210	0xbcb85f8c	-0.022506498
211	0x3d5ce812	0.053932257
212	0x3cfafc68	0.030637935
213	0xbd665470	-0.05623287
214	0x3d971125	0.07376317
215	0xbb4a79a4	-0.0030895257
216	0xbd5def13	-0.054183077
217	0xbc6c4b40	-0.014422238
218	0x3cab2ecb	0.020896336
219	0x3c703618	0.014661334
220	0xbd68e480	-0.05685854
221	0x3d40d28d	0.047075797
222	0x3d23cabb	0.03998826
223	0xbca7f11c	-0.020500712
224	0xbcdbb2e8	-0.026818708
225	0xbd5f66e6	-0.05454149
226	0x3d946271	0.07245339
227	0x3d06c8bf	0.03290629
228	0xbc3c7c48	-0.01150424
229	0x3c82a93f	0.015949843
230	0x3b75d4e0	0.0037510917
231	0xbd36630c	-0.044528052
232	0xbd518f10	-0.051161826
233	0x3d0cd5c3	0.034383547
234	0xbc0650f6	-0.0081980135
235	0x3d9cf0b1	0.07663096
236	0x3d960cff	0.073266976
237	0xbd2a8d1a	-0.04163847
238	0xbd6e4bdf	-0.058177825
239	0x3d214fec	0.03938286
240	0x3d80f4be	0.06296681
241	0x3cff1b54	0.03114096
242	0xbd3bc6bb	-0.04584382
243	0xbcc29d4f	-0.023756651
244	0x3d60d222	0.0548879
245	0x3c9be108	0.019028202
246	0x3c6fe805	0.01464272
247	0x3d6b4b41	0.057444815
248	0xbcb8c9b1	-0.022557111
249	0xbd741e7b	-0.05959938
250	0xbd2e17f0	-0.042503297
251	0x3ccfdfb8	0.025375232
252	0xbd646096	-0.055756174
253	0x3d6b968a	0.057516612
254	0x3c8521bb	0.016251436
255	0x3d3c8269	0.046022806

base.4.bias f4 [3]
0	0xbc9fcd49	-0.019507067
1	0xbd3cf50e	-0.04613214
2	0x3cbbd050	0.02292648

exp_avg f4 [256, 6]
0	0x00000004	6e-45
1	0x00000004	6e-45
2	0x00000000	0.0
3	0x00000000	0.0
4	0x00000000	0.0
5	0x00000000	0.0
6	0xb8f9a914	-0.000119047385
7	0x369badad	4.6395785e-06
8	0x00000000	0.0
9	0x00000000	0.0
10	0x00000000	0.0
11	0x00000000	0.0
12	0xbb5e4edf	-0.0033921523
13	0xba09a2c2	-0.0005250388
14	0x00000000	0.0
15	0x00000000	0.0
16	0x00000000	0.0
17	0x00000000	0.0
18	0x00000000	0.0
19	0x00000000	0.0
20	0x00000000	0.0
21	0x00000000	0.0
22	0x00000000	0.0
23	0x00000000	0.0
24	0xbada7530	-0.0016667005
25	0xb983dd6a	-0.00025151233
26	0x00000000	0.0
27	0x00000000	0.0
28	0x00000000	0.0
29	0x00000000	0.0
30	0xbb238e26	-0.0024956553
31	0xb9cae702	-0.00038700557
32	0x00000000	0.0
33	0x00000000	0.0
34	0x00000000	0.0
35	0x00000000	0.0
36	0x00000000	0.0
37	0x00000000	0.0
38	0x00000000	0.0
39	0x00000000	0.0
40	0x00000000	0.0
41	0x00000000	0.0
42	0xbb94d174	-0.0045415703
43	0xba1cb963	-0.00059785525
44	0x00000000	0.0
45	0x00000000	0.0
46	0x00000000	0.0
47	0x00000000	0.0
48	0xbb21757f	-0.0024636684
49	0xb9c8f49d	-0.00038329224
50	0x00000000	0.0
51	0x00000000	0.0
52	0x00000000	0.0
53	0x00000000	0.0
54	0x00000000	0.0
55	0x00000000	0.0
56	0x00000000	0.0
57	0x00000000	0.0
58	0x00000000	0.0
59	0x00000000	0.0
60	0x00000000	0.0
61	0x00000000	0.0
62	0x00000000	0.0
63	0x00000000	0.0
64	0x00000000	0.0
65	0x00000000	0.0
66	0xbb321af0	-0.00271767
67	0xb9e4a521	-0.0004361058
68	0x00000000	0.0
69	0x00000000	0.0
70	0x00000000	0.0
71	0x00000000	0.0
72	0xbb8eb42e	-0.004354975
73	0xba316c6f	-0.0006768172
74	0x00000000	0.0
75	0x00000000	0.0
76	0x00000000	0.0
77	0x00000000	0.0
78	0x00000000	0.0
79	0x00000000	0.0
80	0x00000000	0.0
81	0x00000000	0.0
82	0x00000000	0.0
83	0x00000000	0.0
84	0x00000000	0.0
85	0x00000000	0.0
86	0x00000000	0.0
87	0x00000000	0.0
88	0x00000000	0.0
89	0x00000000	0.0
90	0xbb017ec3	-0.0019759394
91	0xb99bdc75	-0.00029728157
92	0x00000000	0.0
93	0x00000000	0.0
94	0x00000000	0.0
95	0x00000000	0.0
96	0x00000000	0.0
97	0x00000000	0.0
98	0x00000000	0.0
99	0x00000000	0.0
100	0x00000000	0.0
101	0x00000000	0.0
102	0xbb286335	-0.0025693898
103	0xb9bf64bb	-0.0003650541
104	0x00000000	0.0
105	0x00000000	0.0
106	0x00000000	0.0
107	0x00000000	0.0
108	0x00000000	0.0
109	0x00000000	0.0
110	0x00000000	0.0
111	0x00000000	0.0
112	0x00000000	0.0
113	0x00000000	0.0
114	0xbb32fb23	-0.0027310334
115	0xb9e0abb7	-0.00042852547
116	0x00000000	0.0
117	0x00000000	0.0
118	0x00000000	0.0
119	0x00000000	0.0
120	0xbb2eec44	-0.0026691118
121	0xb9d2fdcd	-0.00040243418
122	0x00000000	0.0
123	0x00000000	0.0
124	0x00000000	0.0
125	0x00000000	0.0
126	0x00000000	0.0
127	0x00000000	0.0
128	0x00000000	0.0
129	0x00000000	0.0
130	0x00000000	0.0
131	0x00000000	0.0
132	0x00000000	0.0
133	0x00000000	0.0
134	0x00000000	0.0
135	0x00000000	0.0
136	0x00000000	0.0
137	0x00000000	0.0
138	0x80000004	-6e-45
139	0x80000004	-6e-45
140	0x00000000	0.0
141	0x00000000	0.0
142	0x00000000	0.0
143	0x00000000	0.0
144	0xbb7796b1	-0.0037779028
145	0xba1b088b	-0.0005914054
146	0x00000000	0.0
147	0x00000000	0.0
148	0x00000000	0.0
149	0x00000000	0.0
150	0x00000000	0.0
151	0x00000000	0.0
152	0x00000000	0.0
153	0x00000000	0.0
154	0x00000000	0.0
155	0x00000000	0.0
156	0xbb9dbf75	-0.004814083
157	0xba447896	-0.00074947753
158	0x00000000	0.0
159	0x00000000	0.0
160	0x00000000	0.0
161	0x00000000	0.0
162	0x00000000	0.0
163	0x00000000	0.0
164	0x00000000	0.0
165	0x00000000	0.0
166	0x00000000	0.0
167	0x00000000	0.0
168	0xbb7dc69b	-0.0038723114
169	0xba1d49dd	-0.0006000081
170	0x00000000	0.0
171	0x00000000	0.0
172	0x00000000	0.0
173	0x00000000	0.0
174	0x00000000	0.0
175	0x00000000	0.0
176	0x00000000	0.0
177	0x00000000	0.0
178	0x00000000	0.0
179	0x00000000	0.0
180	0x00000000	0.0
181	0x00000000	0.0
182	0x00000000	0.0
183	0x00000000	0.0
184	0x00000000	0.0
185	0x00000000	0.0
186	0x00000000	0.0
187	0x00000000	0.0
188	0x00000000	0.0
189	0x00000000	0.0
190	0x00000000	0.0
191	0x00000000	0.0
192	0xba5b4cba	-0.000836562
193	0xb8913ecf	-6.925838e-05
194	0x00000000	0.0
195	0x00000000	0.0
196	0x00000000	0.0
197	0x00000000	0.0
198	0xbb3e6b79	-0.0029055758
199	0xb9eb206f	-0.00044846858
200	0x00000000	0.0
201	0x00000000	0.0
202	0x00000000	0.0
203	0x00000000	0.0
204	0x80000004	-6e-45
205	0x80000004	-6e-45
206	0x00000000	0.0
207	0x00000000	0.0
208	0x00000000	0.0
209	0x00000000	0.0
210	0x3985c0e9	0.00025511466
211	0xb7af1b3d	-2.087431e-05
212	0x00000000	0.0
213	0x00000000	0.0
214	0x00000000	0.0
215	0x00000000	0.0
216	0x00000000	0.0
217	0x00000000	0.0
218	0x00000000	0.0
219	0x00000000	0.0
220	0x00000000	0.0
221	0x00000000	0.0
222	0x00000000	0.0
223	0x00000000	0.0
224	0x00000000	0.0
225	0x00000000	0.0
226	0x00000000	0.0
227	0x00000000	0.0
228	0x00000000	0.0
229	0x00000000	0.0
230	0x00000000	0.0
231	0x00000000	0.0
232	0x00000000	0.0
233	0x00000000	0.0
234	0xbb8dc2a7	-0.004326183
235	0xba2b27f5	-0.00065290864
236	0x00000000	0.0
237	0x00000000	0.0
238	0x00000000	0.0
239	0x00000000	0.0
240	0x00000000	0.0
241	0x00000000	0.0
242	0x00000000	0.0
243	0x00000000	0.0
244	0x00000000	0.0
245	0x00000000	0.0
246	0x00000000	0.0
247	0x00000000	0.0
248	0x00000000	0.0
249	0x00000000	0.0
250	0x00000000	0.0
251	0x00000000	0.0
252	0x00000000	0.0
253	0x00000000	0.0
254	0x00000000	0.0
255	0x00000000	0.0

exp_avg_sq f4 [256, 6]
0	0x30db54ca	1.5958446e-09
1	0x2d04a36c	7.539618e-12
2	0x00000000	0.0
3	0x00000000	0.0
4	0x00000000	0.0
5	0x00000000	0.0
6	0x370a644d	8.248794e-06
7	0x31f1fece	7.042991e-09
8	0x00000000	0.0
9	0x00000000	0.0
10	0x00000000	0.0
11	0x00000000	0.0
12	0x390242d7	0.00012422666
13	0x34a36f46	3.0442078e-07
14	0x00000000	0.0
15	0x00000000	0.0
16	0x00000000	0.0
17	0x00000000	0.0
18	0x00000000	0.0
19	0x00000000	0.0
20	0x00000000	0.0
21	0x00000000	0.0
22	0x00000000	0.0
23	0x00000000	0.0
24	0x37c8bfce	2.3931174e-05
25	0x338bd97d	6.512253e-08
26	0x00000000	0.0
27	0x00000000	0.0
28	0x00000000	0.0
29	0x00000000	0.0
30	0x389cca83	7.4763804e-05
31	0x343c1c9c	1.7519272e-07
32	0x00000000	0.0
33	0x00000000	0.0
34	0x00000000	0.0
35	0x00000000	0.0
36	0x00000000	0.0
37	0x00000000	0.0
38	0x00000000	0.0
39	0x00000000	0.0
40	0x00000000	0.0
41	0x00000000	0.0
42	0x37a264c0	1.935882e-05
43	0x3455ea0e	1.992232e-07
44	0x00000000	0.0
45	0x00000000	0.0
46	0x00000000	0.0
47	0x00000000	0.0
48	0x3894a4cb	7.087885e-05
49	0x3434ba7e	1.6831652e-07
50	0x00000000	0.0
51	0x00000000	0.0
52	0x00000000	0.0
53	0x00000000	0.0
54	0x00000000	0.0
55	0x00000000	0.0
56	0x00000000	0.0
57	0x00000000	0.0
58	0x00000000	0.0
59	0x00000000	0.0
60	0x00000000	0.0
61	0x00000000	0.0
62	0x00000000	0.0
63	0x00000000	0.0
64	0x00000000	0.0
65	0x00000000	0.0
66	0x39031535	0.00012501034
67	0x3482888d	2.431374e-07
68	0x00000000	0.0
69	0x00000000	0.0
70	0x00000000	0.0
71	0x00000000	0.0
72	0x3965c121	0.00021911088
73	0x350a458b	5.1510204e-07
74	0x00000000	0.0
75	0x00000000	0.0
76	0x00000000	0.0
77	0x00000000	0.0
78	0x00000000	0.0
79	0x00000000	0.0
80	0x00000000	0.0
81	0x00000000	0.0
82	0x00000000	0.0
83	0x00000000	0.0
84	0x00000000	0.0
85	0x00000000	0.0
86	0x00000000	0.0
87	0x00000000	0.0
88	0x00000000	0.0
89	0x00000000	0.0
90	0x3800a914	3.0675044e-05
91	0x33c253bc	9.04906e-08
92	0x00000000	0.0
93	0x00000000	0.0
94	0x00000000	0.0
95	0x00000000	0.0
96	0x00000000	0.0
97	0x00000000	0.0
98	0x00000000	0.0
99	0x00000000	0.0
100	0x00000000	0.0
101	0x00000000	0.0
102	0x38444706	4.6796187e-05
103	0x34236d24	1.5220263e-07
104	0x00000000	0.0
105	0x00000000	0.0
106	0x00000000	0.0
107	0x00000000	0.0
108	0x00000000	0.0
109	0x00000000	0.0
110	0x00000000	0.0
111	0x00000000	0.0
112	0x00000000	0.0
113	0x00000000	0.0
114	0x38d2eedc	0.00010058071
115	0x3466b033	2.148452e-07
116	0x00000000	0.0
117	0x00000000	0.0
118	0x00000000	0.0
119	0x00000000	0.0
120	0x3872e59d	5.791114e-05
121	0x34347dd4	1.6809582e-07
122	0x00000000	0.0
123	0x00000000	0.0
124	0x00000000	0.0
125	0x00000000	0.0
126	0x00000000	0.0
127	0x00000000	0.0
128	0x00000000	0.0
129	0x00000000	0.0
130	0x00000000	0.0
131	0x00000000	0.0
132	0x00000000	0.0
133	0x00000000	0.0
134	0x00000000	0.0
135	0x00000000	0.0
136	0x00000000	0.0
137	0x00000000	0.0
138	0x041ead3a	1.8652352e-36
139	0x001b7715	2.522277e-39
140	0x00000000	0.0
141	0x00000000	0.0
142	0x00000000	0.0
143	0x00000000	0.0
144	0x39472db3	0.00018995143
145	0x34da5d30	4.0673467e-07
146	0x00000000	0.0
147	0x00000000	0.0
148	0x00000000	0.0
149	0x00000000	0.0
150	0x00000000	0.0
151	0x00000000	0.0
152	0x00000000	0.0
153	0x00000000	0.0
154	0x00000000	0.0
155	0x00000000	0.0
156	0x3992d6f4	0.00028007443
157	0x352eadbb	6.507286e-07
158	0x00000000	0.0
159	0x00000000	0.0
160	0x00000000	0.0
161	0x00000000	0.0
162	0x00000000	0.0
163	0x00000000	0.0
164	0x00000000	0.0
165	0x00000000	0.0
166	0x00000000	0.0
167	0x00000000	0.0
168	0x392dfdae	0.00016593069
169	0x34d8a40e	4.03525e-07
170	0x00000000	0.0
171	0x00000000	0.0
172	0x00000000	0.0
173	0x00000000	0.0
174	0x00000000	0.0
175	0x00000000	0.0
176	0x00000000	0.0
177	0x00000000	0.0
178	0x00000000	0.0
179	0x00000000	0.0
180	0x00000000	0.0
181	0x00000000	0.0
182	0x00000000	0.0
183	0x00000000	0.0
184	0x00000000	0.0
185	0x00000000	0.0
186	0x00000000	0.0
187	0x00000000	0.0
188	0x00000000	0.0
189	0x00000000	0.0
190	0x00000000	0.0
191	0x00000000	0.0
192	0x34b05011	3.284081e-07
193	0x30a62672	1.2089016e-09
194	0x00000000	0.0
195	0x00000000	0.0
196	0x00000000	0.0
197	0x00000000	0.0
198	0x38b7ddf1	8.76746e-05
199	0x347132c6	2.2463345e-07
200	0x00000000	0.0
201	0x00000000	0.0
202	0x00000000	0.0
203	0x00000000	0.0
204	0x26dc58ae	1.5289603e-15
205	0x20177442	1.2828664e-19
206	0x00000000	0.0
207	0x00000000	0.0
208	0x00000000	0.0
209	0x00000000	0.0
210	0x37b328ae	2.1357406e-05
211	0x334a8a85	4.7157773e-08
212	0x00000000	0.0
213	0x00000000	0.0
214	0x00000000	0.0
215	0x00000000	0.0
216	0x00000000	0.0
217	0x00000000	0.0
218	0x00000000	0.0
219	0x00000000	0.0
220	0x00000000	0.0
221	0x00000000	0.0
222	0x00000000	0.0
223	0x00000000	0.0
224	0x00000000	0.0
225	0x00000000	0.0
226	0x00000000	0.0
227	0x00000000	0.0
228	0x00000000	0.0
229	0x00000000	0.0
230	0x00000000	0.0
231	0x00000000	0.0
232	0x00000000	0.0
233	0x00000000	0.0
234	0x394c0f2e	0.00019460611
235	0x3506a93b	5.016515e-07
236	0x00000000	0.0
237	0x00000000	0.0
238	0x00000000	0.0
239	0x00000000	0.0
240	0x00000000	0.0
241	0x00000000	0.0
242	0x00000000	0.0
243	0x00000000	0.0
244	0x00000000	0.0
245	0x00000000	0.0
246	0x00000000	0.0
247	0x00000000	0.0
248	0x00000000	0.0
249	0x00000000	0.0
250	0x00000000	0.0
251	0x00000000	0.0
252	0x00000000	0.0
253	0x00000000	0.0
254	0x00000000	0.0
255	0x00000000	0.0
