assets/section_1/actor_critic/mountain_car/models/mountaincar_exp/episode_best/critic.pth (torch, 820786 bytes, 15 tensors)

net.0.weight f4 [256, 6]
-0.0853886 -0.09023993 0.3122739 -0.3281735 0.28652373 0.1479569 -0.31411523 -0.07446915
-0.025998928 -0.10901333 -0.24589552 0.34871715 0.39100108 -0.010070563 -0.14850834 0.21687146
0.11425452 0.29374233 -0.1764333 0.15168887 -0.2789618 -0.24964964 -0.16557863 -0.19801576
0.1243892 0.24661653 -0.11159438 -0.10514026 0.036900673 0.39264357 -0.24961443 0.36430994
-0.033452474 0.3963383 -0.33392558 -0.27496076 -0.023312412 -0.12981482 -0.3606421 0.33616072
-0.289693 0.24363172 0.3001785 0.035607055 -0.3481471 -0.09233325 -0.3627522 -0.398707
-0.23928744 -0.18730907 0.36756274 -0.11390937 0.063035674 -0.25211233 -0.19499789 0.2975751
0.18646622 -0.13220806 0.21926557 0.031839017 0.1343562 0.15267435 -0.029125977 0.24528149
0.24275139 0.39986843 0.26419368 0.42110062 0.22708572 -0.13418452 -0.25162935 -0.25324345
-0.08614315 -0.38371363 -0.2542441 0.02287076 0.15438703 0.36255997 0.25608486 -0.016478727
-0.3398643 0.24440937 -0.17779249 -0.12913781 -0.14540744 -0.08149887 0.09084993 -0.14316252
-0.01697821 -0.038108103 -0.023368068 -0.018793553 0.0880636 0.06318786 -0.36342654 -0.20833838
0.3509181 0.033515994 0.26046908 0.033037245 -0.31722367 -0.30198368 0.11423628 0.29889354
-0.06868241 0.1950302 0.15093906 0.34390292 -0.066815235 -0.08192744 0.0239262 -0.014980916
0.2631609 -0.35848513 0.33935237 0.14712778 -0.12143757 0.13156547 0.00037147515 -0.30586368
0.29807234 0.31023943 -0.18617892 0.3704211 -0.05066487 -0.108990066 0.1270577 0.3261191
0.3085228 0.3950165 -0.26630062 0.1301422 -0.4100959 0.07215292 0.014227503 0.3084912
0.16575316 0.33227256 -0.005453039 -0.098355696 0.03422837 0.3886689 -0.35873967 0.016876739
0.03388463 -0.28827924 0.05139346 -0.28254497 0.08967414 -0.20085193 -0.29253146 0.39074743
0.29229814 -0.060537063 -0.39823964 0.014786103 0.33399636 -0.3636231 -0.2010081 0.10252553
-0.05155455 0.21724527 0.04718872 -0.14170507 0.13235961 0.4041656 -0.27572843 0.09861864
-0.05007296 0.23109783 -0.32089588 -0.2737928 -0.27437297 0.38844925 -0.22629912 0.320487
0.0059660864 0.004330827 -0.2728147 0.27830738 -0.17601249 -0.38877955 -0.1517846 0.106805354
0.18242918 -0.021752296 0.04526997 -0.22840503 0.08664603 -0.2684466 0.18709591 -0.048958894
-0.2255344 0.377945 0.17366683 -0.37247622 -0.0013208708 -0.28492668 -0.22011666 0.19794714
0.11967018 -0.310594 -0.008464844 0.083614126 -0.012297235 -0.09421431 0.085764475 -0.01747067
-0.11247842 0.24062999 -0.24580573 -0.19575815 -0.04785503 -0.322724 0.23540092 0.056394726
0.12999052 -0.37452114 0.069887355 -0.26386324 0.34872362 0.11121201 -0.27322802 0.09074301
0.3512432 0.18322542 0.31293955 0.25580382 -0.10669177 -0.083892025 0.17795548 0.03479792
-0.22034073 0.184349 0.10124355 0.02999079 0.2686175 -0.08837882 0.18137209 0.39485008
-0.2975073 -0.12952483 0.22228439 -0.33301473 -0.31109166 0.30100417 -0.05114948 -0.09974518
-0.18409705 0.40418363 0.37053144 0.060079742 0.053314444 -0.12098609 -0.016547458 -0.15884584
00000000: 38e0 aebd b6cf b8bd 5de2 9f3e 5b06 a8be
00000010: 3db3 923e 0382 173e b6d3 a0be 4883 98bd
00000020: b4fb d4bc 6142 dfbd 09cc 7bbe 0e8b b23e
00000030: 4b31 c83e 01ff 24bc 9212 18be 8d13 5e3e
00000040: 46fe e93d 6565 963e eeaa 34be 5454 1b3e
00000050: 15d4 8ebe 28a4 7fbe 728d 29be a5c4 4abe
00000060: c4bf fe3d 0b89 7c3e 988b e4bd c753 d7bd
00000070: 2925 173d 9408 c93e ed9a 7fbe d586 ba3e
00000080: 7605 09bd dbec ca3e 4bf8 aabe a8c7 8cbe
00000090: acf9 bebc 2dee 04be 15a6 b8be 421d ac3e
000000a0: a452 94be 987a 793e ffb0 993e b4d8 113d
000000b0: 5640 b2be 3719 bdbd a8ba b9be 5323 ccbe
000000c0: c407 75be f3cd 3fbe 2f31 bc3e 5149 e9bd
000000d0: d918 813d de14 81be 87ad 47be c35b 983e
000000e0: 00f1 3e3e 8d61 07be 2787 603e a169 023d
000000f0: ac94 093e aa56 1c3e 9a99 eebc 122b 7b3e
00000100: d293 783e 8ebb cc3e 6544 873e 809a d73e
00000110: 2989 683e ab67 09be 90d5 80be 20a9 81be
00000120: d26b b0bd 1d76 c4be 482c 82be 765b bb3c
00000130: a217 1e3e 76a1 b93e 8e1d 833e 65fe 86bc
00000140: b202 aebe 7346 7a3e 3c0f 36be b43c 04be
00000150: b0e5 14be e1e8 a6bd 870f ba3d 3299 12be
00000160: e315 8bbc 3e17 1cbd 646e bfbc f0f4 99bc
00000170: b05a b43d a368 813d 0b13 babe a856 55be
00000180: 8aab b33e 1148 093d 345c 853e 1052 073d
00000190: 246b a2be 9b9d 9abe b6f4 e93d 9308 993e
000001a0: 5da9 8cbd ffb5 473e c58f 1a3e 0b14 b03e
000001b0: 6dd6 88bd 93c9 a7bd e100 c43c 8472 75bc
000001c0: 07bd 863e 5d8b b7be 98bf ad3e aaa8 163e
000001d0: 43b4 f8bd 19b9 063e 8dc2 c239 2a9a 9cbe
000001e0: f09c 983e b4d7 9e3e b0a5 3ebe d6a7 bd3e
000001f0: f785 4fbd 2f36 dfbd 6a1b 023e 15f9 a63e
00000200: b3f6 9d3e 9a3f ca3e 8e58 88be ff43 053e
00000210: 17f8 d1be e9c4 933d 791a 693c 8ff2 9d3e
00000220: 32bb 293e a11f aa3e 68af b2bb b66e c9bd
00000230: 0c33 0c3d 9cff c63e baac b7be 1641 8a3c
00000240: 9cca 0a3d 5699 93be f381 523d bca9 90be
00000250: 13a7 b73d 21ac 4dbe afc6 95be 0c10 c83e
00000260: 1aa8 953e b6f5 77bd 11e6 cbbe 6941 723c
00000270: 9201 ab3e cf2c babe 11d5 4dbe e8f8 d13d
00000280: dd2a 53bd 8b75 5e3e f648 413d 221b 11be
00000290: 4789 073e cbee ce3e 472c 8dbe 92f8 c93d
000002a0: 4e19 4dbd e9a4 6c3e 774c a4be 922e 8cbe
000002b0: 9d7a 8cbe d2e2 c63e f5ba 67be df16 a43e
000002c0: 297f c33b 9ce9 8d3b 5eae 8bbe 4e7e 8e3e
000002d0: 9e3c 34be 1d0e c7be 6c6d 1bbe c4bc da3d
000002e0: b7ce 3a3e df31 b2bc 016d 393d 02e3 69be
000002f0: 7973 b13d d571 89be 1296 3f3e 1f89 48bd
00000300: 7df2 66be 0282 c13e b8d5 313e 34b5 bebe
00000310: 1221 adba e9e1 91be 4366 61be a8b2 4a3e
00000320: a415 f53d 2d06 9fbe 21b0 0abc e23d ab3d
00000330: 587a 49bc 6ff3 c0bd 49a5 af3d a71e 8fbc
00000340: 165b e6bd b567 763e 7fb4 7bbe d374 48be
00000350: a303 44bd 153c a5be f00c 713e 28fe 663d
00000360: 3c1c 053e 3cc1 bfbe 1a21 8f3d 1519 87be
00000370: e78b b23e 1fc3 e33d 8be4 8bbe 79d7 b93d
00000380: 26d6 b33e 729f 3b3e 9d39 a03e b8f8 823e
00000390: 3781 dabd 95cf abbd f639 363e 4488 0e3d
000003a0: 00a1 61be fcc5 3c3e c758 cf3d 3faf f53c
000003b0: 3c88 893e f4ff b4bd 9bb9 393e ca29 ca3e
000003c0: e052 98be 28a2 04be 859e 633e e880 aabe
000003d0: 6847 9fbe 381d 9a3e 1e82 51bd 3347 ccbd
000003e0: f083 3cbe 28f1 ce3e 4cb6 bd3e 2d16 763d
000003f0: 3f60 5a3d 8ec7 f7bd 898e 87bc 7ca8 22be

net.0.bias f4 [256]
0.3166928 -0.1901043 -0.38849244 0.36925384 0.12015514 0.11300718 -0.3076374 0.2062987
0.23328334 0.35463297 0.08518059 0.30336624 0.37904233 0.33621576 0.30666187 0.1701372
0.42393088 -0.05024948 0.38102826 0.023524487 0.279847 0.18519323 -0.36464292 -0.39251533
0.12991795 0.23705472 -0.14659382 0.20967439 0.4096632 0.29453477 0.10908333 0.34611082
-0.14542204 -0.13024989 0.017761163 -0.31046912 0.2673048 -0.17199817 0.22289875 -0.2284227
0.061566196 0.22953969 -0.27774972 0.16003166 -0.26583612 -0.18479504 0.23139791 -0.28677997
-0.33194432 0.14461206 -0.0980415 -0.13533606 -0.32502547 0.32495975 0.24265683 -0.19213109
0.020030564 0.14946991 -0.29710853 0.019457571 0.15418491 -0.31399992 -0.231886 -0.3867072
-0.108370766 -0.305687 0.04502084 -0.29823443 0.40535432 0.18791619 0.31541127 0.065585464
-0.269808 -0.3202998 0.40811548 0.112263255 -0.35235956 -0.39884856 -0.21078914 0.25447837
0.14103177 -0.36654556 0.16310747 0.29567608 0.28780144 0.03671153 -0.39700505 -0.39204386
-0.36482036 0.12066102 0.21615489 -0.015803166 0.32813218 -0.075492896 -0.020165656 0.3066675
0.42802337 -0.12497472 -0.12120855 0.31842476 0.18024807 -0.398575 0.25627145 -0.26625958
0.2509983 0.014558011 0.038737662 0.22236691 0.1984548 0.086273566 -0.2730867 0.0922543
0.26692975 -0.10344524 -0.29227653 -0.28063232 0.09025332 0.046640642 -0.30320898 0.158473
-0.40145123 0.050084732 0.2746731 0.16537859 -0.027023012 0.17203124 0.25920013 -0.068104684
-0.36069486 -0.25729215 -0.15010172 -0.39975446 0.18029837 0.12413832 0.34341726 -0.30770776
-0.16583228 0.2862095 0.083154 -0.17189659 0.31690112 -0.1543459 0.26727062 -0.23857056
0.2326993 0.028808326 -0.17031465 0.05811745 -0.002267324 -0.4009238 0.124852255 0.3686026
-0.30328056 0.17823155 -0.07806098 0.39874014 -0.044642042 0.027463105 -0.04233645 0.36027583
0.23728007 -0.39539468 -0.1016574 -0.2737973 0.35503128 0.27330786 0.33965814 0.16043992
-0.31566107 0.40811193 -0.014906562 0.2249801 -0.13152507 -0.33344752 0.07072901 0.18430741
0.23128146 -0.031614807 0.28155512 0.33401552 -0.34343335 -0.1818684 0.005665087 -0.16315144
0.18438756 0.279361 0.14709884 -0.042946406 0.29907954 0.13510683 -0.10143763 0.1261043
-0.17759056 -0.022550242 0.29938912 0.09816066 0.23016667 -0.07704121 0.09174219 -0.22646415
0.060624797 0.19357504 -0.03474892 -0.25467888 -0.3808794 -0.08970863 0.18263224 0.22964281
0.34694493 0.34981707 -0.23047562 -0.28912598 0.24896441 0.41952467 -0.39083856 -0.16338702
0.03534765 -0.3974921 -0.0010515791 -0.292412 0.012123424 -0.23246175 0.03196303 0.000499679
0.18600658 0.3894028 0.012963528 0.21694204 0.20163482 -0.014896617 0.23439404 0.009428464
-0.266505 0.17719977 0.17143214 -0.3744131 0.29480857 -0.32999542 -0.2505492 -0.30207086
0.29268047 0.29904923 0.19174033 0.16120951 -0.17724523 0.26427966 0.2232623 0.40046495
0.38126013 0.2627038 0.19585559 -0.19723631 0.1339877 -0.32168466 0.38395795 0.31361237
00000000: 8f25 a23e b4aa 42be 7be8 c6be d70e bd3e
00000010: e613 f63d 4f70 e73d a682 9dbe f73f 533e
00000020: d4e1 6e3e 7492 b53e 2973 ae3d d252 9b3e
00000030: d611 c23e 7924 ac3e c902 9d3e 7238 2e3e
00000040: 780d d93e 66d2 4dbd 2316 c33e 6db6 c03c
00000050: 1b48 8f3e 4ba3 3d3e 7ab2 babe c5f7 c8be
00000060: 3609 053e 79be 723e b11c 16be e2b4 563e
00000070: 60bf d13e 43cd 963e 1567 df3d 7035 b13e
00000080: 84e9 14be 3a60 05be dc7f 913c cff5 9ebe
00000090: 2ddc 883e 4a20 30be 923f 643e a4e7 69be
000000a0: d62c 7c3d 740c 6b3e 3635 8ebe 57df 233e
000000b0: ac1b 88be e93a 3dbe 93f3 6c3e d3d4 92be
000000c0: 9bf4 a9be 2f15 143e fbc9 c8bd 8995 0abe
000000d0: bd69 a6be 2061 a63e 087b 783e 03be 44be
000000e0: 2317 a43c a40e 193e 9c1e 98be 7c65 9f3c
000000f0: a6e2 1d3e 99c4 a0be 8673 6dbe 7cfe c5be
00000100: 7ef1 ddbd 0283 9cbe c667 383d 2fb2 98be
00000110: 9a8a cf3e 1a6d 403e 967d a13e ac51 863d
00000120: 4624 8abe 56fe a3be 83f4 d03e 47ea e53d
00000130: 7968 b4be e135 ccbe 1cd9 57be fd4a 823e
00000140: a26a 103e dcab bbbe a505 273e db62 973e
00000150: b65a 933e d45e 163d 3f44 cbbe f9b9 c8be
00000160: bcc9 babe 201d f73d b557 5d3e a475 81bc
00000170: f100 a83e 059c 9abd 7232 a5bc 8603 9d3e
00000180: e125 db3e bff2 ffbd 303c f8bd 9208 a33e
00000190: f392 383e 0612 ccbe 0336 833e 2d53 88be
000001a0: d982 803e b984 6e3c 62ab 1e3d 27b4 633e
000001b0: bc37 4b3e 32b0 b03d 05d2 8bbe d3ef bc3d
000001c0: 04ab 883e 19db d3bd 45a5 95be 0aaf 8fbe
000001d0: bcd6 b83d 420a 3f3d 353e 9bbe bf46 223e
000001e0: 048b cdbe a625 4d3d f4a1 8c3e 0159 293e
000001f0: 5d5f ddbc f528 303e e1b5 843e 787a 8bbd
00000200: ffac b8be ccbb 83be 44b4 19be 9eac ccbe
00000210: 23a0 383e 3b3c fe3d 63d4 af3e df8b 9dbe
00000220: f0cf 29be 0d8a 923e a54c aa3d a905 30be
00000230: dd40 a23e da0c 1ebe b2d7 883e d74b 74be
00000240: ba48 6e3e 70ff eb3c f766 2ebe 900c 6e3d
00000250: 6297 14bb e245 cdbe 8ab2 ff3d 7bb9 bc3e
00000260: 9747 9bbe 5582 363e 6fde 9fbd ab27 cc3e
00000270: 93da 36bd 4efa e03c fc68 2dbd 1376 b83e
00000280: 8cf9 723e 2c71 cabe c131 d0bd 292f 8cbe
00000290: a9c6 b53e 02ef 8b3e ace7 ad3e 5d4a 243e
000002a0: 549e a1be 0cf4 d03e a73a 74bc 2f61 663e
000002b0: 82ae 06be a2b9 aabe 5fda 903d 15bb 3c3e
000002c0: 0cd5 6c3e 877e 01bd fe27 903e 1504 ab3e
000002d0: 7fd6 afbe b63b 3abe 32a2 b93b 2c11 27be
000002e0: 18d0 3c3e 6808 8f3e 14a1 163e 92e8 2fbd
000002f0: f420 993e 7259 0a3e 88be cfbd 7c21 013e
00000300: 4dda 35be 49bb b8bc 8849 993e 7508 c93d
00000310: d0b0 6b3e c8c7 9dbd 54e3 bb3d 38e6 67be
00000320: b551 783d 8938 463e e254 0ebd 4565 82be
00000330: a002 c3be 29b9 b7bd f203 3b3e 7c27 6b3e
00000340: c4a2 b13e 391b b33e cd01 6cbe 5208 94be
00000350: 87f0 7e3e f0cb d63e fe1b c8be ed4e 27be
00000360: b3c8 103d 1684 cbbe 24d5 89ba 07b7 95be
00000370: 53a1 463c 740a 6ebe abeb 023d e4fc 023a
00000380: 8278 3e3e ce5f c73e fa64 543c 0e26 5e3e
00000390: 5c79 4e3e f110 74bc fe04 703e d879 1a3c
000003a0: 5873 88be db73 353e e88b 2f3e 13b3 bfbe
000003b0: 26f1 963e 29f5 a8be fc47 80be 08a9 9abe
000003c0: 37da 953e fb1c 993e 9457 443e 1b14 253e
000003d0: c67f 35be aa4f 873e df9e 643e be09 cd3e
000003e0: 8734 c33e 1d81 863e 5e8e 483e 51f8 49be
000003f0: 1234 093e dab3 a4be 2396 c43e cd91 a03e

net.2.weight f4 [256, 256]
-0.014784537 0.039886773 0.041827843 0.051147297 0.0038306415 -0.053019904 -0.01723595 0.0014864206
0.050454497 -0.03725964 -0.0077536106 -0.015576057 -0.024804324 -0.059476197 -0.04799732 -0.054940432
0.053004205 -0.033977687 0.0029870197 0.0049082264 0.052520208 -0.03335628 0.056841776 0.03323195
0.008875318 0.046838515 -0.031884782 0.047907054 -0.0021789595 0.019159593 -0.02742064 -0.03199616
-0.060470313 0.008821979 -0.05314284 0.03853654 0.0055509806 -0.056678653 0.037461206 0.047004506
-0.04623785 0.014344305 0.026130386 0.059582353 0.008254766 -0.019222789 0.030056097 0.056430735
-0.03456717 0.062060103 0.0018307492 0.054641597 -0.02409906 -0.038886458 -0.023845084 -0.055252925
0.05586335 0.036297992 0.023742698 0.030740581 0.025221296 -0.022764906 0.04092055 0.016968966
0.027794704 -0.02125343 -0.047132447 -0.03113553 0.02340886 0.06161426 0.04664328 -0.027731784
0.052268595 0.03284923 -0.055157483 0.010527886 -0.042937577 0.035138562 -0.025430858 0.025529586
0.0018626675 -0.049976245 0.05479046 0.049186267 -0.008185595 0.048627347 -0.040454797 0.059866898
-0.051221408 -0.001853779 0.03421732 0.0101895705 -0.009125195 0.05886364 -0.009148948 -0.034464844
0.023215152 -0.051487103 0.032760195 -0.029293127 -0.031116016 0.041800015 0.02658362 0.0063861012
0.047190018 -0.052843295 0.0052543357 -0.040332146 -0.002321139 0.039286554 -0.030294396 -0.04976909
-0.006314181 0.018664017 -0.036388926 0.010205314 0.034872793 -0.003343761 -0.039373964 -0.042438403
-0.047561027 -0.04635348 -0.03210353 0.037009552 -0.030482687 -0.042781867 0.031221606 0.033799358
-0.027428977 0.05892992 -0.050963916 -0.008404821 0.0048309937 -0.0619869 0.014818355 -0.03458818
-0.0004502535 0.006356247 0.0154209435 0.043928035 0.046961486 0.034831062 -0.057852603 -0.03815943
-0.005002849 0.051327415 0.00024294108 -0.015793063 0.024426728 -0.008984223 -0.0059793666 -0.01336886
0.028437749 0.012600288 0.040023185 0.013345055 0.031603403 -0.054226197 0.0060565844 0.058046103
-0.0011040121 -0.0022310093 0.01604066 -0.047374755 -0.04107552 -0.0021762475 -0.03140241 -0.015146576
0.0030011758 -0.04593341 -0.061984487 -0.04933255 -0.04804477 0.017914243 0.0235942 0.033073023
0.057092994 -0.06012728 0.020775072 -0.009604827 0.053748585 -0.031120084 -0.0069150478 0.031677097
0.024994813 0.019874327 -0.01475814 -0.005178623 -0.026590757 0.016143955 -0.022084936 0.00046548992
0.009414673 0.02987139 -0.027959302 0.056193955 0.02064313 -0.04369151 0.009169728 0.028305352
-0.041702673 0.0018400028 0.043324612 -0.016217314 -0.04621151 -0.05812867 0.017508231 0.0051752105
-0.035081938 -0.026419528 0.055935882 0.005172029 0.02641289 -0.005413465 0.059102133 0.027462333
-0.038184397 0.0028022826 -0.04908213 0.048563458 -0.037797727 -0.013637483 -0.0010823011 0.05663228
0.011105217 -0.035945192 -0.021117106 -0.026836894 -0.030641623 0.046476252 0.03194298 -0.012674674
-0.031062454 -0.018577807 0.05204002 0.01460173 0.047624134 -0.037032977 0.028200634 0.006967768
0.036627732 0.058841802 -0.061418325 -0.018286735 -0.03356286 0.012096435 -0.03623867 0.002191849
-0.0279807 -0.005131811 -0.057441004 0.049342953 -0.043333054 0.016680956 -0.026415668 0.046252266
00000000: d83a 72bc 5060 233d ac53 2b3d d47f 513d
00000010: 800b 7b3b 662b 59bd 6832 8dbc 00d4 c23a
00000020: 60a9 4e3d 909d 18bd 0012 febb b832 7fbc
00000030: 7032 cbbc 509d 73bd d698 44bd 3809 61bd
00000040: f01a 593d 302c 0bbd e0c1 433b 30d5 a03b
00000050: 6e1f 573d 98a0 08bd ecd2 683d 3a1e 083d
00000060: c869 113c bed9 3f3d 9e99 02bd 303a 443d
00000070: e0cc 0ebb 94f4 9c3c 40a1 e0bc 680e 03bd
00000080: b8af 77bd 108a 103c 4eac 59bd 7ed8 1d3d
00000090: 00e5 b53b e027 68bd ec70 193d cc87 403d
000000a0: e663 3dbd 6004 6b3c 640f d63c a00c 743d
000000b0: 003f 073c 1c79 9dbc 3438 f63c ea23 673d
000000c0: 4e96 0dbd bc32 7e3d c0f5 ef3a decf 5f3d
000000d0: 646b c5bc 6847 1fbd c456 c3bc e450 62bd
000000e0: f8d0 643d 34ad 143d 0c80 c23c acd3 fb3c
000000f0: e49c ce3c 787d babc 4e9c 273d 8002 8b3c
00000100: b8b1 e33c ac1b aebc f40d 41bd f00f ffbc
00000110: f0c3 bf3c 3c5f 7c3d 060d 3f3d c42d e3bc
00000120: 9817 563d ea8c 063d d0ec 61bd 287d 2c3c
00000130: 50df 2fbd 74ed 0f3d 6054 d0bc 6c23 d13c
00000140: c024 f43a e4b3 4cbd f66b 603d 8a77 493d
00000150: e01c 06bc 782d 473d eeb3 25bd fe36 753d
00000160: 8acd 51bd 80fa f2ba 7627 0c3d 28f2 263c
00000170: d881 15bc 001b 713d 78e5 15bc 022b 0dbd
00000180: b42d be3c 24e4 52bd 8e2f 063d 24f8 efbc
00000190: 04e7 febc 7e36 2b3d e4c5 d93c 8042 d13b
000001a0: 524a 413d 3672 58bd 902c ac3b 5233 25bd
000001b0: 401e 18bb f0ea 203d f42b f8bc acda 4bbd
000001c0: 30e7 cebb 48e5 983c 8e0c 15bd 3034 273c
000001d0: c6d6 0e3d 0023 5bbb 9846 21bd e4d3 2dbd
000001e0: 5acf 42bd 26dd 3dbd fe7e 03bd 5497 173d
000001f0: d4b6 f9bc 0a3c 2fbd 74c4 ff3c 3271 0a3d
00000200: bcb2 e0bc 8060 713d 8abf 50bd 60b4 09bc
00000210: 504d 9e3b fae5 7dbd b0c8 723c 56ac 0dbd
00000220: 0010 ecb9 1048 d03b 20a8 7c3c e2ed 333d
00000230: b05a 403d 04ab 0e3d daf6 6cbd 104d 1cbd
00000240: f0ee a3bb b23c 523d 00be 7e39 7460 81bc
00000250: 901a c83c 9032 13bc 90ee c3bb 1009 5bbc
00000260: 48f6 e83c 7071 4e3c 5aef 233d 38a5 5a3c
00000270: 9272 013d 4a1c 5ebd 5076 c63b c0c1 6d3d
00000280: 80b4 90ba 2036 12bb b467 833c 080c 42bd
00000290: ce3e 28bd 609f 0ebb d09f 00bd 5829 78bc
000002a0: 60af 443b ac24 3cbd 72e3 7dbd ee10 4abd
000002b0: 98ca 44bd e4c0 923c a048 c13c 9477 073d
000002c0: 58da 693d 0648 76bd 7c30 aa3c 905d 1dbc
000002d0: 7a27 5c3d 8cef febc a097 e2bb d8bf 013d
000002e0: ecc1 cc3c 7ccf a23c 20cc 71bc 70b1 a9bb
000002f0: dcd4 d9bc 5440 843c 78eb b4bc 000d f439
00000300: 0040 1a3c d8b4 f43c e80a e5bc a22b 663d
00000310: c81b a93c def5 32bd a03c 163c a0e0 e73c
00000320: 6cd0 2abd 402c f13a 2675 313d 2cda 84bc
00000330: 4848 3dbd 5418 6ebd 6c6d 8f3c d094 a93b
00000340: 14b2 0fbd c46d d8bc 061d 653d 207a a93b
00000350: d85f d83c 7063 b1bb 1415 723d b0f8 e03c
00000360: 3e67 1cbd 80a6 373b 580a 49bd 7aea 463d
00000370: cad1 1abd c06f 5fbc 00dc 8dba 40f7 673d
00000380: a8f2 353c 443b 13bd c8fd acbc 0cd9 dbbc
00000390: 2404 fbbc e25d 3e3d a4d6 023d 70a9 4fbc
000003a0: b076 febc 7c30 98bc ea27 553d 183c 6f3c
000003b0: 8611 433d e4af 17bd 0405 e73c e051 e43b
000003c0: f606 163d 1a04 713d c891 7bbd 10ce 95bc
000003d0: 3679 09bd 2030 463c 006f 14bd 20a5 0f3b
000003e0: c837 e5bc c028 a8bb 4247 6bbd d61b 4a3d
000003f0: 007e 31bd 80a6 883c ac65 d8bc 0473 3d3d

net.2.bias f4 [256]
-0.03540302 0.0027203788 -0.017273135 0.04444803 -0.03934616 -0.05428137 0.01863572 0.068000026
-0.0042753792 -0.031252664 -0.0066168183 0.0044112727 0.004173486 0.016057797 0.01484273 -0.023832485
-0.044317584 0.02668626 0.056099035 0.027844876 -0.044432625 -0.026948899 0.012821794 0.043059368
-0.034003202 -0.039009273 -0.058790915 -0.032362863 0.0014848858 -0.014184736 -0.017835543 0.046266824
0.054762714 -0.039896302 -0.02283004 -0.001060158 0.0050596297 0.01122631 0.03982517 0.049589742
-0.009577423 0.057060804 0.010435003 0.07256772 -0.059403397 0.058025487 -0.0012670028 -0.0020033494
-0.024566159 -0.029239066 0.02307292 0.022038972 0.023033446 -0.03678599 -0.043794036 0.014827959
-0.017589284 0.033868182 -0.04581543 -0.017043715 0.004829558 0.044995934 -0.051062696 -0.013561346
-0.060500443 0.048202112 -0.015542828 0.0024038553 0.0019758928 0.01123786 0.070152275 -0.046121847
-0.0066717714 0.03637125 -0.009505347 -0.031532537 0.013415605 0.00805824 -0.047148608 -0.04192205
0.029802935 0.072465755 -0.050959006 -0.06889723 0.07164842 -0.04044802 0.006679421 0.048027407
0.028726045 -0.03516167 -0.020504711 -0.03988277 -0.016140176 0.011178852 0.042271927 -0.015955506
-0.02724179 0.06693322 0.064390644 0.044947732 -0.048841245 0.060015257 -0.0286712 0.042836353
-0.040951587 -0.00010324613 0.051805474 -0.059619624 0.031400166 0.017186671 -0.007558586 -0.019154008
0.044576854 0.030678341 0.059100427 -0.0010341256 0.020740863 0.0015889623 -0.036857992 0.007612067
-0.05594753 0.0406608 0.021007363 0.01157009 -0.03754837 0.069066174 -0.025578745 -0.044587545
-0.056387447 -0.0047555417 -0.0263846 0.06629805 -0.03327872 -0.037070677 -0.03217034 0.029812612
-0.0059513366 0.03174813 -0.034447104 -0.052345518 0.03656411 0.04837922 -0.015137779 -0.014835104
-0.05615387 0.05055279 0.06956379 -0.004749981 0.04835721 0.04802402 -0.035887696 0.027217014
-0.031065725 -0.016014121 -0.03311985 -0.0055305497 0.055416916 -0.049430303 -0.019398298 -0.041896775
0.030753663 -0.027785823 0.037949078 0.012746729 -0.05111195 0.031071456 -0.029699665 -0.057750385
0.055217795 -0.0564124 0.0052408483 -0.06130194 0.017004244 -0.008430444 0.0136061 0.052303582
-0.022564799 0.03144487 0.04977677 -0.012386014 -0.0011113634 0.0035981417 0.0047553326 0.0090232715
-0.055686116 0.0009537637 0.07452045 0.06874076 0.07268456 0.021663323 -0.024482759 -0.0107058035
-0.030057387 0.024802113 0.051990654 -0.05389963 -0.01479993 -0.037961774 -0.04397524 0.005541056
-0.028235717 0.045159183 -0.010875028 0.034512796 0.06416217 -0.046668086 -0.013283097 -0.0385252
-0.024251897 0.037086766 0.03641984 -0.04754419 -0.008675858 0.02848794 -0.040391155 0.037917525
-0.014999859 0.06450981 -0.0037299246 -0.049081504 -0.05745156 0.012909116 -0.021438822 -0.007303351
0.022935374 0.04407314 0.051189434 -0.05052758 -0.03461835 -0.044027105 -0.024355762 -0.043578945
-0.033227254 -0.007163857 -0.041291323 -0.03433945 -0.006601566 0.055789094 0.016571742 0.027278244
-0.01713675 0.0168528 0.03059297 0.041460417 0.060355388 -0.026049688 0.040947005 -0.04604723
0.012606863 -0.023777358 -0.0020273163 -0.0056513236 -0.03372335 -0.059233576 0.012029059 0.027230771
00000000: c202 11bd 6248 323b 6480 8dbc 230f 363d
00000010: 7029 21bd 2456 5ebd f0a9 983c 9943 8b3d
00000020: 7b18 8cbb cb02 00bd e5d1 d8bb 708c 903b
00000030: bdc1 883b a48b 833c ec2e 733c 583c c3bc
00000040: 5b86 35bd 259d da3c 1ac8 653d f01a e43c
00000050: fcfe 35bd f0c3 dcbc 8012 523c 055f 303d
00000060: f146 0bbd 30c8 1fbd bece 70bd ec8e 04bd
00000070: 80a0 c23a 1867 68bc d81b 92bc 4882 3d3d
00000080: de4e 603d 4e6a 23bd 1006 bbbc 00f5 8aba
00000090: 40cb a53b 8fee 373c b81f 233d 9d1e 4b3d
000000a0: a0ea 1cbc 97b8 693d 93f7 2a3c 639e 943d
000000b0: fa50 73bd 22ac 6d3d 8f11 a6ba a04a 03bb
000000c0: f83e c9bc c486 efbc 6c03 bd3c 138b b43c
000000d0: a3b0 bc3c e8ac 16bd 6061 33bd f8f0 723c
000000e0: 6717 90bc 5db9 0a3d f6a8 3bbd 439f 8bbc
000000f0: 4541 9e3b a84d 383d 1e27 51bd 6830 5ebc
00000100: 50cf 77bd 946f 453d 58a7 7ebc 008a 1d3b
00000110: fb7d 013b 001f 383c ffab 8f3d 43ea 3cbd
00000120: e09e dabb 05fa 143d 51bc 1bbc 4328 01bd
00000130: 20cd 5b3c b506 043c e61e 41bd 75b6 2bbd
00000140: 4925 f43c ed68 943d 64ba 50bd fe19 8dbd
00000150: 68bc 923d d3ac 25bd 0bdf da3b 63b8 443d
00000160: e252 eb3c af05 10bd 7ff9 a7bc 1e5c 23bd
00000170: 6738 84bc 8127 373c 5425 2d3d 1fb5 82bc
00000180: 2d2a dfbc 4914 893d 3edf 833d 1d1b 383d
00000190: c20d 48bd 8fd2 753d dddf eabc 2c75 2f3d
000001a0: dabc 27bd d885 d8b8 fa31 543d b533 74bd
000001b0: 769d 003d 10cb 8c3c 04ae f7bb dee8 9cbc
000001c0: 3896 363d 2551 fb3c 4a13 723d 7f8b 87ba
000001d0: bee8 a93c ba44 d03a 68f8 16bd a56e f93b
000001e0: 3d29 65bd f08b 263d a217 ac3c 7a90 3d3c
000001f0: 52cc 19bd 9172 8d3d 848a d1bc 6ea1 36bd
00000200: 86f6 66bd 60d4 9bbb 8424 d8bc 46c7 873d
00000210: 444f 08bd 6cd7 17bd 0cc5 03bd 9439 f43c
00000220: 6e03 c3bb 540a 023d 6818 0dbd 4168 56bd
00000230: 40c4 153d 4a29 463d 7204 78bc f00e 73bc
00000240: 9a01 66bd 7110 4f3d 7677 8e3d bba5 9bbb
00000250: 3612 463d d6b4 443d fafe 12bd 37f6 de3c
00000260: 8c7d febc 0c30 83bc aea8 07bd 9d39 b5bb
00000270: d9fc 623d 6e77 4abd 2ee9 9ebc f49b 2bbd
00000280: 1bef fb3c 189f e3bc 7e70 1b3d a8d7 503c
00000290: c45a 51bd 9189 fe3c b64c f3bc ab8b 6cbd
000002a0: 0e2c 623d b010 67bd 6cbb ab3b be17 7bbd
000002b0: 7c4c 8b3c d81f 0abc 1fec 5e3c 483c 563d
000002c0: d0d9 b8bc 56cc 003d bae2 4b3d b5ee 4abc
000002d0: 2bab 91ba cdce 6b3b 9fd2 9b3b 58d6 133c
000002e0: 2017 64bd 0006 7a3a 2d9e 983d f5c7 8c3d
000002f0: a5db 943d 4877 b13c 1190 c8bc 6567 2fbc
00000300: e93a f6bc cd2d cb3c 27f4 543d dcc5 5cbd
00000310: 687b 72bc ce7d 1bbd 621f 34bd bf91 b53b
00000320: 974e e7bc d6f8 383d 2c2d 32bc 4a5d 0d3d
00000330: 7567 833d 0927 3fbd 59a1 59bc 9acc 1dbd
00000340: eaab c6bc 4be8 173d f82c 153d b2bd 42bd
00000350: 3025 0ebc 8a5f e93c 3271 25bd 684f 1b3d
00000360: f8c1 75bc b81d 843d c071 74bb b009 49bd
00000370: 5452 6bbd c280 533c 78a0 afbc f350 efbb
00000380: f7e2 bb3c 0986 343d 03ac 513d 02f6 4ebd
00000390: f9cb 0dbd c455 34bd bc85 c7bc d67f 32bd
000003a0: 4d19 08bd cabe eabb 1721 29bd 86a7 0cbd
000003b0: f351 d8bb 1b83 643d 76c1 873c a076 df3c
000003c0: 5f62 8cbc e20e 8a3c 1c9e fa3c 66d2 293d
000003d0: 3637 773d 2866 d5bc 0cb8 273d 059c 3cbd
000003e0: 048d 4e3c bcc8 c2bc b9dc 04bb bd2e b9bb
000003f0: 7f21 0abd e89e 72bd 8815 453c 1113 df3c

net.4.weight f4 [1, 256]
0.017124519 -0.04348896 -0.05707282 -0.0081287 -0.03995549 0.0012655705 -0.010001458 -0.019078318
-0.06443148 -0.059687044 -0.056438673 0.059878774 0.026382366 -0.044504896 -0.030501567 0.002479896
-0.050656162 -0.055999607 -0.035803705 0.059786633 0.056358945 0.0063291024 0.027374543 -0.036663543
0.029020943 0.04928708 -0.037069455 0.060605526 0.058576703 0.009093337 -0.010684133 -0.012564026
0.036988772 -0.025022335 0.0444735 -0.012205057 -0.012365602 0.049498532 -0.073267594 -0.021342942
0.056114282 -0.023396919 -0.026059162 -0.061949868 0.0246365 0.04321125 0.00014714594 -0.050116815
0.00089140236 -0.06732365 0.05083268 -0.021264357 0.028991077 -0.068093896 -0.045988206 0.0110152885
-0.036606308 -0.00016523183 0.059709392 0.008171392 -0.031085392 0.021068968 0.034005716 0.0040674657
-0.011903398 -0.05380562 -0.066063315 0.0068179816 -0.032319367 0.0015886128 -0.044904202 -0.023073014
0.059668824 -0.050610635 0.043141592 0.010385733 -0.012177788 0.00719007 0.025235564 0.0576422
0.010916129 -0.06722274 -0.051871363 0.0042578564 -0.034779605 0.05565945 0.041024074 0.00047303553
-0.034471214 0.027682312 -0.039974008 -0.0007111728 0.05445293 -0.017281031 0.058891505 0.015990902
0.003013782 -0.05983351 -0.06614381 0.006118657 0.04614642 0.054278806 0.00023273693 0.024603918
0.02930074 0.0062903706 0.02762678 0.020520315 -0.03772271 0.012484522 -0.060933385 -0.01726741
0.011332378 0.005334107 0.019982168 0.027332615 0.0122480905 -0.042819973 -0.059973434 0.02010923
0.008338788 0.0126808975 0.004643458 -0.038711756 -0.020790238 -0.037397504 0.051658735 0.015358454
-0.041727677 0.0014529526 -0.053844146 -0.04601648 -0.018759396 0.009864877 -0.06199915 0.049904592
0.00623084 -0.0080335215 -0.021541126 0.04799105 0.05900155 0.01244182 0.017103033 -0.0098340735
-0.011002675 0.044797387 -0.052463308 -0.022238862 0.048141703 0.034963332 -0.013092429 0.05076601
-0.03077808 0.034766026 -0.05205498 -0.05806205 -0.036899667 -0.0418239 -0.004599858 -0.024275022
-0.035412975 -0.041808933 0.004901041 -0.04124307 0.057759196 -0.0042447695 0.012798064 0.025134997
0.059055366 0.00024968627 0.050681576 0.021352362 0.05269421 0.009034523 -0.023445584 -0.003452782
-0.038663764 0.015019417 0.0042153522 0.018331345 0.0053059557 -0.034710974 0.031838566 -0.04016215
-0.007279299 -0.017947853 -0.07795252 -0.03578917 -0.06807765 -0.06614941 0.0015532493 -0.039594874
-0.030909427 -0.025233438 -0.027727423 0.04728532 0.045619115 0.020050742 0.030036874 -0.02698094
-0.07053302 -0.049193874 0.0022635146 -0.025167659 -0.013624527 -0.04739833 0.01176988 -0.038188286
0.01662283 -0.020618727 0.044114966 -0.0114492625 -0.060419105 -0.05534877 0.019684263 -0.044494644
-0.04367286 -0.024046862 0.039773434 0.021795727 -0.061480224 -0.06752539 -0.06550899 -0.06822099
-0.02232271 0.018715426 -0.01723655 0.026408128 -0.048781987 -0.048681453 0.02737768 -0.02007353
0.0538803 0.02911422 0.047136575 0.041684616 -0.058452398 -0.021229628 0.02142566 -0.017659288
-0.0352677 -0.064341016 -0.008776136 -0.029715486 -0.0480938 -0.00403063 -0.0048842207 0.028810997
0.021411316 -0.053824067 -0.06723297 -0.046580814 -0.030433124 0.032302782 -0.05863931 0.025573134
00000000: b848 8c3c 7b21 32bd 30c5 69bd 3d2e 05bc
00000010: 5ea8 23bd 80e1 a53a 28dd 23bc 224a 9cbc
00000020: a7f4 83bd 677a 74bd 3d2c 67bd 7243 753d
00000030: d51f d83c c44a 36bd 6cde f9bc c085 223b
00000040: d67c 4fbd d85f 65bd e8a6 12bd d4e2 743d
00000050: a3d8 663d 5c64 cf3b 9440 e03c 832c 16bd
00000060: 54bd ed3c 40e1 493d 24d6 17bd 803d 783d
00000070: 20ee 6f3d 38fc 143c 800c 2fbc 58d9 4dbc
00000080: 8a81 173d a4fb ccbc d829 363d b8f7 47bc
00000090: 1899 4abc f9be 4a3d 520d 96bd 65d7 aebc
000000a0: 17d8 653d e5aa bfbc 067a d5bc 25bf 7dbd
000000b0: 7cd2 c93c 48fe 303d 304b 1a39 4a47 4dbd
000000c0: 00ad 693a fbe0 89bd ee35 503d 9732 aebc
000000d0: b27e ed3c d074 8bbd 215e 3cbd 7879 343c
000000e0: 7ff0 15bd 1542 2db9 d691 743d 4de1 053c
000000f0: cba6 febc d498 ac3c 9449 0b3d 6048 853b
00000100: 7806 43bc 4863 5cbd 344c 87bd 6069 df3b
00000110: 5061 04bd 0039 d03a 78ed 37bd 9e03 bdbc
00000120: 4c67 743d 194d 4fbd 3db5 303d ec28 2a3c
00000130: 5885 47bc ae9a eb3b d0ba ce3c 3a1a 6c3d
00000140: 90d9 323c 13ac 89bd 1177 54bd 7d85 8b3b
00000150: 0f75 0ebd 2afb 633d dc08 283d c101 f839
00000160: b031 0dbd 04c6 e23c c9bb 23bd 006e 3aba
00000170: 090a 5f3d f390 8dbc 3838 713d 5aff 823c
00000180: df82 453b fc13 75bd 6876 87bd 047f c83b
00000190: 0704 3d3d 7453 5e3d d80a 7439 288e c93c
000001a0: 1b08 f03c 741f ce3b 8f51 e23c 381a a83c
000001b0: 2183 1abd e18b 4c3c 4995 79bd 6274 8dbc
000001c0: 70ab 393c bcc9 ae3b a5b1 a33c a6e8 df3c
000001d0: 37ac 483c ff63 2fbd b4a6 75bd 1dbc a43c
000001e0: 699f 083c 8ac3 4f3c 2628 983b 3890 1ebd
000001f0: 4a50 aabc 202e 19bd 1c98 533d 06a2 7b3c
00000200: a4ea 2abd 0071 be3a ae8b 5cbd c77b 3cbd
00000210: 4ead 99bc 4ba0 213c d2f2 7dbd c268 4c3d
00000220: 132c cc3b 089f 03bc 0477 b0bc 4392 443d
00000230: 9cab 713d c7d8 4b3c a91b 8c3c 181f 21bc
00000240: 9044 34bc 777d 373d c4e3 56bd 462e b6bc
00000250: 3c30 453d b635 0f3d a181 56bc 05f0 4f3d
00000260: 5022 fcbc d266 0e3d 9a37 55bd 79d2 6dbd
00000270: 1b24 17bd 8a4f 2bbd 68ba 96bb 69dc c6bc
00000280: 320d 11bd d83f 2bbd e998 a03b 7eee 28bd
00000290: e894 6c3d b517 8bbb f9ae 513c e9e7 cd3c
000002a0: 0ae4 713d 53e8 8239 7c97 4f3d 26eb ae3c
000002b0: e2d5 573d 8905 143c f410 c0bc 1248 62bb
000002c0: e55d 1ebd 0014 763c f020 8a3b 9e2b 963c
000002d0: 95dd ad3b 182d 0ebd 2869 023d 1181 24bd
000002e0: 3087 eebb 6007 93bc 92a5 9fbd aa97 12bd
000002f0: 4c6c 8bbd 5879 87bd 6696 cb3a 3c2e 22bd
00000300: c435 fdbc 5bb6 cebc 9f24 e3bc 40ae 413d
00000310: 1cdb 3a3d 7441 a43c e40f f63c 2207 ddbc
00000320: 9e73 90bd 847f 49bd 7957 143b 682c cebc
00000330: 6839 5fbc c024 42bd 74d6 403c 526b 1cbd
00000340: 9a2c 883c 9be8 a8bc e5b1 343d b095 3bbc
00000350: 067a 77bd 64b5 62bd e440 a13c 0440 36bd
00000360: 50e2 32bd edfd c4bc 78e9 223d f48c b23c
00000370: b0d2 7bbd c04a 8abd 9429 86bd 72b7 8bbd
00000380: 1ede b6bc 1851 993c aa33 8dbc dc55 d83c
00000390: 9fcf 47bd 3466 47bd 2847 e03c 3e71 a4bc
000003a0: 97b1 5c3d f280 ee3c 4812 413d 7dbd 2a3d
000003b0: c86b 6fbd c2e9 adbc de84 af3c 36aa 90bc
000003c0: dd74 10bd 39c5 83bd c8c9 0fbc e46d f3bc
000003d0: 01fe 44bd 6013 84bb d00b a0bb 0a05 ec3c
000003e0: c966 af3c a076 5cbd 70b1 89bd 86cb 3ebd
000003f0: e34e f9bc ec4f 043d c62f 70bd c07e d13c

exp_avg f4 [256, 6]
0.17330225 0.012507387 0.0 0.0 0.0 0.0 7.2310846e-05 -6.3274492e-06
0.0 0.0 0.0 0.0 0.0 0.0 0.0 0.0
0.0 0.0 0.19399992 0.014003926 0.0 0.0 0.0 0.0
0.119721 0.008645822 0.0 0.0 0.0 0.0 0.16054623 0.011588613
0.0 0.0 0.0 0.0 0.0 0.0 0.0 0.0
0.0 0.0 0.29252696 0.021096822 0.0 0.0 0.0 0.0
0.16402885 0.011838898 0.0 0.0 0.0 0.0 0.21583179 0.015575538
0.0 0.0 0.0 0.0 0.3093124 0.022307402 0.0 0.0
0.0 0.0 0.36036178 0.026011772 0.0 0.0 0.0 0.0
0.24956346 0.018013414 0.0 0.0 0.0 0.0 0.1744356 0.012590508
0.0 0.0 0.0 0.0 0.24731112 0.017846776 0.0 0.0
0.0 0.0 0.18703985 0.013498669 0.0 0.0 0.0 0.0
0.34842476 0.025146423 0.0 0.0 0.0 0.0 -0.05565855 -0.0040237824
0.0 0.0 0.0 0.0 0.21714815 0.01567195 0.0 0.0
0.0 0.0 -0.01671015 -0.0012033297 0.0 0.0 0.0 0.0
0.24138577 0.0174248 0.0 0.0 0.0 0.0 0.3362809 0.024267122
0.0 0.0 0.0 0.0 -3.6622514e-05 -8.5471123e-07 0.0 0.0
0.0 0.0 0.0 0.0 0.0 0.0 0.0 0.0
0.25854176 0.0186605 0.0 0.0 0.0 0.0 0.1566657 0.011308665
0.0 0.0 0.0 0.0 6e-45 6e-45 0.0 0.0
0.0 0.0 0.147854 0.010669089 0.0 0.0 0.0 0.0
0.1675524 0.012092051 0.0 0.0 0.0 0.0 0.18361837 0.013252497
0.0 0.0 0.0 0.0 0.57243675 0.041310757 0.0 0.0
0.0 0.0 0.23803668 0.017181806 0.0 0.0 0.0 0.0
0.00032663392 -2.7998965e-05 0.0 0.0 0.0 0.0 0.00025889048 -2.2221267e-05
0.0 0.0 0.0 0.0 0.078412116 0.005661921 0.0 0.0
0.0 0.0 0.0 0.0 0.0 0.0 0.0 0.0
0.09499447 0.0068536936 0.0 0.0 0.0 0.0 0.00020458219 -1.7393371e-05
0.0 0.0 0.0 0.0 0.19465058 0.01404878 0.0 0.0
0.0 0.0 0.0 0.0 0.0 0.0 0.0 0.0
-0.0012963617 -0.00015967574 0.0 0.0 0.0 0.0 0.15927097 0.011494193
0.0 0.0 0.0 0.0 0.0 0.0 0.0 0.0
00000000: 2576 313e c9eb 4c3c 0000 0000 0000 0000
00000010: 0000 0000 0000 0000 97a5 9738 6050 d4b6
00000020: 0000 0000 0000 0000 0000 0000 0000 0000
00000030: 0000 0000 0000 0000 0000 0000 0000 0000
00000040: 0000 0000 0000 0000 eaa7 463e b970 653c
00000050: 0000 0000 0000 0000 0000 0000 0000 0000
00000060: 4930 f53d 35a7 0d3c 0000 0000 0000 0000
00000070: 0000 0000 0000 0000 3b66 243e 2ade 3d3c
00000080: 0000 0000 0000 0000 0000 0000 0000 0000
00000090: 0000 0000 0000 0000 0000 0000 0000 0000
000000a0: 0000 0000 0000 0000 18c6 953e 3ed3 ac3c
000000b0: 0000 0000 0000 0000 0000 0000 0000 0000
000000c0: 2ef7 273e f0f7 413c 0000 0000 0000 0000
000000d0: 0000 0000 0000 0000 0203 5d3e 8b30 7f3c
000000e0: 0000 0000 0000 0000 0000 0000 0000 0000
000000f0: 325e 9e3e 03be b63c 0000 0000 0000 0000
00000100: 0000 0000 0000 0000 5781 b83e a416 d53c
00000110: 0000 0000 0000 0000 0000 0000 0000 0000
00000120: 908d 7f3e de90 933c 0000 0000 0000 0000
00000130: 0000 0000 0000 0000 3f9f 323e 6b48 4e3c
00000140: 0000 0000 0000 0000 0000 0000 0000 0000
00000150: 203f 7d3e 6733 923c 0000 0000 0000 0000
00000160: 0000 0000 0000 0000 6087 3f3e 8529 5d3c
00000170: 0000 0000 0000 0000 0000 0000 0000 0000
00000180: bb64 b23e dfff cd3c 0000 0000 0000 0000
00000190: 0000 0000 0000 0000 38fa 63bd efd9 83bb
000001a0: 0000 0000 0000 0000 0000 0000 0000 0000
000001b0: 165c 5e3e 7662 803c 0000 0000 0000 0000
000001c0: 0000 0000 0000 0000 b9e3 88bc 0bb9 9dba
000001d0: 0000 0000 0000 0000 0000 0000 0000 0000
000001e0: d52d 773e 74be 8e3c 0000 0000 0000 0000
000001f0: 0000 0000 0000 0000 032d ac3e d8cb c63c
00000200: 0000 0000 0000 0000 0000 0000 0000 0000
00000210: 209b 19b8 4f6f 65b5 0000 0000 0000 0000
00000220: 0000 0000 0000 0000 0000 0000 0000 0000
00000230: 0000 0000 0000 0000 0000 0000 0000 0000
00000240: 965f 843e e8dd 983c 0000 0000 0000 0000
00000250: 0000 0000 0000 0000 f96c 203e fb47 393c
00000260: 0000 0000 0000 0000 0000 0000 0000 0000
00000270: 0400 0000 0400 0000 0000 0000 0000 0000
00000280: 0000 0000 0000 0000 0a67 173e 67cd 2e3c
00000290: 0000 0000 0000 0000 0000 0000 0000 0000
000002a0: db92 2b3e bd1d 463c 0000 0000 0000 0000
000002b0: 0000 0000 0000 0000 7406 3c3e 0021 593c
000002c0: 0000 0000 0000 0000 0000 0000 0000 0000
000002d0: 378b 123f 7835 293d 0000 0000 0000 0000
000002e0: 0000 0000 0000 0000 e3bf 733e dcc0 8c3c
000002f0: 0000 0000 0000 0000 0000 0000 0000 0000
00000300: 1040 ab39 52df eab7 0000 0000 0000 0000
00000310: 0000 0000 0000 0000 b1bb 8739 cf67 bab7
00000320: 0000 0000 0000 0000 0000 0000 0000 0000
00000330: 8896 a03d a387 b93b 0000 0000 0000 0000
00000340: 0000 0000 0000 0000 0000 0000 0000 0000
00000350: 0000 0000 0000 0000 0000 0000 0000 0000
00000360: 768c c23d f394 e03b 0000 0000 0000 0000
00000370: 0000 0000 0000 0000 1d85 5639 fbe7 91b7
00000380: 0000 0000 0000 0000 0000 0000 0000 0000
00000390: 7b52 473e db2c 663c 0000 0000 0000 0000
000003a0: 0000 0000 0000 0000 0000 0000 0000 0000
000003b0: 0000 0000 0000 0000 0000 0000 0000 0000
000003c0: aeea a9ba a16e 27b9 0000 0000 0000 0000
000003d0: 0000 0000 0000 0000 ee17 233e 2452 3c3c
000003e0: 0000 0000 0000 0000 0000 0000 0000 0000
000003f0: 0000 0000 0000 0000 0000 0000 0000 0000

exp_avg_sq f4 [256, 6]
0.0052337484 2.1054151e-05 0.0 0.0 0.0 0.0 8.8528634e-07 6.5245714e-10
0.0 0.0 0.0 0.0 0.0 0.0 0.0 0.0
0.0 0.0 0.0061797434 2.5479938e-05 0.0 0.0 0.0 0.0
0.0030268452 1.1315395e-05 0.0 0.0 0.0 0.0 0.0027207837 1.3845101e-05
0.0 0.0 0.0 0.0 0.0 0.0 0.0 0.0
0.0 0.0 0.014421814 5.8813162e-05 0.0 0.0 0.0 0.0
0.004335959 1.8019624e-05 0.0 0.0 0.0 0.0 0.007632395 3.149576e-05
0.0 0.0 0.0 0.0 0.016413013 6.6446344e-05 0.0 0.0
0.0 0.0 0.02133717 8.796249e-05 0.0 0.0 0.0 0.0
0.010074608 4.1801468e-05 0.0 0.0 0.0 0.0 0.005720255 2.2327595e-05
0.0 0.0 0.0 0.0 0.009940656 4.1161118e-05 0.0 0.0
0.0 0.0 0.0059976154 2.428825e-05 0.0 0.0 0.0 0.0
0.01990226 8.2108694e-05 0.0 0.0 0.0 0.0 0.00031616687 1.6333146e-06
0.0 0.0 0.0 0.0 0.008250531 3.3135035e-05 0.0 0.0
0.0 0.0 0.00013194037 3.9463887e-07 0.0 0.0 0.0 0.0
0.010438416 4.1536754e-05 0.0 0.0 0.0 0.0 0.018807387 7.712284e-05
0.0 0.0 0.0 0.0 4.7804087e-06 8.8426e-10 0.0 0.0
0.0 0.0 0.0 0.0 0.0 0.0 0.0 0.0
0.011272588 4.5961206e-05 0.0 0.0 0.0 0.0 0.0038126204 1.6098233e-05
0.0 0.0 0.0 0.0 9.408332e-10 3.093145e-13 0.0 0.0
0.0 0.0 0.004181684 1.6212274e-05 0.0 0.0 0.0 0.0
0.005182874 2.0373385e-05 0.0 0.0 0.0 0.0 0.0055763735 2.2921457e-05
0.0 0.0 0.0 0.0 0.03294909 0.00017207881 0.0 0.0
0.0 0.0 0.009598519 3.906335e-05 0.0 0.0 0.0 0.0
1.10392875e-05 7.955349e-09 0.0 0.0 0.0 0.0 7.644595e-06 5.9722236e-09
0.0 0.0 0.0 0.0 0.0013209755 4.9065457e-06 0.0 0.0
0.0 0.0 0.0 0.0 0.0 0.0 0.0 0.0
0.0017933293 6.8522295e-06 0.0 0.0 0.0 0.0 7.989963e-06 5.6473093e-09
0.0 0.0 0.0 0.0 0.0062027187 2.5606301e-05 0.0 0.0
0.0 0.0 0.0 0.0 0.0 0.0 0.0 0.0
3.501116e-05 6.5429084e-08 0.0 0.0 0.0 0.0 0.004511836 1.7999904e-05
0.0 0.0 0.0 0.0 0.0 0.0 0.0 0.0
00000000: dd7f ab3b 729d b037 0000 0000 0000 0000
00000010: 0000 0000 0000 0000 6aa4 6d35 9758 3330
00000020: 0000 0000 0000 0000 0000 0000 0000 0000
00000030: 0000 0000 0000 0000 0000 0000 0000 0000
00000040: 0000 0000 0000 0000 727f ca3b c0bd d537
00000050: 0000 0000 0000 0000 0000 0000 0000 0000
00000060: 095e 463b 40d7 3d37 0000 0000 0000 0000
00000070: 0000 0000 0000 0000 2d4f 323b 4248 6837
00000080: 0000 0000 0000 0000 0000 0000 0000 0000
00000090: 0000 0000 0000 0000 0000 0000 0000 0000
000000a0: 0000 0000 0000 0000 7949 6c3c 27ae 7638
000000b0: 0000 0000 0000 0000 0000 0000 0000 0000
000000c0: a914 8e3b d928 9737 0000 0000 0000 0000
000000d0: 0000 0000 0000 0000 2b19 fa3b 511a 0438
000000e0: 0000 0000 0000 0000 0000 0000 0000 0000
000000f0: 9574 863c 1c59 8b38 0000 0000 0000 0000
00000100: 0000 0000 0000 0000 4acb ae3c 8178 b838
00000110: 0000 0000 0000 0000 0000 0000 0000 0000
00000120: f80f 253c fc53 2f38 0000 0000 0000 0000
00000130: 0000 0000 0000 0000 fa70 bb3b 254c bb37
00000140: 0000 0000 0000 0000 0000 0000 0000 0000
00000150: 22de 223c 6aa4 2c38 0000 0000 0000 0000
00000160: 0000 0000 0000 0000 a587 c43b 9fbe cb37
00000170: 0000 0000 0000 0000 0000 0000 0000 0000
00000180: 100a a33c c531 ac38 0000 0000 0000 0000
00000190: 0000 0000 0000 0000 33c3 a539 4338 db35
000001a0: 0000 0000 0000 0000 0000 0000 0000 0000
000001b0: 3c2d 073c 79fa 0a38 0000 0000 0000 0000
000001c0: 0000 0000 0000 0000 7959 0a39 c1de d334
000001d0: 0000 0000 0000 0000 0000 0000 0000 0000
000001e0: e405 2b3c c037 2e38 0000 0000 0000 0000
000001f0: 0000 0000 0000 0000 f311 9a3c 02bd a138
00000200: 0000 0000 0000 0000 0000 0000 0000 0000
00000210: 6667 a036 4410 7330 0000 0000 0000 0000
00000220: 0000 0000 0000 0000 0000 0000 0000 0000
00000230: 0000 0000 0000 0000 0000 0000 0000 0000
00000240: a9b0 383c 78c6 4038 0000 0000 0000 0000
00000250: 0000 0000 0000 0000 28dd 793b b10a 8737
00000260: 0000 0000 0000 0000 0000 0000 0000 0000
00000270: a04e 8130 eb20 ae2a 0000 0000 0000 0000
00000280: 0000 0000 0000 0000 8206 893b 98ff 8737
00000290: 0000 0000 0000 0000 0000 0000 0000 0000
000002a0: 19d5 a93b 83e7 aa37 0000 0000 0000 0000
000002b0: 0000 0000 0000 0000 03ba b63b 7447 c037
000002c0: 0000 0000 0000 0000 0000 0000 0000 0000
000002d0: a0f5 063d 0e70 3439 0000 0000 0000 0000
000002e0: 0000 0000 0000 0000 1b43 1d3c f4d7 2338
000002f0: 0000 0000 0000 0000 0000 0000 0000 0000
00000300: 6135 3937 ffab 0832 0000 0000 0000 0000
00000310: 0000 0000 0000 0000 4941 0037 3c34 cd31
00000320: 0000 0000 0000 0000 0000 0000 0000 0000
00000330: 9524 ad3a e8a2 a436 0000 0000 0000 0000
00000340: 0000 0000 0000 0000 0000 0000 0000 0000
00000350: 0000 0000 0000 0000 0000 0000 0000 0000
00000360: 250e eb3a 34ec e536 0000 0000 0000 0000
00000370: 0000 0000 0000 0000 a10c 0637 420a c231
00000380: 0000 0000 0000 0000 0000 0000 0000 0000
00000390: 2d40 cb3b 1dcd d637 0000 0000 0000 0000
000003a0: 0000 0000 0000 0000 0000 0000 0000 0000
000003b0: 0000 0000 0000 0000 0000 0000 0000 0000
000003c0: f2d8 1238 0582 8c33 0000 0000 0000 0000
000003d0: 0000 0000 0000 0000 06d8 933b 80fe 9637
000003e0: 0000 0000 0000 0000 0000 0000 0000 0000
000003f0: 0000 0000 0000 0000 0000 0000 0000 0000

exp_avg f4 [256]
0.40243474 -0.00010839013 0.0 0.4505653 0.27817783 0.3728581 0.0 0.6789307
0.38092017 0.5011655 0.717889 0.8370027 0.57957816 0.4050983 0.57424945 0.43433088
0.809103 -0.12940992 0.504255 -0.03873971 0.5606679 0.7808343 2.2779546e-05 0.0
0.6004045 0.3638495 6e-45 0.3432998 0.38907415 0.42640534 1.3292269 0.5528177
-0.00049876707 -0.00039519375 0.1821541 0.0 0.22053948 -0.00030278423 0.4520249 0.0
-0.0045484137 0.36983922 0.0 -0.005245062 -0.00024378275 0.0 0.2938165 0.0
2.854893e-05 0.5221334 -0.00010923857 -0.00019827833 0.0 0.36086568 0.34838834 -0.00022728487
0.13705452 0.26213574 0.0 -0.104493 0.3658177 0.0 0.0 0.0
-7.0778005e-05 0.0 -0.0043867254 0.0 0.34722534 0.48572302 0.2846145 -0.019360984
0.0 0.0 0.6002436 0.5966562 0.0 0.0 0.0 0.30537075
-0.00501647 0.0 0.37198746 0.29365996 0.59487396 0.18053472 0.0 0.0
1.5471467e-05 -0.0039717136 0.46206546 0.09907146 0.4890909 -0.6541721 0.035426013 0.43823808
0.9389313 -0.62224853 4.3355203e-06 0.5721637 0.47173992 0.0 0.3789136 0.0
0.78205025 -0.03935905 -0.00407232 0.44639462 0.6796803 -0.0044378308 0.0 0.7169739
0.56198704 0.0 0.0 0.0 -0.102345 -0.003653141 0.0 0.49639562
0.0 -0.0037344296 0.4244804 0.67130303 -0.018002026 0.4781615 0.65476483 0.0
0.0 0.0 -0.00016859891 0.0 0.6183779 0.14956628 0.5311427 2.5782734e-05
0.0 0.5593751 -0.004643408 -0.00026362643 0.24441022 -9.0413836e-05 0.63205487 0.0
0.49704456 0.09363663 6e-45 1.4674759 -0.01521191 0.0 0.38973507 0.51430625
0.0 0.35418463 0.0 0.44864747 0.00040095442 0.0005607197 -0.26763692 0.58386606
0.46103132 0.0 2.457423e-05 -2.0340958e-05 0.7070091 0.43257242 0.4437525 0.17716584
0.0 0.52978796 0.001877594 0.40960968 0.0 0.0 -0.0032868537 0.60270685
0.47673506 0.0 0.49227697 0.35239255 0.0 0.0 0.00059166254 -0.00026233355
0.24886113 0.7114934 0.51422983 -0.095054634 0.4082464 1.2283006 0.0 -0.0033843024
0.0 2.604953e-12 0.38509044 -0.0036500008 0.21124981 -0.7205229 0.36765283 0.0
0.16426283 0.3916381 -0.05140179 0.0 0.0 -0.00018372104 0.43220186 0.61720264
0.6741511 0.2501611 0.0 0.0 0.7956749 0.6950501 0.0 0.0
0.0043228986 0.0 -0.21398361 0.0 0.09081248 6e-45 0.12921813 -0.103700936
0.41160384 0.57714516 -0.024370039 0.44139773 0.58892274 0.011396592 0.48401788 0.40439266
0.0 0.48071864 1.1583178 0.0 0.4859606 0.0 0.0 0.0
0.63270164 0.7218699 0.6347191 0.60853773 0.0 0.6982043 0.6559888 0.78057563
0.1616516 0.42736444 0.4117578 0.0 0.5870548 0.0 0.62782586 0.45034525
00000000: ed0b ce3e 824f e3b8 0000 0000 7fb0 e63e
00000010: 536d 8e3e 42e7 be3e 0000 0000 67ce 2d3f
00000020: f807 c33e 624c 003f 93c7 373f cf45 563f
00000030: 3c5f 143f 0b69 cf3e 0302 133f 9e60 de3e
00000040: 6021 4f3f 0984 04be db16 013f 88ad 1ebd
00000050: ee87 0f3f c2e4 473f b416 bf37 0000 0000
00000060: 1cb4 193f 7b4a ba3e 0400 0000 fec4 af3e
00000070: ba34 c73e cd51 da3e 1b24 aa3f 7685 0d3f
00000080: b1bf 02ba 0232 cfb9 9b86 3a3e 0000 0000
00000090: 1ad5 613e 03bf 9eb9 cf6f e73e 0000 0000
000000a0: dc0a 95bb 915b bd3e 0000 0000 c5de abbb
000000b0: ef9f 7fb9 0000 0000 1e6f 963e 0000 0000
000000c0: 5c7c ef37 89aa 053f 0317 e5b8 efe8 4fb9
000000d0: 0000 0000 63c3 b83e f55f b23e 5153 6eb9
000000e0: 0558 0c3e a836 863e 0000 0000 6d00 d6bd
000000f0: 754c bb3e 0000 0000 0000 0000 0000 0000
00000100: a76e 94b8 0000 0000 85be 8fbb 0000 0000
00000110: 85c7 b13e b0b0 f83e feb8 913e ed9a 9ebc
00000120: 0000 0000 0000 0000 91a9 193f 76be 183f
00000130: 0000 0000 0000 0000 0000 0000 8e59 9c3e
00000140: 3361 a4bb 0000 0000 2475 be3e 995a 963e
00000150: a949 183f 18de 383e 0000 0000 0000 0000
00000160: b9c8 8137 2625 82bb d893 ec3e fae5 ca3d
00000170: 1f6a fa3e d377 27bf de1a 113d be60 e03e
00000180: cd5d 703f ae4b 1fbf d679 9136 5279 123f
00000190: e587 f13e 0000 0000 f700 c23e 0000 0000
000001a0: 7234 483f f536 21bd 1971 85bb d68d e43e
000001b0: 87ff 2d3f 396b 91bb 0000 0000 9a8b 373f
000001c0: 62de 0f3f 0000 0000 0000 0000 0000 0000
000001d0: 419a d1bd 8969 6fbb 0000 0000 9127 fe3e
000001e0: 0000 0000 55bd 74bb 7f55 d93e 84da 2b3f
000001f0: fc78 93bc 96d1 f43e ab9e 273f 0000 0000
00000200: 0000 0000 0000 0000 edc9 30b9 0000 0000
00000210: 044e 1e3f e727 193e f8f8 073f 0048 d837
00000220: 0000 0000 3533 0f3f bb27 98bb 5737 8ab9
00000230: ac46 7a3e 8f9c bdb8 59ce 213f 0000 0000
00000240: a07c fe3e 90c4 bf3d 0400 0000 40d6 bb3f
00000250: 603b 79bc 0000 0000 5b8b c73e 93a9 033f
00000260: 0000 0000 b057 b53e 0000 0000 1fb5 e53e
00000270: 3137 d239 43fd 123a b507 89be 3f78 153f
00000280: 4c0c ec3e 0000 0000 c224 ce37 e0a1 aab7
00000290: 8cfe 343f 227a dd3e 8733 e33e f66a 353e
000002a0: 0000 0000 2fa0 073f 9a19 f63a 5cb8 d13e
000002b0: 0000 0000 0000 0000 4168 57bb ff4a 1a3f
000002c0: 9e16 f43e 0000 0000 ba0b fc3e cc6c b43e
000002d0: 0000 0000 0000 0000 cd19 1b3a d089 89b9
000002e0: 74d5 7e3e 6e24 363f 91a4 033f 01ac c2bd
000002f0: ac05 d13e f438 9d3f 0000 0000 2ccb 5dbb
00000300: 0000 0000 a94e 372c 932a c53e da34 6fbb
00000310: df51 583e 3074 38bf fe3c bc3e 0000 0000
00000320: 8434 283e ca84 c83e af8a 52bd 0000 0000
00000330: 0000 0000 3ea5 40b9 9049 dd3e fe00 1e3f
00000340: 2b95 2c3f 1e15 803e 0000 0000 0000 0000
00000350: 5ab1 4b3f ceee 313f 0000 0000 0000 0000
00000360: 1aa7 8d3b 0000 0000 851e 5bbe 0000 0000
00000370: e5fb b93d 0400 0000 c251 043e 2861 d4bd
00000380: bdbd d23e c9bf 133f ada3 c7bc e2fe e13e
00000390: a4c3 163f c5b8 3a3c 31d1 f73e 8e0c cf3e
000003a0: 0000 0000 c120 f63e c243 943f 0000 0000
000003b0: d4cf f83e 0000 0000 0000 0000 0000 0000
000003c0: bcf8 213f 77cc 383f f37c 223f 21c9 1b3f
000003d0: 0000 0000 84bd 323f e2ee 273f ced3 473f
000003e0: ff87 253e 83cf da3e ebd1 d23e 0000 0000
000003f0: 3949 163f 0000 0000 32b9 203f a793 e63e
