assets/section_1/actor_critic/mountain_car/models/mountaincar_exp/episode_best/critic.pth (torch, 820786 bytes, 15 tensors)

net.0.weight f4 [256, 6]
00000000: bc22 223e 8135 aa3e 7a45 0abd 68c1 92bd
00000010: f7ff 67be d32d c93d 933d 933e 454c 703f
00000020: 43b0 a0be 1c17 5d3e 9951 8c3e a696 6c3d
00000030: 76ab 5b3e 3e13 7d3f d5b9 963e c463 0ebe
00000040: 027e ae3e fd71 6ebe 9d78 e6be 092a 27bf
00000050: 9c57 483e 6eb3 55be a234 663d ad29 88be
00000060: 0f8e 3a3f 24ec 283e a86c 49be c1c1 9abe
00000070: cc27 4cbd 21bd 6abe 769e 853d 0994 343e
00000080: e406 b6bc e83c 843e e500 64bd 44fe dabd
00000090: 175f 793e 67ec 783f 07f2 fbbc 6429 1ebe
000000a0: fa89 323e e29c 4dbc 8632 febd d415 94be
000000b0: eda1 593e e7cc 0ebe 1c3b 153d f6a4 36be
000000c0: e92d 743d b9da aebe 7236 a6be 46a8 bcbe
000000d0: a9fa aa3e e071 ff3d 6950 4b3b 0985 2bbe
000000e0: fa58 c73d 9475 bebe c548 ce3e e4c6 1cbe
000000f0: c002 583d b8ff 1f40 2181 b2be 2c29 843b
00000100: e94d 8e3d 291b a9be 4a6b c9bd 9e64 6c3f
00000110: c89c 3b3b b7f2 533e 2d69 513d 756f 7ebe
00000120: 59b1 fdbd 4a25 913e c65c 05be 2fed c2be
00000130: e631 9e3d bac2 ccbd 96c4 d33d 7c67 873f
00000140: a797 8d3e 30be 66be 7657 87be 92c6 98be
00000150: 3acd f6be 89e2 673f 1158 823e 0660 bcbe
00000160: b68b c6be 00ab 9d3c 1bca 38bf 6d97 2cc0
00000170: 165c 883e 289d 463e 77a2 aa3d 4bce e4bd
00000180: d30d 03bf d009 a0bf 3c22 903e bf71 09bd
00000190: aa1d 0c3d 7dd4 2fbd 160c e4be 091c a1bf
000001a0: 28bc c0be d869 753e 2712 833e 1f00 1ebd
000001b0: ba66 943e ba53 a1bd 03b1 53be 3db7 3cbe
000001c0: 53b0 ae3e 49ac 70be 2abc dfbe 7a39 52c0
000001d0: a8c6 b7be 7e93 4d3c bdf5 00be daf5 4a3e
000001e0: d6d4 483e 4807 2d40 5692 63be 979b d33d
000001f0: 8ec4 213d 31de 7ebe 196f 85be 495d c93e
00000200: 78eb 243e ae78 debb a70c 18be 94b9 bebc
00000210: 30e2 b43e f643 d0bd 5dd2 94be 9adc 88be
00000220: 5b4d 9bbe 995b 61be c9ac 93be e269 bc3d
00000230: 2f78 87be c64f e93d c93f bdbe ff3d c93e
00000240: 3180 513e 6ff4 82bd 5ce9 cd3e 5396 52be
00000250: 0cd1 0ebe 858d babe 6a41 1ebd 89a2 b63f
00000260: 6a9b d03e 7bbf cbbe 9e74 323d 5a81 943e
00000270: fdae c73e 3afd 4e3e 686d ca3c 3495 9f3c
00000280: 65d0 d7bd 0569 a8be 15e5 233e 25c6 1ebe
00000290: c967 293e 8e70 1ebe d57b 9ebe 78e6 49be
000002a0: aece a0be 0215 dc3f d88b 803e fb64 ac3e
000002b0: ea3d cfbe dc41 6c3e 4328 a2bd 3407 aabf
000002c0: 3173 443e 876b fe3d c108 113d 1e21 013e
000002d0: e159 2b3e 841e 1b40 fc02 bd3e f857 a73d
000002e0: 19fa 39be c062 c53e 94a7 953e 2c4c 943f
000002f0: 78c0 fdba af38 3abe 3609 b7bc c7ea 8dbe
00000300: fb90 243e abad 93be 68c9 723d 4d93 a53e
00000310: 05b4 0f3e 1a8e 54be 383c 8e3c ea60 2940
00000320: d58e 4fbe 53cf 333d 6be2 8b3c 2975 cbbd
00000330: d156 ca3c a9b0 1d40 1686 b4be 5029 483e
00000340: b7cc 503d 66d4 4fbe 1891 323d bff8 58be
00000350: 4c20 d4bd 58ac c0be 4485 83be 5b59 17be
00000360: e600 713e 0971 bf3f 3a2a e53d 59cc bfbe
00000370: bf61 aa3e cbfb 673e 2198 e0be 28cd 8e3f
00000380: 90f8 1f3d 89eb 7fbd 8509 883c 9d31 203e
00000390: eff5 1d3f 6d22 95bf c280 a43e 098b afbe
000003a0: 1e1c c9be 8071 1dbe 015b 5c3e ed7b 43c0
000003b0: b440 45be 8ae6 58be 494d 8abe f1fe 2cbe
000003c0: 9fad 0dbe 6344 cb3e f3d3 9ebd 5680 593e
000003d0: 200a adbe 275f 74be 48b8 56be 309f 98bf
000003e0: 0d35 ac3e fedb 33be 537b 883e 8d88 8e3e
000003f0: 99aa abbc 7e08 273e e73a df3c 57ce 933d
0.15833563 0.33243945 -0.033757664 -0.071657956 -0.22656237 0.098231934 0.28757915 0.9386638
-0.31384477 0.21590847 0.27406004 0.057760857 0.21452126 0.98857486 0.29438654 -0.13905245
0.3408051 -0.2328567 -0.45013896 -0.65298516 0.1956467 -0.20869228 0.05620254 -0.26594296
0.72873014 0.1649633 -0.19670355 -0.30225947 -0.04984264 -0.2292371 0.06524365 0.17634596
-0.022220083 0.25827718 -0.055664916 -0.106930286 0.2435268 0.9723572 -0.030755056 -0.15445477
0.17435446 -0.012549611 -0.1241198 -0.28922904 0.21253176 -0.13945352 0.036433324 -0.17836365
0.059614096 -0.34151247 -0.32463413 -0.36847132 0.33394364 0.12472892 0.003102327 -0.16749968
0.09733768 -0.3719908 0.40289894 -0.15310246 0.052736998 2.4999828 -0.34864143 0.0040332284
0.06948454 -0.33028534 -0.09834917 0.9234103 0.0028627384 0.20698057 0.051125694 -0.24847205
-0.12387342 0.28348762 -0.13023672 -0.38071582 0.07724361 -0.09998079 0.1034023 1.0578456
0.27654764 -0.22533488 -0.26433915 -0.29838997 -0.4820345 0.9058004 0.25457814 -0.3679201
-0.38778466 0.019246578 -0.7218339 -2.6967423 0.26632756 0.19395888 0.08331769 -0.1117216
-0.5119297 -1.2502995 0.2815112 -0.033555742 0.034207977 -0.042927254 -0.4454047 -1.2586681
-0.37643552 0.23966157 0.25599787 -0.038574334 0.28984624 -0.07877298 -0.20672993 -0.18429275
0.341189 -0.23503222 -0.43698245 -3.284758 -0.3589375 0.012547372 -0.12593742 0.19820347
0.1961244 2.7035694 -0.22223791 0.10332411 0.03949409 -0.24889447 -0.26061323 0.39328983
0.16105449 -0.0067892885 -0.14848576 -0.02328185 0.35328817 -0.101692125 -0.29066744 -0.26730806
-0.30332455 -0.22007598 -0.28842762 0.09199883 -0.2645888 0.11392169 -0.36962727 0.39305112
0.20459057 -0.06394278 0.40217102 -0.20565157 -0.13946933 -0.36436096 -0.038636602 1.4268352
0.40743572 -0.39794526 0.043568246 0.29004937 0.39000693 0.20213786 0.024710372 0.019480325
-0.10537795 -0.32892624 0.16005357 -0.15505274 0.16543497 -0.15472624 -0.3095385 -0.19716823
-0.31407684 1.7193911 0.25106692 0.33670792 -0.40476924 0.23071998 -0.079178356 -1.3283448
0.19184567 0.12422853 0.03540874 0.1261029 0.16733505 2.4237375 0.3691634 0.081710756
-0.18161811 0.38551903 0.29229414 1.1585746 -0.0019359728 -0.18185686 -0.02234326 -0.27718183
0.1607093 -0.28843436 0.059274107 0.32338944 0.14033516 -0.20757332 0.017362699 2.6465402
-0.2026933 0.04389889 0.017075738 -0.09934456 0.0246996 2.4639075 -0.3525855 0.1954701
0.05097648 -0.20295867 0.043595403 -0.21188639 -0.10357723 -0.37631488 -0.2568761 -0.1478018
0.23535499 1.495637 0.11189695 -0.37460592 0.332777 0.22654645 -0.43866065 1.1156359
0.039055407 -0.062480483 0.016606102 0.15643926 0.6170339 -1.1651131 0.32129484 -0.34285763
-0.39279264 -0.15375328 0.2151909 -3.0544388 -0.19262964 -0.21181694 -0.2701209 -0.16894127
-0.13835762 0.39700612 -0.0775527 0.21240363 -0.33796787 -0.23864423 -0.20968735 -1.192358
0.33634225 -0.17564389 0.2665659 0.27838555 -0.02095537 0.16311833 0.027249767 0.072170906

net.0.bias f4 [256]
00000000: 91f9 c5be 00f5 0f3f 9e41 0d3f b4ac a63e
00000010: faba a83e e60e 61be 2b7e fe3e 7b10 c7be
00000020: 10c6 b2bd 10ff 39bc 48e0 093e 0d4f 943e
00000030: fc63 a53e d532 083f 117a 563e 139c 8bbd
00000040: 9ecc b63e 8d0d ad3e 427f 7bbe 4c70 143c
00000050: bf60 b53e c076 ee3d 5b29 0b3f 4297 053e
00000060: f035 c7be 4c9e be3d c5a8 ccbe 5eb2 fabd
00000070: c8d7 31be 0a94 a73e 619a 523e f953 0a3f
00000080: 3ec4 dabd 7dae cb3c e16e 1e3e 47a2 c9be
00000090: 96df 063f b5ec 413e ee51 a83e c941 053e
000000a0: 464f aabe eff9 823e b8c2 e8bc 3712 623e
000000b0: 957a f53e e09e 8a3e ec6f 6abe 75c4 a0be
000000c0: 0181 16be cf32 9d3e 712a a13e f986 3dbe
000000d0: b468 9dbe 948b b6be 0d62 21be 2c10 e73d
000000e0: 530e 5e3e 89be 093f 0600 973e 5357 823e
000000f0: fdd2 c1be a1a4 1bbe 6527 a33e 5851 093e
00000100: 1efa 163f 93eb 3c3e 5ffe 033e c1c3 90be
00000110: b3df 843d 3bbd 9a3e f0e5 b53e e6d2 b2be
00000120: c548 613e 36a5 163e bd31 b4be b338 613e
00000130: 62c3 983d 8c1f af3e 3b88 13be a35b 633e
00000140: f673 9e3e b266 b13e 1aab 8c3e b960 133e
00000150: 62a4 3b3d 26e5 863e a79a b23d 96a2 9bbc
00000160: a7d2 023f cda4 3d3e 4ff6 0d3f 2f4a 7c3e
00000170: b3ff 7e3e 7d91 e53d 1958 02be c1d3 7c3e
00000180: 62bf 16be e86f af3d 1444 6c3e 0774 86be
00000190: 7bc7 e9bc 9a85 683e 3235 803e 43b8 be3e
000001a0: 5900 893e f7fb cc3e 6b48 23be 6ae0 35be
000001b0: 688a 763e e15f 0cbe aeb2 66be 45eb 8e3e
000001c0: 6221 673e 8c95 9abe c3c7 863e a90a 083f
000001d0: 81f5 cfbe 8e3f 00bd 5643 583d ffce 64be
000001e0: b676 003f 0810 813e 05db b0be 2803 74be
000001f0: 0321 6d3e 7c5e fc3e d5e8 5fbe 9c38 5cbc
00000200: ecd7 a7be 2c26 9f3e eb05 cb3d 98b2 a5be
00000210: 3fed 323c 576e b53e 7253 483e 3cc5 113f
00000220: 2c98 063f 3c89 b53e d7cd bebe 8824 b43e
00000230: e565 453e c52e 6dbe f71c 90be dab7 193f
00000240: 69d3 4bbd 4188 ad3e 9d66 2a3e a5ae a7be
00000250: ba45 213e 0f3d 333d 9ea3 763c 6e6e 863e
00000260: a930 743c fac9 b63e b439 57bd 9564 3fbe
00000270: 6be3 3b3e a226 643e e7ea 86bd 1ea5 713e
00000280: 092e 8a3e c466 e13e fee7 70be 33f4 6e3e
00000290: a86b 6e3e 334a b13e 8f7c 5a3d 1b1b 2fbd
000002a0: c749 cf3e f6ec 413e 57ad fd3e fcb2 debd
000002b0: 90d3 fa3e cfce bbbe 5405 f8bc 6e5a acbe
000002c0: f1ab 5f3d 76a5 0f3f 9c7c 75be 6d07 39be
000002d0: 07ef 8ebe 8321 a83e 3362 6f3e 0724 82be
000002e0: 5ff2 b4be 2d66 3b3e 840e b0be f843 83be
000002f0: 721f f03c 8e4f dcbd 6c17 b3be ebbf 8f3e
00000300: 6902 40be a7dd bd3e d8f0 9d3e 6bd8 6c3e
00000310: e1a4 41be 843c 243c c830 a93e 13d6 aebe
00000320: 1ca5 bbbb 7146 673d 37cf ea3e cacd abbe
00000330: 98a5 93be 6a23 8e3e cc7e 4ebe 0706 6f3e
00000340: 7113 0abe b03a 51be 37bc 863e 2fa2 853e
00000350: df7a 113e 33a8 cfbe ed27 883e 66c8 87be
00000360: 4c5d 37be b33a 533e 3672 ba3c 116c a13e
00000370: 7a06 323d 823c 573e fb20 2f3e ee87 b8be
00000380: aa99 2c3e dc45 49be a9c8 043f b310 173f
00000390: 35f1 233e 9ddd 85be 06dc 703e a3a4 bf3e
000003a0: b86d 983e accb d43d a61a e73d 7578 443e
000003b0: c85b bd3e fa9a 0e3f b067 ac3e 2efe ad3e
000003c0: 8064 8b3e 8473 ed3c b393 9ebe 6f01 703e
000003d0: f037 123f c73a debd 77f9 623e 58b0 603e
000003e0: 1e28 683e 727c 4c3e 361b f03e 7b79 76be
000003f0: 13d5 a93e ff96 73be c5db fd3e 8b46 e73e
-0.38666967 0.56233215 0.5517825 0.32553637 0.32955152 -0.2197834 0.49705634 -0.3887976
-0.08729184 -0.011352316 0.13464463 0.2896656 0.32302845 0.53202564 0.20945002 -0.06816878
0.35702986 0.337994 -0.24560264 0.009059977 0.35425374 0.116437435 0.5435998 0.13045982
-0.3890834 0.093075365 -0.3997251 -0.12241052 -0.1736747 0.32730132 0.20566703 0.5403438
-0.106819615 0.024863476 0.15471984 -0.3938162 0.52684915 0.18937953 0.32875007 0.13013376
-0.33263606 0.2558131 -0.028413162 0.22077261 0.47945085 0.27074337 -0.22894257 -0.31399885
-0.14697649 0.30702826 0.31477693 -0.18508519 -0.30743945 -0.35653365 -0.1576006 0.112823814
0.21685152 0.5380636 0.29492205 0.25457248 -0.37856284 -0.1519952 0.31865993 0.13409936
0.589754 0.1844924 0.12890004 -0.28274348 0.0648798 0.30222496 0.3552699 -0.34926528
0.22000416 0.1471146 -0.35194197 0.21994285 0.07459141 0.34203756 -0.14407437 0.22202925
0.30947846 0.34648663 0.2747429 0.14392366 0.045811065 0.263467 0.08720904 -0.018998425
0.5110268 0.18519898 0.5545396 0.24637674 0.24902229 0.1120939 -0.12728919 0.24690153
-0.14721444 0.08566266 0.23072845 -0.26260397 -0.028537503 0.22707215 0.25040585 0.37249956
0.26758078 0.40035984 -0.15945594 -0.17761388 0.24076235 -0.1370845 -0.22529098 0.2791387
0.22571328 -0.3019222 0.2632428 0.53141266 -0.40616992 -0.03131061 0.05279859 -0.22344588
0.5018114 0.25207543 -0.345421 -0.23829329 0.23157124 0.49290836 -0.21866162 -0.013441231
-0.32781923 0.3108381 0.09913238 -0.3236282 0.010920822 0.35435745 0.19563082 0.5694158
0.52575946 0.35456264 -0.37266418 0.3518412 0.19277151 -0.23162372 -0.28147098 0.6004616
-0.049762163 0.33893016 0.16640706 -0.3275043 0.15749255 0.043759402 0.015053658 0.26256126
0.01490418 0.3570097 -0.052545264 -0.18690713 0.18348472 0.22280362 -0.06587773 0.23598143
0.26988247 0.44023716 -0.23525998 0.23335342 0.23283255 0.34626922 0.053341445 -0.04275046
0.40485975 0.1893805 0.4954631 -0.10873982 0.48989534 -0.3668122 -0.030275978 -0.33662742
0.054607335 0.5611185 -0.23973316 -0.18069239 -0.27916738 0.32838067 0.23377304 -0.25418112
-0.35341164 0.18300696 -0.34386075 -0.25637794 0.02931187 -0.10757361 -0.34978807 0.2807611
-0.1875092 0.3708317 0.30847812 0.23129432 -0.18910553 0.010024194 0.3304503 -0.341477
-0.0057264697 0.056463663 0.45861217 -0.33555442 -0.28837276 0.27761394 -0.20165557 0.23342143
-0.13483979 -0.20432544 0.26315472 0.261003 0.14207028 -0.40558013 0.2659296 -0.2652008
-0.17906684 0.2062786 0.022759538 0.3152776 0.043463208 0.21019176 0.17102425 -0.36041206
0.16855493 -0.19655555 0.51868683 0.59009856 0.16009982 -0.2614564 0.23521432 0.37430295
0.2977121 0.1039041 0.1128438 0.19186576 0.36984086 0.55705225 0.33672857 0.33982986
0.27225113 0.028985746 -0.3097206 0.23438047 0.57116604 -0.10851055 0.22165476 0.2194227
0.22671553 0.19969347 0.4689576 -0.24069779 0.33170375 -0.23788069 0.49581733 0.45171008

net.2.weight f4 [256, 256]
00000000: 38d6 243d bc25 eabc 14ee 62bd fa6a 2bbd
00000010: a07c bdbb 2cb5 553d 2ee2 69bd da28 6b3d
00000020: 5453 663d 005f 493b fcb7 b8bc c09f 843c
00000030: 0458 703d 004d 02ba 3891 bdbc f2ac 52bd
00000040: 0cb4 11bd 4029 8a3c 30a1 89bb 209f a23c
00000050: 20f1 f13b 5852 813c 947d fc3c 8055 bcbc
00000060: 28d8 47bc 103d 6a3d 4485 003d 5ca0 273d
00000070: 18be a73c 20cb 52bd 3eb9 2abd 1851 07bc
00000080: 0205 323d 1e36 443d 407f 143c d8ab 3bbd
00000090: a8e7 633c 007a 9b39 8043 31bd e6d1 0b3d
000000a0: 707e 873c 0c79 183d 8807 c93c f035 b4bc
000000b0: 6ab0 793d 4a3b 123d 40ae b1bc 10db e0bc
000000c0: e066 553d 4cfc 413d 5aac 37bd 64e1 3ebd
000000d0: f8d4 bb3c 78c8 dc3c ee62 41bd 8873 b5bc
000000e0: e88e b23c ccfd 73bd 5e73 2d3d 00a1 ea3b
000000f0: 84ce 38bd 0030 cf37 a4e4 ec3c 6c97 cabc
00000100: 5c42 b8bc 6a7a 5a3d d82a 9bbc 748f 773d
00000110: 089d 59bc de7b 7ebd 5ca9 93bc d0d0 083c
00000120: a2db 343d e433 1d3d 921e 2f3d d4b7 46bd
00000130: 5829 283c 1eb9 3abd 6658 0ebd 78a1 143c
00000140: 3c55 68bd d260 2fbd 2cb7 26bd c82f 1c3c
00000150: 4010 eabb e42f 38bd 20a1 adbc f098 543c
00000160: 7838 c83c 5c77 7dbd 2a7a 4a3d 3635 17bd
00000170: 66a6 4fbd 2afc 17bd 1cde 51bd 7421 7dbd
00000180: 183d 413c 6e1a 6dbd 7600 0f3d 2cc7 0abd
00000190: 4cdb b7bc 00bb 25bb 5834 66bc bcb5 4fbd
000001a0: a828 313c e4a7 283d 6a07 7d3d 8029 05ba
000001b0: be91 39bd 40de 973c 943e 66bd 5854 61bd
000001c0: 88e2 373d 1e04 2bbd 40f2 043c c483 c3bc
000001d0: 6036 a8bc 3829 a0bc 242f 183d 0041 d6b9
000001e0: a20b 14bd f87e 5cbd fc7f f63c aa86 5ebd
000001f0: 2cc5 97bc f0a3 983c 6e9f 623d 10aa 71bc
00000200: ac2b 83bc 0cc1 b3bc d411 d33c 8068 a0ba
00000210: dcba cd3c 563b 47bd 10ee 33bc 5e58 18bd
00000220: 4070 cd3b 6896 503d 00d8 223c 8005 3c3d
00000230: 063c 253d 749d 7bbd 42b7 51bd 607d 6abd
00000240: e8b4 15bc 0c85 14bd d4a4 5d3d 1052 82bc
00000250: 40e4 71bc b0b1 f33c 1e86 14bd d0d4 06bc
00000260: dec4 5f3d c8fb 513c f2ee 1dbd a0b2 d63b
00000270: 30a4 5fbc b007 5b3d 9063 babb a035 0ebd
00000280: c086 cf3c 68b5 2dbd 7c16 7e3d 5682 743d
00000290: 8c07 a4bc d03d e23c ee3d 1f3d a883 473d
000002a0: 728f 5ebd 2a9a 40bd 36ca 2a3d 5229 41bd
000002b0: 7000 db3c f800 773d 6088 1dbd 622c 1b3d
000002c0: 2054 163d bc77 f83c 446f 90bc baa6 433d
000002d0: 7c69 08bd d86f b63c 4093 e5bc 0096 4a3b
000002e0: 0090 08bd 14d5 6a3d ac09 6a3d 44e2 edbc
000002f0: 68db 433d 64f9 993c 4a75 36bd ba08 0ebd
00000300: e4d7 eebc a0b1 8e3c dc11 7cbd 6ecc 643d
00000310: 6a91 20bd 2a4f 4fbd f455 27bd 5cf9 cd3c
00000320: 7860 f33c f010 a6bb dcab 593d 9494 90bc
00000330: 70f7 f7bb 52bd 4bbd 8421 78bd 5cfb e23c
00000340: 7c8e 6a3d 3053 143c 4c71 d8bc 9ce2 eb3c
00000350: 6ee9 373d 8098 083c 364f 373d 2c2e cdbc
00000360: 44ea 37bd 1878 4abc 6001 50bd 405a e1bc
00000370: 6ee2 51bd 987b 243c 8c8d 2e3d aece 2c3d
00000380: a872 64bd 82fd 62bd b8fa b73c 0054 08ba
00000390: 90c0 4bbd 548e 6c3d 082f 213c 6040 5f3c
000003a0: cacb 583d 14b4 8ebc 1440 a8bc 60d1 fc3b
000003b0: f0b8 013c 6855 29bc f452 d73c 38fc 163c
000003c0: bed7 1cbd 508d 273d 184f 3abd 0e38 2a3d
000003d0: 981b 00bc e0ef 3a3b 7887 733d c0b5 f83a
000003e0: 7419 b33c 52e8 5dbd 207a 0ebc ece5 043d
000003f0: 3855 a7bc 30fb c0bc 0abb 693d c43e fc3c
0.040243357 -0.028582446 -0.05540283 -0.041850068 -0.0057826787 0.052174732 -0.057100467 0.057412006
0.05623181 0.003072679 -0.022548668 0.016189456 0.05867769 -0.00049705803 -0.023140535 -0.051434465
-0.035572097 0.016865373 -0.0042001233 0.019851267 0.0073834807 0.015786335 0.030821599 -0.022989988
-0.012197532 0.05718714 0.031377092 0.040924415 0.020476386 -0.051463246 -0.041680567 -0.00825908
0.043461807 0.047903173 0.009063542 -0.04581818 0.013910212 0.000296548 -0.043277264 0.03413572
0.016539782 0.037224814 0.024539724 -0.021998376 0.060959257 0.035701074 -0.021689534 -0.027448207
0.052100062 0.04735975 -0.0448421 -0.046601668 0.0229287 0.02695106 -0.047213487 -0.022149816
0.021796659 -0.05956821 0.04234635 0.007160306 -0.045118824 2.4698675e-05 0.028917618 -0.024730407
-0.02249258 0.0533394 -0.018941328 0.060439542 -0.013282068 -0.062129848 -0.018025093 0.008350566
0.04415477 0.038379565 0.042753763 -0.048515156 0.010263763 -0.045586698 -0.034752272 0.0090717
-0.05672191 -0.042816944 -0.04070203 0.009532876 -0.0071430504 -0.044967547 -0.021194994 0.012975916
0.024440989 -0.061881408 0.04943291 -0.03691598 -0.0506958 -0.037105717 -0.05123721 -0.06179948
0.011794351 -0.057886533 0.03491255 -0.03388135 -0.022443436 -0.0025288463 -0.014050566 -0.050710425
0.010812916 0.041175738 0.06177465 -0.00050797313 -0.045305006 0.018538594 -0.056212023 -0.055012077
0.04489377 -0.041751973 0.0081143975 -0.023866542 -0.02053374 -0.019550905 0.03715433 -0.0004086569
-0.036143906 -0.053832024 0.030090325 -0.054327644 -0.018526636 0.018632859 0.055327825 -0.014750019
-0.016012035 -0.021942638 0.025765337 -0.0012238175 0.025113516 -0.04864057 -0.0109820515 -0.03719365
0.0062694848 0.05092469 0.009939194 0.045903683 0.040340446 -0.061429456 -0.05120016 -0.057248473
-0.00913737 -0.036259696 0.05411227 -0.015908271 -0.014763892 0.029747814 -0.036260717 -0.008229449
0.054631107 0.012816377 -0.038557954 0.0065520555 -0.013649985 0.05347413 -0.0056881383 -0.03471911
0.025332808 -0.04240933 0.06203316 0.05969461 -0.02002313 0.027617365 0.03887742 0.04870954
-0.05433602 -0.047022022 0.04169675 -0.047158547 0.026733607 0.06030366 -0.038460135 0.037884124
0.03670132 0.030330531 -0.01763118 0.047766425 -0.033303723 0.022270128 -0.028024316 0.003091216
-0.033340454 0.057332113 0.05713813 -0.029038556 0.047816664 0.018795677 -0.04454545 -0.03467629
-0.029155679 0.017418683 -0.06154047 0.05585902 -0.039201178 -0.050612606 -0.040853456 0.025143318
0.029709086 -0.005067937 0.053142413 -0.017648973 -0.0075673386 -0.049741097 -0.060578838 0.027707748
0.05726479 0.009053037 -0.026421212 0.02879458 0.04490035 0.00833714 0.044753276 -0.02504643
-0.044901147 -0.012357734 -0.05078256 -0.027508855 -0.05124133 0.010039233 0.04261546 0.042189293
-0.055773407 -0.055417545 0.02245842 -0.0005200505 -0.04974419 0.057752922 0.009837873 0.013626188
0.052928723 -0.017419852 -0.020538367 0.007715389 0.007917628 -0.010335304 0.026284672 0.009215407
-0.038291685 0.04090625 -0.045485586 0.041557364 -0.007819079 0.0028524324 0.059455365 0.0018975064
0.021862723 -0.054176636 -0.008696109 0.032445833 -0.020426378 -0.023557276 0.05706314 0.030791648

net.2.bias f4 [256]
00000000: f8ea d7bc 94a1 b63c 551b 9dbd e7bf 41be
00000010: 21e6 d4bd 3efb dc3c 9219 cbbd bacc 4c3d
00000020: 444b b1bc da2b a13e 70a4 f8bc df79 ee3c
00000030: aa77 5ebd 8b1c 443d d522 78bd d04f 8a3c
00000040: 0cfa 1ebd a827 d3bc 244b 7ebd bfa4 f5bc
00000050: 987a 2d3d 2eef d4bc 12a4 57bd f3be 07bd
00000060: 4178 c13d 1288 81bc 3d15 be3b 2b56 3abc
00000070: 914b 793e 7ae8 0abd 439d 3f3c 28fa ed3c
00000080: c602 b0bd 4f72 683d 92fa 59bd cdd9 273e
00000090: b88f e73c 6a85 603d f4c2 dd3c f1a6 953e
000000a0: dd53 983d f99b 6f3c 9f76 433e 90ce f73b
000000b0: 93e3 153d 080e 17bc 8d9d f2bc 5583 f7bd
000000c0: 106c a43b cc2a b6bd 8230 023d e2f9 6cbd
000000d0: a3c2 b4bb 2457 50bd 3ed3 c13b d7b9 8a3e
000000e0: 3baf 2e3d 66b8 4dbd 6314 d03d 2337 67bd
000000f0: f037 5f3c af79 b33c f8fe 20bd f7a2 66bd
00000100: 88a8 f2bc 26dd 6e3e 7824 6a3c c327 ff3d
00000110: 2cd2 153d 20fb 61bb b8c3 c1bc f3d0 303e
00000120: c35a 543e c0f8 663d 8b87 34bd 20b0 40bb
00000130: e69f 1dbd 7d3b 5f3d c7d3 2dbd e75f 663d
00000140: 27d1 0dbe 78ff 56bc c883 0abc afd9 14bd
00000150: 3e9c 733d ff24 59bd 601d 84bc 0623 1cbb
00000160: 8d93 75bd 1370 6dbd ba61 75bd 1693 653d
00000170: 0e48 e03c beb6 41bd 294c 65bc 8f2f 21bc
00000180: 8644 a33d 27e6 163d 50ad 7bbc 286d 55bb
00000190: fb9d 3fbc 5509 e3bb 7fde 5ebc 38f7 e03c
000001a0: 546d 37bd 8297 26bd 7697 8fbc 7ea8 9c3d
000001b0: 7ca8 88bd 80a2 25bd a27e 6fbc b8d9 aa3c
000001c0: 018a 133e 66e7 5d3c 0388 2bbd ab36 e73d
000001d0: 59be de3c c232 83bd e455 d1bd 0c11 9e3c
000001e0: 86b1 123d 0776 133d 13c9 52bc c73f 873d
000001f0: ead7 5b3d 6798 e0bc 18dc afbc 8851 babc
00000200: 768a 9fbd 11af f13d 90c2 953e 289a 19bc
00000210: 571d a1bc e3b9 ff3c 9270 d43a 15b1 23be
00000220: 7367 aabb 81f6 d63c e80a ad3c 0efb fabb
00000230: fe92 a13d 0cbe b0bd 1267 22bb 3a10 a3bc
00000240: d410 d53b 268a 73bc e94b 503c 6a7d 13be
00000250: e2da 7dbd cfd8 10ba b729 413c b893 1d3d
00000260: 4173 b4bd bf5b 163e 20c3 063d f474 c13e
00000270: 0c79 a0bc 61d1 303e 253c 963d 3b76 663d
00000280: 48db afbd bb29 a9bc c7c0 4e3e 47a8 0fbc
00000290: 6935 803e 9e39 163d e121 103e d0b0 1c3d
000002a0: 7211 61bd 42ca 78bd f7f6 49bd c958 4bbd
000002b0: f09c 43bd 9193 23bd e05e 623b 9eca 75bd
000002c0: f4cf 49bd c75b 233e 62ab 92bc a7cc babc
000002d0: 3404 133d 4642 03bd 6465 b7bb 5534 573d
000002e0: 5984 cebd 04a8 a63c 4a35 26bd f11b 01bd
000002f0: e079 70bd 2493 123d 228b 45bd 4bae 153d
00000300: c27e a03c 7c06 95bc 725d fcbd fa9c 48bd
00000310: a11d a93d 101e 303d a6e9 583c 2d58 f5bc
00000320: 4812 4bbd d288 263d 95fe 58bd e05f 77bd
00000330: 61b6 0dbd a566 f93c 7e2c 3d3d d283 24bd
00000340: c045 9bbb 23ba 6e3c 9aea 813e 516e 2e3d
00000350: bcca ba3c f9ca 26bc 32e7 463e df8b 093d
00000360: 9470 03bd 86bc 4b3d 4cda 0e3d 7e75 e9bc
00000370: d468 cbbc c846 c73c a4d9 2ebd 8199 7abd
00000380: 9032 02bd 4697 403a 18ba 22bd d9d7 043d
00000390: 807a 773d ac47 0cbd 8a65 a93b 070b 1d3d
000003a0: 9072 503d da43 4dbc 5832 84bd 11b4 403b
000003b0: 253d d83c f880 6ebc 1dcd 8f3e 471d bcbc
000003c0: 0099 19bd 0822 1abd fbd7 58bd 2ffb e0bb
000003d0: 2cb4 373c 1957 5dbd ce5f 53bd e818 493c
000003e0: 7b05 bf3d f2fb 583d 7a04 4c3d 2d17 543d
000003f0: 8c42 41bd 3507 06be d408 f03b d07c 03be
-0.026357159 0.022293843 -0.07671229 -0.18920861 -0.10395456 0.02697527 -0.099169865 0.04999993
-0.021642335 0.3147877 -0.030351847 0.029110847 -0.05431334 0.047878783 -0.060580093 0.01688376
-0.038812682 -0.025775746 -0.06208338 -0.029985784 0.042353243 -0.025992956 -0.052646704 -0.033141088
0.09446765 -0.015811954 0.0058008716 -0.011373083 0.24345233 -0.033913113 0.011695209 0.029049948
-0.08594279 0.05674964 -0.053217478 0.16391678 0.028266773 0.054814734 0.0270705 0.2922893
0.07437871 0.014624589 0.19088219 0.007562466 0.036593985 -0.009219654 -0.029616142 -0.120855965
0.005017765 -0.088948816 0.031784542 -0.057855494 -0.0055163666 -0.050864354 0.0059150746 0.2709491
0.04264758 -0.050224684 0.101601385 -0.056449067 0.013624176 0.02190861 -0.039305657 -0.05630776
-0.029621378 0.23326549 0.014290921 0.12458756 0.03657739 -0.0034481958 -0.023652896 0.17267208
0.20737748 0.05638957 -0.044074576 -0.0029401854 -0.03848257 0.05450009 -0.042438295 0.056243803
-0.13849317 -0.013122432 -0.008454271 -0.03634041 0.059475176 -0.053013798 -0.016127288 -0.0023824587
-0.05995517 -0.05796821 -0.059907652 0.056048475 0.027378108 -0.047293417 -0.013995209 -0.009837999
0.07972054 0.036840584 -0.015361145 -0.0032566283 -0.01169538 -0.0069286027 -0.013602852 0.027461633
-0.044781998 -0.040671833 -0.017528277 0.07649325 -0.06672761 -0.040438175 -0.014617594 0.02085577
0.14408113 0.013543939 -0.041877758 0.11289724 0.027190374 -0.06406166 -0.102214605 0.019295238
0.03581383 0.03600123 -0.012865323 0.066039614 0.05367271 -0.027416421 -0.021467254 -0.022743955
-0.07790081 0.118009694 0.29250002 -0.009375133 -0.01966731 0.031216567 0.0016207865 -0.1598552
-0.0052003204 0.02624059 0.021123365 -0.0076593226 0.07889365 -0.086299986 -0.0024780673 -0.019905198
0.00650225 -0.01486448 0.012713411 -0.1440331 -0.06197632 -0.0005525471 0.011789731 0.038470954
-0.088110454 0.14683436 0.03290093 0.3778454 -0.01958897 0.17267372 0.073356904 0.056265097
-0.085867465 -0.020649781 0.20190726 -0.008768148 0.2504075 0.03667604 0.14075424 0.03825456
-0.054948278 -0.060739763 -0.04930779 -0.04964522 -0.04775709 -0.039935652 0.0034541413 -0.060007684
-0.049270585 0.15952979 -0.017903987 -0.022802664 0.03589268 -0.032045625 -0.0055968035 0.052540142
-0.10083837 0.020343788 -0.040578164 -0.031520788 -0.05870998 0.035784855 -0.04822839 0.03654317
0.019591693 -0.018191569 -0.12322511 -0.04897783 0.082576044 0.04299742 0.0132393 -0.029949272
-0.04957798 0.040657826 -0.052977163 -0.060394168 -0.03459776 0.030444453 0.04618501 -0.040164776
-0.0047385395 0.014570746 0.253743 0.042585675 0.02280175 -0.010180228 0.19424132 0.033580657
-0.032089785 0.049740337 0.034876153 -0.028498407 -0.02483026 0.024325743 -0.042688027 -0.06118155
-0.0317865 0.000734676 -0.039728254 0.03243241 0.06041956 -0.03424804 0.005169575 0.038340595
0.050890505 -0.012528384 -0.06454915 0.0029404203 0.026396343 -0.014557116 0.28086177 -0.02296318
-0.037499428 -0.03763011 -0.05294035 -0.006865881 0.01121239 -0.05403814 -0.05160504 0.0122740045
0.09327217 0.05297465 0.049808957 0.051779915 -0.047182605 -0.13088687 0.007325271 -0.12840581

net.4.weight f4 [1, 256]
00000000: 4c7b 2dbd fb2c 5d3f 01e1 09bf 480a 86bf
00000010: 6b17 33bf 455f 493d fa06 5abf 8732 3a3d
00000020: ac06 ba3c f4ab d43e 5a04 0dbf 40f9 a93c
00000030: 726a 0cbd 57c2 803c ebe7 85bf 8bcd 00bd
00000040: b208 c3bf f82f 473d 8874 21bc 1c73 46bf
00000050: dc89 0b3d 2111 5fbf 0c29 e13c 708e b43c
00000060: 3abc 9d3e 0480 07bf a19f 00bf e59b 0dc0
00000070: b9fc cd3e 7057 7bbf f768 07c0 cbbd 383d
00000080: d8a2 65bf f66a d63c c2cf 03bd d7e5 513f
00000090: 2394 a83c 1841 59bd d6ee 6b3d 580d db3e
000000a0: 6fcf 0440 ebb4 113b 4a10 603f 7a1f 483d
000000b0: ff67 adbf 80a6 623d f088 f43c a153 40bf
000000c0: 5029 5a3d dff3 9abf 09fe 72bf 54e0 f8bb
000000d0: 9e52 4c3f e05f 4fbc ce1a 65bf 3212 2a3f
000000e0: 23bb ac3e a8c2 42bc d9df 0a40 3302 553f
000000f0: c05e c13b 4380 3c3d 0f8a 04bf 1297 37bf
00000100: 8c74 d4bc 1bc4 193f 546c b7bc 412a 2f3f
00000110: ad6d f23b c084 63bd d4f5 573d 8506 203f
00000120: 0e28 253f 02e1 443f 2df3 04bf 76a1 17bd
00000130: cc24 d8bc f8a7 643d ebc6 70bf b5d1 9e3e
00000140: bad3 3fbf 298f d9bf c4ea c8bc d9a9 02bf
00000150: 40ce 493d e5fc 3cbd 708d 0ebf dd9c bfbf
00000160: 3566 133d 05cb d4bb f57e efbf ce59 103d
00000170: d64e 683d ce10 33bd 843e 57bf d5cf 38bf
00000180: be1e 343f 7b19 07c0 c024 b13b 5afd 9cbc
00000190: 56b0 16bd 0ba2 8f3c a1f3 683f 2931 1f3d
000001a0: 1657 08bd 21c3 26bd 42e0 4e3d 38f5 04c0
000001b0: 564b 1d3b 529b 0e3d 3fd7 60bf c045 77bb
000001c0: 649a a53e 4acd 273d 5929 00bf 8475 523f
000001d0: 7cdd 5c3d 6761 4bbf eac4 a0bf 0023 51bc
000001e0: 5e36 1cbd a484 433d fddd 2abf 1283 04c0
000001f0: f313 bfbf ebd4 85bb d0d4 e9bc 2cb7 f03c
00000200: 98ec 813f 03a7 96bf ebc2 2e3f a093 253d
00000210: 19c4 313d 794b d3bc d342 2f3f 3846 3fbf
00000220: 50db 373c c3ce 44bd 2441 36bd 624c 80bf
00000230: c446 80bf 42a6 2abf b033 50bc f7b4 90bf
00000240: 405f a2bc 5191 e6bc 3aae 04c0 a65e 893f
00000250: 0cec 8b3c b04d 96bf bc2c d03a b089 123c
00000260: a823 05bf f3af 263f 0edd cebf 8a5a da3e
00000270: d29e 073d b8cb 243f ee62 a23f c478 89bf
00000280: 7168 54bf 6bda c53b 1e32 1e3f 17cc a53c
00000290: 2d98 5d3f 88aa 0d3d 7ced 263f 6f07 17bd
000002a0: 7da9 06bf a47f 9e3c 5980 88bd e22e 663d
000002b0: 23cb 75bf 4a4a 123d 86de 433d ea92 17bc
000002c0: c8d0 053d 4a1d b73e a049 a8bf 055e 5d3b
000002d0: b982 b1bd e5a8 8abc 574a 00bf 62a4 f4bc
000002e0: c956 67bf f691 453d 51de e2ba 150a 0c3d
000002f0: e8de 143c a086 dfbf 00f2 34ba 62d5 ce3c
00000300: bafa 18c0 08b0 07bd 60ea 36bf 608e 5fbb
00000310: 25a4 73bf 1350 693d b0dd 5a3f dc20 b7bf
00000320: 7877 133d 5c68 6e3d 1a9c 03bf 1c49 3dbd
00000330: 77d4 41bf 0408 a1bf bc86 abbd 00af efba
00000340: 906e 5dbc a064 6dbc f5c4 5f3f c7c1 3c3d
00000350: 32d9 443d 539b 3b3d a5bf 0a40 836e c6bf
00000360: c083 6c3b 8ea3 00bd fdfc 0fc0 85a8 8a3b
00000370: a226 18bd bc5c 8fbc 4477 0cbf 7065 093d
00000380: 3c7e a6bc ca03 0cbf 1720 ac3a 2ec2 fd3c
00000390: 4915 4c3f 541d 293f a8a9 28bc 9da0 88ba
000003a0: f284 403d 9484 efbd 68e9 29bd 0b07 dabf
000003b0: 03e5 96bf 5a46 12bf f350 133f b35e 71bd
000003c0: 3cb9 9abc 9107 a5bf 11df 303d 0a46 293d
000003d0: 64da 893f 8e30 5abc 5066 0ebc 6066 cd3b
000003e0: e952 64bf 342c 1ebd d833 113c 1760 6dbf
000003f0: 0868 6a3d 5876 42bf 227a 673d b1ed 6fbf
-0.042353913 0.8639676 -0.53858954 -1.0471888 -0.6995761 0.04916312 -0.85166895 0.045458343
0.02270826 0.4153744 -0.55084765 0.020748734 -0.0342812 0.015717668 -1.0461401 -0.03144602
-1.5237029 0.04862973 -0.009854443 -0.7751939 0.03406702 -0.8713551 0.027485393 0.022040576
0.30807668 -0.5292971 -0.50243574 -2.21264 0.40231875 -0.98180294 -2.1157815 0.045102876
-0.89701605 0.02617405 -0.032180555 0.8199133 0.02057845 -0.053040594 0.05760082 0.42783618
2.0751607 0.002223308 0.87524855 0.048858143 -1.3547362 0.055334568 0.029850453 -0.7512761
0.053262055 -1.2105674 -0.94918877 -0.0075951014 0.79813564 -0.012657136 -0.89494026 0.66434014
0.33736524 -0.01188723 2.1699126 0.8320648 0.0059011877 0.046020757 -0.5177316 -0.7171489
-0.02593448 0.6006486 -0.022390522 0.6842385 0.0073983283 -0.055546522 0.052724674 0.6250995
0.64514244 0.76905835 -0.51933557 -0.037019216 -0.026384734 0.05582425 -0.94053525 0.3101937
-0.74932444 -1.6996814 -0.024526007 -0.51040417 0.04926896 -0.046139617 -0.55684566 -1.4969746
0.035986144 -0.0064939284 -1.8710619 0.035241894 0.05671581 -0.043717198 -0.84079766 -0.72192127
0.7035941 -2.1109302 0.0054059923 -0.019163776 -0.03678926 0.017533323 0.9099675 0.038865242
-0.033286177 -0.040713433 0.050506838 -2.077467 0.0024001203 0.034816094 -0.8782844 -0.0037730783
0.32344353 0.040967263 -0.5006309 0.82210565 0.05392216 -0.794455 -1.2560093 -0.012764692
-0.038137786 0.047733918 -0.6674498 -2.0705 -1.4927963 -0.0040842197 -0.02854386 0.029384218
1.0150328 -1.1769718 0.6826617 0.04042399 0.043399904 -0.025792824 0.6846134 -0.7471652
0.011221722 -0.048048746 -0.044495717 -1.002331 -1.0021596 -0.6665994 -0.012707636 -1.1305226
-0.01982081 -0.028145464 -2.073134 1.073201 0.01708033 -1.1742458 0.0015882473 0.00894396
-0.5200753 0.6511223 -1.616121 0.426472 0.033110447 0.6437335 1.2686441 -1.073998
-0.82971865 0.0060380003 0.6179522 0.02023892 0.86560327 0.03458646 0.6520612 -0.036872324
-0.5260237 0.019347973 -0.066651054 0.056197055 -0.9601309 0.03571538 0.047819637 -0.009251336
0.032669812 0.35764533 -1.3147469 0.0033777964 -0.086675115 -0.016926238 -0.50113434 -0.02986354
-0.903668 0.048234902 -0.0017308687 0.034189302 0.009086348 -1.7462959 -0.0006902516 0.025248233
-2.3903031 -0.03312686 -0.7145138 -0.0034111962 -0.9517234 0.05696113 0.8549452 -1.4306903
0.036002606 0.058204994 -0.5141007 -0.0462123 -0.7571482 -1.2580571 -0.08375308 -0.0018286407
-0.01351513 -0.014489323 0.8740991 0.046083238 0.048058696 0.045802426 2.167947 -1.5502476
0.0036089271 -0.031405978 -2.2498162 0.004231515 -0.037146218 -0.017500274 -0.54869485 0.033544004
-0.020323865 -0.5469328 0.0013132122 0.030976381 0.7971998 0.66060376 -0.010294355 -0.0010423843
0.047001787 -0.11695209 -0.04148236 -1.7033399 -1.1788639 -0.571386 0.57545394 -0.058928203
-0.018887155 -1.2892934 0.043181483 0.04132656 1.0769773 -0.01331724 -0.008691385 0.0062683076
-0.8918901 -0.038616374 0.008862458 -0.92724746 0.05722812 -0.7596183 0.05651296 -0.93722063

exp_avg f4 [256, 6]
00000000: 0000 0000 0000 0000 0000 0000 0000 0000
00000010: 0000 0000 0000 0000 84c4 6e3d dd7e 29bc
00000020: 0000 0000 0000 0000 0000 0000 0000 0000
00000030: 6d0a 023d 2a5a c3bb 0000 0000 0000 0000
00000040: 0000 0000 0000 0000 a96c 283b 3f3e d53a
00000050: 0000 0000 0000 0000 0000 0000 0000 0000
00000060: 8ae2 71be f034 b43c 0000 0000 0000 0000
00000070: 0000 0000 0000 0000 0000 0000 0000 0000
00000080: 0000 0000 0000 0000 0000 0000 0000 0000
00000090: 727b 503d 0b3a 21bc 0000 0000 0000 0000
000000a0: 0000 0000 0000 0000 0000 0000 0000 0000
000000b0: 0000 0000 0000 0000 0000 0000 0000 0000
000000c0: 0000 0000 0000 0000 0000 0000 0000 0000
000000d0: 0000 0000 0000 0000 0400 0080 0400 0080
000000e0: 0000 0000 0000 0000 0000 0000 0000 0000
000000f0: edb4 39bd 73fc d8bb 0000 0000 0000 0000
00000100: 0000 0000 0000 0000 1a56 8a3c 2312 24bb
00000110: 0000 0000 0000 0000 0000 0000 0000 0000
00000120: c847 833b f3cc bd3a 0000 0000 0000 0000
00000130: 0000 0000 0000 0000 6224 a03c 0a00 8cbb
00000140: 0000 0000 0000 0000 0000 0000 0000 0000
00000150: 4e87 b5bb f688 973b 0000 0000 0000 0000
00000160: 0000 0000 0000 0000 3413 93bd 3236 f33a
00000170: 0000 0000 0000 0000 0000 0000 0000 0000
00000180: 8f3b 09bb 57d9 453b 0000 0000 0000 0000
00000190: 0000 0000 0000 0000 c3b3 88bb 8455 6a3b
000001a0: 0000 0000 0000 0000 0000 0000 0000 0000
000001b0: 0000 0000 0000 0000 0000 0000 0000 0000
000001c0: 0000 0000 0000 0000 66d1 5dbe 262a 893b
000001d0: 0000 0000 0000 0000 0000 0000 0000 0000
000001e0: c5fa c0bb 2786 723a 0000 0000 0000 0000
000001f0: 0000 0000 0000 0000 a9ae 2b3b bcb9 bf3a
00000200: 0000 0000 0000 0000 0000 0000 0000 0000
00000210: 2a5a 853d aef7 5bbc 0000 0000 0000 0000
00000220: 0000 0000 0000 0000 f8b9 7bbb e8cd 813b
00000230: 0000 0000 0000 0000 0000 0000 0000 0000
00000240: 0000 0000 0000 0000 0000 0000 0000 0000
00000250: 0000 0000 0000 0000 5065 dbbb 47d2 b2bb
00000260: 0000 0000 0000 0000 0000 0000 0000 0000
00000270: 0000 0000 0000 0000 0000 0000 0000 0000
00000280: 0000 0000 0000 0000 0000 0000 0000 0000
00000290: 0000 0000 0000 0000 0000 0000 0000 0000
000002a0: 8cfa 9dbe 47fc 3d3c 0000 0000 0000 0000
000002b0: 0000 0000 0000 0000 94c0 103c 59a9 f238
000002c0: 0000 0000 0000 0000 0000 0000 0000 0000
000002d0: 5fc5 9abd 791a a43a 0000 0000 0000 0000
000002e0: 0000 0000 0000 0000 6766 283d fa97 01bc
000002f0: 0000 0000 0000 0000 0000 0000 0000 0000
00000300: 0000 0000 0000 0000 0000 0000 0000 0000
00000310: 0000 0000 0000 0000 7d6b 2ebd a26e 3ebc
00000320: 0000 0000 0000 0000 0000 0000 0000 0000
00000330: 7ba6 d73c 6d28 14bc 0000 0000 0000 0000
00000340: 0000 0000 0000 0000 0000 0000 0000 0000
00000350: 0000 0000 0000 0000 0000 0000 0000 0000
00000360: 26e3 153d 1e58 ecbb 0000 0000 0000 0000
00000370: 0000 0000 0000 0000 e382 60bc 4bd2 c23b
00000380: 0000 0000 0000 0000 0000 0000 0000 0000
00000390: 0381 af3d 263a 6dbc 0000 0000 0000 0000
000003a0: 0000 0000 0000 0000 409d 033e fd6a f2bb
000003b0: 0000 0000 0000 0000 0000 0000 0000 0000
000003c0: 0000 0000 0000 0000 0000 0000 0000 0000
000003d0: 0000 0000 0000 0000 60e4 55bb fe5f 133b
000003e0: 0000 0000 0000 0000 0000 0000 0000 0000
000003f0: 0400 0080 0400 0000 0000 0000 0000 0000
0.0 0.0 0.0 0.0 0.0 0.0 0.05829288 -0.010345188
0.0 0.0 0.0 0.0 0.031748224 -0.005961676 0.0 0.0
0.0 0.0 0.0025699532 0.0016269161 0.0 0.0 0.0 0.0
-0.23621574 0.021997899 0.0 0.0 0.0 0.0 0.0 0.0
0.0 0.0 0.0 0.0 0.050898977 -0.009840499 0.0 0.0
0.0 0.0 0.0 0.0 0.0 0.0 0.0 0.0
0.0 0.0 0.0 0.0 0.0 0.0 -6e-45 -6e-45
0.0 0.0 0.0 0.0 -0.04533856 -0.006621891 0.0 0.0
0.0 0.0 0.01688676 -0.0025035224 0.0 0.0 0.0 0.0
0.0040063597 0.0014480635 0.0 0.0 0.0 0.0 0.019548599 -0.0042724656
0.0 0.0 0.0 0.0 -0.005539811 0.0046244813 0.0 0.0
0.0 0.0 -0.07181397 0.001855558 0.0 0.0 0.0 0.0
-0.002094004 0.003018936 0.0 0.0 0.0 0.0 -0.00417182 0.0035756538
0.0 0.0 0.0 0.0 0.0 0.0 0.0 0.0
0.0 0.0 -0.2166191 0.0041859327 0.0 0.0 0.0 0.0
-0.005889269 0.00092515576 0.0 0.0 0.0 0.0 0.0026196635 0.0014627497
0.0 0.0 0.0 0.0 0.06511338 -0.013425751 0.0 0.0
0.0 0.0 -0.0038410407 0.0039613135 0.0 0.0 0.0 0.0
0.0 0.0 0.0 0.0 0.0 0.0 -0.006695427 -0.005457196
0.0 0.0 0.0 0.0 0.0 0.0 0.0 0.0
0.0 0.0 0.0 0.0 0.0 0.0 0.0 0.0
-0.30855215 0.011595792 0.0 0.0 0.0 0.0 0.008834977 0.00011571003
0.0 0.0 0.0 0.0 -0.07557177 0.0012520096 0.0 0.0
0.0 0.0 0.041113283 -0.007909769 0.0 0.0 0.0 0.0
0.0 0.0 0.0 0.0 0.0 0.0 -0.042582978 -0.011623057
0.0 0.0 0.0 0.0 0.026324501 -0.009042841 0.0 0.0
0.0 0.0 0.0 0.0 0.0 0.0 0.0 0.0
0.03659358 -0.007212653 0.0 0.0 0.0 0.0 -0.013703081 0.005945479
0.0 0.0 0.0 0.0 0.08569529 -0.014479196 0.0 0.0
0.0 0.0 0.12852955 -0.007398008 0.0 0.0 0.0 0.0
0.0 0.0 0.0 0.0 0.0 0.0 -0.0032637343 0.0022487636
0.0 0.0 0.0 0.0 -6e-45 6e-45 0.0 0.0

exp_avg_sq f4 [256, 6]
00000000: 0000 0000 0000 0000 0000 0000 0000 0000
00000010: 0000 0000 0000 0000 7b24 5b3d 5eb9 3b39
00000020: 0000 0000 0000 0000 0000 0000 0000 0000
00000030: 4914 e03c f4f3 9438 0000 0000 0000 0000
00000040: 0000 0000 0000 0000 6bbe c53b 13a1 3c37
00000050: 0000 0000 0000 0000 0000 0000 0000 0000
00000060: a4ac 893d 638a 303a 0000 0000 0000 0000
00000070: 0000 0000 0000 0000 0000 0000 0000 0000
00000080: 0000 0000 0000 0000 0000 0000 0000 0000
00000090: ef95 3e3d d4f3 2039 0000 0000 0000 0000
000000a0: 0000 0000 0000 0000 0000 0000 0000 0000
000000b0: 0000 0000 0000 0000 0000 0000 0000 0000
000000c0: 0000 0000 0000 0000 0000 0000 0000 0000
000000d0: 0000 0000 0000 0000 f401 0000 f401 0000
000000e0: 0000 0000 0000 0000 0000 0000 0000 0000
000000f0: 079a 9e3e ca87 9739 0000 0000 0000 0000
00000100: 0000 0000 0000 0000 5017 a93b d86c 6037
00000110: 0000 0000 0000 0000 0000 0000 0000 0000
00000120: 2d62 883c 7c69 d637 0000 0000 0000 0000
00000130: 0000 0000 0000 0000 c7e8 663c 1664 0e38
00000140: 0000 0000 0000 0000 0000 0000 0000 0000
00000150: 47be 063d 1cb1 8238 0000 0000 0000 0000
00000160: 0000 0000 0000 0000 af48 6d3d 50f7 9a38
00000170: 0000 0000 0000 0000 0000 0000 0000 0000
00000180: 791c 813c f1d8 f737 0000 0000 0000 0000
00000190: 0000 0000 0000 0000 4a88 013d c4d4 6e38
000001a0: 0000 0000 0000 0000 0000 0000 0000 0000
000001b0: 0000 0000 0000 0000 0000 0000 0000 0000
000001c0: 0000 0000 0000 0000 5920 393f 8b38 813a
000001d0: 0000 0000 0000 0000 0000 0000 0000 0000
000001e0: b941 a23b 38a6 3b37 0000 0000 0000 0000
000001f0: 0000 0000 0000 0000 8f1b 153c 7386 7637
00000200: 0000 0000 0000 0000 0000 0000 0000 0000
00000210: 0c88 d13d 9b64 a039 0000 0000 0000 0000
00000220: 0000 0000 0000 0000 0cdf 993c 5f5a 1c38
00000230: 0000 0000 0000 0000 0000 0000 0000 0000
00000240: 0000 0000 0000 0000 0000 0000 0000 0000
00000250: 0000 0000 0000 0000 2f82 133e 543c 8939
00000260: 0000 0000 0000 0000 0000 0000 0000 0000
00000270: 0000 0000 0000 0000 0000 0000 0000 0000
00000280: 0000 0000 0000 0000 0000 0000 0000 0000
00000290: 0000 0000 0000 0000 0000 0000 0000 0000
000002a0: ae65 8b3f da48 703a 0000 0000 0000 0000
000002b0: 0000 0000 0000 0000 bd68 313b 9b72 0837
000002c0: 0000 0000 0000 0000 0000 0000 0000 0000
000002d0: 0535 013e 4c77 f338 0000 0000 0000 0000
000002e0: 0000 0000 0000 0000 60e3 3d3d 3739 0139
000002f0: 0000 0000 0000 0000 0000 0000 0000 0000
00000300: 0000 0000 0000 0000 0000 0000 0000 0000
00000310: 0000 0000 0000 0000 9731 bb3e ba0e e539
00000320: 0000 0000 0000 0000 0000 0000 0000 0000
00000330: f4c9 a83d aa53 3239 0000 0000 0000 0000
00000340: 0000 0000 0000 0000 0000 0000 0000 0000
00000350: 0000 0000 0000 0000 0000 0000 0000 0000
00000360: 08f1 073d 153c c838 0000 0000 0000 0000
00000370: 0000 0000 0000 0000 1f48 6e3d e089 df38
00000380: 0000 0000 0000 0000 0000 0000 0000 0000
00000390: b358 e63c 57ff 8339 0000 0000 0000 0000
000003a0: 0000 0000 0000 0000 2b08 0640 527c 963b
000003b0: 0000 0000 0000 0000 0000 0000 0000 0000
000003c0: 0000 0000 0000 0000 0000 0000 0000 0000
000003d0: 0000 0000 0000 0000 33e9 6f3c 3580 e237
000003e0: 0000 0000 0000 0000 0000 0000 0000 0000
000003f0: f401 0000 f401 0000 0000 0000 0000 0000
0.0 0.0 0.0 0.0 0.0 0.0 0.053501587 0.00017902764
0.0 0.0 0.0 0.0 0.027353423 7.10263e-05 0.0 0.0
0.0 0.0 0.0060346625 1.1243176e-05 0.0 0.0 0.0 0.0
0.06722382 0.00067344884 0.0 0.0 0.0 0.0 0.0 0.0
0.0 0.0 0.0 0.0 0.046529707 0.00015349622 0.0 0.0
0.0 0.0 0.0 0.0 0.0 0.0 0.0 0.0
0.0 0.0 0.0 0.0 0.0 0.0 7e-43 7e-43
0.0 0.0 0.0 0.0 0.3097689 0.00028902135 0.0 0.0
0.0 0.0 0.00516025 1.3376783e-05 0.0 0.0 0.0 0.0
0.016648376 2.5559908e-05 0.0 0.0 0.0 0.0 0.014093584 3.394865e-05
0.0 0.0 0.0 0.0 0.032896306 6.231872e-05 0.0 0.0
0.0 0.0 0.057930645 7.389358e-05 0.0 0.0 0.0 0.0
0.015760647 2.9545716e-05 0.0 0.0 0.0 0.0 0.031624116 5.6941775e-05
0.0 0.0 0.0 0.0 0.0 0.0 0.0 0.0
0.0 0.0 0.72314984 0.000985877 0.0 0.0 0.0 0.0
0.0049516824 1.1184769e-05 0.0 0.0 0.0 0.0 0.009100809 1.46940465e-05
0.0 0.0 0.0 0.0 0.10231027 0.00030592535 0.0 0.0
0.0 0.0 0.018783115 3.7277463e-05 0.0 0.0 0.0 0.0
0.0 0.0 0.0 0.0 0.0 0.0 0.1440513 0.00026175624
0.0 0.0 0.0 0.0 0.0 0.0 0.0 0.0
0.0 0.0 0.0 0.0 0.0 0.0 0.0 0.0
1.0890405 0.0009166129 0.0 0.0 0.0 0.0 0.0027070486 8.132915e-06
0.0 0.0 0.0 0.0 0.12617882 0.00011609364 0.0 0.0
0.0 0.0 0.04635942 0.00012323713 0.0 0.0 0.0 0.0
0.0 0.0 0.0 0.0 0.0 0.0 0.36561272 0.00043689256
0.0 0.0 0.0 0.0 0.082416445 0.0001700657 0.0 0.0
0.0 0.0 0.0 0.0 0.0 0.0 0.0 0.0
0.03318885 9.547934e-05 0.0 0.0 0.0 0.0 0.05817425 0.0001065915
0.0 0.0 0.0 0.0 0.028118467 0.0002517651 0.0 0.0
0.0 0.0 2.0942485 0.004592457 0.0 0.0 0.0 0.0
0.0 0.0 0.0 0.0 0.0 0.0 0.014643001 2.7001e-05
0.0 0.0 0.0 0.0 7e-43 7e-43 0.0 0.0

exp_avg f4 [256]
00000000: 0000 0000 85d8 93bd 775f 0abd 0cae d2ba
00000010: 719c 7f3e 0000 0000 fcfa 9bbd 0000 0000
00000020: 0000 0000 0400 0000 0ac5 dc3d d71a 9ebc
00000030: 9ad4 d63b 3d96 ecbc 441f 123b bdf3 ee3d
00000040: 7b44 0d3b 1520 61bb 0000 0000 46de bd3e
00000050: 9d93 24bc e285 71bc 4ed8 b4bd c025 083c
00000060: 0000 0000 68a7 7e3d 0000 0000 0000 0000
00000070: 1eba 153f a63f 75bc 35ad 013e 9aab 31bd
00000080: 0000 0000 ffd6 2d3e 3007 e0bc 0000 0000
00000090: 4e38 40bd f353 e7b9 a468 26be ed3f 2f3f
000000a0: 0000 0000 41c6 1dbc 0400 0000 f8b6 d3bc
000000b0: 02e4 09bd c192 aabc 0000 0000 0000 0000
000000c0: 0fba 76bd 3746 7ebb 90f6 e1bb 0000 0000
000000d0: 0000 0000 0000 0000 fdec 77bd b051 363c
000000e0: 8ff8 26bb 3148 efbc c875 adbc 4c2d e7bc
000000f0: 0000 0000 20a3 e33e 2919 89bc d15a 7dbe
00000100: 9fa2 33bd 7bda b5bb a4e4 f1bd 0000 0000
00000110: 305b 5dbb b8c6 54bc a57c 5fbc 0000 0000
00000120: 2fb9 903b f745 063e 0000 0000 2ec9 13bd
00000130: 01d6 d2be 0c1d 1dbc 30f5 9e3e bbb7 40bb
00000140: 037b fabb fffd 69bc d74e afbb d51e dc3d
00000150: 703b eb3e 8457 06bd 22bf 46bd 0000 0000
00000160: 8fc4 5ebd 9ab1 d73b d50c 20bd 05a9 05bc
00000170: 1eea 893c 27ce a03f 0000 0000 ef85 9ebd
00000180: b58f 9e3e 1bd4 ef3d 0cfe f8bb 0000 0000
00000190: 2ae3 c33c f78d 04bc 2fa1 eb3d ab1f 533b
000001a0: 7cd2 ffbc a041 d8bc fc30 7d3e 0000 0000
000001b0: 54f1 50bc 0000 0000 0000 0000 6ca6 233c
000001c0: 833d 47bd 6276 8b3c ac86 adbb d17e 54bd
000001d0: 0000 0000 06db ae3d 86d8 b53d 0000 0000
000001e0: a4a5 a6bd d4b3 b9ba 0000 0000 0000 0000
000001f0: 5058 e4bb 3e69 fbbc 0000 0000 7e99 aebd
00000200: 0000 0000 7cd4 f2bd 1895 f23d 0000 0000
00000210: 64fe c7bd 7229 40bd d51f dbb9 e1bd 65bd
00000220: b329 2bbd 3049 13bc 0000 0000 89a8 8a38
00000230: f203 2cbc 0000 0000 0000 0000 e59c 2fbd
00000240: 0400 0000 2665 30bc de39 72bd 0000 0000
00000250: df15 1a3b 6f11 9a3d 0022 27be d5e6 a5ba
00000260: 92b4 96bd 3071 60bd 0000 0000 0000 0000
00000270: ae47 f23b f15f 0dbb 0000 0000 1a8b d9bc
00000280: f3f1 483c 7c04 0cbe 0000 0000 96f5 ac3b
00000290: 637f 23bc 6b20 37bd ea7e a13d 5e52 8ebe
000002a0: f157 8abc 249d 573c 49b6 dcbc 0000 0000
000002b0: 2a7c f7bc 0000 0000 6482 89be 0000 0000
000002c0: f2c0 e6ba 3913 1ebd 0000 0000 b3fa 163f
000002d0: 0000 0000 06ba 92bc 1bb5 e93c 0000 0000
000002e0: 0000 0000 d90f debc 0000 0000 0000 0000
000002f0: 9d2a d83e 0000 0000 0000 0000 2900 6bbb
00000300: 0000 0000 6af6 593c 8fdb 9c3e 5b2f 75bb
00000310: 0000 0000 cfc0 a33d dd3f 0bbd 0000 0000
00000320: 621d 213e a766 7b3d e799 16bd 0000 0000
00000330: 0000 0000 9743 373c a6a9 fc3e 34e3 1cbb
00000340: e916 263e 0000 0000 8f6c dbbc 9b60 cdb9
00000350: ce22 523c 0000 0000 6a39 babc 0000 0000
00000360: 0000 0000 a688 25bd 954c 003f 53b4 2bbc
00000370: 3f4e 1e3f e45c d9bc 82ef 59bd 0000 0000
00000380: e5da b83d 0000 0000 17ee 8cbc ece5 33bd
00000390: 962a f0bd 0000 0000 e18d 3fbb b54f a7ba
000003a0: b9df b4bc f367 c63a 712c a43d fd59 e5ba
000003b0: 844a 07bc f313 863b c326 84bc e53a bdbc
000003c0: a80b 42bb 1128 0e3f 0000 0000 ec8d cf3b
000003d0: 0fd7 4cbd 0000 0000 f8b2 61bc 5d6f 4abc
000003e0: e61c 603c b4cf 173a 22f5 80bc 0000 0000
000003f0: 21e0 d5bc 0000 0000 8bbb b5bc 5951 62bc
0.0 -0.07219032 -0.03378245 -0.0016073599 0.24962021 0.0 -0.07616231 0.0
0.0 6e-45 0.1077977 -0.019299908 0.006556106 -0.028880233 0.0022296468 0.11667583
0.002155571 -0.0034351398 0.0 0.37083644 -0.010044959 -0.014741393 -0.08830319 0.008309782
0.0 0.06217137 0.0 0.0 0.5848712 -0.014968788 0.1266373 -0.043376543
0.0 0.16976546 -0.027347177 0.0 -0.046928696 -0.000441223 -0.16250855 0.6845692
0.0 -0.009629787 6e-45 -0.025844082 -0.03366471 -0.02082193 0.0 0.0
-0.060236033 -0.0038799176 -0.0068958476 0.0 0.0 0.0 -0.060528744 0.011127874
-0.0025477742 -0.029209228 -0.021174327 -0.028219841 0.0 0.44460392 -0.01673563 -0.24741675
-0.04385626 -0.0055497265 -0.11811188 0.0 -0.0033776276 -0.012986831 -0.013640557 0.0
0.004416607 0.13112627 0.0 -0.03608053 -0.41178897 -0.009589445 0.31046438 -0.0029406387
-0.0076440587 -0.014281749 -0.0053499746 0.10748068 0.45943785 -0.032798305 -0.048522122 0.0
-0.05438667 0.006582451 -0.039074738 -0.008157973 0.016835269 1.2562913 0.0 -0.077403896
0.30969015 0.11710378 -0.007598644 0.0 0.023912031 -0.008090488 0.11505353 0.003221492
-0.031228296 -0.02639848 0.24725717 0.0 -0.01275285 0.0 0.0 0.009988409
-0.048642647 0.017024223 -0.005295595 -0.051878754 0.0 0.08537869 0.08879189 0.0
-0.08137062 -0.0014167973 0.0 0.0 -0.0069685355 -0.030689832 0.0 -0.0852537
0.0 -0.118569344 0.118448436 0.0 -0.09765318 -0.046914525 -0.00041794652 -0.056089286
-0.041787814 -0.008989617 0.0 6.611745e-05 -0.0104989875 0.0 0.0 -0.042874236
6e-45 -0.010766303 -0.059137218 0.0 0.0023511571 0.075228564 -0.16321564 -0.0012657294
-0.0735866 -0.054795444 0.0 0.0 0.007393799 -0.0021572078 0.0 -0.026555587
0.012264716 -0.13673586 0.0 0.0052782996 -0.009979102 -0.04470865 0.07885535 -0.27797216
-0.016887637 0.013160024 -0.02694239 0.0 -0.030210573 0.0 -0.26857293 0.0
-0.001760511 -0.03859255 0.0 0.58976287 0.0 -0.017910969 0.02852874 0.0
0.0 -0.027107166 0.0 0.0 0.4222001 0.0 0.0 -0.003585825
0.0 0.013303379 0.3063626 -0.003741226 0.0 0.0799576 -0.03399645 0.0
0.15733865 0.061377194 -0.036767866 0.0 0.0 0.011185548 0.4934818 -0.0023939135
0.16219677 0.0 -0.026785163 -0.00039172624 0.012825681 0.0 -0.022732455 0.0
0.0 -0.04041352 0.50116855 -0.010480004 0.61838144 -0.026533552 -0.053206928 0.0
0.09026126 0.0 -0.017203374 -0.043920442 -0.117268726 0.0 -0.0029228854 -0.0012764843
-0.022079336 0.001513718 0.08016289 -0.0017498132 -0.008257512 0.0040917336 -0.016131764 -0.023099372
-0.0029608998 0.55529886 0.0 0.006334057 -0.050009783 0.0 -0.01377558 -0.012355653
0.013678765 0.0005791143 -0.015741888 0.0 -0.02610785 0.0 -0.022184154 -0.01381334
