assets/section_1/actor_critic/mountain_car/models/mountaincar_exp/episode_best/critic.pth (torch, 820786 bytes, 15 tensors)

net.0.weight f4 [256, 6]
000000 2d 56 ac 3e b3 df 19 3e 40 d8 90 bd b6 5c 32 3e
       0.33659497 0.1502674 -0.070724964 0.17418179
000010 38 02 93 be f7 40 91 3d bf d5 bc 3e d4 4a 63 3e
       -0.2871263 0.07092469 0.36881825 0.22196513
000020 9b 46 67 3e 8b b9 84 3e 41 cd d9 bd c8 36 cb be
       0.22585528 0.25922808 -0.10634852 -0.39690232
000030 a1 20 0d 3f 13 bd 28 3e e3 fa cc be ee cc 8d bd
       0.5512791 0.16478376 -0.4003516 -0.06923853
000040 8e 27 70 be 4c 6a b2 3e a3 60 b2 3e 07 01 22 3f
       -0.23452589 0.34846723 0.34839353 0.6328282
000050 69 f6 62 3e 56 49 85 be 71 4b a0 be ce 6a 17 be
       0.2216431 -0.26032513 -0.31307557 -0.14786837
000060 8d 9a ef be ec 52 9b bf 86 70 bf be 23 f6 32 3e
       -0.467976 -1.2134681 -0.37390536 0.17476706
000070 56 f2 8d 3e 94 5e a0 3e 52 66 e9 be 42 86 88 bd
       0.2772395 0.31322157 -0.45585877 -0.06666233
000080 4f 3a 3e 3c dc fa 98 be f9 e1 a2 3e 32 31 63 3e
       0.011610582 -0.2987889 0.31813028 0.22186735
000090 db 18 82 be 54 27 b1 3e 1c dc 0e 3c ef d4 c7 bd
       -0.25409588 0.34600317 0.00871947 -0.09757411
0000a0 88 d7 f6 3b 41 16 b5 3d ad 1f e9 3c 22 cb c5 3e
       0.0075330175 0.08842135 0.028457487 0.3863154
0000b0 54 85 0f bd 8a 05 a8 3e b8 e3 dd bd b2 38 56 3e
       -0.03503926 0.32816726 -0.108344495 0.20920065
0000c0 a0 2f b1 be 71 23 e3 be 71 89 e8 3c 64 31 cb 3e
       -0.34606647 -0.44362977 0.02838585 0.3968612
0000d0 c7 61 56 3e 96 b5 ab 3e ac ad cc be 1c ad c3 be
       0.20935737 0.33536977 -0.3997625 -0.3821801
0000e0 dd f2 74 3e c1 99 a8 3e 4f d6 31 be fd 1e d6 bd
       0.2392077 0.32929805 -0.17366908 -0.10455129
0000f0 2b 91 3c be a4 3a 5a bd bc 8a 90 bd bd de 7f be
       -0.18414752 -0.05327858 -0.070577115 -0.24987312
000100 4b 27 92 bd da 9a 45 3e bb 18 13 3f 70 81 3b 3f
       -0.07136401 0.19297352 0.5745961 0.7324438
000110 43 b0 68 3e 30 e6 65 3e 26 1c c2 be 55 9b a4 be
       0.22723489 0.22451091 -0.379121 -0.3214976
000120 56 a1 6d 3e e0 bc ce 3e 97 24 99 be 06 6b 7c be
       0.23206076 0.40378475 -0.29910728 -0.24650201
000130 dc 09 a5 3e c1 68 57 bd ea 98 0f 3f 7c e9 e5 3e
       0.32234085 -0.052590135 0.56092703 0.44904697
000140 e4 0c 79 3e 5d 9a 6b be 19 16 b1 be ef ed 86 3e
       0.24321324 -0.23008104 -0.34587172 0.26353404
000150 5d 79 e9 3d 31 92 c9 3e b9 f7 b9 bd cc 20 3c bd
       0.11400101 0.39369348 -0.090804525 -0.045929715
000160 1a f8 52 be c7 e6 8c 3b 28 6d 9d 3e a8 b6 09 3f
       -0.20602456 0.0042999717 0.30747342 0.53794336
000170 e2 36 52 be d0 23 8f 3e f5 0c 46 be ed 27 94 3e
       -0.20528749 0.2795701 -0.1934088 0.2893671
000180 d5 e2 33 3c e5 ef 3e 3f fe 81 16 3e 7c 7e c9 3e
       0.010979374 0.745848 0.14698026 0.39354312
000190 4e 48 42 be 47 01 24 3e 0f 07 45 3e 75 7f 6c 3c
       -0.18972895 0.16016112 0.19240974 0.014434685
0001a0 dc 81 3c 3d ef c4 03 3e 49 b4 a9 3e c3 3b 0c 3e
       0.04602228 0.12868093 0.3314536 0.13694672
0001b0 96 b6 e3 3e a6 37 2c 3f 8f 6b 85 bd eb bd 74 bd
       0.4447524 0.6727241 -0.06514656 -0.059751432
0001c0 60 e9 98 3d b9 e1 df 3d c7 1a ce 3e f7 d8 59 3d
       0.07466388 0.10931725 0.40254804 0.05318543
0001d0 ad 48 3d bd 45 c9 a1 3e 85 0c aa 3e 98 70 ef 3d
       -0.046211887 0.3159887 0.33212677 0.116913974
0001e0 6d 1f 69 3e 75 5e a5 3d b8 a4 70 be 7e f2 3e 3e
       0.22765894 0.08074657 -0.23500335 0.18647191
0001f0 fd 32 26 be 43 5b 0c bd 23 a0 d4 3e 59 03 a8 3e
       -0.16230388 -0.03426672 0.41528425 0.32815054
000200 2b 2b 98 be e4 86 a1 3e 58 ad a0 3e 61 b2 c9 3d
       -0.29720435 0.31548226 0.3138225 0.09848476
000210 31 9c 89 3e 11 d0 b6 bc 87 0e 0f be 63 d9 99 3e
       0.26876977 -0.02231601 -0.13970385 0.30048665
000220 bc 7c 8d 3e c2 e9 ea bd 71 7d 46 3e 9f a4 3d 3e
       0.27634227 -0.11470367 0.1938379 0.18519829
000230 44 ca a3 be 26 3a 2e be d3 cc 90 be 29 c5 82 3e
       -0.31990254 -0.1701437 -0.28281268 0.25541046
000240 c2 a1 f1 3d d7 a7 17 3e 65 cc 6c 3e f1 78 9c bd
       0.11798431 0.1481012 0.23124845 -0.07640255
000250 bb e5 fa bd 92 ef 97 3e 39 b4 c5 be 08 f7 e8 be
       -0.12250849 0.29674965 -0.3861406 -0.4550097
000260 92 43 99 3e c1 68 5b be 6e 26 86 3e e3 33 f2 3d
       0.29934365 -0.21426679 0.26201195 0.11826303
000270 b1 29 20 3f 67 ef 48 3f 9f 63 4a be 05 a8 db 3c
       0.62563616 0.784903 -0.19764565 0.026813516
000280 be f3 8c 3d 32 9e c0 3e 29 3b ed 3e 44 d7 27 3f
       0.06882428 0.37620693 0.46334198 0.65562844
000290 56 88 90 3e 25 76 22 bd c2 4e cc bd d4 d8 8a 3d
       0.28229016 -0.039663453 -0.09975959 0.06779638
0002a0 1a 8e fc be 16 5c 9f be b2 4e c7 3d 59 76 fd 3d
       -0.49327165 -0.31124943 0.09731807 0.12376089
0002b0 80 a3 ae be f2 3a d0 be 8d 66 4b be 73 57 16 bf
       -0.34109116 -0.40669972 -0.19863339 -0.58727187
0002c0 42 71 34 be 7b 69 b6 3e 1a f1 75 3e 70 92 e3 3d
       -0.1762133 0.3562735 0.24017754 0.11111915
0002d0 fd 2f 67 3e a3 03 0c 3f 4e d9 7a bd b1 eb 99 bd
       0.225769 0.5469305 -0.061242394 -0.07515658
0002e0 cd 9a 12 be 8c 37 c9 bc a2 6d 06 3f 5a b1 35 3e
       -0.14316864 -0.02456262 0.52511036 0.17743436
0002f0 4a f1 71 bd dd a8 24 3e bd ab a4 be 00 e3 c1 be
       -0.059068 0.16080041 -0.32162276 -0.378685
000300 10 b0 cc 3d 46 d6 3e 3f d5 ed 83 be b5 d2 40 be
       0.09994519 0.74545705 -0.2576739 -0.18830378
000310 5e 8e af be 23 ef a3 be 13 87 63 be 37 03 64 bf
       -0.34288305 -0.32018384 -0.22219495 -0.89067405
000320 06 89 c9 be 73 4d 4f be e7 c4 37 3b 12 6f 1f be
       -0.39362353 -0.20244388 0.0028040947 -0.15569714
000330 e7 19 11 bf 53 76 34 3f c2 fb 4f 3e fa 2a a3 be
       -0.5668015 0.7049305 0.20310882 -0.31868726
000340 a0 bc cd bc f4 6b c0 3d c6 ab 09 3f 06 61 04 3e
       -0.025114357 0.093955904 0.5377773 0.12927637
000350 92 7d 45 be 6b 51 32 3e 53 71 97 3e be 8b 54 3e
       -0.19286183 0.17413871 0.29578647 0.20756432
000360 c3 ab 31 3d bc 04 d1 3e b0 d7 bc 3e b3 ae 54 3d
       0.043376695 0.40823925 0.36883307 0.05192442
000370 86 bc 56 3e cf a8 ac 3e 91 15 a9 3e 34 a2 cb be
       0.20970353 0.3372254 0.33024266 -0.3977219
000380 db 65 ca 3d 65 5a 02 be c9 ad 00 3e 8f e8 8e bd
       0.09882709 -0.12729795 0.12566294 -0.06977951
000390 a9 8a f0 3e bb 04 93 3e 7c 72 c1 3d 88 f9 0d 3b
       0.4698079 0.28714547 0.09445664 0.0021663625
0003a0 05 75 99 be 7d f4 cc be 26 06 e6 be 6d ac 9f bf
       -0.2997209 -0.4003028 -0.44926566 -1.2474495
0003b0 6f 52 27 bd 30 71 b2 3e 85 e8 25 bc 97 d6 bc be
       -0.0408501 0.3485198 -0.010126238 -0.3688247
0003c0 bd 9c 02 3d 3a 62 29 3f c0 4f 84 bc e1 5c c8 3d
       0.03188776 0.66165507 -0.016151309 0.0978334
0003d0 08 22 94 3e 71 c6 c6 3e ac ef 34 3f dd 98 aa 3e
       0.28932214 0.38823274 0.7067821 0.3331975
0003e0 e2 74 0f 3e 65 20 3a 3d 9c 49 ca bd 4a 0a 94 3e
       0.14009431 0.04544105 -0.09877321 0.289141
0003f0 aa 01 19 3d 8c 41 b4 3e 62 2a 6d bd b7 4f 87 bd
       0.037355103 0.35206258 -0.057901748 -0.06607001

net.0.bias f4 [256]
000000 ae f3 86 be 85 16 ac be 3d 2f 0d 3f 7e f3 06 3f
       -0.26357788 -0.3361093 0.55150205 0.5271529
000010 10 3d 71 3e 17 5b 77 3b d0 58 a0 be 13 35 7f be
       0.2355845 0.0037743503 -0.3131776 -0.2492259
000020 4e 19 28 3e 0e 30 3c 3e a6 ff 1b 3f 6c de cf 3e
       0.16415903 0.18377706 0.60936964 0.40599382
000030 77 a0 ba 3e a4 97 14 3f ec 8e d2 3e 76 fe f3 3e
       0.3645055 0.58043885 0.41124666 0.47655076
000040 84 f6 02 3f b0 75 1f 3f fc 2e 19 3f e5 e5 c7 be
       0.51157403 0.6228895 0.5983732 -0.39042583
000050 6d 94 89 3e c0 43 0a 3f 70 d4 08 3f 09 fd 91 be
       0.26871052 0.5400963 0.53449154 -0.28513363
000060 6a 69 93 be 1d cd 3b 3e ba 72 07 3e 7d 09 a9 3e
       -0.28791362 0.18339963 0.13227358 0.3301505
000070 c5 0a 09 bc 76 3c cf 3d a9 9b f6 3e 14 10 74 3e
       -0.008364384 0.10118954 0.48165634 0.23834258
000080 46 eb 96 3e da 99 ee 3d 8b 19 1d 3d 3f 01 7c 3e
       0.29476374 0.116504386 0.038354438 0.2460985
000090 dd df bf be 85 71 bf be e9 c4 ce 3e ac 20 69 3e
       -0.37475482 -0.37391296 0.40384606 0.2276637
0000a0 9a 72 cd 3e 4d 62 dc 3e 18 53 13 3f ad f6 a5 be
       0.40126497 0.43043748 0.57548666 -0.3241476
0000b0 d8 fd 68 be 51 25 36 3e 86 04 18 be 73 47 87 bd
       -0.22753084 0.17787673 -0.14845476 -0.06605425
0000c0 e2 71 2e be df e5 0b 3e bc 90 4d be fc 4b 77 be
       -0.1703563 0.13661908 -0.20074743 -0.2415008
0000d0 16 05 03 3d cd c9 d1 3e ab e4 07 3f 5b 80 d1 3d
       0.031987272 0.40974274 0.53083295 0.1022956
0000e0 d0 a3 03 3f 04 83 2e be 18 dc 87 3e 99 a6 30 3e
       0.51421833 -0.17042166 0.26535106 0.17251052
0000f0 98 5e 6a be ce 53 5d 3e 7c 10 ba bc 6f 37 cf be
       -0.22887647 0.21614 -0.022712938 -0.4047198
000100 66 67 af 3e 6a 13 1b 3f 7a eb dd 3c e7 c1 40 be
       0.34258574 0.605765 0.027089823 -0.18823968
000110 79 40 34 3e f7 0d 61 3e fc ce a9 3e 64 59 2b 3e
       0.1760272 0.21977983 0.3316573 0.16733319
000120 52 b5 1a 3f f8 2a 02 3f 73 5f 9b bd ca 03 3f bd
       0.6043292 0.50846815 -0.07586565 -0.046634473
000130 2a 3b 1a 3f ba 74 b6 be 9e d6 0b 3e b9 7e 7f be
       0.6024653 -0.3563593 0.13656089 -0.24950685
000140 d0 88 8c 3e 1d 88 82 be 80 18 5e be b7 c8 b1 3e
       0.2744813 -0.2549447 -0.21689034 0.34723446
000150 d9 48 bb be b2 5b b7 be 76 ea 02 3f ca cb 9f be
       -0.36579016 -0.35812145 0.5113901 -0.31210166
000160 44 05 1c 3f 9f 43 ee 3e 6d 67 74 3e 57 94 97 be
       0.60945535 0.46535966 0.23867579 -0.29605362
000170 b8 07 ff 3d bc d3 0c 3f 97 8b 7a 3c 25 c0 5d 3e
       0.12452644 0.5501058 0.01529207 0.21655329
000180 98 1d 1b 3f 84 84 8b be 2e 01 8b 3e d4 74 c2 be
       0.6059203 -0.2724954 0.27149338 -0.37979758
000190 d3 96 55 be 47 ae e8 3e 7c 3d 0b 3f b7 0d b2 bd
       -0.20858316 0.45445463 0.5439069 -0.08694022
0001a0 6b 36 0c 3f 4e 0a 6a be 98 62 93 3e 16 07 1b 3d
       0.54770535 -0.22855493 0.2878616 0.037848555
0001b0 d5 46 6d be 06 3a c2 be 6b f4 4b be 05 19 e5 3e
       -0.23171552 -0.37934893 -0.19917457 0.4474565
0001c0 6e bd 0d 3f 5d 04 50 3b 00 d3 10 3f 82 61 f8 3e
       0.5536717 0.0031740882 0.5657196 0.48511893
0001d0 56 ea d6 be 13 80 3d 3e 19 27 e1 3e 69 c0 10 3f
       -0.4197566 0.18505888 0.43975142 0.56543595
0001e0 c0 40 42 3e 37 83 fb bd 7d 1a 0a 3f 7e 6e 88 3d
       0.18970013 -0.122808866 0.5394667 0.066617
0001f0 c9 90 b9 3e c2 02 67 3e 19 40 5a be e2 6d cb 3e
       0.36243275 0.22559646 -0.21313514 0.3973227
000200 a8 b5 88 3e 45 0d 02 3f f7 16 11 3f b8 a4 ca be
       0.26701093 0.508015 0.56675667 -0.39578795
000210 f2 7d 31 3e 93 d6 2b 3e 44 65 a6 3d 63 2d 8c 3d
       0.173332 0.16781072 0.08124784 0.06844594
000220 30 52 3a be e0 ee 65 3e 75 2b 14 3c a0 62 db 3e
       -0.18195415 0.22454405 0.009043564 0.42848682
000230 94 bb 0d be 38 92 6f 3e a4 30 5d be 59 df 02 3e
       -0.13841087 0.23395622 -0.21600586 0.12780513
000240 77 9f 80 be 44 44 cc be b0 95 58 3e c3 d3 19 3e
       -0.25121662 -0.39895833 0.21150851 0.15022187
000250 1a fc a8 be 04 da 43 3e 90 54 6c 3e 7c c3 64 3e
       -0.33004838 0.19126135 0.23079133 0.22340196
000260 32 f1 34 3d d5 48 45 3e 6b 57 ac be 9a a4 5a bd
       0.044175334 0.19266064 -0.33660445 -0.053379633
000270 d6 b3 fe 3e 28 20 12 3f ec 4e f3 3d 03 17 5c be
       0.4974658 0.57080317 0.118802875 -0.21493153
000280 3d c3 e7 3e 46 de 9a be 3e 15 d0 3e aa 53 65 be
       0.45266142 -0.30247706 0.40641207 -0.22395197
000290 d3 4e dc 3e 5f 33 bb 3e 3c 34 59 3e 24 df 3c 3e
       0.43028888 0.3656263 0.21211332 0.18444496
0002a0 db b8 5e 3e e2 ef 97 bd 7e 5b f9 3e b8 eb 74 be
       0.21750204 -0.07418801 0.48702615 -0.23918045
0002b0 f3 4c bf be da 0e df 3e f4 a0 b6 be 33 f0 ca be
       -0.37363395 0.43566018 -0.35669672 -0.39636382
0002c0 60 82 35 be 5f 82 b5 be e5 47 55 3e b1 65 7b be
       -0.17725515 -0.35451028 0.20828207 -0.24550511
0002d0 fd 85 f3 3d 66 da a2 be 4c c0 03 3f 3e 45 b1 3e
       0.118907906 -0.3180725 0.51465297 0.3462314
0002e0 7c f1 c4 be 61 e4 f4 3e 3c 30 d5 3e c6 c5 01 3f
       -0.38465488 0.4783049 0.41638362 0.50692403
0002f0 01 11 87 be e3 88 9f be f9 e2 c9 3e 3d 5d 98 3e
       -0.2638016 -0.31159124 0.3943098 0.29758635
000300 58 56 9b be 93 92 c8 3e fe b5 af be ca 12 cb be
       -0.30339313 0.39174327 -0.34318537 -0.39662772
000310 d1 3c 89 be bd 7e 7f be f9 9f cf be 9a 9f 96 be
       -0.26804212 -0.2495069 -0.40551737 -0.2941864
000320 01 cd 83 3e 39 06 35 3e e6 5e ae be 7e fb 90 be
       0.25742343 0.17678155 -0.34056777 -0.28316873
000330 5b 5d 2f be c1 1e 40 3e e0 75 39 be ec c4 4a 3e
       -0.17125456 0.18761732 -0.18111372 0.19801682
000340 c0 a3 47 be b3 0c 4a 3e 47 d2 ce be d9 50 ac 3e
       -0.1949606 0.19731407 -0.40394804 0.33655432
000350 fc 54 7d be e4 e2 4a 3e 2b a3 30 be 4d c4 61 be
       -0.2473945 0.19813114 -0.17249744 -0.22047539
000360 27 71 7c 3e 9d 48 b3 be 5c d5 ae be 74 08 ca 3e
       0.24652539 -0.35016337 -0.34147155 0.39459574
000370 0b d5 5f 3e 78 8f 4f 3e e3 f8 98 be e6 e8 8b be
       0.21858613 0.20269573 -0.29877385 -0.27326125
000380 b5 11 00 3f cf 1f 47 be 93 26 96 be 3a c1 17 3f
       0.5002702 -0.19445728 -0.29326305 0.59279215
000390 08 4f e9 3e 35 af 79 be 56 bd b8 3d da 88 85 3d
       0.4556811 -0.24383242 0.09020488 0.06520243
0003a0 ee 8d f5 bc 90 88 43 be 03 75 a0 be 3e 16 01 3e
       -0.029974904 -0.19095063 -0.31339273 0.12606141
0003b0 45 ec 01 3e ee 62 6f be f1 ff 1c 3f 0e 70 bc 3e
       0.12687786 -0.23377582 0.61328036 0.3680424
0003c0 16 6d f0 3e 9a 7b 1a bd 23 e9 91 be 75 c1 07 3f
       0.46958226 -0.037715532 -0.28498182 0.53029567
0003d0 08 72 ba 3e 9e 45 79 3e e5 eb 38 3e 71 17 05 3f
       0.36415124 0.24342963 0.18058737 0.51988894
0003e0 53 c9 9d 3e bc 52 34 3e f8 79 41 be cf 21 3f be
       0.3081766 0.17609686 -0.18894184 -0.1866524
0003f0 de 51 48 3e 7e 52 46 3e dd 17 13 3f eb f1 d0 be
       0.1956248 0.19367406 0.5745829 -0.4080957

net.2.weight f4 [256, 256]
000000 a0 2d 8d bc 74 6b 63 3d e1 6b 99 3e 37 dd 8d 3e
       -0.01723367 0.055522397 0.29965118 0.27707836
000010 7b cb 0f bf e9 41 77 3e 50 89 55 3d d8 3c cc bc
       -0.5616986 0.24146236 0.052132905 -0.024931356
000020 d3 8d a9 be 7b 2a d3 be 72 a8 7f 3e ac 94 98 3e
       -0.33116016 -0.41243348 0.249666 0.29800928
000030 4d 14 88 3e e1 07 9e 3e 92 eb 68 3e 0e e6 92 3e
       0.26577988 0.30865386 0.22746113 0.28691143
000040 fc 21 9c 3e db d8 86 3e 0a d7 9d 3e 42 f4 2e 3d
       0.30494678 0.26337323 0.30828124 0.04271341
000050 3c 62 46 3e cd 1f 52 3e c1 53 84 3e c0 c2 32 3b
       0.19373411 0.20519944 0.2584515 0.0027276725
000060 36 6d 78 3d 51 e2 ac be 6f 05 a0 3e 67 45 82 3e
       0.060651027 -0.33766416 0.31254146 0.25443575
000070 f9 1d 98 3e 0d 50 e2 be 2e c5 90 3e bb f8 8b 3e
       0.29710367 -0.442017 0.28275436 0.27338204
000080 79 74 9e 3e 0b 73 f1 be c8 f9 b0 3e 67 23 5a 3e
       0.30948237 -0.47158083 0.34565568 0.21302567
000090 b8 89 d6 3c e8 81 1e 3d c7 e8 82 3e 27 9e fd be
       0.026188716 0.038698107 0.2556822 -0.49534723
0000a0 6c ea 8d 3e a8 a1 8d 3e 05 41 8a 3e 94 35 56 3d
       0.27717912 0.27662396 0.2700273 0.05229719
0000b0 dc a5 8e bc 39 db 08 bf c6 7a 3c 3d a8 12 6f bd
       -0.017413072 -0.5345951 0.046015523 -0.0583674
0000c0 25 21 1a bd 9e a2 a5 be bb 7a 8b 3d 60 b9 a9 3c
       -0.037629265 -0.3235063 0.06810518 0.020718277
0000d0 d5 90 ac 3e 31 35 86 3e ff 0b 91 3e 66 1e 33 bf
       0.33704248 0.26212457 0.28329465 -0.6996826
0000e0 2b d0 4d 3e 6c bf 36 3e 4f 34 95 3e f5 52 5e be
       0.20098941 0.17846459 0.2914147 -0.21711333
0000f0 e0 fb 3b bb 20 79 8d be 9a 36 a8 3d 20 7f fd bb
       -0.0028684065 -0.27631474 0.082135394 -0.0077361017
000100 f5 62 5c 3e bc f4 8d 3e 00 7f 3a 3e 20 16 5f 3d
       0.21522124 0.2772578 0.18212509 0.05446446
000110 36 db 16 bf 8c d2 6b 3e 9c 36 6d 3e be a1 fd be
       -0.5892824 0.23029536 0.23165363 -0.49537462
000120 6d 40 5e 3e 02 9b 8a 3e b0 14 fb 3d 1b b2 8d 3e
       0.21704264 0.27071387 0.12259805 0.27674946
000130 b2 cb 92 3e 36 3f 14 3d 58 81 f6 be 0e 6b 15 3d
       0.28671032 0.036193095 -0.48145556 0.03647905
000140 e5 d2 73 3e 06 09 00 bd 5c 62 7d 3d 48 08 3b 3e
       0.23810919 -0.031258605 0.06186138 0.18264878
000150 70 33 3b bc 54 24 76 3d 09 1a 95 3e 00 d3 29 bb
       -0.011425838 0.06009324 0.29121426 -0.002591312
000160 22 7b 9c 3e 2b 02 78 3e 7f 96 ac 3e e0 94 6e bc
       0.30562693 0.24219577 0.3370857 -0.014561862
000170 6e 8c c3 be 29 8e 85 3e 90 d0 7f 3e 37 4e 09 bf
       -0.38193077 0.26085022 0.24981904 -0.5363497
000180 5b c6 75 3e e0 3b 0a 3c ab eb 89 3e e8 47 6d 3d
       0.24001448 0.008437127 0.26937613 0.057929903
000190 54 a8 c3 3c d2 19 81 3e 2c 08 76 3e 32 1c 75 bd
       0.023883976 0.25215012 0.24026555 -0.059841342
0001a0 ca f3 88 3e 42 62 78 bd 34 42 8c 3e b3 2b 08 bf
       0.26748496 -0.06064058 0.2739426 -0.5319168
0001b0 d0 6a b8 bc 0c 46 f6 bc 80 4a df bc 85 b7 7f 3e
       -0.02251187 -0.030062698 -0.027257204 0.24972351
0001c0 4e c1 47 3e 53 2d 4e 3e 92 0f 8b 3e c0 42 73 3e
       0.19507334 0.20134477 0.27160317 0.23755932
0001d0 78 c6 16 bd 8b 61 2e be 63 e8 94 3e c4 3d 49 3e
       -0.03681037 -0.17029397 0.29083547 0.19652468
0001e0 cc 67 b6 be 36 95 16 bd f9 5a 8b 3e 34 08 7f 3e
       -0.35626066 -0.036763392 0.27217844 0.24905473
0001f0 7c 32 70 3e ed 5b 8d 3e 3c 23 68 3d 0b 8e 4b 3e
       0.23456758 0.27609196 0.056674227 0.19878404
000200 a2 2d 95 3e 3e 63 8e 3e 4d 27 61 3e 16 5e 7b 3d
       0.29136378 0.2781009 0.21987648 0.061369024
000210 e8 96 7a 3e 21 7d 0f 3f 4f 3a 94 3e e7 50 b4 bd
       0.24471629 0.56050307 0.28950736 -0.088044934
000220 e4 c9 aa bc 10 d7 a0 3e fc 4b 41 3e 3c 62 80 3e
       -0.020848222 0.3141408 0.18876642 0.25074947
000230 d2 61 7c 3d ca af 44 be 82 2c 3a bd b9 16 65 3e
       0.061616726 -0.19207683 -0.045452602 0.2237195
000240 cc 33 84 bc a9 6c 5d 3d a0 6c 8c 3e 6d 5f 70 be
       -0.01613798 0.054058705 0.27426624 -0.23473902
000250 da d9 53 bd 7d 10 04 bf 81 e1 72 be a0 6e 6d be
       -0.05172143 -0.5158766 -0.23718835 -0.23186731
000260 18 26 e8 3e 36 34 8f 3e 80 ce c9 ba 2a fb 75 3e
       0.45341563 0.2796952 -0.0015396625 0.24021593
000270 66 22 95 3e f3 56 86 3e 02 41 66 3e 30 d3 60 3d
       0.29127806 0.26238212 0.22485736 0.054888904
000280 07 e3 57 3e bc a6 6c bd 0c 3e 27 3e 34 e4 bd bc
       0.21082698 -0.057776198 0.16332263 -0.023180105
000290 f6 eb 72 3e 80 24 4d 3e 75 15 0d bf a7 1f 80 3e
       0.23722824 0.20033455 -0.55110866 0.2502415
0002a0 c7 1d 07 bf 04 20 2b bd 19 55 91 3e 24 12 24 bd
       -0.5277981 -0.04177858 0.28385237 -0.040056363
0002b0 ee ee 07 3d b0 5d 89 3e 0a 22 09 3d 4c 17 ff bc
       0.033186845 0.2682929 0.033479728 -0.031139039
0002c0 68 2e 47 bd bc c7 f8 bc 04 7c 12 bf 60 5b 96 bc
       -0.04862824 -0.030368678 -0.5722048 -0.018354118
0002d0 75 b8 27 bf 30 2a 30 3d 52 60 43 3e 03 34 97 3e
       -0.65515834 0.043008983 0.19079712 0.2953187
0002e0 6a 6a 45 bd 41 e4 60 3e 21 af 73 3e db 23 61 3e
       -0.048197187 0.21962072 0.23797275 0.21986334
0002f0 bc 71 14 3d 40 4a 40 3c ad 86 7c 3e a1 9e 60 3e
       0.036241278 0.011736453 0.2466075 0.21935512
000300 32 bd 56 3d 5f ab 8f 3e c0 06 d1 3c 98 d1 4a bc
       0.052426524 0.28060433 0.025515914 -0.012379073
000310 d8 a4 d6 bc 5c c8 41 3d c0 7a 7a 3b 80 06 3a bd
       -0.02620165 0.04731022 0.0038220137 -0.045416355
000320 54 28 95 3e 8d 04 89 3e f4 88 43 bd 66 99 33 bd
       0.2913233 0.26761284 -0.04773803 -0.043847464
000330 90 90 6a bd f5 9a 4a 3e f8 10 14 bd 1d 77 61 3e
       -0.05726677 0.19785674 -0.036148995 0.22018094
000340 18 95 f6 3c d1 10 01 bf 90 f6 c1 bb c5 ae 52 3e
       0.03010039 -0.50416285 -0.005919285 0.20574482
000350 aa 1c 7f 3d 19 ec 05 bf df 2c 06 3e c4 e4 b2 3c
       0.062283196 -0.5231338 0.13103054 0.0218376
000360 73 7d 7a 3e 5c 33 49 bd 22 da 1b bd 94 83 8f 3e
       0.24461918 -0.049121246 -0.038049825 0.28030074
000370 3f 04 a8 3e d7 b6 98 3e a0 9b ad 3b fe fa 50 3d
       0.3281574 0.29826996 0.005298093 0.051020615
000380 23 5b 99 3e be 7e 2e 3d 9a 44 58 bd 68 38 88 3e
       0.29952344 0.04260134 -0.0527998 0.26605535
000390 86 8d 8f 3e 48 9c 96 bc 65 aa a6 3e 1f 6a a5 3e
       0.2803766 -0.018385068 0.32551876 0.32307526
0003a0 39 ff 22 3e 7c 01 7f 3d b8 21 4d bd 9a 3f 8f be
       0.15917672 0.062257275 -0.050080985 -0.27978212
0003b0 70 dd 95 3e de 42 5f 3d 5d c7 5b 3e b3 01 9a 3e
       0.29270506 0.05450713 0.2146277 0.3007942
0003c0 ac 16 93 3e e8 7d 25 3e d8 56 98 bc 42 f1 89 3e
       0.28728235 0.1616131 -0.018596098 0.26941878
0003d0 4e c4 75 3e 84 c4 04 bf 52 27 a7 be f1 5f 9a 3e
       0.24000666 -0.5186236 -0.32647187 0.30151322
0003e0 96 f1 2a 3e 69 42 9c 3e cb 31 70 3d 2a 55 59 3d
       0.1669372 0.30519417 0.058641236 0.053059734
0003f0 77 6b 0c bf 2a 73 8e 3e 15 14 81 3e 62 5a 27 bd
       -0.5485148 0.27822238 0.25210634 -0.04085768

net.2.bias f4 [256]
000000 9b 49 7b 3e f7 67 e2 3d 69 9b a2 3d cb b7 49 bd
       0.24539797 0.11054986 0.079397984 -0.049247544
000010 49 4f 5a bb ff 69 ea 3c 03 d1 5a 3d 3c 34 25 3c
       -0.0033311418 0.028614996 0.053421985 0.010083254
000020 e0 68 2c 3b 40 05 ed 3c fa bf 48 3d 34 7e 75 3c
       0.0026307628 0.028933167 0.049011208 0.014983702
000030 40 f3 4b bd 2d d7 57 bd e8 d8 54 bd e6 6a a2 bb
       -0.04979253 -0.052695442 -0.05196467 -0.004956591
000040 d7 7e f0 3c cf 43 d8 bc a0 cc 5d 3d 8e 88 0d 3d
       0.029357357 -0.026399521 0.054150224 0.034554057
000050 99 de 0a 3c 3f 69 38 3d 3e fe 28 3d 23 a8 5f 3d
       0.008475923 0.045022245 0.04125809 0.054603707
000060 ea eb 22 bd b2 b3 d2 ba 88 0e f8 bc b0 25 80 bc
       -0.039775766 -0.0016075282 -0.030280367 -0.01564297
000070 61 36 59 3d 9d 9d 45 bd 80 32 26 3b fc 25 6d 3d
       0.053030375 -0.048246015 0.002535969 0.057897553
000080 3d 45 29 3b 27 09 9d 3c 26 0a 3a bd 23 ef 0d 3d
       0.0025828623 0.019169403 -0.045419835 0.034651887
000090 14 6a 6f bd cd 6f d7 3d 3c 07 84 3e bc ce 79 bd
       -0.058450773 0.10519371 0.2578677 -0.060988173
0000a0 1c 76 73 bc 3f 0c 89 bd 60 d5 1f bd 9a a1 60 bc
       -0.014859702 -0.06691789 -0.03902185 -0.013710404
0000b0 ed ce 79 3e f7 4c 55 3e 0d 4c 8a 3e 70 6f 5b bc
       0.24395342 0.20830141 0.27011147 -0.013393268
0000c0 4c 07 10 bd 2a af b1 3b 8f 46 50 3d 34 78 2e bd
       -0.03516321 0.0054224925 0.05084854 -0.042595103
0000d0 be c7 74 bc ec 2a 17 3d 8d b5 da 3c 03 51 1f 3d
       -0.0149402 0.036906168 0.026697898 0.03889562
0000e0 12 59 9b 3e cb a0 8e 3c 76 95 91 3e f3 58 25 3c
       0.30341393 0.017410656 0.28434342 0.010092008
0000f0 12 17 6e bd ba ff cc 3c 55 db bd 3c bc b3 bc bc
       -0.05812747 0.025024284 0.023175875 -0.023034923
000100 1d 90 ee 3c 9b a9 24 3d ce 0b 0a bd c2 1a 6c bd
       0.029121453 0.04020081 -0.033702664 -0.057642706
000110 58 ba 66 bc fe 67 87 bb 31 3f 7a 3d 38 11 2d bd
       -0.014082514 -0.00413227 0.06109542 -0.04225275
000120 e2 1e ab bb a0 66 1a bd 42 8f 05 3d 57 36 31 bd
       -0.0052221874 -0.037695527 0.032607324 -0.043264713
000130 f4 3a 56 bd 2b 0a 59 3d cf fe e2 3d c8 dc 84 bc
       -0.052302316 0.052988213 0.11083757 -0.016218558
000140 3f e2 a5 3d b1 f0 9a bc 87 57 bd bc eb 12 2e 3d
       0.08099794 -0.018913599 -0.023113025 0.04249851
000150 3a c5 4a bd 66 04 df bb 3c f6 7d bd 20 d9 7f bc
       -0.049504496 -0.0068059443 -0.062002406 -0.0156157315
000160 3a 31 78 bd 68 23 f4 bc f7 27 2b bd 01 4e 38 bc
       -0.06059382 -0.02980204 -0.04178616 -0.011249066
000170 fc 48 68 3d d2 cc a2 3d ee 76 6a 3c 3d 61 2e bc
       0.05671023 0.079492226 0.014310582 -0.010643301
000180 91 c4 e4 3c b5 21 42 3d f2 d5 11 bd f1 b9 86 bc
       0.027925761 0.047395427 -0.035604425 -0.016446086
000190 c8 c9 85 3c 96 a5 21 3d 3e 1d 43 bd 49 4e 06 bb
       0.016331568 0.039464556 -0.04763531 -0.002049344
0001a0 00 4b 66 bd ab b8 83 3e ba 42 14 3d 00 ff 8b 3e
       -0.05622387 0.25726828 0.036196448 0.27342987
0001b0 f4 41 5d 3c 90 73 33 3c 08 d3 7c 3c 60 91 6a 3c
       0.013504494 0.010952845 0.015431173 0.014316887
0001c0 c1 44 d3 3a 71 76 b8 bb f2 a6 4c bc f0 f4 f5 bb
       0.0016118513 -0.0056293537 -0.012490975 -0.0075060055
0001d0 c0 53 fb 3d 16 b7 a0 bc d3 e0 c0 bc c0 6d de bb
       0.122718334 -0.019618552 -0.023544705 -0.0067879856
0001e0 e5 84 49 3e fb c0 a1 bc ae f8 23 3d 40 c4 76 3e
       0.19679601 -0.01974534 0.04003208 0.24098301
0001f0 ea ec 3b bd ab 86 86 bd ca 76 1b 3d d6 f0 4a 3d
       -0.045880236 -0.065686546 0.037955083 0.049546085
000200 31 81 0f 3e 79 3b d7 3c 5e bd 28 3d f7 3a 8b ba
       0.14014126 0.026273476 0.04119622 -0.0010622431
000210 6c b0 ed bc fa fb ce 3d f6 3d a3 3d e2 eb 57 bc
       -0.029014789 0.101066545 0.079708025 -0.013178797
000220 e5 1c 3c bd 4c 8e 81 3d 9e e7 36 bd b3 ae aa 3d
       -0.045925993 0.06325969 -0.04465448 0.083341025
000230 96 e2 07 3d f8 04 80 3c c7 ec e6 3b 57 1a 57 bd
       0.033175074 0.01562737 0.007047269 -0.052515354
000240 40 01 2b bb ce df 3f 3d 89 61 8c 3a 96 f6 1b 3c
       -0.0026093274 0.046844296 0.001071022 0.00951924
000250 29 c8 2d 3c 12 ca 95 3b ab c5 10 bd 8b a3 d3 3c
       0.010606804 0.004571208 -0.03534476 0.02583482
000260 4d 6a 00 3d 99 2c 7d bd 5f b5 41 3c 1e 78 18 3d
       0.031351376 -0.06181011 0.011823027 0.037223928
000270 6e 04 01 bd e1 b3 89 bc 4c 49 76 bd aa cc 88 3c
       -0.031498365 -0.016809406 -0.060128495 0.016699154
000280 cc b9 07 3d c8 12 9c 3c 80 67 0e 3d 19 e5 30 3d
       0.033136174 0.019051924 0.034766674 0.043187235
000290 b4 87 d5 3b ed 4f 50 bb d5 46 19 bc 20 38 ff bb
       0.006516421 -0.003178592 -0.009355267 -0.007788673
0002a0 20 8c 28 3c 20 b5 cb bc c4 6f a3 3c c8 d7 08 bc
       0.010287315 -0.02486664 0.019950755 -0.0083522275
0002b0 7c 79 be bc ee d7 5b bd 2a e1 e7 bb e7 bf b8 3b
       -0.023251288 -0.053672723 -0.007076402 0.005638111
0002c0 77 c9 41 bd a0 98 91 bb f4 47 20 bd d9 c1 87 3b
       -0.047311272 -0.004443243 -0.03913112 0.0041429815
0002d0 0a fc 22 bd 6e c1 22 3d 47 6c 82 3c 98 c9 2d 3c
       -0.039791144 0.03973525 0.015920771 0.010607146
0002e0 a1 92 3e 3c 5e b4 60 3d d3 2f 0c 3d ba 4c 64 bd
       0.011631639 0.05485951 0.034225296 -0.055737235
0002f0 31 7c d3 3c 60 09 4d 3e a5 37 8a bd c3 7d cd 3c
       0.025816055 0.20023108 -0.067488946 0.025084382
000300 56 84 2f bc 20 c2 9d 3c e8 5f 2e bc 90 3f 37 bd
       -0.010712704 0.019257605 -0.010642983 -0.044738352
000310 60 a3 45 3c 7e 18 55 bd 4c 6d e0 3c 12 0d 50 bd
       0.012062877 -0.05202531 0.027395867 -0.050793715
000320 9c 1e 36 3d 38 69 33 bc 2c 4c f0 bc cd 4f 16 3c
       0.044462785 -0.010950379 -0.029333197 0.009174299
000330 14 00 4c bd cb 28 aa bc ac 47 a5 3d fd 8e 8f bc
       -0.049804762 -0.020771405 0.08070311 -0.017524237
000340 c9 3e 98 3c c4 d4 d9 3d 9c 71 dc 3c 31 79 91 bb
       0.018584626 0.10636285 0.026909642 -0.004439496
000350 e7 19 ab 3c a0 c2 9c bb aa fc 9e ba 2f d8 6d 3e
       0.020886375 -0.0047839433 -0.0012129743 0.23226999
000360 d2 6a 22 bd a5 da 9a 3c e0 3b 84 3c e0 3b 15 bc
       -0.039652653 0.018903086 0.016141832 -0.009108514
000370 e4 f7 ed 3c 70 e0 dd bc b0 99 b6 bc 13 6b 98 3c
       0.029048868 -0.02708456 -0.02229008 0.018605744
000380 68 92 3e 3c 36 04 89 bd b5 62 8a 3e 48 23 8d bc
       0.011631586 -0.06690256 0.27028432 -0.017228737
000390 cd a3 16 bc 75 82 f7 bc 60 b2 01 bd 2a c1 c2 3c
       -0.009194327 -0.030213574 -0.031664252 0.023773748
0003a0 24 d4 55 bd 33 5a 03 bd e8 ce 67 bd ae 62 1e bc
       -0.052204266 -0.032068443 -0.056593806 -0.009667082
0003b0 63 f3 30 3d bb 4f 4c bc d1 ac 6d bd 29 b1 48 3b
       0.04320086 -0.012470181 -0.05802614 0.0030623174
0003c0 f4 2e 64 3d 68 99 89 3c 5f eb 02 3b 59 98 2c 3d
       0.05570884 0.016796783 0.0019976718 0.042137478
0003d0 d2 ff f4 ba 88 2c bf bc 94 0d 50 3d fd 89 41 3d
       -0.0018691963 -0.023336664 0.0507942 0.047250737
0003e0 60 d7 ac 3d 8c 96 99 bc 52 3f 50 3d 8c 72 5f 3d
       0.08439517 -0.018748544 0.050841637 0.0545526
0003f0 1f cc 26 bb 75 d4 11 3c 4a 11 88 3c d1 4e 51 3c
       -0.0025451255 0.008900751 0.016609807 0.012775139

net.4.weight f4 [1, 256]
000000 6a 7e 93 3e d9 5b 4d 3e b4 01 58 3e 08 61 13 be
       0.28807384 0.20054568 0.210944 -0.14392483
000010 df 92 09 be 0f d0 4c 3d a9 3c 2f be 05 66 02 3c
       -0.13434933 0.050003108 -0.17112984 0.007958894
000020 d8 7c 06 3d e0 0a a0 3c ee 25 4d bd 02 e6 60 3e
       0.032833904 0.019536436 -0.050085 0.21962741
000030 9a 8e dd 3c 5b 4e f0 bd a6 35 36 bd ec a5 13 bd
       0.027045537 -0.11733695 -0.044484757 -0.036046907
000040 3c 1d fd bd a1 63 f6 bd e3 6d 01 be 2c 3d 32 be
       -0.12359092 -0.120307215 -0.12639575 -0.17406148
000050 76 66 ac 3c a6 20 47 bb 8c 2c 54 3e 73 1c 58 3d
       0.021044951 -0.003038445 0.20720118 0.052761506
000060 48 01 c6 bc d7 e2 09 be a0 1e 1a bd e9 2b a8 bc
       -0.024170533 -0.13465439 -0.037626863 -0.02052875
000070 29 67 54 3e 6f ac 1c bd be 79 6e 3d e9 2b 39 be
       0.20742477 -0.038250383 0.05822157 -0.18083157
000080 84 49 5b 3d 8f aa 23 3d 3e 95 1d bc b5 05 2d bd
       0.053536907 0.03995758 -0.009618102 -0.04224177
000090 20 27 53 3c b8 d0 62 3e 40 a6 a0 3e 93 83 27 3b
       0.012887746 0.22149932 0.3137684 0.0025560602
0000a0 45 c0 f1 3b 5a 99 41 3d ac d0 8d bc 23 d2 22 be
       0.0073776566 0.047265388 -0.017311417 -0.15900473
0000b0 7c c2 9b 3e 2e bd 8c 3e 1a d2 9b 3e 54 30 14 3d
       0.30421817 0.27488083 0.30433732 0.0361789
0000c0 0b ae 12 be 6c b9 56 3d ac 0c cb ba 46 85 15 3d
       -0.14324205 0.052422926 -0.0015491447 0.036504053
0000d0 26 61 8c 3c d3 30 25 3c bb 57 0b be c5 dc 2e be
       0.017136168 0.010082441 -0.13607685 -0.17076404
0000e0 2f fb 91 3e 2c 77 41 3e 53 89 99 3e 4b 9b d7 3c
       0.2851195 0.18893117 0.29987583 0.026319167
0000f0 7c e7 c2 bc 80 41 e3 3c 12 e3 84 bc 7c 49 f8 bc
       -0.023792021 0.027741194 -0.016221557 -0.030308478
000100 a1 94 01 3d f4 44 12 be cc 43 50 bd 42 61 3f bd
       0.031635884 -0.14284116 -0.050845906 -0.04672361
000110 62 9b 8d 3a f1 ac 2c be 7d a7 71 ba 80 7a 89 ba
       0.0010803754 -0.16862847 -0.0009218378 -0.0010488778
000120 58 52 35 be e6 67 3b be da 76 81 3c 20 38 fa bb
       -0.17707193 -0.18301353 0.015803743 -0.007636085
000130 32 6c 72 bd 78 77 22 be 99 14 3b 3e cc 3a 78 3d
       -0.059185214 -0.15865886 0.18269576 0.060602948
000140 69 81 83 3e 1d 55 a5 bc 6c 36 3f be 66 87 d5 bc
       0.2568467 -0.020182187 -0.18673104 -0.02606554
000150 54 db 42 be 5b 34 26 3d d8 6d 12 be a0 dd 40 3c
       -0.1902898 0.040577274 -0.14299715 0.0117715895
000160 60 c0 07 bd ea 1f 11 3d 24 15 4d bd f2 ac 11 be
       -0.033142447 0.035430826 -0.05006899 -0.1422613
000170 ff 09 28 be 9f 10 5f 3e 06 54 c6 bd 75 4c c3 3c
       -0.16410063 0.21783684 -0.09683995 0.023840168
000180 cf 42 58 3d f7 d9 37 be 40 d8 1c bd 98 29 1d be
       0.05279809 -0.1795424 -0.03829217 -0.15347898
000190 fc 90 46 bd 78 4a 30 bc c0 eb 38 3c 0f 21 09 3d
       -0.04847811 -0.010759942 0.011286676 0.033478793
0001a0 d8 34 28 3c 0c b7 9f 3e 05 18 ca 3c c0 69 9b 3e
       0.010266505 0.3119434 0.024669657 0.30354118
0001b0 32 1c 9e 3c 2a f1 6e 3d 4e d1 23 3d b6 17 23 3c
       0.019300554 0.05833546 0.03999453 0.009954384
0001c0 31 03 81 3a d9 3a 14 be 70 19 9a 3c 62 d4 2c bd
       0.000984287 -0.14475574 0.018810958 -0.04219473
0001d0 03 5e 83 3e e8 a1 24 be ef df 57 bd a0 a6 ba bc
       0.25657663 -0.16077387 -0.052703794 -0.022784531
0001e0 ff 54 2a 3e d0 f5 0f be ad 36 c9 3c 87 e5 4c 3e
       0.16633986 -0.14058614 0.024562204 0.20009433
0001f0 50 1b 14 bd c7 c1 ac 3c e2 fe 8f 39 a2 99 6d 3c
       -0.03615886 0.021088494 0.00027464988 0.014501961
000200 74 93 62 3e 82 50 f1 3c b4 19 b5 bc 50 db c3 bc
       0.22126561 0.029457334 -0.022106983 -0.023908287
000210 ce 5a 42 3d 41 08 74 3e 57 b9 5e 3e a8 20 81 3c
       0.04744988 0.23831274 0.21750389 0.015762642
000220 53 6a 11 3d f4 1c 3a 3e 20 e6 06 3c c7 4b 13 3e
       0.03550179 0.18175107 0.008233577 0.14384376
000230 c4 f3 6c bc cc 62 88 3c 9f 02 47 3b 5b e6 b5 3c
       -0.014462415 0.016648673 0.0030366553 0.022204569
000240 ac f5 0a bd 8e 6a 2c 3d 56 c2 ee bc ed 2c a5 3c
       -0.033925697 0.042093806 -0.029145401 0.020163024
000250 20 ff e1 3b 4a 81 8d 3b 40 27 4e 3d 57 57 44 be
       0.0068968683 0.004318391 0.0503304 -0.19173943
000260 93 3f e3 3c cf 99 89 bb 9d 73 ee bd 09 c4 e9 3c
       0.027740275 -0.0041992436 -0.11643145 0.02853586
000270 5a f2 c2 bd 47 27 07 be 60 6b fc 3c f8 fe 10 3d
       -0.09518881 -0.13198577 0.03081292 0.035399407
000280 e2 9d 5e bd 90 7e c2 3c 14 d4 b1 3c 36 31 44 3e
       -0.054349788 0.02374199 0.021707572 0.19159397
000290 5d 7a 8d b9 31 d2 35 be af 0c 49 be 4e 74 25 bd
       -0.00026984783 -0.17755963 -0.19633745 -0.04039412
0002a0 e0 ae 13 3d fd 2b 61 bc d8 e0 04 3c be 4f 5a bd
       0.036055446 -0.013743398 0.008110248 -0.053298704
0002b0 60 d8 e9 bc e8 8c 0a 3d 9e a0 f3 bd 22 51 24 be
       -0.028545558 0.033825785 -0.1189587 -0.16046575
0002c0 55 58 24 3d 54 a1 5d bd 42 b5 3e 3d df b0 1f be
       0.040123302 -0.054108933 0.04655958 -0.15594815
0002d0 92 2d cd 3b c7 45 31 3d 28 36 df 3d 68 a0 a0 3c
       0.006261536 0.043279435 0.10899001 0.019607738
0002e0 11 d4 15 be 7c b9 da 38 be 61 00 bd ca 13 26 be
       -0.14631678 0.00010429599 -0.031343214 -0.16218486
0002f0 70 b8 51 3b 35 45 7a 3e 1f aa 1d bb b9 a1 21 be
       0.0032000802 0.24440463 -0.00240577 -0.15784349
000300 50 b3 0e be 4a cc cd bd 28 c2 8c bc fe dc 55 3d
       -0.1393559 -0.10048731 -0.017182425 0.052212708
000310 18 e1 b1 bc 8e b2 2f bc 4c 58 e2 3c 9b 72 fa bd
       -0.021713778 -0.010723723 0.027629994 -0.122288905
000320 cb 66 f6 bd 14 c8 b8 bc 36 4c 31 3d a9 a7 02 be
       -0.12031325 -0.022556342 0.04328557 -0.1275927
000330 01 dd 2c b9 2e 07 6c 39 e0 71 74 3e 25 4c 0a be
       -0.00016485529 0.00022509389 0.23871565 -0.1350561
000340 6c c0 66 3e a2 5a 5e 3e e0 09 58 3d dd 4d 06 be
       0.2253434 0.21714261 0.052743793 -0.1311564
000350 ab 4f 01 be b6 e7 70 3d 2f 50 15 be 82 fc a3 3e
       -0.12628047 0.058814727 -0.14581369 0.32028586
000360 38 20 bf bc 90 94 3f be 40 8b 44 3c 20 a8 d2 3c
       -0.023330793 -0.18709016 0.01199609 0.025714934
000370 74 c3 f0 3c 66 bf 08 3b 9e 28 44 bd ba e3 f0 bd
       0.029390074 0.0020866035 -0.047890298 -0.117621854
000380 ce 7e 3b 3d d1 b8 19 be a8 b4 80 3e a9 53 46 3d
       0.045775227 -0.15011908 0.2513783 0.04841963
000390 a4 d0 16 be aa 91 f6 bd 92 02 4f 3d 68 d2 3f 3b
       -0.14728028 -0.12039502 0.05053956 0.00292697
0003a0 5a ff ce bc 1f 97 57 3d 01 47 2f be 86 3e 3c be
       -0.025268245 0.052634355 -0.1711693 -0.18383226
0003b0 8a 5e 04 3d 19 2f aa 3c 71 54 28 be c7 1e 26 be
       0.032316722 0.020774411 -0.16438462 -0.16222678
0003c0 ad d3 e8 bc 84 24 bd bc 2b 72 12 be 0b ac cd 3c
       -0.028421247 -0.023088701 -0.14301364 0.02510645
0003d0 73 20 0a be de f1 0e 3d 94 58 fc 3c c8 3a 08 3d
       -0.13488941 0.03489863 0.030803956 0.033259183
0003e0 4a 15 76 3e 28 d2 38 be 51 a1 24 be 98 ac 18 3c
       0.24031559 -0.18048918 -0.16077162 0.009318493
0003f0 d6 8e 58 3c 60 69 23 bd 9d f6 33 be 3e c7 37 3c
       0.0132176485 -0.039895415 -0.17574544 0.011216937

exp_avg f4 [256, 6]
000000 00 00 00 00 00 00 00 00 00 00 00 00 00 00 00 00
       0.0 0.0 0.0 0.0
000010 00 00 00 00 00 00 00 00 00 00 00 00 00 00 00 00
       0.0 0.0 0.0 0.0
000020 00 00 00 00 00 00 00 00 00 00 00 00 00 00 00 00
       0.0 0.0 0.0 0.0
000030 41 4e db bf a0 74 bf bd 00 00 00 00 00 00 00 00
       -1.7133256 -0.09348416 0.0 0.0
000040 00 00 00 00 00 00 00 00 85 5c e6 bf 71 91 d0 bd
       0.0 0.0 -1.7996985 -0.10183991
000050 00 00 00 00 00 00 00 00 00 00 00 00 00 00 00 00
       0.0 0.0 0.0 0.0
000060 2a fd 4d 40 12 7a 52 3e 00 00 00 00 00 00 00 00
       3.218577 0.20554379 0.0 0.0
000070 00 00 00 00 00 00 00 00 d3 ac 1b 3d 61 83 32 bc
       0.0 0.0 0.038006615 -0.010895581
000080 00 00 00 00 00 00 00 00 00 00 00 00 00 00 00 00
       0.0 0.0 0.0 0.0
000090 04 00 00 80 04 00 00 00 00 00 00 00 00 00 00 00
       -6e-45 6e-45 0.0 0.0
0000a0 00 00 00 00 00 00 00 00 00 00 00 00 00 00 00 00
       0.0 0.0 0.0 0.0
0000b0 00 00 00 00 00 00 00 00 00 00 00 00 00 00 00 00
       0.0 0.0 0.0 0.0
0000c0 d0 2c ed 3f bc b6 ef 3d 00 00 00 00 00 00 00 00
       1.8529301 0.11704776 0.0 0.0
0000d0 00 00 00 00 00 00 00 00 b0 13 06 40 26 f1 08 3e
       0.0 0.0 2.0949516 0.13373241
0000e0 00 00 00 00 00 00 00 00 00 00 00 00 00 00 00 00
       0.0 0.0 0.0 0.0
0000f0 35 a5 c4 bf c9 c4 b0 bd 00 00 00 00 00 00 00 00
       -1.5362917 -0.08631284 0.0 0.0
000100 00 00 00 00 00 00 00 00 3e 9e e4 bf 0a 2e c8 bd
       0.0 0.0 -1.7860792 -0.09774406
000110 00 00 00 00 00 00 00 00 00 00 00 00 00 00 00 00
       0.0 0.0 0.0 0.0
000120 3f 24 dc bf d5 43 c7 bd 00 00 00 00 00 00 00 00
       -1.7198561 -0.09729735 0.0 0.0
000130 00 00 00 00 00 00 00 00 06 d2 dc bf f6 71 c3 bd
       0.0 0.0 -1.7251594 -0.09543221
000140 00 00 00 00 00 00 00 00 00 00 00 00 00 00 00 00
       0.0 0.0 0.0 0.0
000150 01 27 c6 bf 23 cb b2 bd 00 00 00 00 00 00 00 00
       -1.5480653 -0.087301515 0.0 0.0
000160 00 00 00 00 00 00 00 00 38 48 d7 bf 74 97 c2 bd
       0.0 0.0 -1.6818914 -0.09501544
000170 00 00 00 00 00 00 00 00 00 00 00 00 00 00 00 00
       0.0 0.0 0.0 0.0
000180 45 0e d1 bf 0c ac c0 bd 00 00 00 00 00 00 00 00
       -1.633248 -0.09407815 0.0 0.0
000190 00 00 00 00 00 00 00 00 e0 34 cc bf d6 bc b6 bd
       0.0 0.0 -1.5953636 -0.08922736
0001a0 00 00 00 00 00 00 00 00 00 00 00 00 00 00 00 00
       0.0 0.0 0.0 0.0
0001b0 3a 5b e4 bf 51 88 cc bd 00 00 00 00 00 00 00 00
       -1.784034 -0.09986938 0.0 0.0
0001c0 00 00 00 00 00 00 00 00 00 00 00 00 00 00 00 00
       0.0 0.0 0.0 0.0
0001d0 00 00 00 00 00 00 00 00 00 00 00 00 00 00 00 00
       0.0 0.0 0.0 0.0
0001e0 9d 02 d7 bf 31 01 bb bd 00 00 00 00 00 00 00 00
       -1.6797673 -0.091310866 0.0 0.0
0001f0 00 00 00 00 00 00 00 00 b1 53 ce bf df fb b7 bd
       0.0 0.0 -1.611929 -0.089835875
000200 00 00 00 00 00 00 00 00 00 00 00 00 00 00 00 00
       0.0 0.0 0.0 0.0
000210 ec 7e ce bf f2 e7 b5 bd 00 00 00 00 00 00 00 00
       -1.6132483 -0.08882131 0.0 0.0
000220 00 00 00 00 00 00 00 00 00 00 00 00 00 00 00 00
       0.0 0.0 0.0 0.0
000230 00 00 00 00 00 00 00 00 00 00 00 00 00 00 00 00
       0.0 0.0 0.0 0.0
000240 00 00 00 00 00 00 00 00 00 00 00 00 00 00 00 00
       0.0 0.0 0.0 0.0
000250 00 00 00 00 00 00 00 00 ac a1 f8 3f 88 70 ff 3d
       0.0 0.0 1.9424338 0.124726355
000260 00 00 00 00 00 00 00 00 00 00 00 00 00 00 00 00
       0.0 0.0 0.0 0.0
000270 e7 7c f1 bf f8 61 e5 bd 00 00 00 00 00 00 00 00
       -1.8866242 -0.11200327 0.0 0.0
000280 00 00 00 00 00 00 00 00 62 ef c9 bf ef 17 b2 bd
       0.0 0.0 -1.5776179 -0.08695971
000290 00 00 00 00 00 00 00 00 00 00 00 00 00 00 00 00
       0.0 0.0 0.0 0.0
0002a0 05 dc 16 3d 7d bf f9 bb 00 00 00 00 00 00 00 00
       0.03683092 -0.007621704 0.0 0.0
0002b0 00 00 00 00 00 00 00 00 d5 ba 19 40 de a3 1c 3e
       0.0 0.0 2.4020283 0.15296885
0002c0 00 00 00 00 00 00 00 00 00 00 00 00 00 00 00 00
       0.0 0.0 0.0 0.0
0002d0 66 81 ce bf 42 5a bc bd 00 00 00 00 00 00 00 00
       -1.6133239 -0.09196903 0.0 0.0
0002e0 00 00 00 00 00 00 00 00 6e 4b f2 bf 65 da ca bd
       0.0 0.0 -1.8929269 -0.09904937
0002f0 00 00 00 00 00 00 00 00 00 00 00 00 00 00 00 00
       0.0 0.0 0.0 0.0
000300 af 63 d3 bf 09 76 c6 bd 00 00 00 00 00 00 00 00
       -1.6514796 -0.09690482 0.0 0.0
000310 00 00 00 00 00 00 00 00 d6 66 29 40 38 21 23 3e
       0.0 0.0 2.6469016 0.1593064
000320 00 00 00 00 00 00 00 00 00 00 00 00 00 00 00 00
       0.0 0.0 0.0 0.0
000330 11 b4 c6 3c 1a d6 bf bc 00 00 00 00 00 00 00 00
       0.024255784 -0.023417521 0.0 0.0
000340 00 00 00 00 00 00 00 00 41 ff c5 bf cc c6 a2 bd
       0.0 0.0 -1.5468522 -0.07948074
000350 00 00 00 00 00 00 00 00 00 00 00 00 00 00 00 00
       0.0 0.0 0.0 0.0
000360 00 00 00 00 00 00 00 00 00 00 00 00 00 00 00 00
       0.0 0.0 0.0 0.0
000370 00 00 00 00 00 00 00 00 00 00 00 00 00 00 00 00
       0.0 0.0 0.0 0.0
000380 00 00 00 00 00 00 00 00 00 00 00 00 00 00 00 00
       0.0 0.0 0.0 0.0
000390 16 ce d9 bf af 82 bf bd 00 00 00 00 00 00 00 00
       -1.7016017 -0.09351098 0.0 0.0
0003a0 00 00 00 00 00 00 00 00 07 d9 2e 40 52 b0 35 3e
       0.0 0.0 2.7319963 0.17743042
0003b0 00 00 00 00 00 00 00 00 00 00 00 00 00 00 00 00
       0.0 0.0 0.0 0.0
0003c0 4e 96 d4 bf 20 59 c3 bd 00 00 00 00 00 00 00 00
       -1.6608369 -0.095384836 0.0 0.0
0003d0 00 00 00 00 00 00 00 00 b2 a0 e0 bf 7c 11 c2 bd
       0.0 0.0 -1.754904 -0.09475991
0003e0 00 00 00 00 00 00 00 00 00 00 00 00 00 00 00 00
       0.0 0.0 0.0 0.0
0003f0 2f 90 d1 bf 27 f9 bc bd 00 00 00 00 00 00 00 00
       -1.6372126 -0.092272095 0.0 0.0

exp_avg_sq f4 [256, 6]
000000 00 00 00 00 00 00 00 00 00 00 00 00 00 00 00 00
       0.0 0.0 0.0 0.0
000010 00 00 00 00 00 00 00 00 00 00 00 00 00 00 00 00
       0.0 0.0 0.0 0.0
000020 00 00 00 00 00 00 00 00 00 00 00 00 00 00 00 00
       0.0 0.0 0.0 0.0
000030 a8 d7 9a 3f b8 3f 5d 3b 00 00 00 00 00 00 00 00
       1.2097063 0.0033759903 0.0 0.0
000040 00 00 00 00 00 00 00 00 50 64 c7 3f 27 00 8b 3b
       0.0 0.0 1.5577488 0.0042419615
000050 00 00 00 00 00 00 00 00 00 00 00 00 00 00 00 00
       0.0 0.0 0.0 0.0
000060 33 64 02 41 1d 7e 90 3c 00 00 00 00 00 00 00 00
       8.149463 0.01763826 0.0 0.0
000070 00 00 00 00 00 00 00 00 3d 10 80 3f 11 e2 36 3b
       0.0 0.0 1.0004956 0.0027905742
000080 00 00 00 00 00 00 00 00 00 00 00 00 00 00 00 00
       0.0 0.0 0.0 0.0
000090 f4 01 00 00 f4 01 00 00 00 00 00 00 00 00 00 00
       7e-43 7e-43 0.0 0.0
0000a0 00 00 00 00 00 00 00 00 00 00 00 00 00 00 00 00
       0.0 0.0 0.0 0.0
0000b0 00 00 00 00 00 00 00 00 00 00 00 00 00 00 00 00
       0.0 0.0 0.0 0.0
0000c0 97 70 1e 40 7f ff b1 3b 00 00 00 00 00 00 00 00
       2.475622 0.005432069 0.0 0.0
0000d0 00 00 00 00 00 00 00 00 28 db 5d 40 e9 ac fa 3b
       0.0 0.0 3.4665012 0.007650007
0000e0 00 00 00 00 00 00 00 00 00 00 00 00 00 00 00 00
       0.0 0.0 0.0 0.0
0000f0 fc d2 8d 3f 32 0e 41 3b 00 00 00 00 00 00 00 00
       1.1080012 0.0029457924 0.0 0.0
000100 00 00 00 00 00 00 00 00 fb be ab 3f fc 2c 7a 3b
       0.0 0.0 1.3417658 0.0038173785
000110 00 00 00 00 00 00 00 00 00 00 00 00 00 00 00 00
       0.0 0.0 0.0 0.0
000120 ef 80 b9 3f 85 65 80 3b 00 00 00 00 00 00 00 00
       1.4492472 0.003918352 0.0 0.0
000130 00 00 00 00 00 00 00 00 1f ea a6 3f 11 ae 6b 3b
       0.0 0.0 1.3040198 0.0035961906
000140 00 00 00 00 00 00 00 00 00 00 00 00 00 00 00 00
       0.0 0.0 0.0 0.0
000150 8c 53 93 3f b0 8e 4a 3b 00 00 00 00 00 00 00 00
       1.1509871 0.0030907802 0.0 0.0
000160 00 00 00 00 00 00 00 00 51 8f b0 3f 0a 7b 72 3b
       0.0 0.0 1.3793737 0.0036999607
000170 00 00 00 00 00 00 00 00 00 00 00 00 00 00 00 00
       0.0 0.0 0.0 0.0
000180 d1 bd b9 3f cd f3 7a 3b 00 00 00 00 00 00 00 00
       1.4511052 0.003829229 0.0 0.0
000190 00 00 00 00 00 00 00 00 2a 8b 90 3f e0 75 4a 3b
       0.0 0.0 1.129247 0.0030893013
0001a0 00 00 00 00 00 00 00 00 00 00 00 00 00 00 00 00
       0.0 0.0 0.0 0.0
0001b0 d4 7c bf 3f e7 15 85 3b 00 00 00 00 00 00 00 00
       1.495997 0.004061449 0.0 0.0
0001c0 00 00 00 00 00 00 00 00 00 00 00 00 00 00 00 00
       0.0 0.0 0.0 0.0
0001d0 00 00 00 00 00 00 00 00 00 00 00 00 00 00 00 00
       0.0 0.0 0.0 0.0
0001e0 cf 9b 8b 3f 45 c1 48 3b 00 00 00 00 00 00 00 00
       1.0906924 0.0030632776 0.0 0.0
0001f0 00 00 00 00 00 00 00 00 de fe 91 3f 73 55 4e 3b
       0.0 0.0 1.1405904 0.0031484037
000200 00 00 00 00 00 00 00 00 00 00 00 00 00 00 00 00
       0.0 0.0 0.0 0.0
000210 d8 8a 89 3f fe df 43 3b 00 00 00 00 00 00 00 00
       1.0745497 0.0029888148 0.0 0.0
000220 00 00 00 00 00 00 00 00 00 00 00 00 00 00 00 00
       0.0 0.0 0.0 0.0
000230 00 00 00 00 00 00 00 00 00 00 00 00 00 00 00 00
       0.0 0.0 0.0 0.0
000240 00 00 00 00 00 00 00 00 00 00 00 00 00 00 00 00
       0.0 0.0 0.0 0.0
000250 00 00 00 00 00 00 00 00 4f 8a 43 40 d2 08 db 3b
       0.0 0.0 3.0553167 0.006684401
000260 00 00 00 00 00 00 00 00 00 00 00 00 00 00 00 00
       0.0 0.0 0.0 0.0
000270 4b 83 02 40 f9 34 c3 3b 00 00 00 00 00 00 00 00
       2.0392635 0.0059572426 0.0 0.0
000280 00 00 00 00 00 00 00 00 b1 62 8c 3f 49 4d 48 3b
       0.0 0.0 1.0967618 0.0030563644
000290 00 00 00 00 00 00 00 00 00 00 00 00 00 00 00 00
       0.0 0.0 0.0 0.0
0002a0 f1 8f 80 3f 55 df 12 3b 00 00 00 00 00 00 00 00
       1.0043927 0.0022410948 0.0 0.0
0002b0 00 00 00 00 00 00 00 00 58 fd 8d 40 9f 89 1e 3c
       0.0 0.0 4.4371758 0.009676366
0002c0 00 00 00 00 00 00 00 00 00 00 00 00 00 00 00 00
       0.0 0.0 0.0 0.0
0002d0 ae 16 a3 3f 3a 87 62 3b 00 00 00 00 00 00 00 00
       1.2741296 0.0034565465 0.0 0.0
0002e0 00 00 00 00 00 00 00 00 6f 6d c3 3f bd 4a 8f 3b
       0.0 0.0 1.5267771 0.004372923
0002f0 00 00 00 00 00 00 00 00 00 00 00 00 00 00 00 00
       0.0 0.0 0.0 0.0
000300 38 98 d1 3f f5 20 8b 3b 00 00 00 00 00 00 00 00
       1.6374578 0.004245872 0.0 0.0
000310 00 00 00 00 00 00 00 00 30 75 78 40 05 9c 0a 3c
       0.0 0.0 3.8821526 0.0084600495
000320 00 00 00 00 00 00 00 00 00 00 00 00 00 00 00 00
       0.0 0.0 0.0 0.0
000330 55 b2 94 3f c2 52 92 3b 00 00 00 00 00 00 00 00
       1.1616923 0.004465432 0.0 0.0
000340 00 00 00 00 00 00 00 00 87 d9 65 3f 32 69 2e 3b
       0.0 0.0 0.89785045 0.0026612994
000350 00 00 00 00 00 00 00 00 00 00 00 00 00 00 00 00
       0.0 0.0 0.0 0.0
000360 00 00 00 00 00 00 00 00 00 00 00 00 00 00 00 00
       0.0 0.0 0.0 0.0
000370 00 00 00 00 00 00 00 00 00 00 00 00 00 00 00 00
       0.0 0.0 0.0 0.0
000380 00 00 00 00 00 00 00 00 00 00 00 00 00 00 00 00
       0.0 0.0 0.0 0.0
000390 c4 65 9c 3f 90 ce 61 3b 00 00 00 00 00 00 00 00
       1.2218556 0.0034455396 0.0 0.0
0003a0 00 00 00 00 00 00 00 00 a1 42 ca 40 af b4 62 3c
       0.0 0.0 6.3206334 0.013837024
0003b0 00 00 00 00 00 00 00 00 00 00 00 00 00 00 00 00
       0.0 0.0 0.0 0.0
0003c0 1f 6a be 3f 9f 5a 80 3b 00 00 00 00 00 00 00 00
       1.4876136 0.003917053 0.0 0.0
0003d0 00 00 00 00 00 00 00 00 50 62 a0 3f c9 ec 6b 3b
       0.0 0.0 1.2530003 0.003599929
0003e0 00 00 00 00 00 00 00 00 00 00 00 00 00 00 00 00
       0.0 0.0 0.0 0.0
0003f0 0c b4 9f 3f 0a d5 5f 3b 00 00 00 00 00 00 00 00
       1.2476821 0.003415408 0.0 0.0
