assets/section_2/cartpole_to_mountain_car/models/exp1/episode_best/actor.pth (torch, 831430 bytes, 18 tensors)

base.0.weight f4 [256, 6]
00000000: 09e8 a4be e091 47bf becf e9be 70b4 98be
00000010: 3aae 923e c173 9d3e c389 a13c e406 4a3f
00000020: fa92 8a3e d6b8 afbe 8f3e 893e e9a7 d43c
00000030: 03dd a6be db19 0bbf baa6 0fbf adaf 87be
00000040: 5407 23bd a034 d6bd 8e46 933e c1bc 5dbe
00000050: c5cb d5be acde ecbe e148 87be 3374 dbbd
00000060: 0ec0 c7be 69df 0cbf bc11 433e 4808 febd
00000070: 14f8 71bd 512a 0e3c 9d2e 4ebe 0a73 a13e
00000080: c577 a73e 4b50 633e f415 583e 1e29 493e
00000090: 49b6 353e 2185 30bf fdd6 0d3c ba96 e9bd
000000a0: fdc9 0b3e 4af8 9cbe 7376 80be 31c5 d2be
000000b0: 2847 783e d460 cdbe 7c3a adbd e165 18be
000000c0: b039 f0be 83c1 0e3f 016a 343e ae8a 70bd
000000d0: 6a8d 99bb d31f fd3d 356e a23e b70d 873d
000000e0: 6686 083f 21c7 ba3e ab32 b13e ef91 49be
000000f0: fc32 35be 28df c93c 0c79 15be a2f8 aabe
00000100: aa42 70be 83d1 a8be 499f 443e d74b 533e
00000110: 9b41 8d3e de88 9dbe a719 9a3e 8149 c2bc
00000120: 3394 abbe 6449 edbe 4897 07be f6f8 ea3c
00000130: fb82 2f3e a7f0 6cbe f5f9 823e cafa eb3d
00000140: dd57 eb3c 65c6 723e aeb6 88be 6b97 143e
00000150: 83d4 d4bd 1c17 08be fc02 a8bd ab00 9a3e
00000160: 95d9 bcbc a768 bb3e e00b 15bc 42b0 673e
00000170: 5c7a f7be da7c e2be ff1c 413e d29f 8ebe
00000180: 8802 1f3e a95a 233e 6bfb 173e f3e0 a6be
00000190: 8561 6ebe 76e2 133e 3836 19be d678 413f
000001a0: db76 9a3e 977d 85bd 1643 623c 3fca bcbe
000001b0: 1d8e 4f3d 8ebe 1c3f bcff d7be 3472 03be
000001c0: 3d1a c6b9 f6ef c8be b000 6dbe 3d48 1a3f
000001d0: 2d0d 783d 231d cb3e de56 b4be 7ade a0be
000001e0: b4fc a1be 7acc 55be 004d 05bf b540 18be
000001f0: 3ab4 aabd 19fd b5be 42f9 50be 4fac 003f
00000200: 45d0 bdbd 2e57 cc3e a791 be3e 7efe 903e
00000210: bda8 ab3e 37a2 40be 7ad0 bfbe cd41 9a3e
00000220: 430a d0bd ae34 283e ae66 633e 039a 973e
00000230: 810b 59be afb6 5ebd a405 8b3e 3a69 cd3e
00000240: 7a09 543d 9893 17bf 7eec 62be 311e 9cbe
00000250: bedc 7d3e 2e74 9d3e aa07 a03e 1114 973e
00000260: 536d d43b 60a0 19be dd10 d3bd f120 043e
00000270: 9136 503e 87e2 153f 4643 dcbd e3eb 80bd
00000280: 8720 7d3e 9670 a5be c9d9 413d 8dde 0abf
00000290: 5d74 0d3e db8b b4be eb95 7bbe fe71 31be
000002a0: b5fe bd3e ee62 9abe fd0d f13d 8bdf e43e
000002b0: f9e9 efbd 3375 1ebe bea3 25be 7086 133e
000002c0: 0338 213f 6a07 003e 3f5a ee3d 1695 9e3e
000002d0: c5de 73be 78d6 103f 5190 c3bd ad8b d0be
000002e0: 32b2 62be c12c 57be 0f84 243b 7c7d 543c
000002f0: 4b79 d43d a524 57be cbdd 9c3e eaa7 9c3e
00000300: eea8 c23e 92fa 353f ec06 793c d66d 6a3e
00000310: ab7c ab3e 82e0 88be c7dd 183d 27b1 dc3e
00000320: 5676 6e3d 8c21 a3be fd14 83bc a546 423c
00000330: 89f4 33bb fbcc c53d 312f 063f d04a e33e
00000340: 040d 2dbe 50be 853e 2072 46be 9888 75bd
00000350: a214 7b3c 35c4 993d 09f5 573e c5b5 91be
00000360: aa7c ab3b a1bd 26bf 5bbc f4bd 2775 30be
00000370: 1b75 0dbd 1319 033c f211 b2be f806 4ebf
00000380: 5683 38be 1636 cdbe 7fc0 58bc 3953 4cbc
00000390: b8b6 a13d 3db3 a23e 48e5 debe d278 cebe
000003a0: 9f65 143e 070e 4fbe 1467 c5be a286 513f
000003b0: 9892 083e 4336 dc3d 2f3d c0be 2c92 063e
000003c0: 11f3 323e 0456 b63d 6e5a b63d 78d2 593d
000003d0: 1314 a23e 3ed0 0f3e b38c 0e3d fcdb 9a3e
000003e0: c4dd a7be 75ca 00bd 0552 563e 81f2 03be
000003f0: 0ec4 7ebe 2fd8 f0be ee58 25bd 7ba9 3e3e
-0.3220828 -0.7795696 -0.45666307 -0.29825163 0.2864855 0.30752376 0.01971901 0.78916764
0.2706526 -0.34320706 0.2680554 0.025958972 -0.32590494 -0.5433633 -0.5611378 -0.26501217
-0.03980191 -0.10459256 0.28764766 -0.21654035 -0.41757026 -0.46263635 -0.2642279 -0.107155226
-0.39013714 -0.55028397 0.19049734 -0.12403923 -0.059074476 0.008677081 -0.20134969 0.3153308
0.32708564 0.22198598 0.21102124 0.19644591 0.17745318 -0.6895314 0.008657214 -0.11405702
0.13651271 -0.3065818 -0.2509037 -0.4116607 0.24245894 -0.40112936 -0.08458421 -0.14882614
-0.46919012 0.55764025 0.17618562 -0.058726005 -0.0046860473 0.123595856 0.31724706 0.06594413
0.53330076 0.36480048 0.3460897 -0.19684575 -0.1769523 0.024642542 -0.14596957 -0.33392817
-0.2346293 -0.32972345 0.19201387 0.206344 0.27589116 -0.30768484 0.30097696 -0.02371669
-0.33511505 -0.46345055 -0.13241303 0.028683167 0.17139809 -0.23138677 0.25581327 0.115224436
0.02872842 0.23708494 -0.26701874 0.14510886 -0.10392096 -0.13290066 -0.08203694 0.30078635
-0.02305297 0.3660328 -0.0090970695 0.22625831 -0.4833554 -0.4423588 0.18858717 -0.27856308
0.1552831 0.15952553 0.14842002 -0.32593498 -0.23279388 0.14441857 -0.14962089 0.75575006
0.30168805 -0.06518095 0.01380994 -0.36873052 0.05067264 0.61228263 -0.42187297 -0.12836534
-0.00037785052 -0.39245576 -0.23144794 0.60266477 0.06055944 0.39670667 -0.35222524 -0.31419736
-0.3163811 -0.20878783 -0.5207062 -0.14868434 -0.08335157 -0.3554466 -0.20407584 0.5026292
-0.0926824 0.39910263 0.372205 0.28319162 0.33527175 -0.1881188 -0.37463742 0.30128327
-0.10158207 0.16426346 0.22207138 0.2960969 -0.21195795 -0.05437344 0.2715274 0.40119344
0.05176685 -0.59209585 -0.22160527 -0.30491784 0.24791238 0.307527 0.31255847 0.29507497
0.006482759 -0.15002584 -0.10305951 0.12903191 0.20333315 0.5854878 -0.10755019 -0.06294992
0.2471944 -0.3231246 0.047326837 -0.54245836 0.1381392 -0.3526295 -0.24568908 -0.17328641
0.3710839 -0.30153602 0.11770246 0.447018 -0.117145486 -0.15474395 -0.16175744 0.14406753
0.6297609 0.12502828 0.11638307 0.3097312 -0.23815449 0.56577253 -0.095490105 -0.40731564
-0.22138289 -0.21013166 0.0025103127 0.012969371 0.10374697 -0.21010073 0.30637965 0.30596858
0.38019508 0.71085465 0.015199404 0.22893462 0.33493552 -0.26733786 0.03732088 0.43103907
0.058218323 -0.31861532 -0.016001219 0.011857663 -0.0027458987 0.096582375 0.5241576 0.44393015
-0.16899496 0.2612176 -0.19379473 -0.05994472 0.015324743 0.07508127 0.21089567 -0.28458992
0.005233367 -0.651331 -0.119499885 -0.1723219 -0.03453551 0.008001584 -0.34779316 -0.80479383
-0.1801885 -0.40080327 -0.013229488 -0.012471014 0.07896179 0.31777373 -0.43534303 -0.40326554
0.1449189 -0.20220195 -0.38555205 0.8184606 0.13337171 0.10752537 -0.3754668 0.13141698
0.17475535 0.08903125 0.08903967 0.053179234 0.3165594 0.14044282 0.03480215 0.3024596
-0.3278638 -0.031443078 0.20929725 -0.12885477 -0.24879476 -0.47039935 -0.040368013 0.18619339

base.0.bias f4 [256]
00000000: b131 203e 008b d73c 599d ac3e 75a5 c03e
00000010: 56b2 353e 51b9 c13e 1970 213e e717 63be
00000020: 6835 7ebe bf03 283e 89fb 9dbe 0344 cdbe
00000030: 5db4 e0bd c60b acbe 8393 03be 637e b8bd
00000040: 1733 c1be 218d a4bc dbbb 623d c704 803e
00000050: f888 613e f879 283e 709d 19be e445 07bd
00000060: a349 2b3e c789 c63e 2192 013e eb1e d73d
00000070: d2d0 aa3e 6ddd d43e 4759 893e 0106 cbbe
00000080: a0fa cc3e 365b 4dbd 003c 313e 7036 8dbe
00000090: 4456 4b3e aff9 803d eaca 02be 02b0 9fbd
000000a0: 0eba 86be ae5e a6be 56e9 423d 23be 42be
000000b0: aac8 63be 9252 22be 82bc c83e 1e1d fa3d
000000c0: c1e5 803d 4622 8bbe 7caa 45be b6d1 943e
000000d0: a1f7 9ebe 763c 123e cdd2 8e3e 65b9 b33e
000000e0: cd33 92be f3dd 13be a0a6 20bd 008d c43e
000000f0: e24b 65be 04a8 443e f4a0 da3e 4df0 83be
00000100: b511 083d 054d dd3e 12c9 983e e677 39be
00000110: 70e2 b4bb 078f 0e3e a4c3 bf3e 7420 acbe
00000120: c714 93be b514 943e 5783 6fbe 804e b1bd
00000130: 34ac c23e 01c9 e5bd d889 933e 224a 7ebe
00000140: f5f1 c2be 9819 853e fb4b 2f3e 469c 36be
00000150: 7d4e b8be d3e3 083d 792c b63e 97ce 30be
00000160: ff98 9bbd 92e9 9a3e 3b65 953e 3638 12bd
00000170: e452 01bd 8728 463e 5545 93be cf6e 013d
00000180: 1502 bdbe cbda d23e efe2 f53d ba4d a73e
00000190: b652 2dbe 62b6 6dbb a901 f7bd 6e20 5a3e
000001a0: 1579 2c3d ac0e bbbe 986f 913e ffa8 9f3b
000001b0: b73d 713e 97a0 cabe 4c73 90be 4988 71bd
000001c0: 77af c73d b036 cdbd b3ef a73e 85fe 973e
000001d0: 8a65 cfbe f00a 0ebe 26d2 353c ec5e 633d
000001e0: c0f4 df3d e4d4 1c3e f224 44be e3cd 67be
000001f0: 669a a63e 0576 c93d 7d00 1a3e 30fe 60be
00000200: 7e93 873d c4d3 85be 0414 2fbe 06d4 7f3b
00000210: 10de 9e3e f214 76be 4214 df3c 7953 4bbe
00000220: bdca 71be b578 95be 04ae f43c 5668 823e
00000230: af3c 973b ba85 c1be 178b 51bd 108e b1be
00000240: f7dd 543e f3f5 413e 7db4 a13e 4a61 a2be
00000250: a6fc b83e 86d5 bd3e 3cd7 3d3e c270 97be
00000260: b907 d43d d132 5bbe e84c 2fbd 95f1 1f3e
00000270: bd70 d6bd 5aaf c73e 424b 56be a521 993c
00000280: 7c9c 8abe 20fa a63c 8359 4e3e ab08 2bbc
00000290: ddd6 a83e 18e6 99bd 90e3 c8be d6fc 763e
000002a0: e967 fbbc f2c1 a23d 54d5 c5bd 5aaf 62bd
000002b0: b0a6 b4be afe3 e63e 7faa e73d 004b 1ebe
000002c0: e7e3 d03e 2f4f ef3d 71df 4c3e ef6b 9a3e
000002d0: 0368 543e 6a50 64be 585d ae3e 2072 0a3e
000002e0: 6637 cf3e c888 843d 208d 82be 63a4 933e
000002f0: 0a7a 95be a7d8 c53e 9e9f 9a3e 26fc 1c3c
00000300: 77db 2b3c 6cdf 64bd d8d2 bc3e 0fc8 433e
00000310: 421a d23e 4ee8 90be 5940 71be c3bd bfbe
00000320: ed06 263e 3191 08be 0045 b73d 6e9f a8be
00000330: 24e9 293e f5b1 bbbe 9402 6d3e fa68 9a3c
00000340: 6742 133e 359c ef3d 02bf b43e 3a22 cbbd
00000350: cf4c 333e a08b 8abe e4e0 d93e c000 78be
00000360: 8f55 293e 83ad 42be b668 a73e 6204 5dbd
00000370: 2fe9 65be 903e 1fbe 36f3 be3e 13ff a4be
00000380: 221d 4e3e d121 9dbe 840a c53e 4c21 81bd
00000390: 0786 193e bac5 cbbe f7d2 5b3e cf3f 2a3e
000003a0: b504 353e 1a63 8d3e efe5 b5be d4fd e73d
000003b0: 0186 2cbd 2d64 d6bd a117 8c3c e6ff 813d
000003c0: 3f16 9ebd 5aee a53e a91b 5d3e 7baa 8e3e
000003d0: dead 3f3d 3b48 dd3e 0ade cd3e 367d 103e
000003e0: 3546 da3c 8d9c cf3d 68b8 8ebc be2d 053d
000003f0: b9b0 4fbe dfff cbbe bb43 af3d eb50 c43d
0.15643956 0.026311398 0.33713797 0.37626234 0.17743811 0.37836698 0.15765418 -0.22177087
-0.2482506 0.16407679 -0.3085597 -0.4009095 -0.109719016 -0.33602732 -0.1284924 -0.09008481
-0.3773429 -0.020086827 0.055354934 0.25003645 0.22024906 0.16452777 -0.15001464 -0.033025637
0.16727309 0.3877699 0.126534 0.10503944 0.33362442 0.41575184 0.26825926 -0.39653018
0.40034962 -0.050135814 0.17308044 -0.27580595 0.19857126 0.06297623 -0.12772718 -0.07797243
-0.26313823 -0.3249411 0.047585808 -0.19017844 -0.22244516 -0.1585181 0.3920632 0.12212585
0.06293822 -0.27174586 -0.19303316 0.29066247 -0.310483 0.14280877 0.27895203 0.35102382
-0.28555146 -0.14440136 -0.039221406 0.38388824 -0.22392228 0.19204718 0.42700922 -0.25769272
0.03322001 0.43222824 0.29840904 -0.18112144 -0.0055201575 0.13921748 0.3745395 -0.3361851
-0.2872679 0.28922048 -0.23389946 -0.08657551 0.38022006 -0.11219979 0.28816104 -0.24832967
-0.38075224 0.2599609 0.17118828 -0.17833051 -0.35997382 0.033420395 0.35580805 -0.17266308
-0.07597541 0.30256325 0.29178795 -0.03569814 -0.03157319 0.19351397 -0.28763834 0.031599816
-0.3691565 0.4118255 0.12006175 0.32676488 -0.16926083 -0.0036272039 -0.120608635 0.21301433
0.04210766 -0.3653463 0.28405452 0.004872441 0.23558699 -0.39575645 -0.28212965 -0.058967862
0.09750264 -0.100201964 0.32800063 0.2968637 -0.40507156 -0.1387136 0.011097467 0.055510446
0.10935354 0.15315586 -0.19154719 -0.22637133 0.32539672 0.098369636 0.15039249 -0.21971965
0.06619929 -0.26138127 -0.17097479 0.0039036288 0.31028795 -0.24031428 0.02723134 -0.19856061
-0.23612495 -0.29193655 0.029868133 0.25470227 0.0046153883 -0.37797338 -0.051158037 -0.34678698
0.20787798 0.18941478 0.31583014 -0.3171485 0.36130255 0.37076968 0.18539137 -0.29578215
0.103530355 -0.21406104 -0.042797953 0.156195 -0.10470722 0.3900097 -0.20927146 0.0186928
-0.27072513 0.02038294 0.20151334 -0.010439078 0.32976428 -0.0751459 -0.39236116 0.24119887
-0.030689197 0.079471484 -0.0965983 -0.05534301 -0.35283422 0.45095584 0.113118164 -0.15458298
0.40798876 0.11685025 0.20007111 0.30160472 0.20742802 -0.222963 0.3405559 0.13520098
0.40471953 0.064714015 -0.25498295 0.28836355 -0.2919467 0.38641855 0.30199903 0.009581601
0.010489336 -0.055877134 0.3687961 0.19119285 0.41035658 -0.28302234 -0.23559703 -0.37449464
0.1621358 -0.13336636 0.089487076 -0.32934135 0.16592842 -0.36659208 0.23145515 0.018848885
0.14380799 0.11699716 0.35301977 -0.099186376 0.17509769 -0.2705965 0.4255439 -0.24219036
0.16536544 -0.19011502 0.32697076 -0.053959258 -0.22452234 -0.1555121 0.3729493 -0.32225856
0.20128301 -0.30689862 0.38484585 -0.06305179 0.14992534 -0.3979929 0.21467195 0.16625904
0.17677577 0.2761467 -0.35526988 0.11327711 -0.042119984 -0.10468326 0.01710111 0.06347637
-0.07719087 0.3240841 0.21592583 0.2786444 0.046796672 0.4321917 0.40208465 0.14110264
0.026644805 0.101372816 -0.017421916 0.032514326 -0.20282258 -0.39843652 0.085578404 0.095857464

base.2.weight f4 [256, 256]
00000000: 4236 0cbe d4a0 743e 32da 2d3b 842f d5bd
00000010: 3db7 e5bc 6f04 d53d 7d36 83bb 18e3 cfbd
00000020: dab1 203c 4f22 9a3d e5b7 8a3d cd7c 4abd
00000030: 850f 00bd 7819 f9bc b40f a13c 2017 a1bb
00000040: 97cb c2bc 0d6a 7c3e 1b02 013e 54ef e83d
00000050: 42da a03c 3b06 2a3d 45a0 3c3b f255 14bd
00000060: f712 81bd a979 2bbd 2fdf c23d b0c2 5fbd
00000070: ad9d d8bc 26fe c23d 23ed f23c 27a4 40bd
00000080: 5ede 5b3d 90c0 0e3d f077 4f3d 6944 303b
00000090: 55b3 03bd d3a4 90bd e8ed e4bc 8de8 a83d
000000a0: d2c0 cf3c ea20 283d 2f53 55bd a72c b43c
000000b0: 253f ad3d ab7d 453d cbfd 913c 1b31 1cbd
000000c0: ac65 0e3e fb8d c2bb 275c d13d 68ae 0abc
000000d0: faca 2cbd 7b62 9e3d a463 02bc 1889 043d
000000e0: d4b4 5bbc 5ac0 053c 7e60 f5bd 060b b7bc
000000f0: e083 9cbd e04b 233d 6845 34bd 20f8 ad3c
00000100: d1d4 0f3e b811 f13c 479e 803d 2474 fd3c
00000110: 2df3 42bc df62 9fbd d7c2 a83d f03d 2abd
00000120: fad2 5b3d f0a2 403d 3059 85bd b117 39bc
00000130: ebdf 063d 9e98 923d acc6 163d 9474 a5bc
00000140: cf02 48bd 72c2 2ebd a8ef f9bd 6ee7 883d
00000150: 0b12 85bd 7125 c3bd f638 52bd 44a7 19bd
00000160: 193f 0d3d 0289 c73d 35f2 733d 2f02 493e
00000170: 8b11 74bd c9a2 e0bc 3c02 c63c 27fd 10be
00000180: 15c3 b7bc e864 b13d 8524 d33c 0f53 f2bc
00000190: 9f4b aebd fedd f3bd c5dd 9cbd e1c8 d93d
000001a0: f145 b33c 13de 2c3d ddc2 62bd 6edf 2f3d
000001b0: 3540 c73d f77b 2f3d 1b52 04bc 9206 d0bc
000001c0: 5e31 133e 6461 073d 0c62 28bd e43e 763d
000001d0: f0eb bb3b a01c 35bd 9e6b 20be 1afd bcbc
000001e0: b181 af3d b159 09bc 5a93 a93b d35d 1dbd
000001f0: 81ab 023e 913b 113e 679f 0f3e 9f61 5f3c
00000200: ec7b 7cbd df80 73bd 86cb c9bc 8eba 363e
00000210: 998d 2f3c cdf8 e0bc 0b64 a8bd 3429 54bd
00000220: de16 dd3c b4f9 3a3d a3f2 bfbd d643 fbbc
00000230: b57f d73b fdf4 163d 794f 14bd 9ce8 0eba
00000240: 64ed 02bc 6730 6dbc 620d 77bc 9228 90bc
00000250: 8985 733d 2108 a33d 33c9 b93c eadb 1abe
00000260: 85c5 94bc 333f 06bd 30d8 35bb 11bd 61bd
00000270: ad6d 2c3d 47d5 d43c aed7 f4bc 4c6a 93bd
00000280: 19cc afbd fa7f eabd 01b4 1cbc ae72 5bbd
00000290: 16ef 2ebd 2d1d 36bd ba5e ebbc f666 f1bb
000002a0: e08a 8abd 42e0 50bc b6b5 623b 73e9 4f3e
000002b0: 26fb 4ebd fba0 303d 926d 0e3d 2496 3fbd
000002c0: c189 03bd 6035 a73d ab72 99bc afe6 a8bc
000002d0: ef44 983d 77bf 1dbc d0d8 d13c cd3c 9cbd
000002e0: a8e3 3ebd 4e83 6cbd 57a5 3e3d 7ef3 c33c
000002f0: 893e 4fbb 9840 013d 92bd aebc 5479 c03d
00000300: 8017 123b 2893 513d 9238 113c 622b 2cbc
00000310: c827 6a3d 6e9d 94bd f55f 8c3c 95a9 953a
00000320: b9fd 1c3d 682d a73b 4e06 df3c 5711 32bd
00000330: 4c3d ca3c 3eba eb3c 8205 66bd 2e52 8a3d
00000340: 1339 da3d 7b98 443d 298f 05bd 4e7a afbd
00000350: ccbb 0fbd 38d4 15bd e277 33bd 5f91 32bd
00000360: 578a 933d 16a9 5fbb 320e fc3d fa8d 70bd
00000370: 01c2 883c fa27 7bbd 90f6 303c c802 813c
00000380: cfd5 893d 3afc 30bc cf7d 32bc ec87 053d
00000390: 6fbb 0fbd 15ef 143d 8a03 ecbc 3f15 203b
000003a0: cff1 593d b020 a2bd 75ff 063d 1221 323d
000003b0: 52b6 cbbc 5742 bb37 ae18 83bd f7f7 5dbd
000003c0: 50fa b93c f0cc d43d 91dd 1d3e 5fd4 bdbc
000003d0: 90b8 bebd fb49 943d 7b3f 563d 843c 7a3d
000003e0: f8dc d33d 4c6a 313d 3dbd 10bd 9e0f 03be
000003f0: 3fcb 5d3d 7105 77bd cbb8 c33d e5b1 263d
-0.13692573 0.23889476 0.002652776 -0.104094535 -0.028041476 0.10401236 -0.0040042982 -0.101507366
0.009808028 0.07526075 0.06773356 -0.049435426 -0.0312648 -0.030407652 0.019660808 -0.004916087
-0.02377872 0.2464983 0.1259846 0.11373773 0.019635323 0.041509848 0.0028782052 -0.036214776
-0.063024454 -0.04186407 0.09515225 -0.054629028 -0.026442373 0.09521131 0.029654091 -0.047031548
0.053678863 0.03485161 0.05065149 0.0026896244 -0.032153446 -0.07062688 -0.027945474 0.082474805
0.025360499 0.041047014 -0.052081283 0.021993948 0.084593095 0.04821555 0.017821213 -0.038132768
0.13905972 -0.0059373355 0.10222655 -0.008464433 -0.04218576 0.077336274 -0.0079583265 0.032357305
-0.013409812 0.008163536 -0.11981295 -0.022344124 -0.07642341 0.039867282 -0.044011503 0.02123648
0.14046027 0.029427394 0.06280189 0.03093917 -0.011898798 -0.0778253 0.08240288 -0.041562974
0.053668 0.04703039 -0.06511152 -0.011297152 0.03292839 0.07158016 0.036810562 -0.02019719
-0.048830803 -0.042665906 -0.12203914 0.06684767 -0.06497582 -0.09528626 -0.051323853 -0.037513033
0.034484003 0.09742929 0.05955716 0.19629739 -0.059587043 -0.027421372 0.024170987 -0.1415907
-0.02243189 0.086618245 0.02577425 -0.029580621 -0.08510517 -0.11907576 -0.07659487 0.10634018
0.021883937 0.042203974 -0.055361617 0.04293769 0.097290434 0.04284283 -0.008076216 -0.025393758
0.14374301 0.033051863 -0.04110913 0.06011857 0.005734913 -0.044216752 -0.15666053 -0.023069907
0.085696585 -0.0083832005 0.0051750364 -0.038419556 0.12760736 0.14182879 0.14025651 0.0136341145
-0.06164162 -0.059449073 -0.02463318 0.17844602 0.010714912 -0.027462387 -0.08222207 -0.051797107
0.026988443 0.04564829 -0.09372451 -0.030671995 0.006576503 0.036854733 -0.036208604 -0.00054515316
-0.007991169 -0.014476872 -0.015078874 -0.01759747 0.05945352 0.07960535 0.022678947 -0.15122953
-0.01816059 -0.032775115 -0.0027747266 -0.05511195 0.042096782 0.025980605 -0.029888 -0.07198009
-0.085838504 -0.11450191 -0.009564401 -0.053576164 -0.04270848 -0.044461418 -0.028731693 -0.00736701
-0.067647696 -0.01274878 0.0034593171 0.20303898 -0.050532483 0.043122273 0.034772463 -0.046774045
-0.032113794 0.08164477 -0.018731436 -0.020617811 0.07435023 -0.009628168 0.02561608 -0.07628784
-0.04660383 -0.05774241 0.0465444 0.023919817 -0.0031622967 0.031555742 -0.021330629 0.093981415
0.002229184 0.05116573 0.008863585 -0.01050839 0.057166845 -0.0725659 0.0171356 0.0011418337
0.038327906 0.0051018484 0.027224686 -0.043473568 0.024687432 0.02877533 -0.056157596 0.06753956
0.10655417 0.04799698 -0.03260723 -0.0856825 -0.035091206 -0.03657934 -0.0438155 -0.043595668
0.072041206 -0.0034127883 0.12307395 -0.05872915 0.01669407 -0.06131742 0.010800973 0.015748397
0.06730234 -0.010802323 -0.010894253 0.03260033 -0.03509086 0.03636082 -0.028810281 0.0024426726
0.053209122 -0.07916391 0.032958467 0.04348857 -0.02486721 2.2323029e-05 -0.06401192 -0.054191556
0.022702366 0.10390651 0.15416552 -0.023172555 -0.09312546 0.07240673 0.052306633 0.06109287
0.10344881 0.043314263 -0.03533672 -0.12798926 0.05414891 -0.060307924 0.09556731 0.040696997

base.2.bias f4 [256]
00000000: 1e3e b2bc e03d 233d 0c9d 323d 53db 19bc
00000010: 1a21 65bc 94a9 02b8 fe53 2bbc a6e8 493d
00000020: ef11 16bd 799d c63b c6ec 213d 1fd8 1cbd
00000030: 8495 07bd d955 6a3d 9bf0 223d 651e 003c
00000040: 15ae 31bd c6b6 5b3d b97d 78bd c8dd 153d
00000050: db2a c53c 25d8 0a3d 02c9 d53b 8da4 d63c
00000060: 7608 d6bc 71f2 0fbb 1a98 963a 24d8 ec3c
00000070: 6863 303d 9e4f 98bc f926 00bc c2ac 763d
00000080: 7268 6b39 abbe 063d e39b c2bc 2c01 54bd
00000090: df45 043d b2cf c7bc 63c4 8abc eb20 883d
000000a0: 4e17 043d 10e1 29bd 4013 8dbc f09a ebbc
000000b0: 9676 983d 406b d33a 9d29 2bbd 0223 ed3c
000000c0: dc7b 8d3d 0a0c a9bc 9fa9 d53c a240 3e3d
000000d0: e997 7ebc 2299 64bd 1fe7 923d aad2 a43c
000000e0: 53c9 283d 2b19 7abd c0bb 05bd 5a7d 63bd
000000f0: 372b 71bc 25d5 2fbd 9059 31bc bfa9 1dbb
00000100: 71ff 2dbd c4b4 6e3d 4061 b63c 4c1d 803d
00000110: 85aa 233d 7c10 18bd 4c79 b23c f426 5b3d
00000120: c9f3 12ba eb7c 3dbc a277 bfbb aac6 143c
00000130: 3547 393c 4c28 dd3c 6aad 993b 7560 263c
00000140: 5dd0 8d3d b5de 26bc 3bfb eabc 3d1a 8cbc
00000150: a225 523d d3fd a2bc 4b8b 7e3d a5c0 41bb
00000160: ecb0 0b3d 5215 5dbc 1b6d 643d a6b8 ec3c
00000170: f441 4b3d 6452 b13b 2087 093b f7d4 1abd
00000180: 9a39 a43d 534d e93c 0208 cb38 cabd 443d
00000190: 8409 393d 146f 763d 9bd2 3b3d ab2c 2cbd
000001a0: 418d 183d c023 1abd e9c5 0bbd a5b7 be3c
000001b0: 19b8 08bc f7f8 29bd db5b d3bc ce4a 2c3d
000001c0: beff 863d 19ae 4a3d ff8d 953c 11d5 3e3c
000001d0: 177f 6b3d f656 39bd 05e5 83bc 27b0 803d
000001e0: 10ac 4a3c a1c2 0abc e0ac 11bd d952 4bbd
000001f0: ad5f 813d e988 cdbc 93b4 f3bc 7c6d 5a3d
00000200: 12bb 8b3d f725 133d df68 4a3d 60cd 5fbb
00000210: 7c60 a23c 0a76 843d f97f dfbc 6472 9cbc
00000220: c6c6 0d3a 33ee 373d 7439 023d e2b4 383c
00000230: 657c 7b3b f1f3 7a3b a7ab a5bc c300 3cbc
00000240: 6ac1 243d 2104 873d 7ec9 053d 9179 0dbb
00000250: 591f 853c e55a b93c bbd6 43ba 0b2f 0d3d
00000260: 3b27 9eb9 f0ca 1fbb 8e48 f2b9 bac3 cbbc
00000270: 2f57 24bd 0551 843c 80c2 573d fbfa bbbc
00000280: 318b 7a3d 61a6 9b3d e7aa 1e3d f0e5 16bd
00000290: 1c77 4f3d 077b 803d ee0b 563d 3697 5d3d
000002a0: 3772 bfbb 17f5 15bc 0240 27bd 1e1d 54b7
000002b0: cc14 a4bc 0d83 7d3c dbe1 00bd 4f2f 893d
000002c0: f87c 8cbb ee4b 823c 784b 56bd 90f4 533d
000002d0: e704 443d b73b 8e3d 7ddf 983d d367 f7bc
000002e0: d095 eabc c6b2 3fbd 900b 6a3d 32ec 78bc
000002f0: 506f 3bbc 5520 b33a 83d4 013d fad1 4b3d
00000300: 3e4d 9e3d c9b7 863d 0b0e 22bb 87bf 41bd
00000310: a7aa df3c 5f34 b6bc 96fe 2abd 5e72 e3bc
00000320: c8bf 7b3b e9fb 08bd 4695 903c c11c 8c3d
00000330: 7edf 853d 4bff d03c 9e04 07bd a6e6 9c3d
00000340: 0975 28bb 0af1 98bc 9a40 8b3c f7db 23bb
00000350: f639 653d 04ae fbbc dd8b c3b9 f9cc 13bd
00000360: e88b cf3c 2277 d73b 5f86 ceb8 5425 853d
00000370: f0ac 053b 2dd5 75bc 8926 813d ff1a e5bc
00000380: 059e cd3b 7548 8f3d 467c a63b ed38 943d
00000390: f86b 223d f662 293d 7a21 b33c e8e2 3dbc
000003a0: f0b6 5c3d 1878 4cbd 879b 843d 00c1 043d
000003b0: 56d8 983c abf5 553d dfab 403d 76ad 22bd
000003c0: 0688 bebc 5ff0 4e3d 8dfd 8d3d 2441 a63c
000003d0: acab 583d df50 353d aafa cebc cfe3 39bc
000003e0: 4bb6 843d 1171 6cbc bdf5 a83d 9124 6c3d
000003f0: f915 f3ba 6bc6 f3bc 12cc 903d 3413 83bc
-0.021758135 0.03985393 0.043606803 -0.00939067 -0.013984943 -3.1152347e-05 -0.010457037 0.049294136
-0.036638197 0.0060612527 0.039532445 -0.038292047 -0.033101574 0.057210777 0.03978024 0.007819747
-0.04337891 0.053641103 -0.060666773 0.03658846 0.024068287 0.033897538 0.006524206 0.02620151
-0.026127081 -0.0021964575 0.0011489422 0.028911658 0.04306355 -0.018592652 -0.007821792 0.06022335
0.00022450255 0.03289668 -0.023755973 -0.05175893 0.032293197 -0.024391029 -0.016939348 0.066469036
0.032248788 -0.041474402 -0.017221093 -0.028760403 0.074444935 0.0016129985 -0.041787732 0.028947357
0.0690839 -0.020635623 0.026081858 0.046448357 -0.015539148 -0.0558101 0.07172989 0.020119984
0.041207623 -0.06105916 -0.032649755 -0.055539466 -0.014719776 -0.04292788 -0.010824576 -0.0024057475
-0.042479936 0.05827786 0.02226317 0.06255588 0.039957542 -0.037125096 0.021786354 0.053503945
-0.0005605785 -0.011565427 -0.0058431188 0.009080568 0.011308481 0.026996754 0.004689862 0.010154833
0.06924508 -0.010184933 -0.02868425 -0.017102355 0.05130542 -0.019896423 0.06214456 -0.0029564288
0.034104273 -0.013493853 0.055768114 0.028896641 0.049623445 0.005411433 0.0020985082 -0.037800755
0.08018799 0.028479254 9.681286e-05 0.04803256 0.04517509 0.060164526 0.045855146 -0.042034786
0.037244085 -0.03763175 -0.03412429 0.023280928 -0.008344674 -0.041497197 -0.025800636 0.042063527
0.06591748 0.04948244 0.018256186 0.011647479 0.05749425 -0.045248948 -0.016100416 0.062835984
0.012370124 -0.008469255 -0.035565257 -0.049639557 0.06317077 -0.025089698 -0.02974919 0.05332707
0.0682279 0.035924878 0.04941642 -0.0034149513 0.019821398 0.06467827 -0.027282702 -0.019097514
0.00054083427 0.0449049 0.031793073 0.011273595 0.0038373705 0.0038292373 -0.020223452 -0.011474791
0.040223517 0.065925844 0.03266286 -0.0021587352 0.0162503 0.02262635 -0.0007470657 0.03446869
-0.00030165337 -0.0024382435 -0.00046211894 -0.024873603 -0.040122207 0.016151914 0.052675724 -0.022946825
0.0611679 0.07600094 0.038737204 -0.03684038 0.0506507 0.062734656 0.05225747 0.054099284
-0.005842473 -0.009152672 -0.040832527 -1.2642964e-05 -0.020029448 0.0154731395 -0.031465393 0.066984765
-0.0042873584 0.015905347 -0.052318066 0.051746905 0.047856238 0.069449835 0.07464502 -0.030200874
-0.02863589 -0.04680135 0.057139933 -0.015193032 -0.011440113 0.0013666252 0.031696808 0.049760796
0.077295765 0.06578023 -0.0024727609 -0.047301795 0.027303053 -0.02224177 -0.0417467 -0.027764495
0.003841387 -0.033443365 0.017649304 0.06841422 0.065367684 0.025512358 -0.032963388 0.0766118
-0.0025704524 -0.018669624 0.016998578 -0.0025002935 0.05596348 -0.030722626 -0.00037297505 -0.03608415
0.025335267 0.006575481 -9.847874e-05 0.065012604 0.0020397268 -0.015004438 0.06306178 -0.027966974
0.006274941 0.06996242 0.0050807325 0.0723742 0.03965375 0.041354142 0.021866549 -0.011589743
0.0538854 -0.049919218 0.06474977 0.03241062 0.018657845 0.05223624 0.04703891 -0.039716206
-0.02325822 0.050522204 0.069331266 0.020294733 0.052898094 0.044266578 -0.02526601 -0.011345818
0.06480082 -0.014431254 0.08249996 0.05765206 -0.0018545977 -0.029757699 0.07070173 -0.016000368

base.4.weight f4 [3, 256]
00000000: e5fe ffbd 75e5 15be 9fdd 293e dbca 1e3e
00000010: 7183 233e 377c 343e dbf6 46be 3999 19be
00000020: 159f 34be 9d19 2f3e 409a d0bb 1aed a6bd
00000030: 96f3 183e cbb3 323e b712 16be 1db2 4b3e
00000040: cf27 17be 66d4 4f3e 86aa 323c a41b 2cbe
00000050: 009c 323e e669 383d 747f 1abe 198c e63c
00000060: 6f74 263e f11d 473e 8467 d33d 2a3a 103e
00000070: 1fa1 edbd 3f69 22be cf17 15be 085c 1d3e
00000080: a006 dcbd 79e5 bfbb f890 ccbd 1d02 02bd
00000090: cefe 34be 1a55 ef3d 886c 73bc 2ef9 1e3e
000000a0: d64a 3bbe da9f 1fbe c6e2 1abe 2e52 743d
000000b0: b67a 3e3e 0e49 4b3e 1585 ffbd 55f3 1b3e
000000c0: 95c4 32be 9082 5fbd 6035 38be 461b 2f3e
000000d0: 0e58 523d fab3 313d e365 12be a825 1b3e
000000e0: ce62 fc3d eb18 46bd 940e 2f3d 9024 b53c
000000f0: b3b3 30be e413 633e d440 4c3d ef88 b23d
00000100: b3d6 e3bd 7b38 163e 8c44 003e 6747 173e
00000110: 4b2e f6bd ea63 513e dce6 183e 0421 333e
00000120: 5ebb 323e 14ba 78bd 3494 cfbd a501 623e
00000130: 7d86 8cbc b198 153e d438 99bd ed7b 23be
00000140: c694 183e 50f1 2bbe 78d2 243e deda 473e
00000150: dff4 203e 406e e03d 3456 093e 674d 05be
00000160: 8bb3 2f3e 029c 513d 0a0d 8abd e230 2a3d
00000170: ea38 16be f4f6 173e 2075 043c bace fabd
00000180: c8c1 04be f15a 663e 2181 413e 6a3a 2a3e
00000190: 227f 1abe dec4 4d3e 91ab 05be 8f87 113e
000001a0: 7e10 2cbe 5abe ef3d e40c 963e c7f6 67bc
000001b0: 06ab 403e 3db9 103e 5511 593e f00f 62bc
000001c0: 69c6 2ebe 12f6 393e b608 393e 21b7 403e
000001d0: b1c9 c83d c663 15be 7534 1b3e 379c 1fbe
000001e0: 5044 b43b 097c eebd a52a 5d3d 60dc ba3c
000001f0: dc21 573d 18a1 443d 4794 cfbd 9f4f 3fbe
00000200: 1415 0a3e be60 083e cfc3 37be 74de abbc
00000210: bc6d 25be b89f 9cbd c83b 5e3d 822e 073e
00000220: 72e9 083e d064 aebd 2426 a0bd a966 353e
00000230: bb31 adbd 78b3 2dbe 9fcc 1d3e 0b53 203e
00000240: d77d 0abe 70c4 13be 8889 ebbd d837 3f3e
00000250: 9e26 10be ca4e e23d e6b0 223e 5ffe 0e3d
00000260: 7ebe 4e3e 1aff 2d3e dcef 6a3d dd28 1b3e
00000270: 990d 23be 6dd7 25be ad7b ab3c 2920 19be
00000280: 3489 2bbe 5d8a d8bd e11c 97bd e095 093e
00000290: 50f6 11be f9d4 3ebe 34d4 d23d 8511 133e
000002a0: e198 a13d 6505 393e 602c f13d 0f7c bd3d
000002b0: cc91 a6bd 5a0c c4bd c763 1ebe 20fd 223e
000002c0: c255 29be 88d3 28bd 1cfb 083e a287 3ebe
000002d0: c201 06be 907f 0e3e 10c6 49be 5482 223c
000002e0: 4dcf 1abc 00ed 613c 4c79 403e 0118 253e
000002f0: 4db1 ee3c 175d 33be 11d6 10be 45e1 d93d
00000300: 64af 123e a73c eebd 6809 343e e363 1dbe
00000310: f520 c5bd 4859 05be 16aa 1dbe bf4e e9bd
00000320: a999 ae3d b1d7 3c3e 0f22 36be 3926 15be
00000330: 5063 4fbd 9e57 4bbe 9de5 423e b650 dabd
00000340: 9108 1abe 903c ad3e b5a4 0ebe 5aa1 03be
00000350: a0fe 223e d05e 803c 2b93 cb3c 21c1 cdbd
00000360: 6c04 02be 4d40 fc3d c609 783d 902d 07be
00000370: b7a4 153e 1a8a 28be cf78 283e c65c 5fbd
00000380: a381 603e e458 e9bd 5cd3 36be 50ca 4d3e
00000390: dcfb 113e f560 d03d 38ea 21be b4aa 39be
000003a0: e7b6 c73d 1ed0 d63c 9b3e e1bd 6530 03be
000003b0: adbc d4bd 53ed 43be b44d ec3d fc63 223e
000003c0: 9350 85bc 531f 183e 42c1 1a3e 3489 2cbe
000003d0: 50f8 2bbe 7a56 0f3c c415 2abe b23f 42be
000003e0: efda 27be 2a59 083e 55a1 2b3e 3633 393e
000003f0: 5b8f 11be 8d00 3fbe 389e 07be 6601 633e
-0.12499789 -0.14638312 0.16588448 0.1550707 0.1596811 0.17625509 -0.19430105 -0.14999856
-0.1763881 0.17099614 -0.0063660443 -0.08150692 0.1493667 0.17451398 -0.14655577 0.19892164
-0.1476128 0.20295867 0.010904914 -0.16807419 0.17442322 0.045022868 -0.15087682 0.028142976
0.16255353 0.19445015 0.103224784 0.14084688 -0.11602997 -0.1586046 -0.14559864 0.15367138
-0.10743451 -0.0058562127 -0.09988588 -0.031740297 -0.17675325 0.11686154 -0.014857419 0.15524742
-0.18290266 -0.15588322 -0.1512557 0.059648685 0.18601498 0.19852087 -0.12476555 0.15229543
-0.17457803 -0.054567873 -0.17989111 0.17100248 0.051353507 0.04338453 -0.14296679 0.15151083
0.12323533 -0.048363607 0.042738512 0.02211216 -0.1725605 0.22175556 0.049866512 0.08717524
-0.11124935 0.14669983 0.12526149 0.14773332 -0.120205484 0.2044827 0.14931816 0.17493063
0.17454287 -0.060724333 -0.101356894 0.2207094 -0.017153973 0.14609028 -0.07481542 -0.15965243
0.14900503 -0.16791272 0.16095912 0.19517085 0.15718411 0.109585285 0.1341179 -0.13017808
0.17158334 0.05117417 -0.06740768 0.041550525 -0.14670148 0.14840299 0.008084565 -0.12246461
-0.12964547 0.22495629 0.18896915 0.16623846 -0.1508756 0.2009463 -0.13053729 0.14211868
-0.16803166 0.117062286 0.2930671 -0.014157957 0.1881524 0.14133163 0.21198018 -0.013797745
-0.17067875 0.18160275 0.18069729 0.18819858 0.098040946 -0.14588842 0.1515673 -0.15586935
0.0055013075 -0.116447516 0.053995747 0.022810161 0.052522525 0.048005193 -0.101357035 -0.18682717
0.13484603 0.13318154 -0.17945789 -0.020980097 -0.16155142 -0.076476514 0.05425623 0.13201335
0.13370302 -0.08515322 -0.07819775 0.17714943 -0.08456751 -0.16962993 0.15410088 0.15656678
-0.13524567 -0.14430404 -0.115008414 0.18673646 -0.14077231 0.11050184 0.15887794 0.034910556
0.20189855 0.16991845 0.057357654 0.15152307 -0.15923156 -0.1619546 0.020932997 -0.14953674
-0.16751558 -0.10573266 -0.07378555 0.13436079 -0.14254117 -0.1863593 0.10294381 0.14362152
0.078904875 0.18068464 0.11776042 0.09252178 -0.08133277 -0.095726684 -0.1546775 0.15916872
-0.1653662 -0.041217357 0.1337704 -0.18606427 -0.13086608 0.13915849 -0.19704461 0.009918768
-0.009448838 0.013789415 0.18796271 0.16122438 0.029137278 -0.1751598 -0.1414416 0.1063867
0.14324719 -0.11632662 0.17581713 -0.15370135 -0.09625427 -0.1302234 -0.15396914 -0.11391973
0.08525402 0.18441655 -0.1778643 -0.14565362 -0.05063182 -0.19857642 0.19032903 -0.10659926
-0.1504233 0.33835268 -0.13930018 -0.1285452 0.15917444 0.01567021 0.024850449 -0.10046602
-0.12697 0.12316952 0.060556196 -0.13200974 0.14613615 -0.16458932 0.16452335 -0.054531835
0.21924452 -0.11393908 -0.17854065 0.20096707 0.14256233 0.10174743 -0.15812004 -0.18131524
0.09751683 0.026222285 -0.10998269 -0.1281143 -0.103875495 -0.19133501 0.11538258 0.15858454
-0.016273772 0.14855699 0.15112785 -0.16849214 -0.16793942 0.008748645 -0.16609865 -0.1896961
-0.1639211 0.13315263 0.16760762 0.18085942 -0.14214842 -0.18652554 -0.1324395 0.22168502

base.4.bias f4 [3]
00000000: 5b94 373d 8a9e 5f3d e0b3 a9bc
0.044819217 0.054594554 -0.020715654

exp_avg f4 [256, 6]
00000000: e409 a43d 3e68 98bb 0400 0000 0400 0000
00000010: 0000 0000 0000 0000 0c6b fdbd 4d94 a23c
00000020: 0400 0000 0400 0000 0000 0000 0000 0000
00000030: 9b55 853c f5b2 4dbb 0400 0000 0400 0000
00000040: 0000 0000 0000 0000 6d49 003d 8a2a c0bb
00000050: 0400 0080 0400 0080 0000 0000 0000 0000
00000060: b63b d83c b92d ccba 0400 0080 0400 0080
00000070: 0000 0000 0000 0000 f1a0 7bbc dccc 3f3b
00000080: 0400 0080 0400 0080 0000 0000 0000 0000
00000090: 37d4 a43b 14f4 cbbb 0400 0080 0400 0000
000000a0: 0000 0000 0000 0000 7d52 283b f8d6 deb9
000000b0: 0400 0000 0400 0000 0000 0000 0000 0000
000000c0: 9c8e 3ebd b549 c43a 0400 0080 0400 0000
000000d0: 0000 0000 0000 0000 d072 da3b ad1f 173b
000000e0: 0400 0000 0400 0080 0000 0000 0000 0000
000000f0: 0400 0080 0400 0080 0400 0080 0400 0080
00000100: 0000 0000 0000 0000 0400 0000 0400 0000
00000110: 0400 0000 0400 0000 0000 0000 0000 0000
00000120: ba72 c33c 043a 9cba 0400 0000 0400 0000
00000130: 0000 0000 0000 0000 0400 0080 0400 0080
00000140: 0400 0080 0400 0080 0000 0000 0000 0000
00000150: 32e4 1096 8dc9 4493 0400 0000 0400 0000
00000160: 0000 0000 0000 0000 0400 0000 0400 0000
00000170: 0400 0000 0400 0080 0000 0000 0000 0000
00000180: 0400 0080 0400 0000 0400 0080 0400 0080
00000190: 0000 0000 0000 0000 c5f5 41be 71b5 4a3c
000001a0: 0400 0080 0400 0080 0000 0000 0000 0000
000001b0: f037 83bd 9892 1f3c 0400 0000 0400 0000
000001c0: 0000 0000 0000 0000 3468 11bd 8190 de3b
000001d0: 0400 0080 0400 0080 0000 0000 0000 0000
000001e0: d8ac 573c c4df 23bb 0400 0000 0400 0000
000001f0: 0000 0000 0000 0000 dd9b 1cbd a100 ee3b
00000200: 0400 0080 0400 0080 0000 0000 0000 0000
00000210: 0400 0000 0400 0000 0400 0080 0400 0000
00000220: 0000 0000 0000 0000 650b 19bd f95a 62bb
00000230: 0400 0080 0400 0080 0000 0000 0000 0000
00000240: 6e76 483d 0ed3 16bc 0400 0000 0400 0000
00000250: 0000 0000 0000 0000 8ca4 ed3b 417d b3ba
00000260: 0400 0080 0400 0000 0000 0000 0000 0000
00000270: 26e6 f0b9 1535 6d3b 0400 0080 0400 0080
00000280: 0000 0000 0000 0000 ee0f 5d3d 056a 27bc
00000290: 0400 0000 0400 0000 0000 0000 0000 0000
000002a0: 80df c33c 0df8 69bb 0400 0080 0400 0000
000002b0: 0000 0000 0000 0000 1bba 77bc de43 3b3b
000002c0: 0400 0080 0400 0080 0000 0000 0000 0000
000002d0: 5b33 1dbc 2b00 ea3a 0400 0080 0400 0080
000002e0: 0000 0000 0000 0000 0400 0000 0400 0000
000002f0: 0400 0000 0400 0080 0000 0000 0000 0000
00000300: 798a ccbb 88b7 6e3a 0400 0080 0400 0080
00000310: 0000 0000 0000 0000 0400 0000 0400 0000
00000320: 0400 0000 0400 0000 0000 0000 0000 0000
00000330: 2c0d 87bc 7092 4a3b 0400 0080 0400 0080
00000340: 0000 0000 0000 0000 0400 0000 0400 0000
00000350: 0400 0000 0400 0000 0000 0000 0000 0000
00000360: 6577 e13c 4817 acbb 0400 0000 0400 0000
00000370: 0000 0000 0000 0000 57bd c73d 7b52 cdbb
00000380: 0400 0000 0400 0000 0000 0000 0000 0000
00000390: 0400 0080 0400 0080 0400 0080 0400 0080
000003a0: 0000 0000 0000 0000 64ae 04be 7f9d 103c
000003b0: 0400 0080 0400 0080 0000 0000 0000 0000
000003c0: 0400 0080 0400 0080 0400 0080 0400 0080
000003d0: 0000 0000 0000 0000 0400 0000 0400 0000
000003e0: 0400 0000 0400 0000 0000 0000 0000 0000
000003f0: c91e 1d3d 5d49 1dbb 0400 0080 0400 0080
0.08009699 -0.0046510985 6e-45 6e-45 0.0 0.0 -0.12373933 0.019846106
6e-45 6e-45 0.0 0.0 0.016276171 -0.0031387184 6e-45 6e-45
0.0 0.0 0.031320024 -0.005864446 -6e-45 -6e-45 0.0 0.0
0.02639566 -0.0015577591 -6e-45 -6e-45 0.0 0.0 -0.015358196 0.0029266393
-6e-45 -6e-45 0.0 0.0 0.005030181 -0.0062241647 -6e-45 6e-45
0.0 0.0 0.0025683932 -0.00042503304 6e-45 6e-45 0.0 0.0
-0.04652272 0.001497558 -6e-45 6e-45 0.0 0.0 0.0066665187 0.0023059652
6e-45 -6e-45 0.0 0.0 -6e-45 -6e-45 -6e-45 -6e-45
0.0 0.0 6e-45 6e-45 6e-45 6e-45 0.0 0.0
0.023858417 -0.0011919145 6e-45 6e-45 0.0 0.0 -6e-45 -6e-45
-6e-45 -6e-45 0.0 0.0 -1.1704233e-25 -2.483805e-27 6e-45 6e-45
0.0 0.0 6e-45 6e-45 6e-45 -6e-45 0.0 0.0
-6e-45 6e-45 -6e-45 -6e-45 0.0 0.0 -0.1894141 0.012372361
-6e-45 -6e-45 0.0 0.0 -0.064071536 0.0097395405 6e-45 6e-45
0.0 0.0 -0.035499766 0.0067921286 -6e-45 -6e-45 0.0 0.0
0.013163768 -0.00250052 6e-45 6e-45 0.0 0.0 -0.03823458 0.0072632586
-6e-45 -6e-45 0.0 0.0 6e-45 6e-45 -6e-45 6e-45
0.0 0.0 -0.037364382 -0.0034539087 -6e-45 -6e-45 0.0 0.0
0.04894107 -0.009205593 6e-45 6e-45 0.0 0.0 0.0072522815 -0.0013693945
-6e-45 6e-45 0.0 0.0 -0.0004594784 0.003619497 -6e-45 -6e-45
0.0 0.0 0.05397027 -0.010218148 6e-45 6e-45 0.0 0.0
0.023910284 -0.0035700828 -6e-45 6e-45 0.0 0.0 -0.015120055 0.0028574388
-6e-45 -6e-45 0.0 0.0 -0.009594764 0.0017852833 -6e-45 -6e-45
0.0 0.0 6e-45 6e-45 6e-45 -6e-45 0.0 0.0
-0.006242093 0.0009106328 -6e-45 -6e-45 0.0 0.0 6e-45 6e-45
6e-45 6e-45 0.0 0.0 -0.016485773 0.0030910037 -6e-45 -6e-45
0.0 0.0 6e-45 6e-45 6e-45 6e-45 0.0 0.0
0.027522752 -0.005251799 6e-45 6e-45 0.0 0.0 0.097529106 -0.006265936
6e-45 6e-45 0.0 0.0 -6e-45 -6e-45 -6e-45 -6e-45
0.0 0.0 -0.1295715 0.0088266125 -6e-45 -6e-45 0.0 0.0
-6e-45 -6e-45 -6e-45 -6e-45 0.0 0.0 6e-45 6e-45
6e-45 6e-45 0.0 0.0 0.038359437 -0.0024000027 -6e-45 -6e-45

exp_avg_sq f4 [256, 6]
00000000: 6086 5a3c 7d69 2238 f401 0000 f401 0000
00000010: 0000 0000 0000 0000 0e95 743d 13e1 8039
00000020: f401 0000 f401 0000 0000 0000 0000 0000
00000030: 182a 0e3b 3eac 0537 f401 0000 f401 0000
00000040: 0000 0000 0000 0000 bc77 f93b 55cb e237
00000050: f401 0000 f401 0000 0000 0000 0000 0000
00000060: 36f6 cc3a ab19 9936 f401 0000 f401 0000
00000070: 0000 0000 0000 0000 c8a5 023b 4879 f236
00000080: f401 0000 f401 0000 0000 0000 0000 0000
00000090: b095 023c 1b0c 4438 f401 0000 f401 0000
000000a0: 0000 0000 0000 0000 f0da 063c 587d 5936
000000b0: f401 0000 f401 0000 0000 0000 0000 0000
000000c0: ba4e 3e3c 939f 3137 f401 0000 f401 0000
000000d0: 0000 0000 0000 0000 464e 053a f90e 9136
000000e0: f401 0000 f401 0000 0000 0000 0000 0000
000000f0: f401 0000 f401 0000 f401 0000 f401 0000
00000100: 0000 0000 0000 0000 f401 0000 f401 0000
00000110: f401 0000 f401 0000 0000 0000 0000 0000
00000120: 5f85 ae3a 79f3 d535 f401 0000 f401 0000
00000130: 0000 0000 0000 0000 f401 0000 f401 0000
00000140: f401 0000 f401 0000 0000 0000 0000 0000
00000150: 21aa ca37 4e01 7232 f401 0000 f401 0000
00000160: 0000 0000 0000 0000 f401 0000 f401 0000
00000170: f401 0000 f401 0000 0000 0000 0000 0000
00000180: f401 0000 f401 0000 f401 0000 f401 0000
00000190: 0000 0000 0000 0000 dccd 893d fadb d738
000001a0: f401 0000 f401 0000 0000 0000 0000 0000
000001b0: fa72 6e3c d38d 8838 f401 0000 f401 0000
000001c0: 0000 0000 0000 0000 f595 2a3c 1847 1f38
000001d0: f401 0000 f401 0000 0000 0000 0000 0000
000001e0: a09f c33a f242 ac36 f401 0000 f401 0000
000001f0: 0000 0000 0000 0000 8b94 413c 1087 3438
00000200: f401 0000 f401 0000 0000 0000 0000 0000
00000210: 2639 e728 55f9 0323 f401 0000 f401 0000
00000220: 0000 0000 0000 0000 6ea0 163b 5d03 ff37
00000230: f401 0000 f401 0000 0000 0000 0000 0000
00000240: a67e 9d3c 3df8 8e38 f401 0000 f401 0000
00000250: 0000 0000 0000 0000 1c20 cb39 0da1 b935
00000260: f401 0000 f401 0000 0000 0000 0000 0000
00000270: e27e fa3a 4343 6037 f401 0000 f401 0000
00000280: 0000 0000 0000 0000 8b92 c03c a98a b038
00000290: f401 0000 f401 0000 0000 0000 0000 0000
000002a0: 0c1e 053b 34b5 3b37 f401 0000 f401 0000
000002b0: 0000 0000 0000 0000 053c e33a 1efe db36
000002c0: f401 0000 f401 0000 0000 0000 0000 0000
000002d0: 279a 393a 77b3 2e36 f401 0000 f401 0000
000002e0: 0000 0000 0000 0000 f401 0000 f401 0000
000002f0: f401 0000 f401 0000 0000 0000 0000 0000
00000300: e108 2b39 6268 4535 f401 0000 f401 0000
00000310: 0000 0000 0000 0000 f401 0000 f401 0000
00000320: f401 0000 f401 0000 0000 0000 0000 0000
00000330: bba7 103b 25a7 0537 f401 0000 f401 0000
00000340: 0000 0000 0000 0000 f401 0000 f401 0000
00000350: f401 0000 f401 0000 0000 0000 0000 0000
00000360: 0add cc3b fc3c bb37 f401 0000 f401 0000
00000370: 0000 0000 0000 0000 751a 913c d992 ea37
00000380: f401 0000 f401 0000 0000 0000 0000 0000
00000390: f401 0000 f401 0000 f401 0000 f401 0000
000003a0: 0000 0000 0000 0000 7111 fc3c 6638 3838
000003b0: f401 0000 f401 0000 0000 0000 0000 0000
000003c0: f401 0000 f401 0000 f401 0000 f401 0000
000003d0: 0000 0000 0000 0000 f401 0000 f401 0000
000003e0: f401 0000 f401 0000 0000 0000 0000 0000
000003f0: ffbd 333b f1ee 9a36 f401 0000 f401 0000
0.013337702 3.8722053e-05 7e-43 7e-43 0.0 0.0 0.059712462 0.00024581756
7e-43 7e-43 0.0 0.0 0.002169257 7.967521e-06 7e-43 7e-43
0.0 0.0 0.0076131504 2.7035983e-05 7e-43 7e-43 0.0 0.0
0.0015637341 4.5627435e-06 7e-43 7e-43 0.0 0.0 0.001993524 7.226281e-06
7e-43 7e-43 0.0 0.0 0.007970259 4.6741316e-05 7e-43 7e-43
0.0 0.0 0.00823091 3.240848e-06 7e-43 7e-43 0.0 0.0
0.01161545 1.0587176e-05 7e-43 7e-43 0.0 0.0 0.0005085211 4.32308e-06
7e-43 7e-43 0.0 0.0 7e-43 7e-43 7e-43 7e-43
0.0 0.0 7e-43 7e-43 7e-43 7e-43 0.0 0.0
0.0013314894 1.5940597e-06 7e-43 7e-43 0.0 0.0 7e-43 7e-43
7e-43 7e-43 0.0 0.0 2.4159499e-05 1.4086551e-08 7e-43 7e-43
0.0 0.0 7e-43 7e-43 7e-43 7e-43 0.0 0.0
7e-43 7e-43 7e-43 7e-43 0.0 0.0 0.06728718 0.00010292973
7e-43 7e-43 0.0 0.0 0.01455378 6.511402e-05 7e-43 7e-43
0.0 0.0 0.010411729 3.7974765e-05 7e-43 7e-43 0.0 0.0
0.0014924891 5.133793e-06 7e-43 7e-43 0.0 0.0 0.011815201 4.304113e-05
7e-43 7e-43 0.0 0.0 2.5670936e-14 7.154322e-18 7e-43 7e-43
0.0 0.0 0.0022983807 3.0399935e-05 7e-43 7e-43 0.0 0.0
0.01922543 6.8173256e-05 7e-43 7e-43 0.0 0.0 0.000387431 1.3830446e-06
7e-43 7e-43 0.0 0.0 0.00191113 1.3367101e-05 7e-43 7e-43
0.0 0.0 0.023507377 8.4181615e-05 7e-43 7e-43 0.0 0.0
0.0020312099 1.1188258e-05 7e-43 7e-43 0.0 0.0 0.0017336613 6.5562917e-06
7e-43 7e-43 0.0 0.0 0.00070801604 2.6032483e-06 7e-43 7e-43
0.0 0.0 7e-43 7e-43 7e-43 7e-43 0.0 0.0
0.00016311138 7.3540116e-07 7e-43 7e-43 0.0 0.0 7e-43 7e-43
7e-43 7e-43 0.0 0.0 0.0022072631 7.966334e-06 7e-43 7e-43
0.0 0.0 7e-43 7e-43 7e-43 7e-43 0.0 0.0
0.006251936 2.2320535e-05 7e-43 7e-43 0.0 0.0 0.017712811 2.7963355e-05
7e-43 7e-43 0.0 0.0 7e-43 7e-43 7e-43 7e-43
0.0 0.0 0.030770035 4.3921544e-05 7e-43 7e-43 0.0 0.0
7e-43 7e-43 7e-43 7e-43 0.0 0.0 7e-43 7e-43
7e-43 7e-43 0.0 0.0 0.002742648 4.617374e-06 7e-43 7e-43

exp_avg f4 [256]
00000000: b9f0 fcbd aac7 f43e 526c a3bd 5aef 18be
00000010: 4ceb 29bd 5cc6 983d 4df0 21be 0928 c1bb
00000020: 155a 643d 8a11 243d 0400 0000 0400 0000
00000030: 78a9 13bd 0400 0080 4c92 f215 0400 0080
00000040: 0400 0000 f144 aa3e 2524 7f3e 2e08 313e
00000050: 5274 82bd 5c3e 3d3e 0400 0000 c8a3 a2bd
00000060: 440c 70be 9432 0fbd ee5b ad3d 2729 85be
00000070: 3cad d3bd 207b 943d e49c 393d 0400 0000
00000080: 85d6 ca3c 0400 0080 b259 a13d 0400 0080
00000090: 19d7 08be b045 2dbe 0400 0000 bc88 6f3e
000000a0: 0400 0080 0400 0000 32dc 84bd 0400 0000
000000b0: 3386 4d3d 0400 0000 2133 cdbd c943 643c
000000c0: dd4b 613e d2e2 b83c 528c 863d 4b69 a03c
000000d0: 0400 0000 3b2e 443d c163 353d 4855 0f3c
000000e0: 0400 0080 0400 0000 ae54 e1bd 63d5 a93c
000000f0: b021 2ebc e5db 443e da79 afbd 0400 0080
00000100: ae4b 373e 480f 893d b17d e33d 0400 0000
00000110: 9604 51bd b2eb 98bd dfca cc3d 0400 0000
00000120: 0400 0080 10c5 053e 2322 7cbb 4fd5 16bd
00000130: f753 c73d 0400 0000 9320 89bd 0400 0000
00000140: 0400 0080 b5fc e3bc 8172 81be a837 ae3c
00000150: 0400 0080 b20c 4cbe 9096 01bd 0400 0000
00000160: 0a70 613d a30b 093e 55ce 903d e8ce a13e
00000170: 316c c2bc 930e 87be 0400 0000 3301 2cbe
00000180: 0400 0000 2eb5 a03c 4af2 b93d 19ed 52bd
00000190: b18b babc dc42 24be e7b5 61bc f42e 9f3d
000001a0: 02a2 893d 0400 0000 10e9 dbbc e157 f93b
000001b0: 9af9 3f3e 0400 0000 0400 0000 e5f1 24bd
000001c0: 5038 4b3e 0400 0080 84dd c4bd af5d d0bc
000001d0: 0000 0000 0400 0000 0e59 cbbd bbef 95bd
000001e0: 49d6 b13d e883 d7bb bdcd a33d 0400 0080
000001f0: 980c 173e 03c7 843e d939 953e 0400 0080
00000200: 045c aebc 0400 0000 0400 0080 c196 283e
00000210: 853f 78bd 0400 0000 de38 4ebe 0400 0000
00000220: 9dcb 093c 0400 0080 c6bf 21be 0a18 3cbe
00000230: 6703 3f3d 0400 0080 aa79 d5bd 0400 0000
00000240: b11d 7bbe e3ef 9c3c 90c9 1a3d 0400 0080
00000250: 6a47 c23c 4e19 2d3d d1db 823d 8032 a2bb
00000260: 507a 76bd 0400 0000 0400 0000 10f3 8dbe
00000270: 0400 0080 25f4 97bd 0400 0000 3d0d b8bd
00000280: 0400 0080 c40f 23be 29ec 51be 7280 2abd
00000290: dca8 c1bd 0400 0080 0400 0000 a98a 53be
000002a0: c54f 10bd c3c7 b2bd 0400 0000 da08 733e
000002b0: 0400 0000 dcb5 24bd ee03 f93c 0400 0000
000002c0: 3511 e13c 575b d63d 218c 55bd 7b9b d93b
000002d0: 45d0 963d 0400 0080 ae6b 26bd df1e e2bd
000002e0: 4808 24bd 5522 60bd 0400 0080 7ca5 1b3e
000002f0: 0400 0000 179f 1bbd 1fa9 97bd 0397 e33d
00000300: 2246 0abd 2c2a e43c fa64 5a3b 1c25 54be
00000310: 6d6f 8d3d 0400 0080 0400 0080 0400 0080
00000320: 80bf ab3d 0400 0080 6057 013d 0400 0000
00000330: ed7c 373c 0400 0080 5e48 85be ee53 0f3d
00000340: a470 453e 5c2a 673e 6e5d 833c 0400 0080
00000350: e27c cc3c 0400 0080 78b1 6cbd 0400 0000
00000360: 4d49 5a3e 0400 0000 6b25 073e e44f a5bd
00000370: 0400 0080 0400 0000 e4ee 98bd 0400 0000
00000380: 5958 dd3d 0400 0080 a3d7 30bd 0400 0000
00000390: 93c3 b1bd 0400 0080 628e 57be aa0f 383d
000003a0: bb45 f1bc 47ee 8abe 0400 0000 3fb7 16bd
000003b0: 33c3 98bd 0400 0080 1adf 04be bbec 14be
000003c0: 0400 0000 388d 113e 14a2 433e d32a 2cbe
000003d0: d16f 44be 82f3 b73d a78d 6abd a7d1 ef3d
000003e0: ceb6 d13d 53f6 413e 0400 0000 959e 86be
000003f0: 0400 0000 0400 0000 0ec6 a73e 699c 6d3e
-0.12350602 0.47808582 -0.07979645 -0.14935055 -0.041484162 0.07459709 -0.15814324 -0.005894665
0.05574997 0.04005579 6e-45 6e-45 -0.03605029 -6e-45 9.797384e-26 -6e-45
6e-45 0.33255723 0.24916132 0.17288277 -0.063698426 0.1848082 6e-45 -0.07941395
-0.23442179 -0.034960344 0.084648 -0.2600796 -0.10335776 0.07250047 0.04531564 6e-45
0.024760494 -6e-45 0.07878436 -6e-45 -0.13363303 -0.16921115 6e-45 0.23392004
-6e-45 6e-45 -0.064873114 6e-45 0.05017681 6e-45 -0.10019518 0.013932177
0.22001596 0.022569094 0.06569733 0.019581458 6e-45 0.04789565 0.044284586 0.00874836
-6e-45 6e-45 -0.110024795 0.020731634 -0.010628149 0.19224508 -0.08568163 -6e-45
0.17899963 0.06692368 0.11107958 6e-45 -0.051029764 -0.0746683 0.09999632 6e-45
-6e-45 0.13063455 -0.0038472496 -0.03682452 0.09732812 6e-45 -0.06695666 6e-45
-6e-45 -0.027830461 -0.25282672 0.021266773 -6e-45 -0.19926718 -0.03163773 6e-45
0.05503849 0.13383345 0.07070605 0.3160317 -0.02373323 -0.26378307 6e-45 -0.16797332
6e-45 0.019617643 0.09079416 -0.051495645 -0.022771688 -0.1604113 -0.013776279 0.077726275
0.06720354 6e-45 -0.026844531 0.007609353 0.18747559 6e-45 6e-45 -0.04026975
0.198457 -6e-45 -0.09612563 -0.025435297 0.0 6e-45 -0.09929095 -0.073211156
0.0868345 -0.0065770037 0.07998226 -6e-45 0.14750898 0.25933084 0.29145697 -6e-45
-0.02128411 6e-45 -6e-45 0.16463758 -0.060607452 6e-45 -0.2013888 6e-45
0.008410362 -6e-45 -0.15795812 -0.18368545 0.046634104 -6e-45 -0.10423596 6e-45
-0.24523045 0.019157356 0.03778988 -6e-45 0.023715694 0.04226046 0.06389583 -0.0049498677
-0.06017524 6e-45 6e-45 -0.27724504 -6e-45 -0.07419614 6e-45 -0.089869
-6e-45 -0.15923983 -0.20500244 -0.0416264 -0.094560355 -6e-45 6e-45 -0.20658363
-0.035232324 -0.08729508 6e-45 0.23733845 6e-45 -0.040212497 0.030397382 6e-45
0.027474025 0.104666404 -0.05213559 0.006640849 0.07363943 -6e-45 -0.040630035 -0.110410444
-0.04004696 -0.05472024 -6e-45 0.15199846 6e-45 -0.037993517 -0.07405304 0.111127876
-0.03375829 0.02785214 0.0033324347 -0.20717281 0.069060184 -6e-45 -6e-45 -6e-45
0.08386135 -6e-45 0.031577468 6e-45 0.011199218 -6e-45 -0.26031774 0.03499215
0.1928125 0.22574753 0.016035762 -6e-45 0.024961893 -6e-45 -0.057786435 6e-45
0.21317025 6e-45 0.13197868 -0.080718786 -6e-45 6e-45 -0.0746744 6e-45
0.108078666 -6e-45 -0.043174397 6e-45 -0.08679881 -6e-45 -0.21050408 0.044936813
-0.029452195 -0.27134916 6e-45 -0.03679585 -0.07459106 -6e-45 -0.12975731 -0.1454343
6e-45 0.14214027 0.19104797 -0.16813211 -0.1918328 0.08981992 -0.057263996 0.1170991
0.10239945 0.18941621 6e-45 -0.26292863 6e-45 6e-45 0.3276829 0.23204197
