assets/section_2/cartpole_to_mountain_car/models/exp1/episode_best/critic.pth (torch, 820786 bytes, 15 tensors)

net.0.weight f4 [256, 6]
0.5645036 -0.6899571 -0.02834498 -0.18233374 -0.12135134 -0.29960266 -0.19839889 -0.26576596
0.2703535 0.2081617 0.22056732 0.29883084 -0.12197496 2.0252838 -0.50564265 -0.013749267
-0.040306292 -0.1159565 -0.18866968 0.35147235 0.2056239 0.14037332 0.008711878 0.2529039
-0.022965709 0.026576897 0.36675975 0.06382491 -0.28332603 0.16232914 -0.06328435 -0.74265903
-0.52840817 -0.25194678 -0.28431693 0.32828557 0.10920839 -0.9148713 -0.47550988 0.11841679
-0.05264313 -0.33910298 -0.14438374 -0.45144823 -0.4700201 -0.095529936 -0.15585414 -0.38867083
0.053147223 0.49966827 0.11930169 0.19196388 -0.059312604 0.37135726 -0.27584845 0.72615576
0.2220667 0.31081995 0.07422207 0.33250806 -0.20896359 0.5146073 0.0644825 0.11258137
-0.33403563 0.15157193 0.1940771 -1.4967 -0.26551569 0.1424436 -0.28546977 -0.04109757
-0.19640753 0.3237184 0.2557693 0.096249856 0.29554373 0.3169701 -0.16437496 0.28513977
-0.025426216 -0.07830476 0.4025463 0.04187006 0.4094597 -1.0080473 -0.32957554 0.2543459
-0.30827892 0.1454818 -0.04695033 0.4654382 -0.026737103 0.13942324 0.20137198 0.008384884
0.13151217 -0.34782875 -0.005670356 0.11575025 -0.31595102 -0.035902172 0.16848364 0.35942796
0.29076287 0.122197844 0.27044544 0.29021108 -0.01946592 0.034909554 0.29456952 0.32139713
-0.2515661 -0.21407528 -0.2296098 0.2740178 -0.10144162 0.21843086 -0.04957497 -0.24114761
0.050421838 0.047036514 0.07567289 0.3707083 0.257362 -0.23076092 -0.17168424 0.49653223
-0.12645628 0.3338962 -0.13023968 0.30795902 -0.15200892 0.5663715 0.34524074 0.34584767
-0.053388663 -0.34970436 -0.21141177 0.40858203 -0.24824417 0.15563004 -0.20720132 -0.041329857
0.08499753 0.7424979 -0.24754278 0.040772475 0.32724926 -0.17459877 -0.3367883 -1.8200334
-0.15780368 -0.07012939 -0.16468914 -0.38213384 0.17264423 -0.21692768 -0.5302776 -0.16329955
-0.11805006 0.39502597 -0.19370507 -0.21150425 0.17825687 0.082753696 -0.13425937 0.33806053
0.096705556 1.226563 -0.05178132 0.323663 -0.1997543 -0.39458144 0.19923776 0.35273153
-0.44644564 0.08273826 -0.18522209 -0.13878949 0.26200506 0.5235966 -0.18408363 -0.33317503
-0.121620856 0.33885628 0.26551372 0.94560844 0.090675145 0.23943105 -0.3451267 0.2696106
-0.164423 -0.1489338 -0.26608327 -0.30013523 0.07233151 -0.16512355 0.13828173 -2.954364
-0.077559285 0.03061545 -0.15709364 0.2627089 -0.12828232 0.5423992 0.012868402 0.18283135
-0.15537648 -0.08633174 -0.124689616 0.13577959 0.051460933 -0.22286437 -0.01965324 -0.08639802
0.5211588 -0.015160281 -0.118605524 -0.23951164 0.3247114 -0.377913 0.41286898 -0.15348881
0.1373603 0.0635294 0.1998344 -0.049438752 -0.09356665 2.486659 0.2292078 -0.10741142
0.1284209 -0.14034776 0.14418331 -0.30272606 0.0701725 -0.2293927 0.12678763 -0.14450802
0.23616198 -0.38727033 0.09489467 -0.12615918 -0.29227534 0.39676785 -0.031635858 0.75977427
0.10209124 0.28140402 0.10234843 0.09041076 0.12931533 -0.07102909 0.16022207 -0.41560826
00000000: 4f83 103f 07a1 30bf bb33 e8bc b2b5 3abe
00000010: 0d87 f8bd 8565 99be 1429 4bbe 7a12 88be
00000020: c66b 8a3e 5728 553e 66dc 613e 5b00 993e
00000030: 02ce f9bd 409e 0140 cc71 01bf 9b44 61bc
00000040: 3618 25bd 9a7a edbd a032 41be 2ff4 b33e
00000050: 128f 523e 06be 0f3e 44bc 0e3c 9f7c 813e
00000060: 9522 bcbc cbb7 d93c efc7 bb3e a2b6 823d
00000070: 1c10 91be 9c39 263e 3a9b 81bd e71e 3ebf
00000080: c245 07bf 2bff 80be fd91 91be 0c15 a83e
00000090: a6a8 df3d 0135 6abf 0876 f3be 8184 f23d
000000a0: 53a0 57bd e89e adbe 55d9 13be 3924 e7be
000000b0: 79a6 f0be 33a5 c3bd 3a98 1fbe ddff c6be
000000c0: e7b0 593d 85d4 ff3e 7254 f43d 2e92 443e
000000d0: c6f1 72bd 8a22 be3e 023c 8dbe 58e5 393f
000000e0: 7465 633e cb23 9f3e be01 983d 7f3e aa3e
000000f0: 8dfa 55be 4ebd 033f 670f 843d 1091 e63d
00000100: b806 abbe ac35 1b3e 26bc 463e de93 bfbf
00000110: acf1 87be bcdc 113e 1829 92be ed55 28bd
00000120: 0e1f 49be 6bbe a53e 32f4 823e a51e c53d
00000130: 8251 973e e849 a23e e951 28be d7fd 913e
00000140: a44a d0bc 3f5e a0bd 8c1a ce3e f17f 2b3d
00000150: b4a4 d13e b207 81bf 20be a8be a039 823e
00000160: bcd6 9dbe 2ef9 143e fd4e 40bd ea4d ee3e
00000170: c507 dbbc f7c4 0e3e 7534 4e3e c160 093c
00000180: 20ab 063e 9c16 b2be 65ce b9bb 780e ed3d
00000190: 55c4 a1be 280e 13bd fa86 2c3e f106 b83e
000001a0: dfde 943e dd42 fa3d d377 8a3e 8c96 943e
000001b0: fe76 9fbc 52fd 0e3d d1d1 963e 2a8e a43e
000001c0: 46cd 80be 8d36 5bbe d51e 6bbe 104c 8c3e
000001d0: a0c0 cfbd 57ac 5f3e 200f 4bbd 66ef 76be
000001e0: 2187 4e3d 5ca9 403d 63fa 9a3d 7acd bd3e
000001f0: f4c4 833e 974c 6cbe fecd 2fbe 7939 fe3e
00000200: c17d 01be 71f4 aa3e 8d5d 05be ceac 9d3e
00000210: 3aa8 1bbe b9fd 103f 65c3 b03e f212 b13e
00000220: 12ae 5abd 730c b3be 547c 58be aa31 d13e
00000230: b833 7ebe 7b5d 1f3e 952c 54be 7f49 29bd
00000240: 2f13 ae3d 5814 3e3f db7b 7dbe 0a01 273d
00000250: 378d a73e 05ca 32be 846f acbe dbf6 e8bf
00000260: 4a97 21be ff9f 8fbd 45a4 28be 0ca7 c3be
00000270: a6c9 303e 4a22 5ebe 46c0 07bf ff37 27be
00000280: 3bc4 f1bd d840 ca3e 9f5a 46be 9294 58be
00000290: f888 363e c57a a93d 4a7b 09be 4516 ad3e
000002a0: 900d c63d 0400 9d3f a618 54bd 28b7 a53e
000002b0: 648c 4cbe 9406 cabe fc04 4c3e 3a99 b43e
000002c0: 8694 e4be ad72 a93d dcaa 3dbe d51e 0ebe
000002d0: 8725 863e 6d0a 063f 6b80 3cbe eb95 aabe
000002e0: 5b14 f9bd 927e ad3e 6af1 873e 6513 723f
000002f0: e4b3 b93d 6a2d 753e 72b4 b0be 670a 8a3e
00000300: 815e 28be 1a82 18be 113c 88be 53ab 99be
00000310: 8b22 943d 2616 29be ba99 0d3e 4d14 3dc0
00000320: 67d7 9ebd 41cd fa3c 28dd 20be c881 863e
00000330: 715c 03be adda 0a3f fdd5 523c 2438 3b3e
00000340: 031b 1fbe b2ce b0bd 455d ffbd ce09 0b3e
00000350: b3c8 523d 8f36 64be d5ff a0bc 72f1 b0bd
00000360: aa6a 053f d462 78bc 74e7 f2bd 8a42 75be
00000370: 9340 a63e d07d c1be 9063 d33e 2c2c 1dbe
00000380: 2ea8 0c3e b41b 823d 64a1 4c3e 4a80 4abd
00000390: df9f bfbd 6c25 1f40 73b5 6a3e 85fa dbbd
000003a0: c580 033e 53b7 0fbe caa4 133e e9fe 9abe
000003b0: 9ab6 8f3d ece5 6abe 9ed4 013e e9f9 13be
000003c0: 72d4 713e 4c48 c6be 2358 c23d df2f 01be
000003d0: 1da5 95be 2825 cb3e 9a94 01bd 9180 423f
000003e0: 3615 d13d 3014 903e 0e9c d13d 4729 b93d
000003f0: 3d6b 043e b377 91bd 4111 243e 9bca d4be

net.0.bias f4 [256]
0.29064238 -0.33949384 -0.2067372 0.46095747 -0.35632992 0.09285052 0.34380043 0.103286006
0.4472095 0.29442656 0.11973367 0.100094795 0.3485353 -0.33677366 0.41591498 0.27725926
-0.12940374 0.4304305 -0.2700898 -0.36192763 -0.18844573 0.44792616 0.41182858 0.36707705
0.24631704 -0.24973205 -0.078083836 0.10330684 0.11380368 0.093652055 0.33876586 0.20157123
-0.20779145 0.28274304 0.17601599 -0.33433732 -0.2898137 -0.22780482 -0.056664128 0.5193143
0.34866917 0.17353 -0.36709455 0.28149638 -0.14450687 -0.03616453 0.06729262 0.0095677115
0.3630971 -0.23234968 0.27125064 -0.28044158 -0.12687372 0.5357578 0.54855025 -0.42560953
0.39336985 0.2986821 0.11016969 0.02765938 0.44228652 0.35811305 -0.22896515 0.3110422
0.26226413 0.12397594 0.47884405 -0.3431894 -0.2977428 -0.29967397 0.3218666 -0.23785667
0.49165863 0.48265734 0.5064018 -0.4368026 -0.22174884 0.32412457 0.110468216 -0.05840793
0.26711148 0.09165721 -0.09518459 0.12754942 -0.22240911 0.23797065 0.47364268 -0.09395417
0.062855124 0.64389354 -0.20524164 -0.39502597 -0.32333913 -0.15942094 -0.10978663 0.27184612
-0.0671442 0.123713255 0.104143195 0.3781021 0.37456468 -0.266401 -0.05065804 0.17464653
0.47092026 0.36943182 -0.45093068 -0.33678952 -0.35547403 0.40833658 0.4190137 -0.30022958
-0.33740184 0.4217669 0.37034157 0.36592078 0.22177136 -0.063837714 -0.07592018 0.07282105
-0.33917132 0.17731488 0.20975132 0.418776 0.24562268 -0.15723783 0.07823752 -0.18490972
-0.2252165 -0.108030714 0.4146834 0.49168926 0.53376484 0.4163918 0.14086226 -0.2862117
-0.16586135 -0.03066788 0.21009171 0.23803572 0.24995789 -0.3731207 -0.3577056 -0.21934159
-0.11407063 0.3853197 -0.19725485 -0.18387331 0.20062502 0.08227661 0.3234489 0.3719079
-0.32838368 0.6002335 0.41356727 -0.08338815 0.22051448 -0.14399278 0.20340887 0.5645066
-0.28856397 0.23249237 0.19717094 0.42798698 0.13291053 0.23352148 0.2889487 0.35231888
0.16727653 0.46106502 0.2683432 0.3057161 0.2534512 -0.25234246 -0.110149324 -0.11362821
0.402693 0.3104968 0.0042332844 -0.35332108 -0.02973579 -0.07479442 0.36192513 0.19295973
0.110603996 -0.17515956 0.28895384 0.34297705 -0.39105088 -0.24795087 0.065479666 -0.17090803
-0.37692302 -0.3514864 0.23622365 0.32090843 -0.31097427 0.28314763 0.070699126 0.3985289
0.39730752 0.42006552 0.45870456 0.35508394 -0.3954529 -0.14817397 0.37349182 -0.38242033
-0.3234037 -0.31160712 -0.11544621 0.48720628 0.22148392 0.22634025 -0.40704995 0.2256533
-0.16743146 0.4502881 0.25736505 0.17151518 -0.33398962 -0.3935527 0.15915956 0.29886237
0.19812171 0.6259288 0.22307047 0.18012959 0.4356824 0.44806027 -0.19634396 0.1064825
0.31475395 0.15433536 0.46535692 0.34152192 -0.4403781 0.44875625 0.5333743 -0.40015873
-0.40716818 0.31155813 0.2692183 0.33365712 0.54237956 -0.20113073 0.42771783 0.4400765
0.013911547 -0.2797786 -0.19932458 0.15647352 -0.19650438 0.29264626 -0.34465325 -0.38517106
00000000: 14cf 943e 23d2 adbe ebb2 53be 9e02 ec3e
00000010: e070 b6be 6a28 be3d 9c06 b03e 9d87 d33d
00000020: a5f8 e43e 14bf 963e ed36 f53d 80fe cc3d
00000030: 3873 b23e 996d acbe cff2 d43e edf4 8d3e
00000040: 6a82 04be 6361 dc3e 3649 8abe 944e b9be
00000050: ebf7 40be 9456 e53e 32db d23e 86f1 bb3e
00000060: 893a 7c3e c2b9 7fbe 6bea 9fbd 8992 d33d
00000070: e711 e93d a6cc bf3d b872 ad3e b068 4e3e
00000080: 48c7 54be b2c3 903e 893d 343e 432e abbe
00000090: 7662 94be ab45 69be a518 68bd c8f1 043f
000000a0: c484 b23e d9b1 313e d1f3 bbbe 4b20 903e
000000b0: 9cf9 13be 4221 14bd b7d0 893d e4c1 1c3c
000000c0: dde7 b93e 13ed 6dbe 5de1 8a3e 0a96 8fbe
000000d0: 2feb 01be 6c27 093f ca6d 0c3f 7ee9 d9be
000000e0: c667 c93e dcec 983e a5a0 e13d ed95 e23c
000000f0: 6173 e23e 985a b73e d775 6abe ec40 9f3e
00000100: 7c47 863e 19e7 fd3d 0c2b f53e 85b6 afbe
00000110: bf71 98be de6e 99be b3cb a43e b390 73be
00000120: aeba fb3e dd1e f73e 8ca3 013f 97a4 dfbe
00000130: 2112 63be a8f3 a53e 293d e23d 273d 6fbd
00000140: d6c2 883e c6b6 bb3d 23f0 c2bd 519c 023e
00000150: 37bf 63be 94ae 733e 4b81 f23e 0b6b c0bd
00000160: 30ba 803d 35d6 243f dd2a 52be d840 cabe
00000170: b58c a5be 3e3f 23be d0d7 e0bd 6a2f 8b3e
00000180: e682 89bd 605d fd3d 0749 d53d 9996 c13e
00000190: f1c6 bf3e b665 88be ce7e 4fbd 8ad6 323e
000001a0: 761c f13e 2b26 bd3e 63e0 e6be ad6f acbe
000001b0: b100 b6be 7e11 d13e f788 d63e b1b7 99be
000001c0: efbf acbe d5f1 d73e 699d bd3e f859 bb3e
000001d0: 0818 633e 59bd 82bd 0a7c 9bbd 3423 953d
000001e0: dda7 adbe 0892 353e 0dc9 563e cf69 d63e
000001f0: 8384 7b3e f402 21be fe3a a03d f958 3dbe
00000200: 279f 66be 353f ddbd 6251 d43e b2be fb3e
00000210: d0a4 083f 4e31 d53e 323e 103e 578a 92be
00000220: 8fd7 29be 353b fbbc 4822 573e a3bf 733e
00000230: f6f4 7f3e ad09 bfbe 3025 b7be 159b 60be
00000240: dd9d e9bd a048 c53e 2dfd 49be 4949 3cbe
00000250: a570 4d3e a480 a83d 189b a53e b66a be3e
00000260: e821 a8be e7a8 193f 17bf d33e 68c7 aabd
00000270: 8cce 613e d872 13be 6a4a 503e 8183 103f
00000280: a8be 93be 7b12 6e3e 2ee7 493e 1c21 db3e
00000290: b319 083e 4120 6f3e 16f1 933e 2463 b43e
000002a0: 8a4a 2b3e b710 ec3e 4864 893e d286 9c3e
000002b0: 5bc4 813e 0833 81be f895 e1bd e8b5 e8bd
000002c0: c72d ce3e 70f9 9e3e 5db7 8a3b 80e6 b4be
000002d0: 7998 f3bc d12d 99bd 404e b93e 3c97 453e
000002e0: 5984 e23d 075d 33be c2f1 933e b09a af3e
000002f0: d237 c8be d5e6 7dbe 341a 863d 8402 2fbe
00000300: 0efc c0be 07f6 b3be 9de4 713e 1c4e a43e
00000310: 0538 9fbe baf8 903e b4ca 903d fb0b cc3e
00000320: e46b cb3e d412 d73e 53db ea3e 90cd b53e
00000330: cd78 cabe ebba 17be 523a bf3e 99cc c3be
00000340: 2b95 a5be f88a 9fbe 106f ecbd 1a73 f93e
00000350: aecc 623e bdc5 673e da68 d0be a911 673e
00000360: 2773 2bbe 298c e63e 5ac5 833e ada1 2f3e
00000370: b000 abbe bd7f c9be b9fa 223e 7d04 993e
00000380: 6be0 4a3e df3c 203f 966c 643e e473 383e
00000390: c311 df3e 2868 e53e 640e 49be 7f13 da3d
000003a0: 6e27 a13e 170a 1e3e 4343 ee3e f6db ae3e
000003b0: 3d79 e1be 61c3 e53e 388b 083f 9be1 ccbe
000003c0: 5978 d0be 8c84 9f3e fbd6 893e 1bd5 aa3e
000003d0: 63d9 0a3f 37f5 4dbe d5fd da3e b551 e13e
000003e0: 42ed 633c 243f 8fbe be1b 4cbe 983a 203e
000003f0: 7238 49be bbd5 953e 6476 b0be 2435 c5be

net.2.weight f4 [256, 256]
0.91772294 -0.06687669 1.0862488 0.06743379 -0.0576758 -0.57829255 -0.096333764 -0.26867455
0.050611828 0.19184151 0.09360617 -0.57784194 0.04721643 -0.013314778 -0.10896587 0.1231831
0.120294556 0.14880955 -0.06285826 0.02017989 -0.08215039 0.0091863405 0.10385449 0.13487625
0.15344973 -0.33856803 -0.117131606 -0.249456 -0.21210854 0.108688526 0.06495302 -0.23407452
-0.0552482 1.214233 0.14493808 -0.055638686 -0.006935659 -0.116253786 0.7350587 0.11379433
0.048878673 0.033625923 -0.14811696 0.102934085 -0.15382494 0.6436335 -0.36255723 0.53136975
0.07304418 -0.17394608 0.035110887 0.72062784 0.016250635 0.026906766 0.18319598 0.036493283
0.03452279 0.05929839 -0.24678676 0.5087259 0.19608028 0.040784452 0.7559593 0.060796976
0.024756664 0.12616208 0.043466836 -0.033775218 -0.1678793 -0.165744 -0.111301064 -0.0562244
0.004408712 0.011119906 0.10557989 -0.07102745 -0.02041632 0.045587517 -0.17885815 0.24102163
-0.08434843 -0.36989775 0.35626346 0.13884084 -0.49372533 0.1676388 0.09069752 -0.1304979
-0.0679933 0.0977137 -0.01458634 -0.019291392 -0.00788064 0.024193738 -0.18185116 0.001541124
0.7970223 0.019403249 -0.3824383 0.060447916 0.13632743 -0.21180259 -0.28191832 0.2788112
0.2161613 0.13432488 -0.022947762 -0.085040405 -0.14462687 0.091708675 -0.043189812 0.026200984
-0.00734691 0.13480565 -0.0086826105 0.16000417 0.08460341 -0.20139934 -0.16332605 -0.38194063
-0.12191208 -0.2599472 0.22145191 0.13528927 0.16383429 -0.11447545 -0.09493812 -0.15755054
-0.011546398 -0.642995 0.052716214 0.14523055 0.1789534 0.057772063 -0.17462721 -0.047818277
0.35393068 0.46703458 0.08506687 -0.72527385 0.21199203 0.007698811 0.06461208 -0.08351734
0.069358766 0.03673265 -0.06720832 -0.05033867 0.07860652 -0.61641055 0.06055457 0.1312084
-0.12151501 0.1304407 0.048530877 -0.055413783 0.53627294 -0.07235345 -0.18910833 0.19082528
0.022463173 0.48927966 0.074057594 -0.008979785 0.30205843 0.086104155 0.07442938 0.15307082
0.13825372 0.07820191 -0.030437894 0.15474473 0.04323743 -0.064154774 0.3183115 0.011040783
-0.064139575 -0.13320942 -0.57071847 -0.03966575 0.10227218 -0.16973178 0.09118824 0.020462096
-0.30828956 0.7242731 -0.07543314 -0.04042021 -0.011191693 -0.012877311 -0.327987 -0.12761346
-0.06076312 0.016592313 -0.12194553 0.17561403 -0.03999148 0.068499945 -0.5768327 -0.0015041921
0.1445827 0.045651298 0.06979401 -0.11179693 -0.07564545 0.3512746 0.08215831 -0.11894761
-0.09652042 -0.08130322 -0.5093846 -0.101683475 -0.2889718 0.020862138 -0.08126793 -0.033086684
0.9507786 0.065879524 0.16806453 -0.19076358 -0.033921972 -0.090281956 0.03783663 0.1024603
0.58347356 0.16688928 0.0019764942 -0.7022807 0.1250492 -0.02939458 -0.0794145 -0.29296643
-0.0036964987 -0.33129385 -0.017934587 0.13758957 -0.084461994 0.10926574 0.069178715 -0.033684652
-0.027059857 0.012874233 0.12733182 0.16514252 0.14064199 -0.06455492 0.0058043087 0.08993928
0.4914165 -0.14827795 -0.1670253 0.09542351 -0.18000154 0.09092275 -0.052785728 -0.09846285
00000000: e4ef 6a3f a5f6 88bd 330a 8b3f ba1a 8a3d
00000010: 763d 6cbd fb0a 14bf a34a c5bd b68f 89be
00000020: 594e 4f3d 1a72 443e 97b4 bf3d 73ed 13bf
00000030: 0466 413d 3a26 5abc 8029 dfbd 6c47 fc3d
00000040: fe5c f63d 8861 183e d5bb 80bd 4c50 a53c
00000050: 773e a8bd 4e82 163c aab1 d43d 001d 0a3e
00000060: ed21 1d3e ca58 adbe b2e2 efbd 6571 7fbe
00000070: fb32 59be 1798 de3d 1706 853d 3bb1 6fbe
00000080: f04b 62bd fd6b 9b3f a66a 143e 64e5 63bd
00000090: 8644 e3bb 7716 eebd cf2c 3c3f 000d e93d
000000a0: 0135 483d 56bb 093d f9ab 17be 1bcf d23d
000000b0: 4984 1dbe 2ac5 243f 1aa1 b9be d907 083f
000000c0: 3098 953d ec1e 32be 6fd0 0f3d 117b 383f
000000d0: 0d20 853c 946b dc3c ba97 3b3e fb79 153d
000000e0: c567 0d3d dee2 723d abb5 7cbe dc3b 023f
000000f0: 45c9 483e 990d 273d 8c86 413f 4006 793d
00000100: 7dce ca3c a230 013e 480a 323d e257 0abd
00000110: 8de8 2bbe ccb8 29be d0f1 e3bd 8e4b 66bd
00000120: f576 903b 4430 363c 453a d83d d776 91bd
00000130: 2040 a7bc fab9 3a3d 9726 37be 60ce 763e
00000140: dfbe acbd 3d63 bdbe 2a68 b63e 4b2c 0e3e
00000150: 91c9 fcbe 81a9 2b3e 9fbf b93d 3ea1 05be
00000160: 1240 8bbd 1f1e c83d 8bfb 6ebc fb08 9ebc
00000170: cd1d 01bc f231 c63c 3137 3abe 8aff c93a
00000180: a709 4c3f 90f3 9e3c f4ce c3be 3c98 773d
00000190: 6b99 0b3e c7e2 58be 9957 90be 57c0 8e3e
000001a0: 6359 5d3e 768c 093e f2fc bbbc aa29 aebd
000001b0: 1119 14be c2d1 bb3d cde7 30bd 72a3 d63c
000001c0: 59be f0bb 7e0a 0a3e 8241 0ebc 22d8 233e
000001d0: 8d44 ad3d a13b 4ebe f23e 27be b98d c3be
000001e0: 0aad f9bd cd17 85be 4ac4 623e 4589 0a3e
000001f0: 2dc4 273e 1b72 eabd eb6e c2bd ee54 21be
00000200: 1a2d 3dbc 529b 24bf f5ec 573d 51b7 143e
00000210: 8f3f 373e 66a2 6c3d 7ad1 32be 19dd 43bd
00000220: 6736 b53e 281f ef3e 8a37 ae3d 8cab 39bf
00000230: 7014 593e 4f46 fc3b 5753 843d 240b abbd
00000240: f80b 8e3d fa74 163d 84a4 89bd ec2f 4ebd
00000250: 75fc a03d 15cd 1dbf 1208 783d 7f5b 063e
00000260: dddc f8bd 3f92 053e 50c8 463d 90f9 62bd
00000270: 2f49 093f 0c2e 94bd 9da5 41be b467 433e
00000280: b004 b83c dd82 fa3e 82ab 973d f31f 13bc
00000290: 67a7 9a3e 6057 b03d 6e6e 983d 99be 1c3e
000002a0: 6292 0d3e 5328 a03d e458 f9bc 6775 1e3e
000002b0: bb19 313d 9463 83bd baf9 a23e 66e4 343c
000002c0: 9c5b 83bd 0d68 08be 9b1a 12bf 8e78 22bd
000002d0: 1474 d13d 2bce 2dbe e6c0 ba3d 20a0 a73c
000002e0: 21d8 9dbe f669 393f b17c 9abd aa8f 25bd
000002f0: 5d5d 37bc 5bfb 52bc e9ed a7be 1aad 02be
00000300: c0e2 78bd 9aec 873c 94be f9bd 2ad4 333e
00000310: 1bce 23bd b349 8c3d 4fab 13bf 5028 c5ba
00000320: 7d0d 143e dbfc 3a3d 29f0 8e3d caf5 e4bd
00000330: 00ec 9abd 44da b33e 9e42 a83d ce9a f3bd
00000340: 7fac c5bd 4d82 a6bd 0767 02bf 6d3f d0bd
00000350: 1df4 93be 13e7 aa3c cd6f a6bd e785 07bd
00000360: 3a66 733f d8eb 863d 1c19 2c3e 8757 43be
00000370: c4f1 0abd bfe5 b8bd 95fa 1a3d b5d6 d13d
00000380: 865e 153f 06e5 2a3e 1288 013b abc8 33bf
00000390: e60c 003e e7cc f0bc 12a4 a2bd b2ff 95be
000003a0: f540 72bb 599f a9be 8eeb 92bc 48e4 0c3e
000003b0: 69fa acbd b7c6 df3d 92ad 8d3d ebf8 09bd
000003c0: a2ac ddbc 72ee 523c 4663 023e 1f1b 293e
000003d0: 7404 103e 5f35 84bd 1232 be3b 1632 b83d
000003e0: f29a fb3e 2dd6 17be ae08 2bbe 676d c33d
000003f0: 5352 38be b535 ba3d d935 58bd e4a6 c9bd

net.2.bias f4 [256]
0.001399463 0.037848476 0.012486196 0.053671587 0.029450277 0.01774065 0.0061690235 0.024546294
-0.0557654 0.060939535 0.025952246 -0.026111422 0.09445202 0.05181909 0.16374917 0.16517837
0.09342892 -0.03625135 0.0554453 -0.07546024 0.07190466 -0.017652215 0.032810774 0.15694875
0.06828536 -0.04947926 0.0036313303 0.075582325 -0.0146535635 -0.0135334255 0.08055342 0.045795776
0.044696417 0.0722813 -0.015999788 0.002292057 0.09930772 0.025801545 0.027468571 0.012107964
0.008540789 0.034942616 0.092949755 0.032016546 0.031888112 0.022751924 0.03791103 0.10697163
0.021091562 0.057695292 0.053244483 0.09101859 0.13326192 -0.011837288 0.009286414 -0.011300422
0.03874101 0.040494647 -0.03545968 0.080611676 0.02589677 0.033312984 0.0069893813 0.09602942
0.123891614 -0.027791975 -0.029073061 0.09759372 0.08171355 0.012785923 0.043978382 0.045371737
0.048895568 0.03682996 -0.0016337709 -0.02921269 0.11920844 -0.00013492625 0.14915965 0.011874044
-0.042878695 0.060840547 -0.0014358924 0.0034139925 0.0056329365 -0.035615165 -0.03267461 0.10153184
0.09031515 0.020557519 0.03298424 0.031565435 -0.0303228 0.008081732 0.059950173 0.08115024
0.005929372 -0.010975354 0.10568455 0.05830674 -0.013062496 0.028774126 0.0034449308 0.05753717
0.07903302 0.00287305 -0.02094634 -0.045577124 -0.0002252496 -0.07174008 0.122560956 0.0861013
0.071429916 -0.04690764 0.1087609 0.12626788 0.10120369 -0.04587139 -0.0009819661 0.01765865
-0.047321845 0.010333778 -0.063845135 0.096231475 0.043375198 0.11773062 0.108243264 0.0943001
0.07731766 0.011348562 0.03476338 0.054891545 0.04282033 0.043308023 0.030593941 0.1832801
0.051022153 -0.01381401 -0.031209605 -0.05391199 0.09288797 0.012292406 -0.06398209 0.09565773
-0.0050211134 0.019734455 -0.015124328 -0.04783347 0.052135322 0.04368075 0.05968004 0.034278933
0.08308034 0.027144399 0.074271135 -0.018377708 0.02947102 -0.02995599 0.018127933 0.04163078
0.08768985 0.09970633 -0.009180671 0.019898789 0.04328882 0.09388667 0.09740528 -0.043256164
0.094691984 0.11749649 0.056737904 0.015980536 0.10591251 -0.013401279 0.062348124 0.057268847
0.006107523 0.060308993 0.044452697 0.06251498 0.11925311 -0.0050805304 0.0133164525 0.085676864
0.14166296 0.04139132 0.05436147 0.02668026 0.047127657 -0.060687967 0.030486163 -2.8721988e-05
0.024996975 0.019087253 0.07135501 0.17511562 0.09600419 0.008479788 -0.0022566365 0.0070185736
0.106266126 0.0005753827 -0.026861975 -0.059977423 -0.0069558844 0.11069499 0.060387757 0.07155192
0.0152129615 0.12234655 -0.005649982 -0.05790932 0.09868433 0.113404796 0.029848054 0.107475
-0.013087298 0.07421686 -0.051611766 -0.03245092 0.031801905 0.072361514 0.028248968 0.021162927
0.031091888 -0.009836579 0.13239986 0.048362877 0.08218774 -0.023805955 -0.0037770695 0.067555636
0.05326287 0.024132585 0.05216641 0.01266139 0.03532298 0.093428455 0.053155266 -0.058657475
0.0416427 0.052870918 0.056106288 0.038355358 0.039049253 0.0365864 -0.02610048 0.04775181
0.034926306 0.004455361 0.09398116 0.0032998407 0.09939506 0.15243074 0.08315071 -0.005296032
00000000: 306e b73a 0107 1b3d e792 4c3c bdd6 5b3d
00000010: b541 f13c d754 913c 8525 ca3b 4f15 c93c
00000020: 436a 64bd bc9b 793d ce99 d43c 9fe7 d5bc
00000030: 1070 c13d 4140 543d ddad 273e 8524 293e
00000040: a957 bf3d 4c7c 14bd 9c1a 633d e68a 9abd
00000050: c042 933d 619b 90bc 9764 063d 2cb7 203e
00000060: 32d9 8b3d c4aa 4abd 9dfb 6d3b e8ca 9a3d
00000070: 8015 70bc 4dbb 5dbc 31f9 a43d 5a94 3b3d
00000080: 9713 373d 3808 943d fd11 83bc 5636 163b
00000090: d961 cb3d c35d d33c c505 e13c 7b60 463c
000000a0: aaee 0b3c fd1f 0f3d 715c be3d c823 033d
000000b0: 1c9d 023d 3e62 ba3c 9948 1b3d f113 db3d
000000c0: 36c8 ac3c e651 6c3d e316 5a3d f467 ba3d
000000d0: d075 083e 2ff1 41bc 0b26 183c 6825 39bc
000000e0: e5ae 1e3d b7dd 253d 2b3e 11bd bc17 a53d
000000f0: 7725 d43c 3273 083d 2e07 e53b 13ab c43d
00000100: e3ba fd3d ffab e3bc a12a eebc 37df c73d
00000110: 6f59 a73d 0c7c 513c ad22 343d b7d7 393d
00000120: b846 483d 03db 163d 4124 d6ba 744f efbc
00000130: 8e23 f43d fd7a 0db9 4fbd 183e 5a8b 423c
00000140: 92a1 2fbd f033 793d 8e34 bcba 4abd 5f3b
00000150: 7f94 b83b 35e1 11bd d0d5 05bd edef cf3d
00000160: 26f7 b83d 3e68 a83c 7c1a 073d c24a 013d
00000170: 8567 f8bc 3e69 043c 508e 753d 1932 a63d
00000180: 2d4b c23b f9d1 33bc 2471 d83d 0cd3 6e3d
00000190: 1404 56bc b7b7 eb3c 59c4 613b 18ac 6b3d
000001a0: 10dc a13d c849 3c3b a997 abbc 14af 3abd
000001b0: fb30 6cb9 77ec 92bd 3d01 fb3d e155 b03d
000001c0: d949 923d 3a22 40bd 09be de3d 5e4c 013e
000001d0: e143 cf3d a3e3 3bbd 51b5 80ba e0a8 903c
000001e0: 8dd4 41bd 024f 293c 3dc1 82bd 0215 c53d
000001f0: 31aa 313d c01c f13d a5ae dd3d 6920 c13d
00000200: b958 9e3d 52ef 393c 0c64 0e3d f5d5 603d
00000210: 5f64 2f3d c163 313d 25a0 fa3c c7ad 3b3e
00000220: 9bfc 503d 2854 62bc 49ab ffbc d2d2 5cbd
00000230: 0c3c be3d 1666 493c 0b09 83bd 33e8 c33d
00000240: 2788 a4bb 27aa a13c 08cc 77bc 07ed 43bd
00000250: d98b 553d 96ea 323d 0f73 743d 1168 0c3d
00000260: 0626 aa3d ee5d de3c 771b 983d d98c 96bc
00000270: 356d f13c 4466 f5bc 0881 943c 0985 2a3d
00000280: bc96 b33d d532 cc3d 866a 16bc c902 a33c
00000290: 9e4f 313d a847 c03d 6b7c c73d 602d 31bd
000002a0: dfed c13d 00a2 f03d 0166 683d 9de9 823c
000002b0: a8e8 d83d 0a91 5bbc bf60 7f3d bd92 6a3d
000002c0: 9e21 c83b 9006 773d 0814 363d db07 803d
000002d0: f93a f43d 947a a6bb 402d 5a3c 5a77 af3d
000002e0: 1810 113e f289 293d 22aa 5e3d 9090 da3c
000002f0: ee08 413d f293 78bd 1ebe f93c 00f0 f0b7
00000300: 75c6 cc3c df5c 9c3c 9322 923d 8251 333e
00000310: d89d c43d cfee 0a3c 14e4 13bb 10fc e53b
00000320: 0ea2 d93d 48d5 163a a50d dcbc e3aa 75bd
00000330: 30ee e3bb 0eb4 e23d 2759 773d d089 923d
00000340: c93f 793c d490 fa3d 7c23 b9bb 5332 6dbd
00000350: 031b ca3d c640 e83d e883 f43c da1b dc3d
00000360: 1b6c 56bc 02ff 973d dc66 53bd 42eb 04bd
00000370: b742 023d 4632 943d 616a e73c e05d ad3c
00000380: 6ab4 fe3c 9a29 21bc d493 073e 2718 463d
00000390: 0c52 a83d b504 c3bc b688 77bb 9c5a 8a3d
000003a0: 2b2a 5a3d b3b1 c53c 72ac 553d b871 4f3c
000003b0: d4ae 103d 6b57 bf3d 56b9 593d d242 70bd
000003c0: 8991 2a3d 2d8f 583d b5cf 653d 821a 1d3d
000003d0: 1cf2 1f3d 9fdb 153d add0 d5bc 6797 433d
000003e0: e30e 0f3d 47fe 913b 3279 c03d 2442 583b
000003f0: a38f cb3d ce16 1c3e eb4a aa3d 568a adbb

net.4.weight f4 [1, 256]
0.4218826 0.5167647 0.47478813 -0.56217325 -0.020214817 0.5488591 0.6234048 -0.13374937
-0.01275686 -1.1035161 -0.7762524 0.6281439 0.50345117 0.45906815 -1.4997557 -0.7871308
0.47898662 -0.033085845 -0.8305951 -0.07601467 0.39187464 -0.83556324 -0.7702442 -0.9327754
0.6749427 -0.023035673 -0.046411753 -0.8531229 0.6856715 -0.044932537 0.62008274 -0.17820264
-0.1547707 -0.8316668 -0.044113554 0.4645357 0.38967422 0.42628837 0.59438694 -0.10346035
0.62862915 0.49499327 0.54069906 -0.5620785 -0.07030532 0.40384766 -0.18338493 -0.57174146
-0.022658922 0.05132176 -0.14774007 -1.1108671 -0.53052276 -0.045506015 0.01143879 0.03231366
-0.073700756 0.5433093 -0.042632416 0.6303739 -0.84089416 -0.087641545 0.8076103 0.53747827
-0.81371844 -0.055216573 0.6064095 -0.7425315 -0.6766872 0.4131764 0.5549783 0.5192379
0.68862045 0.4960753 -0.075834304 -0.018909626 -0.8049722 -0.05662409 -1.7146982 0.49673945
0.011747897 0.51014984 0.6274712 0.7964334 -0.043292586 -0.120126925 0.84753585 -0.70983493
0.60980946 0.486896 0.57287365 0.44651565 -0.03861701 0.50330275 -0.806822 0.60008943
-0.02415643 0.5479548 0.47056586 0.7057741 -0.1738856 0.49280214 -0.025266688 -0.15094313
0.43496516 0.43281394 0.61843383 -0.0009327469 -0.16363034 -0.07755632 -0.7728576 -0.7239988
0.47672173 -0.023293674 -0.7230053 -0.59178346 0.50754166 0.012135802 0.5317204 -0.56430787
0.012299808 -0.04111798 0.07726578 -0.7659616 -0.16963612 -0.64807117 -1.895481 0.6459758
0.4209209 0.6699523 0.049560323 -0.13371882 0.45451814 -0.20976818 -0.14245225 -1.2846664
0.49598944 -0.035956703 0.055496544 0.037587978 0.49071229 -0.049180247 -0.013781383 0.44470996
-0.048497647 -0.92428565 -0.067167185 -0.11150772 0.55483836 0.5314433 -0.751986 -0.83348453
-0.73918515 -0.015108944 0.37115383 -0.038558193 0.002364997 0.05787614 0.6229858 0.41150683
0.45623606 0.4754099 0.6166222 -0.13293998 0.73382455 0.45457867 0.53645307 -0.0018460792
0.47934595 -0.69710416 0.45510727 0.5554698 -0.8072476 0.4667452 0.42402175 0.7463404
-0.24298128 0.040892288 0.58189183 0.54693496 0.41144705 0.7436139 0.4746988 0.5854612
-0.57365304 -0.039530404 0.63440156 -0.02881557 -0.019994888 -0.09758223 -0.03934718 -0.04495135
-0.29813984 0.4650161 -0.60737014 -1.6859272 -0.44222674 -0.13736923 0.6319264 -0.027665995
0.36291984 0.6393642 0.56922954 -0.048454497 -0.025168516 -0.57268804 -0.9040207 0.44950247
0.49280685 0.38824108 -0.17465171 0.055682994 -0.79207766 -1.9850748 0.5588809 -0.80762863
0.4842253 -0.5656885 0.05925905 0.6525291 -0.71182853 0.48593843 0.4906012 0.6326228
0.5155315 -0.18673167 -1.6996679 -0.23373002 0.4239935 0.6257667 -0.17811878 -0.549249
-0.04894946 0.7185131 0.7998253 0.05500768 -0.16858448 0.45512357 0.5421057 0.04782578
-0.021300389 0.6849655 0.5024627 0.6703911 -0.73263144 0.46004298 -0.017163979 0.5686934
0.53491473 0.6148524 -0.6447439 0.6099953 0.5097529 -0.8695289 0.51523995 -0.058025513
00000000: ff00 d83e b14a 043f 6e17 f33e 96ea 0fbf
00000010: 8b99 a5bc 0882 0c3f 7597 1f3f 98f5 08be
00000020: 2602 51bc 0440 8dbf 7ab8 46bf 0ace 203f
00000030: 2de2 003f fb0a eb3e fff7 bfbf 6781 49bf
00000040: bc3d f53e 0685 07bd e1a1 54bf 94ad 9bbd
00000050: cba3 c83e 79e7 55bf b92e 45bf 5eca 6ebf
00000060: 0bc9 2c3f 4fb5 bcbc 401a 3ebd 4366 5abf
00000070: 2b88 2f3f 2e0b 38bd bebd 1e3f c17a 36be
00000080: 367c 1ebe 1ee8 54bf 6ab0 34bd a0d7 ed3e
00000090: 6183 c73e 7842 da3e be29 183f 05e3 d3bd
000000a0: d7ed 203f c26f fd3e 416b 0a3f 60e4 0fbf
000000b0: 3cfc 8fbd 1fc5 ce3e 42c9 3bbe a65d 12bf
000000c0: 349f b9bc c436 523d 2c49 17be e530 8ebf
000000d0: 57d0 07bf 8464 3abd c369 3b3c 545b 043d
000000e0: 6cf0 96bd 5116 0b3f 549f 2ebd 2f60 213f
000000f0: d744 57bf 697d b3bd 8cbf 4e3f 2d98 093f
00000100: da4f 50bf c62a 62bd a73d 1b3f 8b16 3ebf
00000110: 5f3b 2dbf db8b d33e 0f13 0e3f c6ec 043f
00000120: 6e49 303f 95fd fd3e 044f 9bbd 5ce8 9abc
00000130: a812 4ebf a9ee 67bd 3b7b dbbf a254 fe3e
00000140: 407a 403c 2e99 023f f4a1 203f 0fe3 4b3f
00000150: 9153 31bd 1b05 f6bd 1cf8 583f beb7 35bf
00000160: 791c 1c3f 6f4a f93e d9a7 123f b39d e43e
00000170: df2c 1ebd 73d8 003f e38b 4ebf 769f 193f
00000180: b5e3 c5bc c446 0c3f 02ee f03e 9dad 343f
00000190: 110f 32be 9050 fc3e 16fc cebc d690 1abe
000001a0: c1b3 de3e ca99 dd3e ae51 1e3f 9683 74ba
000001b0: b68e 27be d9d5 9ebd ffd9 45bf fc57 39bf
000001c0: df14 f43e 60d2 bebc e016 39bf 1f7f 17bf
000001d0: 40ee 013f 3ed5 463c d41e 083f 7b76 10bf
000001e0: 2285 493c 546b 28bd 853d 9e3d 0f16 44bf
000001f0: 17b5 2dbe fee7 25bf 1f9f f2bf ac5e 253f
00000200: f282 d73e fe81 2b3f c4ff 4a3d 96ed 08be
00000210: 9ab6 e83e 78cd 56be 01df 11be f36f a4bf
00000220: 54f2 fd3e 5647 13bd 5850 633d daf5 193d
00000230: a43e fb3e 3a71 49bd 4fcb 61bc 06b1 e33e
00000240: 78a5 46bd fc9d 6cbf f38e 89bd 295e e4bd
00000250: e309 0e3f ab0c 083f 2882 40bf 3e5f 55bf
00000260: 3d3b 3dbf 818b 77bc e007 be3e 32ef 1dbd
00000270: 11fe 1a3b 880f 6d3d ff7b 1f3f 06b1 d23e
00000280: c697 e93e ed68 f33e f4da 1d3f 6b21 08be
00000290: eddb 3b3f 89be e83e fd54 093f 24f8 f1ba
000002a0: d56c f53e 6b75 32bf d203 e93e 4533 0e3f
000002b0: c7a7 4ebf 3af9 ee3e 6119 d93e 2a10 3f3f
000002c0: 16d0 78be ac7e 273d ddf6 143f ee03 0c3f
000002d0: 30a9 d23e 7b5d 3e3f b90b f33e c9e0 153f
000002e0: edda 12bf a2ea 21bd 2468 223f a10e ecbc
000002f0: 52cc a3bc 31d9 c7bd 822a 21bd e81e 38bd
00000300: c9a5 98be 9716 ee3e 9c7c 1bbf 76cc d7bf
00000310: 8b6b e2be 85aa 0cbe eec5 213f cca3 e2bc
00000320: a1d0 b93e 5fad 233f 07b9 113f 3978 46bd
00000330: 342e cebc af9b 12bf e76d 67bf 3025 e63e
00000340: 2e51 fc3e 89c7 c63e e6d7 32be da13 643d
00000350: 9ac5 4abf ee16 febf d212 0f3f c0c0 4ebf
00000360: 61ec f73e f6d0 10bf 9eb9 723d 260c 273f
00000370: 653a 36bf eccc f83e 1530 fb3e 91f3 213f
00000380: dff9 033f 9636 3fbe b88e d9bf ec56 6fbe
00000390: ad15 d93e 3f32 203f c564 36be 959b 0cbf
000003a0: 3b7f 48bd 79f0 373f 5ac1 4c3f bc4f 613d
000003b0: 69a1 2cbe f505 e93e 70c7 0a3f f7e4 433d
000003c0: 277e aebc e659 2f3f 65a1 003f c09e 2b3f
000003d0: bc8d 3bbf c18a eb3e 799b 8cbc e495 113f
000003e0: 2cf0 083f f866 1d3f f00d 25bf a728 1c3f
000003f0: 2b7f 023f 7299 5ebf c4e6 033f 29ac 6dbd

exp_avg f4 [256, 6]
-0.36439016 0.04892694 -6e-45 -6e-45 0.0 0.0 -6e-45 -6e-45
-6e-45 -6e-45 0.0 0.0 -6e-45 6e-45 6e-45 -6e-45
0.0 0.0 0.0213061 -0.0005725561 6e-45 6e-45 0.0 0.0
0.0 0.0 0.0 0.0 0.0 0.0 -0.20245618 0.0074184216
-6e-45 -6e-45 0.0 0.0 -0.058298316 0.0013260514 -6e-45 -6e-45
0.0 0.0 -0.097814664 0.0037900594 -6e-45 -6e-45 0.0 0.0
0.023245245 -0.00083103776 6e-45 6e-45 0.0 0.0 0.07478734 -0.0015525778
6e-45 6e-45 0.0 0.0 0.041234106 -0.0006414921 6e-45 6e-45
0.0 0.0 -0.13767146 0.023254858 -6e-45 -6e-45 0.0 0.0
0.010163502 -0.00020880162 6e-45 6e-45 0.0 0.0 6e-45 6e-45
6e-45 6e-45 0.0 0.0 0.13038073 -0.00207936 6e-45 -6e-45
0.0 0.0 0.021350095 -0.00061116024 6e-45 6e-45 0.0 0.0
-6e-45 -6e-45 -6e-45 6e-45 0.0 0.0 0.030067971 -0.0011057032
6e-45 6e-45 0.0 0.0 -6e-45 -6e-45 6e-45 6e-45
0.0 0.0 -6e-45 -6e-45 6e-45 6e-45 0.0 0.0
-6e-45 -6e-45 -6e-45 6e-45 0.0 0.0 0.012695573 -0.00024275336
6e-45 6e-45 0.0 0.0 0.028179964 -0.0005133509 6e-45 6e-45
0.0 0.0 0.027212765 -0.0008736201 6e-45 6e-45 0.0 0.0
0.034018923 -0.0012481527 6e-45 6e-45 0.0 0.0 0.04964811 0.014440521
-6e-45 -6e-45 0.0 0.0 6e-45 6e-45 -6e-45 -6e-45
0.0 0.0 -0.04274665 0.002842503 -6e-45 -6e-45 0.0 0.0
-0.27204353 0.0016711716 -6e-45 -6e-45 0.0 0.0 -0.013612422 0.004151211
6e-45 6e-45 0.0 0.0 -0.017559718 -0.00047141645 -6e-45 6e-45
0.0 0.0 -0.0096518425 -0.010984589 -6e-45 -6e-45 0.0 0.0
-6e-45 -6e-45 -6e-45 -6e-45 0.0 0.0 0.40556666 -0.014064523
-6e-45 -6e-45 0.0 0.0 0.04493821 -0.00084792945 6e-45 6e-45
0.0 0.0 -6e-45 -6e-45 6e-45 -6e-45 0.0 0.0
-6e-45 -6e-45 -6e-45 -6e-45 0.0 0.0 -6e-45 -6e-45
-6e-45 -6e-45 0.0 0.0 0.14024208 -0.05100957 -6e-45 -6e-45
0.0 0.0 -0.00818537 -0.00044253687 6e-45 6e-45 0.0 0.0
-0.029975127 0.00012965986 6e-45 6e-45 0.0 0.0 0.014078461 -0.0006421733
6e-45 6e-45 0.0 0.0 6e-45 6e-45 6e-45 -6e-45
00000000: 5991 babe 9d67 483d 0400 0080 0400 0080
00000010: 0000 0000 0000 0000 0400 0080 0400 0080
00000020: 0400 0080 0400 0080 0000 0000 0000 0000
00000030: 0400 0080 0400 0000 0400 0000 0400 0080
00000040: 0000 0000 0000 0000 218a ae3c 9717 16ba
00000050: 0400 0000 0400 0000 0000 0000 0000 0000
00000060: 0000 0000 0000 0000 0000 0000 0000 0000
00000070: 0000 0000 0000 0000 ac50 4fbe 3b16 f33b
00000080: 0400 0080 0400 0080 0000 0000 0000 0000
00000090: 37ca 6ebd e7ce ad3a 0400 0080 0400 0080
000000a0: 0000 0000 0000 0000 0e53 c8bd a562 783b
000000b0: 0400 0080 0400 0080 0000 0000 0000 0000
000000c0: d06c be3c 00da 59ba 0400 0000 0400 0000
000000d0: 0000 0000 0000 0000 1b2a 993d de7f cbba
000000e0: 0400 0000 0400 0000 0000 0000 0000 0000
000000f0: 18e5 283d ce29 28ba 0400 0000 0400 0000
00000100: 0000 0000 0000 0000 bff9 0cbe f980 be3c
00000110: 0400 0080 0400 0080 0000 0000 0000 0000
00000120: d184 263c c2f1 5ab9 0400 0000 0400 0000
00000130: 0000 0000 0000 0000 0400 0000 0400 0000
00000140: 0400 0000 0400 0000 0000 0000 0000 0000
00000150: 8782 053e df45 08bb 0400 0000 0400 0080
00000160: 0000 0000 0000 0000 65e6 ae3c 4536 20ba
00000170: 0400 0000 0400 0000 0000 0000 0000 0000
00000180: 0400 0080 0400 0080 0400 0080 0400 0000
00000190: 0000 0000 0000 0000 1b51 f63c 3eed 90ba
000001a0: 0400 0000 0400 0000 0000 0000 0000 0000
000001b0: 0400 0080 0400 0080 0400 0000 0400 0000
000001c0: 0000 0000 0000 0000 0400 0080 0400 0080
000001d0: 0400 0000 0400 0000 0000 0000 0000 0000
000001e0: 0400 0080 0400 0080 0400 0080 0400 0000
000001f0: 0000 0000 0000 0000 1801 503c 9c8b 7eb9
00000200: 0400 0000 0400 0000 0000 0000 0000 0000
00000210: abd9 e63c 6592 06ba 0400 0000 0400 0000
00000220: 0000 0000 0000 0000 4eed de3c a703 65ba
00000230: 0400 0000 0400 0000 0000 0000 0000 0000
00000240: 6d57 0b3d 0e99 a3ba 0400 0000 0400 0000
00000250: 0000 0000 0000 0000 d15b 4b3d ef97 6c3c
00000260: 0400 0080 0400 0080 0000 0000 0000 0000
00000270: 0400 0000 0400 0000 0400 0080 0400 0080
00000280: 0000 0000 0000 0000 1c17 2fbd 4949 3a3b
00000290: 0400 0080 0400 0080 0000 0000 0000 0000
000002a0: 4a49 8bbe 370b db3a 0400 0080 0400 0080
000002b0: 0000 0000 0000 0000 a306 5fbc e206 883b
000002c0: 0400 0000 0400 0000 0000 0000 0000 0000
000002d0: 66d9 8fbc 7228 f7b9 0400 0080 0400 0000
000002e0: 0000 0000 0000 0000 c322 1ebc b5f8 33bc
000002f0: 0400 0080 0400 0080 0000 0000 0000 0000
00000300: 0400 0080 0400 0080 0400 0080 0400 0080
00000310: 0000 0000 0000 0000 6fa6 cf3e e36e 66bc
00000320: 0400 0080 0400 0080 0000 0000 0000 0000
00000330: 2111 383d 9547 5eba 0400 0000 0400 0000
00000340: 0000 0000 0000 0000 0400 0080 0400 0080
00000350: 0400 0000 0400 0080 0000 0000 0000 0000
00000360: 0400 0080 0400 0080 0400 0080 0400 0080
00000370: 0000 0000 0000 0000 0400 0080 0400 0080
00000380: 0400 0080 0400 0080 0000 0000 0000 0000
00000390: 9f9b 0f3e 69ef 50bd 0400 0080 0400 0080
000003a0: 0000 0000 0000 0000 ee1b 06bc 4b04 e8b9
000003b0: 0400 0000 0400 0000 0000 0000 0000 0000
000003c0: 668e f5bc 4ef5 0739 0400 0000 0400 0000
000003d0: 0000 0000 0000 0000 58a9 663c 8557 28ba
000003e0: 0400 0000 0400 0000 0000 0000 0000 0000
000003f0: 0400 0000 0400 0000 0400 0000 0400 0080

exp_avg_sq f4 [256, 6]
6.9605417 0.080067925 7e-43 7e-43 0.0 0.0 7e-43 7e-43
7e-43 7e-43 0.0 0.0 7e-43 7e-43 7e-43 7e-43
0.0 0.0 0.07382232 0.00025228874 7e-43 7e-43 0.0 0.0
0.0 0.0 0.0 0.0 0.0 0.0 13.840956 0.037849672
7e-43 7e-43 0.0 0.0 0.624159 0.002060204 7e-43 7e-43
0.0 0.0 3.5943463 0.009483895 7e-43 7e-43 0.0 0.0
0.16104552 0.00046682055 7e-43 7e-43 0.0 0.0 0.82761693 0.0028938665
7e-43 7e-43 0.0 0.0 0.14547677 0.000642249 7e-43 7e-43
0.0 0.0 2.174804 0.0246023 7e-43 7e-43 0.0 0.0
0.004486789 2.972978e-05 7e-43 7e-43 0.0 0.0 7e-43 7e-43
7e-43 7e-43 0.0 0.0 0.495341 0.0024470354 7e-43 7e-43
0.0 0.0 0.087286994 0.0002847807 7e-43 7e-43 0.0 0.0
7e-43 7e-43 7e-43 7e-43 0.0 0.0 0.2838006 0.00078225194
7e-43 7e-43 0.0 0.0 7e-43 7e-43 7e-43 7e-43
0.0 0.0 7e-43 7e-43 7e-43 7e-43 0.0 0.0
7e-43 7e-43 7e-43 7e-43 0.0 0.0 0.0073224325 4.1465664e-05
7e-43 7e-43 0.0 0.0 0.07401955 0.00031478461 7e-43 7e-43
0.0 0.0 0.18973102 0.0005671087 7e-43 7e-43 0.0 0.0
0.39259443 0.0010885175 7e-43 7e-43 0.0 0.0 1.3738202 0.0014585723
7e-43 7e-43 0.0 0.0 7e-43 7e-43 7e-43 7e-43
0.0 0.0 1.621187 0.003574786 7e-43 7e-43 0.0 0.0
2.044263 0.0059806593 7e-43 7e-43 0.0 0.0 0.01736244 0.00012286077
7e-43 7e-43 0.0 0.0 0.042162687 4.1105828e-05 7e-43 7e-43
0.0 0.0 0.71333116 0.005099785 7e-43 7e-43 0.0 0.0
7e-43 7e-43 7e-43 7e-43 0.0 0.0 60.541756 0.1607312
7e-43 7e-43 0.0 0.0 0.23575413 0.0009287646 7e-43 7e-43
0.0 0.0 7e-43 7e-43 7e-43 7e-43 0.0 0.0
7e-43 7e-43 7e-43 7e-43 0.0 0.0 7e-43 7e-43
7e-43 7e-43 0.0 0.0 10.112989 0.044538487 7e-43 7e-43
0.0 0.0 0.025105538 2.5203042e-05 7e-43 7e-43 0.0 0.0
0.033080474 0.00022825901 7e-43 7e-43 0.0 0.0 0.057968944 0.00017985581
7e-43 7e-43 0.0 0.0 7e-43 7e-43 7e-43 7e-43
00000000: c2bc de40 a7fa a33d f401 0000 f401 0000
00000010: 0000 0000 0000 0000 f401 0000 f401 0000
00000020: f401 0000 f401 0000 0000 0000 0000 0000
00000030: f401 0000 f401 0000 f401 0000 f401 0000
00000040: 0000 0000 0000 0000 2830 973d 9f45 8439
00000050: f401 0000 f401 0000 0000 0000 0000 0000
00000060: 0000 0000 0000 0000 0000 0000 0000 0000
00000070: 0000 0000 0000 0000 8e74 5d41 4208 1b3d
00000080: f401 0000 f401 0000 0000 0000 0000 0000
00000090: e2c8 1f3f 7d04 073b f401 0000 f401 0000
000000a0: 0000 0000 0000 0000 c509 6640 5762 1b3c
000000b0: f401 0000 f401 0000 0000 0000 0000 0000
000000c0: 1ee9 243e 98bf f439 f401 0000 f401 0000
000000d0: 0000 0000 0000 0000 b4de 533f 06a7 3d3b
000000e0: f401 0000 f401 0000 0000 0000 0000 0000
000000f0: ddf7 143e 9a5c 283a f401 0000 f401 0000
00000100: 0000 0000 0000 0000 fd2f 0b40 c38a c93c
00000110: f401 0000 f401 0000 0000 0000 0000 0000
00000120: ea05 933b 3764 f937 f401 0000 f401 0000
00000130: 0000 0000 0000 0000 f401 0000 f401 0000
00000140: f401 0000 f401 0000 0000 0000 0000 0000
00000150: 569d fd3e 715e 203b f401 0000 f401 0000
00000160: 0000 0000 0000 0000 86c3 b23d 9e4e 9539
00000170: f401 0000 f401 0000 0000 0000 0000 0000
00000180: f401 0000 f401 0000 f401 0000 f401 0000
00000190: 0000 0000 0000 0000 504e 913e 0a10 4d3a
000001a0: f401 0000 f401 0000 0000 0000 0000 0000
000001b0: f401 0000 f401 0000 f401 0000 f401 0000
000001c0: 0000 0000 0000 0000 f401 0000 f401 0000
000001d0: f401 0000 f401 0000 0000 0000 0000 0000
000001e0: f401 0000 f401 0000 f401 0000 f401 0000
000001f0: 0000 0000 0000 0000 04f1 ef3b 6beb 2d38
00000200: f401 0000 f401 0000 0000 0000 0000 0000
00000210: 9097 973d ad09 a539 f401 0000 f401 0000
00000220: 0000 0000 0000 0000 d948 423e 05aa 143a
00000230: f401 0000 f401 0000 0000 0000 0000 0000
00000240: 2302 c93e 96ac 8e3a f401 0000 f401 0000
00000250: 0000 0000 0000 0000 57d9 af3f 912d bf3a
00000260: f401 0000 f401 0000 0000 0000 0000 0000
00000270: f401 0000 f401 0000 f401 0000 f401 0000
00000280: 0000 0000 0000 0000 0e83 cf3f f546 6a3b
00000290: f401 0000 f401 0000 0000 0000 0000 0000
000002a0: 34d5 0240 68f9 c33b f401 0000 f401 0000
000002b0: 0000 0000 0000 0000 ad3b 8e3c 30d4 0039
000002c0: f401 0000 f401 0000 0000 0000 0000 0000
000002d0: c8b2 2c3d 0c69 2c38 f401 0000 f401 0000
000002e0: 0000 0000 0000 0000 df9c 363f 191c a73b
000002f0: f401 0000 f401 0000 0000 0000 0000 0000
00000300: f401 0000 f401 0000 f401 0000 f401 0000
00000310: 0000 0000 0000 0000 c22a 7242 b896 243e
00000320: f401 0000 f401 0000 0000 0000 0000 0000
00000330: 8869 713e 5678 733a f401 0000 f401 0000
00000340: 0000 0000 0000 0000 f401 0000 f401 0000
00000350: f401 0000 f401 0000 0000 0000 0000 0000
00000360: f401 0000 f401 0000 f401 0000 f401 0000
00000370: 0000 0000 0000 0000 f401 0000 f401 0000
00000380: f401 0000 f401 0000 0000 0000 0000 0000
00000390: cece 2141 fd6d 363d f401 0000 f401 0000
000003a0: 0000 0000 0000 0000 21aa cd3c 1f6b d337
000003b0: f401 0000 f401 0000 0000 0000 0000 0000
000003c0: 647f 073d d058 6f39 f401 0000 f401 0000
000003d0: 0000 0000 0000 0000 d870 6d3d ad97 3c39
000003e0: f401 0000 f401 0000 0000 0000 0000 0000
000003f0: f401 0000 f401 0000 f401 0000 f401 0000

exp_avg f4 [256]
2.2011886 6e-45 6e-45 0.055657815 0.0 -0.8147856 -0.16504315 -0.41785845
0.08815145 0.18573606 0.07119691 -0.27449727 0.010217483 -6e-45 -0.35411328 0.06172689
6e-45 0.11651 6e-45 6e-45 6e-45 0.012873433 0.052151896 0.09402724
0.13812484 -0.2026552 6e-45 -0.29113713 -0.16442364 0.08099421 0.054683603 -0.27063984
6e-45 1.7150419 0.0965081 6e-45 -6e-45 -6e-45 -1.2381833 0.0414544
-0.026966337 0.05215233 6e-45 0.01905192 6e-45 0.087985575 -0.16525163 0.0639231
0.031812515 6e-45 0.049817193 6e-45 -6e-45 -0.006289958 0.13560738 -6e-45
0.0075552845 0.014598162 -0.26422527 0.6997785 0.08606986 0.06371059 -0.3991529 0.123979755
-0.055746578 0.14215083 0.06622194 6e-45 6e-45 -6e-45 -0.091316365 -6e-45
-0.13165389 -0.06325952 0.062473796 6e-45 -6e-45 0.013104519 0.36357966 1.1541268
-0.14292924 -0.5385842 0.5309982 0.07545326 -0.42583075 0.11598055 0.06581175 6e-45
-0.08082011 0.078123 -6e-45 -6e-45 -6e-45 6e-45 6e-45 0.079891846
1.3314463 0.10215484 -0.45521784 -0.038821094 0.054105658 6e-45 6e-45 0.31265116
0.117987335 0.15987326 6e-45 6e-45 6e-45 0.0026654943 -0.045395885 6e-45
-6e-45 0.04883814 -0.05322793 0.18735279 0.06454514 -0.4990078 5.4745846e-22 -0.4666559
6e-45 -0.32160637 -0.070591345 0.06472976 0.10552174 -6e-45 -0.10484716 -6e-45
6e-45 -1.0907949 0.035261117 0.083731785 0.114421636 -0.04145224 -0.21700451 -6e-45
0.32426593 0.6956304 0.041481648 -0.9763482 0.11869469 -6e-45 -6e-45 6e-45
0.012006674 -0.027665446 -6e-45 6e-45 0.0630728 0.23950411 0.052747756 0.022127165
6e-45 0.101633884 -7.599687e-05 6e-45 -0.08595948 6e-45 -0.19408844 0.07784579
-6e-45 -0.77983403 0.08724334 -0.103609644 0.31720507 -0.01949472 0.051705603 0.115091376
0.033809733 0.046268295 -0.11874214 0.09801041 0.03644957 -6e-45 0.39469048 6e-45
-0.14363277 -0.34627396 -0.8383111 6e-45 -6e-45 -6e-45 0.10032473 0.015938446
-0.51451004 0.78117555 -0.07315076 -0.12739371 6e-45 6e-45 -0.47356984 6e-45
6e-45 6e-45 0.16953617 0.27439925 6e-45 0.0019082078 -0.8395667 -0.07717147
0.0699702 -0.014321721 0.019884946 -0.15788744 6e-45 0.56783867 0.03791478 -6e-45
-6e-45 -6e-45 -0.8209108 -0.13540384 -0.5270887 0.0047005517 6e-45 -0.12839234
2.1937652 0.055670206 0.11345918 -0.170635 0.0 6e-45 0.079061605 0.2066855
1.1581916 0.10243401 0.079823434 1.7810416 0.055056058 -0.049630396 6e-45 -0.35913268
-0.1426485 0.9143352 -0.05434967 0.1714042 6e-45 0.07826098 0.049401596 -6e-45
6e-45 -0.06547937 0.10980892 0.05053127 0.05597974 -6e-45 0.001528148 0.031508975
0.68445027 -6e-45 6e-45 0.07566841 6e-45 0.06826124 6e-45 6e-45
00000000: 46e0 0c40 0400 0000 0400 0000 73f9 633d
00000010: 0000 0000 ca95 50bf 1201 29be 8bf1 d5be
00000020: bf88 b43d 9831 3e3e b0cf 913d e88a 8cbe
00000030: 3b67 273c 0400 0080 564e b5be 56d5 7c3d
00000040: 0400 0000 cb9c ee3d 0400 0000 0400 0000
00000050: 0400 0000 17eb 523c 3a9d 553d 5b91 c03d
00000060: 9970 0d3e d884 4fbe 0400 0000 ed0f 95be
00000070: ac5e 28be 4be0 a53d eafb 5f3d 4e91 8abe
00000080: 0400 0000 7e86 db3f 0aa6 c53d 0400 0000
00000090: 0400 0080 0400 0080 ca7c 9ebf 17cc 293d
000000a0: 82e8 dcbc ae9d 553d 0400 0000 c612 9c3c
000000b0: 0400 0000 c831 b43d b937 29be 1dea 823d
000000c0: d74d 023d 0400 0000 1d0d 4c3d 0400 0000
000000d0: 0400 0080 fe1b cebb a9dc 0a3e 0400 0080
000000e0: 5292 f73b 212d 6f3c 8948 87be af24 333f
000000f0: 6545 b03d b37a 823d c55d ccbe 19e9 fd3d
00000100: 8656 64bd fd8f 113e 5e9f 873d 0400 0000
00000110: 0400 0000 0400 0080 1304 bbbd 0400 0080
00000120: 47d0 06be 358e 81bd 86e4 7f3d 0400 0000
00000130: 0400 0080 56b4 563c 1d27 ba3e 6dba 933f
00000140: 0b5c 12be a7e0 09bf 7fef 073f 3d87 9a3d
00000150: 7d06 dabe 3687 ed3d 50c8 863d 0400 0000
00000160: 0485 a5bd f4fe 9f3d 0400 0080 0400 0080
00000170: 0400 0080 0400 0000 0400 0000 569e a33d
00000180: d56c aa3f 8f36 d13d 5012 e9be de02 1fbd
00000190: e59d 5d3d 0400 0000 0400 0000 d013 a03e
000001a0: 58a3 f13d d1b5 233e 0400 0000 0400 0000
000001b0: 0400 0000 93af 2e3b 09f1 39bd 0400 0000
000001c0: 0400 0080 800a 483d 8805 5abd 69d9 3f3e
000001d0: 3e30 843d f37d ffbe 8c75 251c 86ed eebe
000001e0: 0400 0000 97a9 a4be 3292 90bd 0991 843d
000001f0: c81b d83d 0400 0080 1cba d6bd 0400 0080
00000200: 0400 0000 2b9f 8bbf f66d 103d 927b ab3d
00000210: e455 ea3d d3c9 29bd 6e36 5ebe 0400 0080
00000220: 2f06 a63e d514 323f a9e8 293d f5f1 79bf
00000230: 3416 f33d 0400 0080 0400 0080 0400 0000
00000240: a4b7 443c a5a2 e2bc 0400 0080 0400 0000
00000250: 502c 813d 9140 753e 080e 583d 0744 b53c
00000260: 0400 0000 6d25 d03d 8260 9fb8 0400 0000
00000270: 860b b0bd 0400 0000 1fbf 46be 9d6d 9f3d
00000280: 0400 0080 34a3 47bf a3ac b23d 4b31 d4bd
00000290: b468 a23e 64b3 9fbc 41c9 533d 07b5 eb3d
000002a0: 137c 0a3d d383 3d3d 142f f3bd afb9 c83d
000002b0: 254c 153d 0400 0080 df14 ca3e 0400 0000
000002c0: 7814 13be d24a b1be 8e9b 56bf 0400 0000
000002d0: 0400 0080 0400 0080 0d77 cd3d 5891 823c
000002e0: eeb6 03bf 1ffb 473f 11d0 95bd 7f73 02be
000002f0: 0400 0000 0400 0000 bf77 f2be 0400 0000
00000300: 0400 0000 0400 0000 e49a 2d3e 0f7e 8c3e
00000310: 0400 0000 d41c fa3a d8ed 56bf 130c 9ebd
00000320: 894c 8f3d a7a5 6abc c1e5 a23c 3fad 21be
00000330: 0400 0000 e05d 113f 874c 1b3d 0400 0080
00000340: 0400 0080 0400 0080 3627 52bf 4ea7 0abe
00000350: 49ef 06bf 1607 9a3b 0400 0000 4879 03be
00000360: a666 0c40 7106 643d 495d e83d f1ba 2ebe
00000370: 0000 0000 0400 0000 0deb a13d 5da5 533e
00000380: 9f3f 943f ecc8 d13d 787a a33d 2cf9 e33f
00000390: 7682 613d 3e49 4bbd 0400 0000 3de0 b7be
000003a0: 7312 12be df11 6a3f c29d 5ebd 9584 2f3e
000003b0: 0400 0000 4b47 a03d 5459 4a3d 0400 0080
000003c0: 0400 0000 0c1a 86bd 80e3 e03d e1f9 4e3d
000003d0: 034b 653d 0400 0080 234c c83a 8e0f 013d
000003e0: 2238 2f3f 0400 0080 0400 0000 0af8 9a3d
000003f0: 0400 0000 8dcc 8b3d 0400 0000 0400 0000
