assets/section_1/actor_critic/mountain_car/models/episode_best/actor.pth (torch, 220054 bytes, 18 tensors)

0.weight f4 [128, 6]
00000000: dc3a cbbf f9a8 25be 665a 9c3c e85f 993e
00000010: b0b1 41bd a2bf a03d 2d3f 01c0 21ac 92be
00000020: 97a7 8a3e fab4 cfbe 759f 973d d69d 8fbe
00000030: 79ae 933d 357c a9be cc6f b1be fab8 9dbe
00000040: 10cb 583e 32a3 32be b96c 493e ec33 b3be
00000050: b7d4 353e 71da 313e 751d 253e 8152 6ebe
00000060: 668c cdbf 9596 34be 0795 95be 3cad d83d
00000070: 9ee9 853e 6444 fc3b bf02 cabf 467f dc3d
00000080: bdb1 203e 84d0 ba3e e16a c23d 1958 cdbe
00000090: 65e2 07c0 6499 91be d15e 89bd d4e6 033c
000000a0: 8957 8cbd 50c3 c03e adec 1ac0 86ee f2bd
000000b0: 102e 6bbd 3157 473e 6011 25bd 248b cebe
000000c0: b050 d3bf 191d 8e3e bd60 3cbb c72e b43e
000000d0: 786c 51be 1aca 34be a446 ffbf 0ec6 4cbe
000000e0: f2da b53e adc0 9f3e e8ef b3bd e724 3d3c
000000f0: bc5e f8bc 822f a03e 7a9a 14be 8202 c6bd
00000100: dcb0 95be 804a 66be 1e53 07c0 b1ac 96be
00000110: d596 97bd abc7 813e a4c1 913e 2f73 c83e
00000120: a9f0 cebf c3cb c8be 10f0 a4be f915 2cbe
00000130: 2ed4 853e 13b4 c93e b042 12c0 2be5 bb3e
00000140: 0327 c2be 7476 403e 27f9 943d 86e3 113d
00000150: 4f03 d1bf 2763 983e 6669 8d3e 6777 a43e
00000160: 92b5 43be 60e2 56be f8d7 cdbf 79d7 48bc
00000170: 48d5 93bd f7db ca3d be32 c93e 5679 ca3e
00000180: a1ea e1bf 030a 903d 0cee 8ebe a3c4 56bc
00000190: c9ac 4b3e a18a 9e3e a981 05c0 6c6e 8dbc
000001a0: 74eb ca3c c3cd 02be d226 7b3c 9652 303c
000001b0: 8d38 dbbf dffd 893e 7573 1c3e b658 78bc
000001c0: 103b bdbe e8da c53e dbd7 e7bf f083 b13d
000001d0: 91eb 0bbe 5bd7 be3e 32df 3cbe 232d a63e
000001e0: 54cf 43bd 9b24 b13d dfe6 66be 3b9b 393e
000001f0: 1d78 c93e 1f41 d9bd 9e55 cdbf 9d92 60bd
00000200: ea2d cdbe e7cc cd3d ddc4 45bd c6d2 debd
00000210: 7a54 aebd a16e 16bd fddc 33be 2e51 48be
00000220: 87b5 a13d 37a6 783e a111 81bd 31d5 2fbe
00000230: dead d03d 3a32 60be f52e fcbc 1bb2 c23e
00000240: 1952 ecbf bef6 a8ba 3076 12be 4450 b93d
00000250: d02e 913e a98e ca3e 8065 3bbe 0fa0 9ebe
00000260: 9dc6 2d3c 67bb f13c e942 5dbe 1daa bb3e
00000270: 33d2 c7bf ae9e 723d 3108 cfbe e406 5f3e
00000280: 9459 f0bd c7d0 8a3e a448 ebbf 997e 663e
00000290: 2eb9 a13e e44e d33d 8cf5 13be dfba b6be
000002a0: 91f0 f9bf 3733 86bd ce90 acbd 735b 96be
000002b0: c602 8bbd 0fc8 c23d ae93 cabc ea16 1b3e
000002c0: 18f9 7c3d 6c4d c43e 2324 fd3d 1b88 55be
000002d0: b30e a63e d18c b1be 3144 723e 74f7 b53d
000002e0: 1183 1e3c 231d d3bd d25c 06c0 1372 4cbe
000002f0: fd5a 903e 3f34 9abe 8026 aebe b04d ad3e
00000300: 1a59 48bd 92de 5cbe fcb3 813e cff0 92be
00000310: 6d45 773e 77c4 1d3e c49a 08c0 541c cfbe
00000320: d0cd 83be 2fd2 04bc c2b5 e9bd 471d a33e
00000330: 9996 233e 8e8a 6bbe 6e17 cd3e a616 bebe
00000340: bd25 6dbe ebb3 bfbe bed5 25bc f003 aabe
00000350: 72aa 9abe afd1 383e bc31 35be 55f4 1dbe
00000360: 9ead fabf ada0 b13e 13f8 85be 0c42 37be
00000370: f890 c83e 07ad 39be a049 04be 9b97 cbbd
00000380: 25ef e0bd aebb e8bd afa9 663e f88f c3be
00000390: 957c e4bf f48e b4be 1e83 cb3e 67b0 b23e
000003a0: b742 b0bd d5e2 9d3e a0f9 62bf f753 95bc
000003b0: 9a60 97be f8f3 553d 58ba c93e 930c a13e
000003c0: 5104 f5bf 7788 ca3e 0308 4ebe 8861 e03d
000003d0: f69a 67be b53c acbe d782 18c0 75c7 95be
000003e0: 0c75 92be 2328 903e b08e e33d 6a49 bebc
000003f0: 909a 23bf 8a27 a33e f0b6 a5be cd0b ad3e
-1.5877337 -0.16177739 0.019086074 0.29955983 -0.047288597 0.07849051 -2.019481 -0.2864695
0.27080986 -0.40567762 0.07403461 -0.28050107 0.072110124 -0.33102575 -0.34655607 -0.30805188
0.21171212 -0.17445067 0.1967038 -0.3500055 0.17756926 0.17368485 0.16124518 -0.2327366
-1.6058471 -0.17635567 -0.2921526 0.10579917 0.26154798 0.0076985825 -1.5782088 0.10766463
0.15692802 0.3648721 0.09493042 -0.40106276 -2.123193 -0.2843734 -0.06707538 0.008050639
-0.068526335 0.37649012 -2.4206955 -0.11861901 -0.057416975 0.19466855 -0.040299773 -0.4034053
-1.6508999 0.27756575 -0.0028744184 0.35191938 -0.20451534 -0.1765522 -1.9943433 -0.19997427
0.35518605 0.31201687 -0.08785993 0.011544443 -0.03031861 0.31286246 -0.14512053 -0.09668447
-0.29236495 -0.22489357 -2.114448 -0.29428628 -0.07401816 0.25347647 0.2846805 0.39150378
-1.6167194 -0.39217958 -0.32214403 -0.16805257 0.26138443 0.39395198 -2.2853203 0.3669828
-0.3792039 0.18795186 0.072740845 0.035617374 -1.6329135 0.29763147 0.27619475 0.32122347
-0.19112232 -0.20984793 -1.6081533 -0.012258404 -0.072184145 0.09905236 0.39296526 0.39545697
-1.7649728 0.070331596 -0.2791599 -0.013108405 0.19890131 0.3096514 -2.0860388 -0.017264567
0.024770476 -0.12773804 0.01532908 0.0107618775 -1.7126633 0.269515 0.15278418 -0.015157869
-0.36959124 0.38643575 -1.8112749 0.08667743 -0.1366408 0.37273678 -0.18444517 0.32456312
-0.047805145 0.0864956 -0.22549008 0.18125622 0.39349452 -0.10608124 -1.6041753 -0.05482732
-0.40074092 0.10048848 -0.048283447 -0.108800456 -0.085122064 -0.036726598 -0.17564769 -0.19562218
0.07895952 0.24282156 -0.063021906 -0.1717117 0.101894125 -0.2189416 -0.03078411 0.3802651
-1.8462554 -0.0012890918 -0.14302897 0.090485126 0.28356028 0.39561966 -0.18300438 -0.3098149
0.010606435 0.029508306 -0.21607555 0.36653224 -1.5611023 0.05923336 -0.40435937 0.21779972
-0.11735836 0.2711241 -1.8381543 0.2250923 0.31586593 0.103177816 -0.14449137 -0.35689446
-1.952654 -0.06552737 -0.08426057 -0.29366645 -0.06787638 0.095108144 -0.024728622 0.1514546
0.06176099 0.38340318 0.12360408 -0.20852701 0.3243309 -0.34677747 0.23658825 0.088850886
0.009674803 -0.10308292 -2.0994153 -0.19965391 0.2819442 -0.30117986 -0.34013748 0.33848333
-0.0489131 -0.21569279 0.2533263 -0.28699347 0.24147578 0.15406977 -2.1344461 -0.404513
-0.2574296 -0.008106752 -0.11411621 0.31858274 0.15975417 -0.23002073 0.40056938 -0.37126654
-0.23158927 -0.37441954 -0.010121761 -0.3320613 -0.30208164 0.18048738 -0.17694753 -0.15425237
-1.9584234 0.34692898 -0.26165828 -0.17896289 0.39173102 -0.18132411 -0.1291871 -0.09941026
-0.10983113 -0.11363922 0.22525667 -0.38195777 -1.785052 -0.35265315 0.39748472 0.3490021
-0.08606475 0.30837122 -0.8866215 -0.018228514 -0.2956589 0.05223462 0.39399981 0.31454906
-1.9141942 0.3955724 -0.20120244 0.109561026 -0.22617707 -0.33640066 -2.3829858 -0.29253736
-0.28604925 0.28155622 0.111112 -0.023228366 -0.6390772 0.31866103 -0.32366133 0.33798066

0.bias f4 [128]
00000000: 357e 0940 2046 0d40 0e19 83be 5c5b 3fbe
00000010: aaad 1340 3dee 1540 cfe3 0140 70cc f53f
00000020: 35f7 1740 3119 1440 6113 a0bd 9931 0b40
00000030: 66f7 1240 29e5 f73f a399 1740 bea2 1040
00000040: 2d7e 1a40 e853 0040 11ef 1340 2cb0 1540
00000050: 31c5 22be 4705 1640 6d30 fabd b419 acbe
00000060: 2f9c 0740 6da6 bfbe 0f80 1940 e068 0f40
00000070: eac0 0c40 bea0 90be df9d 62be 7fdd 0640
00000080: 4dd9 b1be d4bf 0b40 fc54 67be f744 9cbd
00000090: efd0 0f40 c45e 49be ed37 0f40 6651 d03f
000000a0: 62f3 1840 3a53 fb3f bea2 a63f 2fdc 1440
000000b0: d087 9ebe 8107 1440 da60 1340 3bf1 fb3f
000000c0: 0832 1240 b4d2 f73f ec5d 1040 d8d3 5fbe
000000d0: 2fb6 1640 d357 fd3f f396 45be 8e6f 0d40
000000e0: 07ff 0b40 5a80 1440 1102 a5be 9bfe bcbe
000000f0: 73ac d6bc 9b8c 1340 a9cc 0740 866e 0840
00000100: ef70 1540 5531 1140 4e97 1240 706e 0c40
00000110: 740a 0e40 c2e5 71bc 7d4a 1340 ff44 9d3f
00000120: 7397 1440 bc24 1140 207c 1abe 6677 1440
00000130: 9109 0640 00b6 0240 5b43 f63f d278 1440
00000140: ad2c 1240 995b 2fbe aefb 1740 80c1 1340
00000150: 7c04 0940 2e0f 9abe 60fb c33f 8cc8 1440
00000160: d4af f33f e6b8 1b40 0d7e 50be c8a6 1140
00000170: 929d 1440 0292 1740 458e 0b40 4160 1a40
00000180: 7b57 fb3f d6d4 72be cf22 0340 c809 0abe
00000190: 243f 0040 c628 1540 d58a 0c40 5a40 1440
000001a0: 1b77 f7bd 4513 b2be f061 b3be b89b 1640
000001b0: 8a2a 1140 4aba 76be 3700 0340 8100 0740
000001c0: d01a f83f f1e2 0a40 b006 1640 5e60 1540
000001d0: 8c33 d0be 24e9 55be 032d fa3f eed7 0e40
000001e0: 3f5a 0d40 ee4d 0740 3ef3 0b40 01dd babe
000001f0: e16e 1140 ba92 f83f 5444 1540 e253 0d40
2.148328 2.207405 -0.25605053 -0.18687195 2.3074746 2.342666 2.0295293 1.9203014
2.3744633 2.3140376 -0.07816196 2.1749022 2.29635 1.9366809 2.3687522 2.259933
2.4139512 2.0051212 2.3114665 2.3388777 -0.15895535 2.344072 -0.12216268 -0.3361336
2.1189077 -0.3743166 2.398441 2.240776 2.1992745 -0.28247637 -0.22130536 2.107269
-0.347361 2.1835833 -0.22591013 -0.076303415 2.2471273 -0.19665056 2.2377884 1.6274841
2.389855 1.9634774 1.3018415 2.325939 -0.30962992 2.312958 2.3027864 1.9682993
2.2843037 1.9361176 2.2557325 -0.21858156 2.3548696 1.9792427 -0.19295864 2.2099338
2.1874406 2.320334 -0.3222814 -0.36913 -0.026205277 2.3054569 2.1218665 2.1317458
2.335018 2.268636 2.290485 2.1942406 2.219388 -0.014764251 2.3014214 1.2286681
2.3217437 2.267867 -0.15086412 2.3197875 2.094334 2.0423584 1.9239305 2.3198743
2.2839768 -0.17124785 2.3747363 2.3086853 2.1408987 -0.30089706 1.5311089 2.3247404
1.9038033 2.4331603 -0.20360585 2.2758045 2.3221173 2.3682866 2.1805584 2.4121249
1.9636072 -0.23714003 2.0489995 -0.13480294 2.0038538 2.3306136 2.1959736 2.3164277
-0.120832644 -0.34780326 -0.35035658 2.3532543 2.2682214 -0.24094501 2.046888 2.1094058
1.9383183 2.1701014 2.3441582 2.3340068 -0.40664327 -0.20889717 1.9544986 2.2319293
2.2086332 2.1141315 2.1867213 -0.36496738 2.2723925 1.9419777 2.3322954 2.2082448

2.weight f4 [128, 128]
00000000: ff4e 70bc 72f4 2bbc d9e4 bbbb fdd8 96bd
00000010: d095 8f3d fd42 84bd 4e43 89bd 4372 5dbd
00000020: 2915 87bd 852b c4bb bbd0 13bc 2716 0fbd
00000030: b2c0 843d 3f56 c13c 3cc4 3b3b e662 2c3d
00000040: e632 d1bc 26b5 2b3d 7e16 ad3a aa37 543d
00000050: a033 b43c 3352 35bd d66d faba 7c2a 6dbb
00000060: a562 3fbd 1b6d 4a3d 7f25 ad3c d5b4 96bd
00000070: bf16 943d cfcb aabd 70f4 a63d 3740 a43c
00000080: 95a4 2a3d 8652 83bd 6675 14bb f6db 66bd
00000090: 07a6 953c 5ddd 643c 710a 903d bd9e 473d
000000a0: eff1 213c d78a 9bbc 8fe1 9dbd bb3e 9cbc
000000b0: 055f 04bd fa13 813d 844d df3b d47f 88bd
000000c0: cbd3 86bd 6172 08bd a9dd ebbc dabf ad3d
000000d0: a14a a73c 158d 9dbc 1b3c 7abd d5fe 553d
000000e0: eea2 96bc a33f 803d 8523 6ebd 74e8 6bbd
000000f0: a0c5 74bd 7118 b0bb 1e1a aabd 4326 aa3c
00000100: d5f5 3d3d 0e9f 37bd 28b9 9f3a 2d46 14bd
00000110: e2c9 43bd 5f20 613d 78b6 a6bd 1120 7ebd
00000120: c874 533c e87c 67bd b2bd 6dbc 46f8 f6bb
00000130: f919 96bd 8688 9abd d5b8 e53b 781f 86bc
00000140: c75f 2b3d 57d1 aa3b b4a3 a6bd f24f 4a3d
00000150: 4d6b 93bd 1582 e0bb c8d9 acbd 9911 273d
00000160: a7ef b13d 0972 43bd 8de4 63ba 73dc acbd
00000170: 6095 b53c b45c da3c d8ec a33d 4284 5ebc
00000180: 4918 0b3d b182 9dbd dd97 953c 3730 983c
00000190: 6aff f13c a571 993d ada6 943c e156 693d
000001a0: 63ea 5c3d 7c90 283d 62b6 8cbd a505 35bd
000001b0: 4b1b 3f3d 922b 95bd aea3 b4bc 64f6 eabb
000001c0: 1d80 473c 9d74 813d 1ba6 dfbc fe84 263c
000001d0: 3a34 91bc 0505 2a3d 91c4 913d 3319 55bd
000001e0: 4d34 313c 67e1 3fbd cc23 a8bc 07a6 24bd
000001f0: edcd aa3d 9d26 2dbd 51f5 32bc 4be0 d93c
00000200: de0c 05bd 3c11 90bd cac2 543d e67c b1bd
00000210: bd15 a9bc 038d eebc e310 6fbd 1126 fe3c
00000220: affc 54bd 7d8f 04bd a4d1 273c f6e3 513d
00000230: 35a7 2d3d 8211 643d 3073 773d c913 923d
00000240: 90f7 a9bd 92fd e63c 9f2c 9bbd 007d 94bb
00000250: 22cf e4bc addf aa3d a5ed 96bd aca0 6b3c
00000260: dcff 80bd 404a c13c e291 183c ddb3 3f3b
00000270: c91b abbd 0a99 a4bd e6f9 63bc c217 aa3d
00000280: 01f3 5a3d 2a96 583d fc60 5bbd 4f2f 8bbd
00000290: 1df8 c43c ca8e 95bd 10bb 073d 0a94 4cbc
000002a0: 52fc a13c a836 a63c 1bee 85bd d9b4 9ebd
000002b0: 4df1 b9bc e97d f43a 6681 8dbd 1ae4 983d
000002c0: c8f2 203d 6894 adbd 963a 38bd 63bf 543d
000002d0: a19d 9a3b d7a6 fb3c 17ef 22bd 6197 8abd
000002e0: d3c0 dabb 0fe4 1f3d af4f a2bd dd15 9cbd
000002f0: c59b 12bd 7e4c aabd 676a 643d c3d5 e4bc
00000300: 13cc eabc 9438 373d 13f7 a9bd 7b1d 1b3d
00000310: 6ecd a13b c734 a03d 77d3 98bc 9f7d 92bd
00000320: 5605 0bbd 46ed 253d 4348 0ebc 3ef1 83bd
00000330: 6027 81bd 8417 da3c 1f9d 5d3c 6a4d 59bc
00000340: 86b2 263d 0438 a03d 665f a3bc 71d5 5ebd
00000350: d195 42bd efd9 abbd 7ed7 a6bd bb75 be3c
00000360: d28a cd3c 6108 ac3b 7d39 883c d68e 353c
00000370: 721b 4abd b97a 3a3c 030b 3abd 7478 813d
00000380: 2ac4 2b3d bcd5 3b3b 5752 323d 8f60 b2bd
00000390: 13ee e3bc a00d 87bd f07e 69bd ccd1 18bd
000003a0: 4d9a d3bb e2b5 63b9 4880 073d 55d3 f93c
000003b0: a583 20bd e347 75bd ecc8 58bc 2c09 3fbd
000003c0: 407a 2fbd f2c1 85bd cacb c03c 0db1 16bd
000003d0: 9fc6 7a3d 6c26 493d 7083 b4bc 599d 9e3d
000003e0: 8ee1 6e3d a966 fd3c 5f18 333d 4806 9c3d
000003f0: 67fb 21bd 5ccd 9f3d b896 60bc 2f06 79bc
-0.014667272 -0.010495292 -0.005734068 -0.07365606 0.07010996 -0.064580895 -0.067022905 -0.054064047
-0.06595833 -0.0059866332 -0.009021933 -0.034933235 0.06482066 0.023600696 0.00286509 0.042086504
-0.025536966 0.041920803 0.0013205556 0.051810898 0.021997273 -0.044267844 -0.001910622 -0.0036188653
-0.046724934 0.049420457 0.021136044 -0.0735871 0.07230901 -0.08339655 0.081520915 0.020050151
0.041660864 -0.064122245 -0.0022652983 -0.056362115 0.018267645 0.013968793 0.070332415 0.04873537
0.009884342 -0.018987102 -0.077090375 -0.019072881 -0.03231718 0.06302638 0.0068146605 -0.06665006
-0.06583365 -0.033312205 -0.02879222 0.084838584 0.020421328 -0.019232312 -0.061092477 0.05224498
-0.018388238 0.06262138 -0.058139343 -0.05759473 -0.059758782 -0.0053740074 -0.08305763 0.020770198
0.04637702 -0.04482942 0.0012185918 -0.036199737 -0.047799952 0.054962512 -0.08140272 -0.0620423
0.012906261 -0.056515604 -0.014510559 -0.0075369207 -0.07329173 -0.07545571 0.007010559 -0.016372427
0.041839387 0.0052129435 -0.08136693 0.049392648 -0.071982004 -0.0068514445 -0.08439976 0.040788267
0.08688288 -0.047716174 -0.00086934195 -0.08440485 0.022165954 0.026655532 0.08004159 -0.013581337
0.033958707 -0.07690943 0.01826089 0.018577678 0.029540736 0.07492379 0.018145883 0.05696762
0.053934466 0.041153416 -0.06870724 -0.044194836 0.046656888 -0.07283701 -0.022050705 -0.0071704853
0.012176541 0.0632107 -0.027300885 0.010163544 -0.017725099 0.041508693 0.0711757 -0.052025985
0.010815692 -0.04684582 -0.020524882 -0.0401974 0.083400585 -0.042273153 -0.010922746 0.026596209
-0.032482974 -0.07034537 0.051943578 -0.086664006 -0.020640248 -0.029119974 -0.058365714 0.03102401
-0.05199879 -0.032363404 0.010242853 0.05124279 0.04239579 0.05568076 0.060412586 0.0713268
-0.08299172 0.028197084 -0.0757687 -0.0045315027 -0.0279308 0.08343444 -0.07369546 0.014381569
-0.06298801 0.023594975 0.009312125 0.0029251494 -0.08354909 -0.080370024 -0.013914561 0.08305313
0.053454403 0.052877583 -0.05355929 -0.06796133 0.02404409 -0.073026255 0.03313738 -0.012486467
0.019773636 0.020289734 -0.06539556 -0.07749338 -0.022698069 0.0018653247 -0.069094464 0.07465382
0.039294034 -0.08475572 -0.044977747 0.051940333 0.004718498 0.030719204 -0.039778795 -0.067671545
-0.0066758185 0.039035853 -0.07925355 -0.076213576 -0.035793085 -0.08315371 0.055765536 -0.02793396
-0.028661763 0.04473169 -0.08299079 0.03786991 0.004937819 0.078225665 -0.018655522 -0.071528666
-0.033940636 0.040509485 -0.008684221 -0.06442498 -0.06306338 0.026622541 0.01352623 -0.013263086
0.040697597 0.07823184 -0.01994295 -0.054402772 -0.047506157 -0.08391177 -0.081465706 0.023249498
0.025090609 0.0052500223 0.016628975 0.011081418 -0.04934258 0.011381798 -0.045420658 0.06321803
0.041935124 0.002866133 0.043535557 -0.08709823 -0.027823484 -0.06594396 -0.057005823 -0.037309453
-0.006457603 -0.00021716164 0.033081323 0.030496279 -0.039188046 -0.05988301 -0.013231497 -0.046639606
-0.042841196 -0.06531133 0.023534674 -0.036789943 0.061224576 0.049108908 -0.02203533 0.077448554
0.058320574 0.030932741 0.043724414 0.076183856 -0.039546397 0.07802841 -0.013707809 -0.015199228

2.bias f4 [128]
00000000: 92bc c33c 7d57 cdbc bba7 99bc bac6 073f
00000010: 9373 6abd 209b 2c3f a171 253f 409a 083f
00000020: fa20 133f 766d febb 4033 ae3d 0ab8 c53c
00000030: ad94 0ebc e684 343d d410 133d c85e 443f
00000040: 4a11 163f 020c 1ebd 79df 8bbd 7e9f a13d
00000050: e8a7 993f cbe3 363d b944 d13c 111d adbd
00000060: c19d 86bc f4dc 4e3f 7b50 523c bdcc 6abd
00000070: 69bf 4f3d 9f69 503f 465a b63c f289 3d3f
00000080: 9653 913d 59ad d53f d128 413f 263d 7a3c
00000090: 2326 1d3d 039b 2d3f 8a4c 973f 511e b33f
000000a0: 5785 f3bc 61b4 153f c4da 243f 9d10 9bbd
000000b0: 4d8d 123f 0e4d 5cbd cca8 18bd 0659 dd3f
000000c0: 79ed 993f fcdc 883d fe5a a63f ab50 613d
000000d0: 5586 d73f 57c1 0dbd ef66 debc 0219 873f
000000e0: c294 063f 288f 823f 02e9 f53c c960 cebc
000000f0: 725a 3bbd 3a6f b23f cfbd 10bb db3c 383f
00000100: 17f6 7a3f 1a74 6b3f afae 90bd fb22 a6bd
00000110: 46e3 f83c ecbf 293f 58b8 363f 9ab0 2ebd
00000120: 2c4e 823d 3109 573c 7213 483d 4006 8b3f
00000130: 0eec 65bd 5081 9c3c 6bf7 103f 666b 7bbd
00000140: 5d41 4ebd 8d23 183d 07d6 e4ba 03f0 d43b
00000150: a543 383c de6b 0db6 3842 aebb 63d8 8f3d
00000160: 3411 6a3f c960 fa3e cf0a 333d 61f7 613f
00000170: 6622 093f 6b11 5c3d a40a 533e 126f 04bd
00000180: ac18 823c 9507 613d fcbe 853d 6cc8 e53f
00000190: 70a7 c33c d375 983d 11c5 09bd d151 e1bc
000001a0: 2760 0d3f bc1f 563d a3c9 9abd f019 823f
000001b0: 3f98 3c3f 9127 56bd 8f83 443f ecf6 2a3c
000001c0: 207c 73bc 24ca 163f 64a9 033f 44c7 103f
000001d0: cdd9 443f 811b a9bd 2145 c43f ca51 f63e
000001e0: a2f5 433f bd96 2f3f 6f37 d8bc d56a 6d3b
000001f0: 39cc 443f c7a5 38bc 3fb6 9fbd e63b 583c
0.023893628 -0.025066132 -0.018756738 0.5303761 -0.057239126 0.674242 0.6462651 0.53360367
0.57472193 -0.0077645136 0.08505869 0.024135608 -0.008702439 0.044072054 0.03590472 0.76707125
0.5862013 -0.03858567 -0.068297334 0.07891749 1.2004366 0.044650834 0.025545465 -0.084528096
-0.016432645 0.808059 0.012836571 -0.05732416 0.050719652 0.81411165 0.022259843 0.7403861
0.07096021 1.6693527 0.75452906 0.015273368 0.038366448 0.67814654 1.1820233 1.3993627
-0.029726667 0.5847836 0.6439631 -0.07571528 0.5724686 -0.053784423 -0.037270352 1.7292793
1.2025596 0.066827744 1.2996519 0.05500857 1.683787 -0.03460821 -0.027148692 1.0554507
0.52570736 1.0199938 0.030018333 -0.025192635 -0.045740552 1.3940194 -0.002208579 0.7196786
0.98031753 0.9197403 -0.07064568 -0.08112141 0.03038181 0.66308475 0.71375036 -0.04264889
0.06362566 0.01312475 0.04884667 1.0861282 -0.056133322 0.01910463 0.5662753 -0.06138172
-0.050355304 0.03714328 -0.0017458805 0.006498338 0.011246596 -2.1073424e-06 -0.0053179525 0.07023694
0.914325 0.48901966 0.04371148 0.88268095 0.5356811 0.05372755 0.20609528 -0.032332487
0.015880905 0.05493887 0.06530568 1.7951789 0.023883551 0.07444348 -0.033635203 -0.027504833
0.5522484 0.052276358 -0.075579904 1.0164165 0.7366981 -0.052283827 0.7676324 0.010434847
-0.014861137 0.5890219 0.51430345 0.56554055 0.7689484 -0.08257199 1.5333596 0.48109275
0.7654668 0.68589383 -0.02639362 0.0036227007 0.7687412 -0.011269993 -0.077984326 0.013197875

4.weight f4 [3, 128]
00000000: f383 88bd e8cc 87ba e94a 973d 37bc 82bd
00000010: 819d 8fbd 5736 a1bd adfe 59bd 2556 323d
00000020: a993 0abd 1749 aabd 8ce3 80bd 1bc1 95bd
00000030: 9c4d eb3c 4a79 223d 1053 11bd 9822 063b
00000040: 648a 71bd 5397 87bd 760f 063d 4987 83bd
00000050: 46f3 343d 76f7 a1bc 9de9 463d 6979 14bd
00000060: 5cb6 ae3c 122b 07bd ffef 78ba be6c bd3c
00000070: 80f0 983c ad62 3dbd 639a 803d e33b 42bd
00000080: 2382 1d3d 54c1 5fbd 413c 9dbd 44ca 25bd
00000090: b9c3 0e3d 90fe b13d f517 223d 34cc 48bc
000000a0: b54b 58bd 3b17 1f3c 291b 65bd ebbb 4cbb
000000b0: f1a7 a43d b5f5 13bd 4a0b 533d 9980 8c3d
000000c0: edaf 44bc 9be8 35bc 75c5 72bd 7683 603c
000000d0: a1bf 0cbd ea9b 623d eaf3 8bbd dc16 913c
000000e0: 674b 9dbc 5cde d1bc 0eb0 a3bc 7e69 28bc
000000f0: 83c5 9dbd 2d93 65bd e587 1e3d e07e e53c
00000100: d3d8 d33c f67e 12bc 827f ea3c 32fc d6bc
00000110: 45fe 07bd c1e2 133d f2e8 a1bd fed0 20bd
00000120: 09a7 09bd 5b19 91bc 7f21 833c 36c8 e9bc
00000130: 9998 b3bd d468 f6bc 8623 543d c733 debc
00000140: d7f7 89bd f9ed 1bbd 2493 403d d609 a7bd
00000150: b0f1 6bbd 8007 2dbd eebe b7bc f732 4bbd
00000160: 2094 733d 4a92 3ebd a67f acbd 695e 2dbc
00000170: a631 7a3d 4232 31bd 8ca5 053c eead 693c
00000180: 4fba 8d3d 016d 27bd 11f4 a13d 8e40 973d
00000190: 6f2c 27bd 7b61 7f3d 84a6 bc3c fb9d abbd
000001a0: 2fc2 693c f09b b23d 2df0 aabd 53ac f3bb
000001b0: 4736 893d 8961 aebc 1956 bd3d 205a 0abd
000001c0: 9772 8e3d 6174 023d 5e60 e2bc 820a d5bc
000001d0: 45fe c03d c856 27bd 9329 5c3d 815a 29bc
000001e0: c4f5 97bd da60 94bd e730 5cbd 9f5d a1bb
000001f0: 889e 8d3b f496 1ebd 99f0 253d 4fb3 d03b
00000200: 1503 74bd 371f 3f3d 4632 47bd a1e9 f83f
00000210: 891b 58bd 13d0 0540 584c 0340 940d fc3f
00000220: 3dd9 f53f 04b4 c0ba 44bd 603d ab97 6ebd
00000230: 201d 8bbd 4745 98bd dd46 973d 999b ff3f
00000240: 512c 0140 cdc6 9fbd 2a1c 0dbd 70cb a4bc
00000250: 39cb 0d40 1be4 f03b 45f6 34bd 860c aabd
00000260: 0bb9 93bc 54c1 fe3f a52d 8abd def5 ed3b
00000270: 176c 02bd 38dc 0740 1713 a4bd 5e55 fe3f
00000280: d9b8 2cbd b003 0e40 3861 0640 5eec 60bc
00000290: 9d99 50bd e3e6 0440 c7b1 0240 f44f 0940
000002a0: 9f12 86bd 09f5 f63f 8ba8 0140 aaa1 90bd
000002b0: ae09 fe3f e828 d3bc 5f0f 32bd 8d52 0c40
000002c0: f2b9 0740 bf43 fbbc b0c1 cb3f 58c0 fdbc
000002d0: d553 1040 e383 78bd 34e7 d63c 73f9 0c40
000002e0: f07d f63f a54c 0340 7038 4a3c 1be6 c8bc
000002f0: e9ff c5bc e6f6 0840 33f0 3f3d 301f f93f
00000300: 3654 f43f c97e f83f 2c2d 4bbd 6ab5 03bd
00000310: 5c39 81bd 8463 fb3f b7fd 0a40 fb6c a9bc
00000320: f4f6 6dbd a696 15bc d319 83bd 8e6a 0240
00000330: 5e1a 493c 5aba 85bd 39d0 fa3f 7b97 9cbd
00000340: fbe4 393d 5a3e 27bc f018 7cbd b30d adbd
00000350: c88f 0cbd 8c83 6bbd ba7a 503d 6933 83bd
00000360: e417 0740 3d23 0040 8be6 adbd 5197 f43f
00000370: c798 0040 9706 9fbd ff8f b33e 8c85 85bd
00000380: 31e1 85bc a913 9ebd 6651 e03c 88dc 0f40
00000390: 06d2 ccba d5e5 0fbc 4c28 a7bc cdda 5cbc
000003a0: bdf6 fa3f 13fe 93bd 41cc 52bd 2470 0740
000003b0: d7f5 0340 7ee2 82bd 536b 1340 6422 8abd
000003c0: b76f 96bd 1397 f83f 3f18 fb3f 6dc3 fa3f
000003d0: 0283 1440 b2da fbbb 63e9 e73f 8521 f83f
000003e0: cf90 0840 6262 0740 25b5 4dbb 232c ab3d
000003f0: 0629 ec3f cdc4 5abb 8b74 3dbd bbeb 18bc
-0.06665792 -0.001036075 0.07387335 -0.063835554 -0.07012463 -0.07871693 -0.053221393 0.043539185
-0.033832226 -0.08314722 -0.06293401 -0.073122226 0.02872353 0.03966645 -0.035479605 0.0020467397
-0.05896987 -0.0662066 0.03272959 -0.06422288 0.044177316 -0.019771319 0.048562635 -0.0362486
0.02132719 -0.03300006 -0.00094962114 0.023123141 0.018669367 -0.046236683 0.06279447 -0.047420394
0.038454186 -0.05462773 -0.07677508 -0.0404761 0.034854624 0.08691132 0.03957363 -0.012255717
-0.052806575 0.009710128 -0.055934105 -0.0031239938 0.08039845 -0.036122996 0.051524438 0.068604656
-0.012004835 -0.011102821 -0.05927034 0.013703218 -0.03436244 0.055324472 -0.06833632 0.017711096
-0.019200994 -0.025618725 -0.01998141 -0.010279058 -0.07703688 -0.05604856 0.038703818 0.0280146
0.025860226 -0.008941403 0.028625254 -0.026243303 -0.033201475 0.03610492 -0.07905759 -0.03926181
-0.033606563 -0.017712286 0.016007183 -0.02853785 -0.0876934 -0.030079283 0.05179169 -0.027124299
-0.06736725 -0.038068745 0.047015324 -0.08156173 -0.057603538 -0.04224348 -0.02242991 -0.04960915
0.059467435 -0.04652623 -0.084227845 -0.010581591 0.061082505 -0.04326082 0.008157145 0.0142626595
0.06920301 -0.04087544 0.0790788 0.0738536 -0.04081386 0.062348824 0.02302862 -0.08379742
0.014267488 0.08721149 -0.08346591 -0.007436314 0.06699806 -0.021286743 0.092449374 -0.033777356
0.0695545 0.03184927 -0.027633842 -0.026005987 0.09423498 -0.040854245 0.053750586 -0.010336519
-0.07419923 -0.072450355 -0.053757574 -0.0049244906 0.004321877 -0.03871818 0.040512655 0.0063690315
-0.05957325 0.04666063 -0.04863193 1.9446298 -0.052760635 2.0908248 2.0515347 1.9691644
1.9206921 -0.0014702086 0.054867998 -0.05825011 -0.067926645 -0.074350886 0.07386563 1.996936
2.0183299 -0.0780159 -0.034450687 -0.020116538 2.2155287 0.007351411 -0.044180173 -0.0830317
-0.018032571 1.9902749 -0.06746987 0.0072619757 -0.031841364 2.122816 -0.080114536 1.9869802
-0.042168472 2.218975 2.0996838 -0.013728229 -0.050927747 2.0765922 2.0421007 2.145505
-0.065465204 1.9293529 2.025912 -0.07062085 1.9846704 -0.025776342 -0.04347169 2.1925385
2.1207242 -0.030671952 1.5918484 -0.030975506 2.2551167 -0.060672652 0.026233293 2.2027252
1.9257183 2.051553 0.012342557 -0.024523785 -0.024169879 2.1400695 0.04685993 1.9462643
1.9088199 1.9413692 -0.049603626 -0.03215543 -0.063097686 1.9639745 2.1717355 -0.020681849
-0.05809684 -0.009130156 -0.0640141 2.0377536 0.012274353 -0.06529684 1.9594795 -0.0764608
0.04538439 -0.010207737 -0.06154722 -0.084498785 -0.034316808 -0.0574985 0.05089829 -0.0640629
2.1108332 2.0021508 -0.08491238 1.9108678 2.0093248 -0.07764929 0.35070798 -0.06519613
-0.016342731 -0.077185936 0.027382564 2.2478352 -0.0015626557 -0.008782824 -0.020404957 -0.013479901
1.9606549 -0.07226195 -0.051464323 2.1162195 2.0618799 -0.06390856 2.3034256 -0.06744841
-0.07345527 1.9421104 1.9616774 1.9590889 2.320496 -0.0076859826 1.8118099 1.9385229
2.1338384 2.1153798 -0.0031388488 0.08358028 1.8450019 -0.0033381463 -0.046253722 -0.009333546

4.bias f4 [3]
00000000: 76b2 50bc 68e3 663d 7240 8ebd
-0.012737861 0.056369215 -0.06945886

exp_avg f4 [128, 6]
00000000: 244e 263d 3aff cd3a 0000 0000 0000 0000
00000010: 0000 0000 0000 0000 e593 f73c 5455 993a
00000020: 0000 0000 0000 0000 0000 0000 0000 0000
00000030: 0000 0000 0000 0000 0000 0000 0000 0000
00000040: 0000 0000 0000 0000 0000 0000 0000 0000
00000050: 0000 0000 0000 0000 0000 0000 0000 0000
00000060: 9940 303d 7151 da3a 0000 0000 0000 0000
00000070: 0000 0000 0000 0000 f9e0 073d 0a4f a83a
00000080: 0000 0000 0000 0000 0000 0000 0000 0000
00000090: 1eab 093d 8786 aa3a 0000 0000 0000 0000
000000a0: 0000 0000 0000 0000 ec16 353d 524f e03a
000000b0: 0000 0000 0000 0000 0000 0000 0000 0000
000000c0: 9563 f63c db98 983a 0000 0000 0000 0000
000000d0: 0000 0000 0000 0000 2a27 f93c 164f 9a3a
000000e0: 0000 0000 0000 0000 0000 0000 0000 0000
000000f0: 0000 0000 0000 0000 0000 0000 0000 0000
00000100: 0000 0000 0000 0000 3a45 fe3c 757a 9d3a
00000110: 0000 0000 0000 0000 0000 0000 0000 0000
00000120: 1c00 003d cf8c 9e3a 0000 0000 0000 0000
00000130: 0000 0000 0000 0000 804b 2f3d da21 d93a
00000140: 0000 0000 0000 0000 0000 0000 0000 0000
00000150: e4c4 083d 5a69 a93a 0000 0000 0000 0000
00000160: 0000 0000 0000 0000 8f96 133d 0cd0 b63a
00000170: 0000 0000 0000 0000 0000 0000 0000 0000
00000180: 471c f63c b26c 983a 0000 0000 0000 0000
00000190: 0000 0000 0000 0000 61e7 1a3d dbdf bf3a
000001a0: 0000 0000 0000 0000 0000 0000 0000 0000
000001b0: 320d 073d b848 a73a 0000 0000 0000 0000
000001c0: 0000 0000 0000 0000 deb3 093d 5c91 aa3a
000001d0: 0000 0000 0000 0000 0000 0000 0000 0000
000001e0: 0000 0000 0000 0000 0000 0000 0000 0000
000001f0: 0000 0000 0000 0000 e53a 033d ed8c a23a
00000200: 0000 0000 0000 0000 0000 0000 0000 0000
00000210: 0400 0080 0400 0080 0000 0000 0000 0000
00000220: 0000 0000 0000 0000 0000 0000 0000 0000
00000230: 0000 0000 0000 0000 0000 0000 0000 0000
00000240: 6bb4 093d 0d92 aa3a 0000 0000 0000 0000
00000250: 0000 0000 0000 0000 0000 0000 0000 0000
00000260: 0000 0000 0000 0000 0000 0000 0000 0000
00000270: 041f 003d 18b3 9e3a 0000 0000 0000 0000
00000280: 0000 0000 0000 0000 48d3 023d 950c a23a
00000290: 0000 0000 0000 0000 0000 0000 0000 0000
000002a0: 1415 093d adcc a93a 0000 0000 0000 0000
000002b0: 0000 0000 0000 0000 0000 0000 0000 0000
000002c0: 0000 0000 0000 0000 0000 0000 0000 0000
000002d0: 0000 0000 0000 0000 0000 0000 0000 0000
000002e0: 0000 0000 0000 0000 e203 033d c948 a23a
000002f0: 0000 0000 0000 0000 0000 0000 0000 0000
00000300: 0000 0000 0000 0000 0000 0000 0000 0000
00000310: 0000 0000 0000 0000 5234 023d b047 a13a
00000320: 0000 0000 0000 0000 0000 0000 0000 0000
00000330: 0000 0000 0000 0000 0000 0000 0000 0000
00000340: 0000 0000 0000 0000 0000 0000 0000 0000
00000350: 0000 0000 0000 0000 0000 0000 0000 0000
00000360: ab45 353d 3889 e03a 0000 0000 0000 0000
00000370: 0000 0000 0000 0000 0000 0000 0000 0000
00000380: 0000 0000 0000 0000 0000 0000 0000 0000
00000390: acc1 353d d122 e13a 0000 0000 0000 0000
000003a0: 0000 0000 0000 0000 0c15 023d f220 a13a
000003b0: 0000 0000 0000 0000 0000 0000 0000 0000
000003c0: 7835 053d 6600 a53a 0000 0000 0000 0000
000003d0: 0000 0000 0000 0000 eac5 353d 1428 e13a
000003e0: 0000 0000 0000 0000 0000 0000 0000 0000
000003f0: 0e14 d43c ec58 833a 0000 0000 0000 0000
0.040601864 0.0015716322 0.0 0.0 0.0 0.0 0.030221889 0.0011698403
0.0 0.0 0.0 0.0 0.0 0.0 0.0 0.0
0.0 0.0 0.0 0.0 0.0 0.0 0.0 0.0
0.043030355 0.0016656352 0.0 0.0 0.0 0.0 0.033173535 0.0012840938
0.0 0.0 0.0 0.0 0.033610456 0.0013010063 0.0 0.0
0.0 0.0 0.044211313 0.0017113483 0.0 0.0 0.0 0.0
0.030076781 0.0011642234 0.0 0.0 0.0 0.0 0.030414183 0.0011772837
0.0 0.0 0.0 0.0 0.0 0.0 0.0 0.0
0.0 0.0 0.03103887 0.0012014644 0.0 0.0 0.0 0.0
0.031250104 0.0012096408 0.0 0.0 0.0 0.0 0.04279661 0.0016565875
0.0 0.0 0.0 0.0 0.033390895 0.0012925074 0.0 0.0
0.0 0.0 0.036032256 0.0013947501 0.0 0.0 0.0 0.0
0.03004278 0.0011629073 0.0 0.0 0.0 0.0 0.037818316 0.0014638858
0.0 0.0 0.0 0.0 0.03297157 0.0012762761 0.0 0.0
0.0 0.0 0.0336188 0.0013013291 0.0 0.0 0.0 0.0
0.0 0.0 0.0 0.0 0.0 0.0 0.032038588 0.0012401618
0.0 0.0 0.0 0.0 -6e-45 -6e-45 0.0 0.0
0.0 0.0 0.0 0.0 0.0 0.0 0.0 0.0
0.033619326 0.0013013497 0.0 0.0 0.0 0.0 0.0 0.0
0.0 0.0 0.0 0.0 0.03127958 0.0012107817 0.0 0.0
0.0 0.0 0.031939775 0.0012363369 0.0 0.0 0.0 0.0
0.033467367 0.0012954675 0.0 0.0 0.0 0.0 0.0 0.0
0.0 0.0 0.0 0.0 0.0 0.0 0.0 0.0
0.0 0.0 0.031986125 0.0012381311 0.0 0.0 0.0 0.0
0.0 0.0 0.0 0.0 0.0 0.0 0.031788178 0.001230469
0.0 0.0 0.0 0.0 0.0 0.0 0.0 0.0
0.0 0.0 0.0 0.0 0.0 0.0 0.0 0.0
0.044255894 0.0017130738 0.0 0.0 0.0 0.0 0.0 0.0
0.0 0.0 0.0 0.0 0.044374153 0.0017176514 0.0 0.0
0.0 0.0 0.031758353 0.0012293144 0.0 0.0 0.0 0.0
0.032521695 0.001258862 0.0 0.0 0.0 0.0 0.0443782 0.0017178082
0.0 0.0 0.0 0.0 0.02588847 0.0010021008 0.0 0.0

exp_avg_sq f4 [128, 6]
00000000: 3614 8639 8388 b634 0000 0000 0000 0000
00000010: 0000 0000 0000 0000 4383 1439 5834 4a34
00000020: 0000 0000 0000 0000 0000 0000 0000 0000
00000030: 0000 0000 0000 0000 0000 0000 0000 0000
00000040: 0000 0000 0000 0000 0000 0000 0000 0000
00000050: 0000 0000 0000 0000 0000 0000 0000 0000
00000060: 419b 9639 d107 cd34 0000 0000 0000 0000
00000070: 0000 0000 0000 0000 bb0c 3339 c1bd 7334
00000080: 0000 0000 0000 0000 0000 0000 0000 0000
00000090: 929b 3739 dc03 7a34 0000 0000 0000 0000
000000a0: 0000 0000 0000 0000 7ac1 9e39 7c35 d834
000000b0: 0000 0000 0000 0000 0000 0000 0000 0000
000000c0: 952e 1339 e95b 4834 0000 0000 0000 0000
000000d0: 0000 0000 0000 0000 116f 1639 93cf 4c34
000000e0: 0000 0000 0000 0000 0000 0000 0000 0000
000000f0: 0000 0000 0000 0000 0000 0000 0000 0000
00000100: 0000 0000 0000 0000 279f 1c39 6d41 5534
00000110: 0000 0000 0000 0000 0000 0000 0000 0000
00000120: 90e1 1e39 c249 5834 0000 0000 0000 0000
00000130: 0000 0000 0000 0000 5bcd 9439 19a3 ca34
00000140: 0000 0000 0000 0000 0000 0000 0000 0000
00000150: cf65 3539 99f0 7634 0000 0000 0000 0000
00000160: 0000 0000 0000 0000 c636 5339 9ac4 8f34
00000170: 0000 0000 0000 0000 0000 0000 0000 0000
00000180: 03d6 1239 94e4 4734 0000 0000 0000 0000
00000190: 0000 0000 0000 0000 bf7a 6839 2d47 9e34
000001a0: 0000 0000 0000 0000 0000 0000 0000 0000
000001b0: d6d9 3039 d3c1 7034 0000 0000 0000 0000
000001c0: 0000 0000 0000 0000 92d8 3739 3449 7a34
000001d0: 0000 0000 0000 0000 0000 0000 0000 0000
000001e0: 0000 0000 0000 0000 0000 0000 0000 0000
000001f0: 0000 0000 0000 0000 9b01 2739 cf58 6334
00000200: 0000 0000 0000 0000 0000 0000 0000 0000
00000210: 632e 4824 770c b01e 0000 0000 0000 0000
00000220: 0000 0000 0000 0000 0000 0000 0000 0000
00000230: 0000 0000 0000 0000 0000 0000 0000 0000
00000240: 78ce 3739 a23f 7a34 0000 0000 0000 0000
00000250: 0000 0000 0000 0000 0000 0000 0000 0000
00000260: 0000 0000 0000 0000 0000 0000 0000 0000
00000270: 7e33 1f39 69b7 5834 0000 0000 0000 0000
00000280: 0000 0000 0000 0000 9cec 2539 b5e4 6134
00000290: 0000 0000 0000 0000 0000 0000 0000 0000
000002a0: d723 3639 a0fb 7734 0000 0000 0000 0000
000002b0: 0000 0000 0000 0000 0000 0000 0000 0000
000002c0: 0000 0000 0000 0000 0000 0000 0000 0000
000002d0: 0000 0000 0000 0000 0000 0000 0000 0000
000002e0: 0000 0000 0000 0000 d050 2639 8f75 6234
000002f0: 0000 0000 0000 0000 0000 0000 0000 0000
00000300: 0000 0000 0000 0000 0000 0000 0000 0000
00000310: 0000 0000 0000 0000 c245 2439 89ac 5f34
00000320: 0000 0000 0000 0000 0000 0000 0000 0000
00000330: 0000 0000 0000 0000 0000 0000 0000 0000
00000340: 0000 0000 0000 0000 0000 0000 0000 0000
00000350: 0000 0000 0000 0000 0000 0000 0000 0000
00000360: 9741 9f39 27d3 d834 0000 0000 0000 0000
00000370: 0000 0000 0000 0000 0000 0000 0000 0000
00000380: 0000 0000 0000 0000 0000 0000 0000 0000
00000390: 2b21 a039 8c01 da34 0000 0000 0000 0000
000003a0: 0000 0000 0000 0000 3225 2439 0f6f 5f34
000003b0: 0000 0000 0000 0000 0000 0000 0000 0000
000003c0: b508 2c39 5235 6a34 0000 0000 0000 0000
000003d0: 0000 0000 0000 0000 1dfc 9f39 5bdf d934
000003e0: 0000 0000 0000 0000 0000 0000 0000 0000
000003f0: 9637 da38 4581 1434 0000 0000 0000 0000
0.0002557353 3.3999467e-07 0.0 0.0 0.0 0.0 0.00014163279 1.8831759e-07
0.0 0.0 0.0 0.0 0.0 0.0 0.0 0.0
0.0 0.0 0.0 0.0 0.0 0.0 0.0 0.0
0.00028725903 3.8189913e-07 0.0 0.0 0.0 0.0 0.00017075513 2.270017e-07
0.0 0.0 0.0 0.0 0.00017510194 2.3284468e-07 0.0 0.0
0.0 0.0 0.0003028026 4.027205e-07 0.0 0.0 0.0 0.0
0.00014036366 1.8659888e-07 0.0 0.0 0.0 0.0 0.0001434649 1.9074496e-07
0.0 0.0 0.0 0.0 0.0 0.0 0.0 0.0
0.0 0.0 0.00014936608 1.9860973e-07 0.0 0.0 0.0 0.0
0.00015152083 2.01434e-07 0.0 0.0 0.0 0.0 0.00028381762 3.77441e-07
0.0 0.0 0.0 0.0 0.00017299432 2.2998064e-07 0.0 0.0
0.0 0.0 0.00020142933 2.6778872e-07 0.0 0.0 0.0 0.0
0.0001400337 1.8616475e-07 0.0 0.0 0.0 0.0 0.0002217097 2.948158e-07
0.0 0.0 0.0 0.0 0.00016865818 2.2422255e-07 0.0 0.0
0.0 0.0 0.00017532919 2.3309696e-07 0.0 0.0 0.0 0.0
0.0 0.0 0.0 0.0 0.0 0.0 0.00015926959 2.1173331e-07
0.0 0.0 0.0 0.0 4.3407378e-17 1.863988e-20 0.0 0.0
0.0 0.0 0.0 0.0 0.0 0.0 0.0 0.0
0.00017529156 2.3306214e-07 0.0 0.0 0.0 0.0 0.0 0.0
0.0 0.0 0.0 0.0 0.00015182604 2.0183292e-07 0.0 0.0
0.0 0.0 0.0001582377 2.1037961e-07 0.0 0.0 0.0 0.0
0.00017370224 2.3095208e-07 0.0 0.0 0.0 0.0 0.0 0.0
0.0 0.0 0.0 0.0 0.0 0.0 0.0 0.0
0.0 0.0 0.00015861099 2.1090658e-07 0.0 0.0 0.0 0.0
0.0 0.0 0.0 0.0 0.0 0.0 0.00015666246 2.0831261e-07
0.0 0.0 0.0 0.0 0.0 0.0 0.0 0.0
0.0 0.0 0.0 0.0 0.0 0.0 0.0 0.0
0.00030375712 4.038677e-07 0.0 0.0 0.0 0.0 0.0 0.0
0.0 0.0 0.0 0.0 0.0003054229 4.060679e-07 0.0 0.0
0.0 0.0 0.00015654115 2.0808896e-07 0.0 0.0 0.0 0.0
0.00016406442 2.1812346e-07 0.0 0.0 0.0 0.0 0.00030514682 4.0581912e-07
0.0 0.0 0.0 0.0 0.00010405404 1.3830602e-07 0.0 0.0

exp_avg f4 [128]
00000000: 5932 bf3d 1551 8e3d 0000 0000 0000 0000
00000010: f1a1 ca3d 5a37 9c3d 1246 9e3d 9c31 d03d
00000020: 26a2 8d3d e638 8f3d 0000 0000 f929 923d
00000030: 9d28 933d 2888 c93d 623d 9d3d 97ad a93d
00000040: 2a79 8d3d bb16 b23d e143 9b3d 1f50 9e3d
00000050: 0000 0000 26df 963d 0400 0000 0000 0000
00000060: c450 9e3d 0000 0000 254c 933d 0768 963d
00000070: 9299 9d3d 0000 0000 0000 0000 e89f 963d
00000080: 0000 0000 46b1 953d 0000 0000 0000 0000
00000090: 5a67 d03d 0000 0000 e9f5 d03d 528d 953d
000000a0: 8a25 993d ccfa d03d 1fd2 733d 3824 cf3d
000000b0: 0000 0000 f979 9d3d e4c0 9f3d 185d d23d
000000c0: a5b1 d13d f03d a83d bd3c bb3d 0000 0000
000000d0: 089f 8b3d 90b7 9f3d 0000 0000 883e 8b3d
000000e0: 2c48 a03d 7223 933d 0000 0000 0000 0000
000000f0: 0000 0000 021c c93d eb97 993d 1ccd 983d
00000100: 868d a03d 2211 843d 83ef cb3d 9486 9d3d
00000110: 3422 8d3d 0000 0000 9aa2 d43d 6aae 6c3d
00000120: 4e95 963d 7ee1 8e3d 0000 0000 52ad d03d
00000130: 808b a83d 1163 ae3d 5b40 c03d 1fc3 9d3d
00000140: 8a1f 853d 0000 0000 29b6 953d eced 7f3d
00000150: 84fa af3d 0000 0000 bb93 873d 12f1 cf3d
00000160: 5ab4 b73d a59f 8b3d 0000 0000 df50 d13d
00000170: 9c2f d33d 37b2 a03d 6491 8d3d 4dbc 943d
00000180: 04da d03d 0000 0000 5abe a93d 0000 0000
00000190: dca2 ca3d b906 9b3d 2412 8c3d f656 8d3d
000001a0: 0000 0000 0000 0000 0000 0000 11e2 963d
000001b0: e1db d33d 0000 0000 c34a a63d 6c14 b53d
000001c0: 8271 c43d 3a83 c33d 0061 873d fdf4 9d3d
000001d0: 0000 0000 0000 0000 5e2f b83d 5f21 a83d
000001e0: 8c0b 8b3d 96e8 a73d 2da8 a93d 0000 0000
000001f0: 72e3 cb3d 2a23 c83d fe7f 923d 5669 b43d
0.09335775 0.06949059 0.0 0.0 0.09894169 0.07627745 0.077282086 0.10165712
0.06915693 0.069932744 0.0 0.07136912 0.07185481 0.09840423 0.076777235 0.08285063
0.06907876 0.08695742 0.07581306 0.07730126 0.0 0.07366781 6e-45 0.0
0.077302486 0.0 0.07192258 0.073440604 0.07695307 0.0 0.0 0.073547184
0.0 0.07309203 0.0 0.0 0.10175963 0.0 0.10203154 0.07302345
0.07477863 0.10204086 0.05952656 0.1011433 0.0 0.0768928 0.07800463 0.102716625
0.10238961 0.08214939 0.09142444 0.0 0.06817442 0.07798684 0.0 0.06799036
0.07826266 0.07184495 0.0 0.0 0.0 0.09819795 0.07499679 0.074609965
0.078394935 0.0644858 0.099577926 0.07691684 0.06891289 0.0 0.10382576 0.05778352
0.07352696 0.06976603 0.0 0.10189308 0.082297325 0.08514989 0.09387275 0.07703232
0.06500156 0.0 0.07310135 0.06248276 0.08592704 0.0 0.06619974 0.101534024
0.08969946 0.06817559 0.0 0.10220503 0.10311815 0.07846492 0.06912497 0.07262478
0.10197833 0.0 0.0828826 0.0 0.09894344 0.075696416 0.068393975 0.06901352
0.0 0.0 0.0 0.073673375 0.10344673 0.0 0.081197284 0.08841786
0.095919624 0.09546514 0.06610298 0.077127434 0.0 0.0 0.089934096 0.0820949
0.06789312 0.08198659 0.0828403 0.0 0.09955491 0.09772332 0.07153319 0.08809154

exp_avg_sq f4 [128]
00000000: 9c69 ae3a 3331 413a 0000 0000 0000 0000
00000010: 4ce9 c33a e3e8 683a 59d9 6e3a 4e86 ce3a
00000020: ae74 3f3a 91b0 433a 0000 0000 04be 4b3a
00000030: b5ac 4e3a e192 c13a d7f6 6b3a 1260 893a
00000040: b001 3f3a 3236 973a 0c0d 663a ac26 6f3a
00000050: 0000 0000 643e 593a ebb3 2424 0000 0000
00000060: 221a 6f3a 0000 0000 0c17 4f3a d5d6 573a
00000070: 43ef 6c3a 0000 0000 0000 0000 6e5a 583a
00000080: 0000 0000 eab1 553a 0000 0000 0000 0000
00000090: 782a cf3a 0000 0000 074d d03a 0f85 553a
000000a0: 4dc9 5f3a 411f d03a 39ed 0d3a c9b3 cc3a
000000b0: 0000 0000 779c 6c3a 9484 733a 11e8 d23a
000000c0: 96c6 d13a c0ee 863a d347 a73a 0000 0000
000000d0: 3bf6 393a 462f 733a 0000 0000 bfe9 383a
000000e0: ad0d 753a fb8d 4e3a 0000 0000 0000 0000
000000f0: 0000 0000 4af7 c03a 44f8 603a fca1 5e3a
00000100: 5e0a 763a f659 263a 446d c63a 01c0 6c3a
00000110: 0507 3e3a 0000 0000 43b5 d73a c9ba 053a
00000120: 5f72 583a 92c1 423a 0000 0000 60c0 cf3a
00000130: 8b80 873a b902 913a f620 b03a 1e85 6d3a
00000140: f90e 293a 0000 0000 bee7 553a b936 1c3a
00000150: 0eba 933a 0000 0000 e889 2f3a 1049 ce3a
00000160: 21df a03a 110a 3a3a 0000 0000 4106 d13a
00000170: c3c8 d43a bd7b 763a 7923 3f3a f315 533a
00000180: 74e3 cf3a 0000 0000 5065 893a 0000 0000
00000190: 13bf c33a ee59 653a 9b1a 3b3a 2fa0 3e3a
000001a0: 0000 0000 0000 0000 0000 0000 2f40 593a
000001b0: 891d d63a 0000 0000 51dc 833a 2370 9c3a
000001c0: 91f5 b73a b253 b63a eecd 2e3a b512 6e3a
000001d0: 0000 0000 0000 0000 27b2 a13a 31d9 863a
000001e0: 315d 383a ff68 863a e949 893a 0000 0000
000001f0: 9e56 c63a b9e3 be3a f0ce 4c3a 7e51 9b3a
0.001330662 0.0007369697 0.0 0.0 0.0014946847 0.00088848005 0.0009111367 0.0015756579
0.00073034584 0.000746497 0.0 0.000777215 0.0007884012 0.0014768505 0.00090013206 0.0010480902
0.0007286323 0.0011536537 0.0008775748 0.0009122889 0.0 0.000828719 3.5714228e-17 0.0
0.00091210206 0.0 0.00078998576 0.00082336116 0.00090383383 0.0 0.0 0.0008253221
0.0 0.00081518164 0.0 0.0 0.0015805503 0.0 0.0015892097 0.00081451325
0.0008536771 0.0015878455 0.0005414072 0.0015617545 0.0 0.00090260006 0.000928947 0.001609089
0.0016004618 0.0010294542 0.0012762494 0.0 0.0007093881 0.00092767586 0.0 0.0007053874
0.0009348046 0.0007879433 0.0 0.0 0.0 0.0014722135 0.00085819163 0.00084927655
0.00093857 0.00063458027 0.0015138765 0.00090312964 0.0007248971 0.0 0.0016457218 0.00051013805
0.0008256789 0.0007429357 0.0 0.0015850179 0.0010337991 0.0011063433 0.0013437557 0.00090606685
0.00064490695 0.0 0.00081598375 0.0005959082 0.0011270659 0.0 0.000669627 0.0015738327
0.0012273529 0.0007096837 0.0 0.0015947298 0.0016234148 0.0009402594 0.00072913576 0.0008052282
0.0015860633 0.0 0.0010482464 0.0 0.0014934264 0.00087490573 0.00071374484 0.0007271794
0.0 0.0 0.0 0.0008287457 0.0016335706 0.0 0.0010060166 0.0011935275
0.0014034976 0.0013910441 0.0006668259 0.0009081767 0.0 0.0 0.0012336419 0.0010288117
0.00070329296 0.001025468 0.0010474297 0.0 0.0015132015 0.0014563716 0.00078128185 0.0011849848

exp_avg f4 [128, 128]
00000000: 0000 0000 0000 0000 0000 0000 0000 0000
00000010: 0000 0000 0000 0000 0000 0000 0000 0000
00000020: 0000 0000 0000 0000 0000 0000 0000 0000
00000030: 0000 0000 0000 0000 0000 0000 0000 0000
00000040: 0000 0000 0000 0000 0000 0000 0000 0000
00000050: 0000 0000 0000 0000 0000 0000 0000 0000
00000060: 0000 0000 0000 0000 0000 0000 0000 0000
00000070: 0000 0000 0000 0000 0000 0000 0000 0000
00000080: 0000 0000 0000 0000 0000 0000 0000 0000
00000090: 0000 0000 0000 0000 0000 0000 0000 0000
000000a0: 0000 0000 0000 0000 0000 0000 0000 0000
000000b0: 0000 0000 0000 0000 0000 0000 0000 0000
000000c0: 0000 0000 0000 0000 0000 0000 0000 0000
000000d0: 0000 0000 0000 0000 0000 0000 0000 0000
000000e0: 0000 0000 0000 0000 0000 0000 0000 0000
000000f0: 0000 0000 0000 0000 0000 0000 0000 0000
00000100: 0000 0000 0000 0000 0000 0000 0000 0000
00000110: 0000 0000 0000 0000 0000 0000 0000 0000
00000120: 0000 0000 0000 0000 0000 0000 0000 0000
00000130: 0000 0000 0000 0000 0000 0000 0000 0000
00000140: 0000 0000 0000 0000 0000 0000 0000 0000
00000150: 0000 0000 0000 0000 0000 0000 0000 0000
00000160: 0000 0000 0000 0000 0000 0000 0000 0000
00000170: 0000 0000 0000 0000 0000 0000 0000 0000
00000180: 0000 0000 0000 0000 0000 0000 0000 0000
00000190: 0000 0000 0000 0000 0000 0000 0000 0000
000001a0: 0000 0000 0000 0000 0000 0000 0000 0000
000001b0: 0000 0000 0000 0000 0000 0000 0000 0000
000001c0: 0000 0000 0000 0000 0000 0000 0000 0000
000001d0: 0000 0000 0000 0000 0000 0000 0000 0000
000001e0: 0000 0000 0000 0000 0000 0000 0000 0000
000001f0: 0000 0000 0000 0000 0000 0000 0000 0000
00000200: 0000 0000 0000 0000 0000 0000 0000 0000
00000210: 0000 0000 0000 0000 0000 0000 0000 0000
00000220: 0000 0000 0000 0000 0000 0000 0000 0000
00000230: 0000 0000 0000 0000 0000 0000 0000 0000
00000240: 0000 0000 0000 0000 0000 0000 0000 0000
00000250: 0000 0000 0000 0000 0000 0000 0000 0000
00000260: 0000 0000 0000 0000 0000 0000 0000 0000
00000270: 0000 0000 0000 0000 0000 0000 0000 0000
00000280: 0000 0000 0000 0000 0000 0000 0000 0000
00000290: 0000 0000 0000 0000 0000 0000 0000 0000
000002a0: 0000 0000 0000 0000 0000 0000 0000 0000
000002b0: 0000 0000 0000 0000 0000 0000 0000 0000
000002c0: 0000 0000 0000 0000 0000 0000 0000 0000
000002d0: 0000 0000 0000 0000 0000 0000 0000 0000
000002e0: 0000 0000 0000 0000 0000 0000 0000 0000
000002f0: 0000 0000 0000 0000 0000 0000 0000 0000
00000300: 0000 0000 0000 0000 0000 0000 0000 0000
00000310: 0000 0000 0000 0000 0000 0000 0000 0000
00000320: 0000 0000 0000 0000 0000 0000 0000 0000
00000330: 0000 0000 0000 0000 0000 0000 0000 0000
00000340: 0000 0000 0000 0000 0000 0000 0000 0000
00000350: 0000 0000 0000 0000 0000 0000 0000 0000
00000360: 0000 0000 0000 0000 0000 0000 0000 0000
00000370: 0000 0000 0000 0000 0000 0000 0000 0000
00000380: 0000 0000 0000 0000 0000 0000 0000 0000
00000390: 0000 0000 0000 0000 0000 0000 0000 0000
000003a0: 0000 0000 0000 0000 0000 0000 0000 0000
000003b0: 0000 0000 0000 0000 0000 0000 0000 0000
000003c0: 0000 0000 0000 0000 0000 0000 0000 0000
000003d0: 0000 0000 0000 0000 0000 0000 0000 0000
000003e0: 0000 0000 0000 0000 0000 0000 0000 0000
000003f0: 0000 0000 0000 0000 0000 0000 0000 0000
0.0 0.0 0.0 0.0 0.0 0.0 0.0 0.0
0.0 0.0 0.0 0.0 0.0 0.0 0.0 0.0
0.0 0.0 0.0 0.0 0.0 0.0 0.0 0.0
0.0 0.0 0.0 0.0 0.0 0.0 0.0 0.0
0.0 0.0 0.0 0.0 0.0 0.0 0.0 0.0
0.0 0.0 0.0 0.0 0.0 0.0 0.0 0.0
0.0 0.0 0.0 0.0 0.0 0.0 0.0 0.0
0.0 0.0 0.0 0.0 0.0 0.0 0.0 0.0
0.0 0.0 0.0 0.0 0.0 0.0 0.0 0.0
0.0 0.0 0.0 0.0 0.0 0.0 0.0 0.0
0.0 0.0 0.0 0.0 0.0 0.0 0.0 0.0
0.0 0.0 0.0 0.0 0.0 0.0 0.0 0.0
0.0 0.0 0.0 0.0 0.0 0.0 0.0 0.0
0.0 0.0 0.0 0.0 0.0 0.0 0.0 0.0
0.0 0.0 0.0 0.0 0.0 0.0 0.0 0.0
0.0 0.0 0.0 0.0 0.0 0.0 0.0 0.0
0.0 0.0 0.0 0.0 0.0 0.0 0.0 0.0
0.0 0.0 0.0 0.0 0.0 0.0 0.0 0.0
0.0 0.0 0.0 0.0 0.0 0.0 0.0 0.0
0.0 0.0 0.0 0.0 0.0 0.0 0.0 0.0
0.0 0.0 0.0 0.0 0.0 0.0 0.0 0.0
0.0 0.0 0.0 0.0 0.0 0.0 0.0 0.0
0.0 0.0 0.0 0.0 0.0 0.0 0.0 0.0
0.0 0.0 0.0 0.0 0.0 0.0 0.0 0.0
0.0 0.0 0.0 0.0 0.0 0.0 0.0 0.0
0.0 0.0 0.0 0.0 0.0 0.0 0.0 0.0
0.0 0.0 0.0 0.0 0.0 0.0 0.0 0.0
0.0 0.0 0.0 0.0 0.0 0.0 0.0 0.0
0.0 0.0 0.0 0.0 0.0 0.0 0.0 0.0
0.0 0.0 0.0 0.0 0.0 0.0 0.0 0.0
0.0 0.0 0.0 0.0 0.0 0.0 0.0 0.0
0.0 0.0 0.0 0.0 0.0 0.0 0.0 0.0

exp_avg_sq f4 [128, 128]
00000000: 0000 0000 0000 0000 0000 0000 0000 0000
00000010: 0000 0000 0000 0000 0000 0000 0000 0000
00000020: 0000 0000 0000 0000 0000 0000 0000 0000
00000030: 0000 0000 0000 0000 0000 0000 0000 0000
00000040: 0000 0000 0000 0000 0000 0000 0000 0000
00000050: 0000 0000 0000 0000 0000 0000 0000 0000
00000060: 0000 0000 0000 0000 0000 0000 0000 0000
00000070: 0000 0000 0000 0000 0000 0000 0000 0000
00000080: 0000 0000 0000 0000 0000 0000 0000 0000
00000090: 0000 0000 0000 0000 0000 0000 0000 0000
000000a0: 0000 0000 0000 0000 0000 0000 0000 0000
000000b0: 0000 0000 0000 0000 0000 0000 0000 0000
000000c0: 0000 0000 0000 0000 0000 0000 0000 0000
000000d0: 0000 0000 0000 0000 0000 0000 0000 0000
000000e0: 0000 0000 0000 0000 0000 0000 0000 0000
000000f0: 0000 0000 0000 0000 0000 0000 0000 0000
00000100: 0000 0000 0000 0000 0000 0000 0000 0000
00000110: 0000 0000 0000 0000 0000 0000 0000 0000
00000120: 0000 0000 0000 0000 0000 0000 0000 0000
00000130: 0000 0000 0000 0000 0000 0000 0000 0000
00000140: 0000 0000 0000 0000 0000 0000 0000 0000
00000150: 0000 0000 0000 0000 0000 0000 0000 0000
00000160: 0000 0000 0000 0000 0000 0000 0000 0000
00000170: 0000 0000 0000 0000 0000 0000 0000 0000
00000180: 0000 0000 0000 0000 0000 0000 0000 0000
00000190: 0000 0000 0000 0000 0000 0000 0000 0000
000001a0: 0000 0000 0000 0000 0000 0000 0000 0000
000001b0: 0000 0000 0000 0000 0000 0000 0000 0000
000001c0: 0000 0000 0000 0000 0000 0000 0000 0000
000001d0: 0000 0000 0000 0000 0000 0000 0000 0000
000001e0: 0000 0000 0000 0000 0000 0000 0000 0000
000001f0: 0000 0000 0000 0000 0000 0000 0000 0000
00000200: 0000 0000 0000 0000 0000 0000 0000 0000
00000210: 0000 0000 0000 0000 0000 0000 0000 0000
00000220: 0000 0000 0000 0000 0000 0000 0000 0000
00000230: 0000 0000 0000 0000 0000 0000 0000 0000
00000240: 0000 0000 0000 0000 0000 0000 0000 0000
00000250: 0000 0000 0000 0000 0000 0000 0000 0000
00000260: 0000 0000 0000 0000 0000 0000 0000 0000
00000270: 0000 0000 0000 0000 0000 0000 0000 0000
00000280: 0000 0000 0000 0000 0000 0000 0000 0000
00000290: 0000 0000 0000 0000 0000 0000 0000 0000
000002a0: 0000 0000 0000 0000 0000 0000 0000 0000
000002b0: 0000 0000 0000 0000 0000 0000 0000 0000
000002c0: 0000 0000 0000 0000 0000 0000 0000 0000
000002d0: 0000 0000 0000 0000 0000 0000 0000 0000
000002e0: 0000 0000 0000 0000 0000 0000 0000 0000
000002f0: 0000 0000 0000 0000 0000 0000 0000 0000
00000300: 0000 0000 0000 0000 0000 0000 0000 0000
00000310: 0000 0000 0000 0000 0000 0000 0000 0000
00000320: 0000 0000 0000 0000 0000 0000 0000 0000
00000330: 0000 0000 0000 0000 0000 0000 0000 0000
00000340: 0000 0000 0000 0000 0000 0000 0000 0000
00000350: 0000 0000 0000 0000 0000 0000 0000 0000
00000360: 0000 0000 0000 0000 0000 0000 0000 0000
00000370: 0000 0000 0000 0000 0000 0000 0000 0000
00000380: 0000 0000 0000 0000 0000 0000 0000 0000
00000390: 0000 0000 0000 0000 0000 0000 0000 0000
000003a0: 0000 0000 0000 0000 0000 0000 0000 0000
000003b0: 0000 0000 0000 0000 0000 0000 0000 0000
000003c0: 0000 0000 0000 0000 0000 0000 0000 0000
000003d0: 0000 0000 0000 0000 0000 0000 0000 0000
000003e0: 0000 0000 0000 0000 0000 0000 0000 0000
000003f0: 0000 0000 0000 0000 0000 0000 0000 0000
0.0 0.0 0.0 0.0 0.0 0.0 0.0 0.0
0.0 0.0 0.0 0.0 0.0 0.0 0.0 0.0
0.0 0.0 0.0 0.0 0.0 0.0 0.0 0.0
0.0 0.0 0.0 0.0 0.0 0.0 0.0 0.0
0.0 0.0 0.0 0.0 0.0 0.0 0.0 0.0
0.0 0.0 0.0 0.0 0.0 0.0 0.0 0.0
0.0 0.0 0.0 0.0 0.0 0.0 0.0 0.0
0.0 0.0 0.0 0.0 0.0 0.0 0.0 0.0
0.0 0.0 0.0 0.0 0.0 0.0 0.0 0.0
0.0 0.0 0.0 0.0 0.0 0.0 0.0 0.0
0.0 0.0 0.0 0.0 0.0 0.0 0.0 0.0
0.0 0.0 0.0 0.0 0.0 0.0 0.0 0.0
0.0 0.0 0.0 0.0 0.0 0.0 0.0 0.0
0.0 0.0 0.0 0.0 0.0 0.0 0.0 0.0
0.0 0.0 0.0 0.0 0.0 0.0 0.0 0.0
0.0 0.0 0.0 0.0 0.0 0.0 0.0 0.0
0.0 0.0 0.0 0.0 0.0 0.0 0.0 0.0
0.0 0.0 0.0 0.0 0.0 0.0 0.0 0.0
0.0 0.0 0.0 0.0 0.0 0.0 0.0 0.0
0.0 0.0 0.0 0.0 0.0 0.0 0.0 0.0
0.0 0.0 0.0 0.0 0.0 0.0 0.0 0.0
0.0 0.0 0.0 0.0 0.0 0.0 0.0 0.0
0.0 0.0 0.0 0.0 0.0 0.0 0.0 0.0
0.0 0.0 0.0 0.0 0.0 0.0 0.0 0.0
0.0 0.0 0.0 0.0 0.0 0.0 0.0 0.0
0.0 0.0 0.0 0.0 0.0 0.0 0.0 0.0
0.0 0.0 0.0 0.0 0.0 0.0 0.0 0.0
0.0 0.0 0.0 0.0 0.0 0.0 0.0 0.0
0.0 0.0 0.0 0.0 0.0 0.0 0.0 0.0
0.0 0.0 0.0 0.0 0.0 0.0 0.0 0.0
0.0 0.0 0.0 0.0 0.0 0.0 0.0 0.0
0.0 0.0 0.0 0.0 0.0 0.0 0.0 0.0
