assets/section_1/actor_critic/mountain_car/models/episode_best/critic.pth (torch, 217010 bytes, 15 tensors)

0.weight f4 [128, 6]
-0.32615232 0.6016657 0.2252374 0.092806585 0.05695532 0.086370915 -0.18749742 0.29493973
0.008306482 0.029732222 -0.04411658 0.34843686 -0.034492955 -0.2518065 -0.1687543 -0.14993156
-0.15825513 -0.1332417 -0.10356477 -0.18291838 0.12790065 -0.28199884 -0.06885255 -0.113485485
-0.1176047 0.035888135 -0.13251282 0.2600538 0.03879343 0.28878263 0.009859627 -0.31063846
0.27267754 -0.36000213 -0.05448873 0.2407959 -0.26860517 0.15701747 -0.017034566 -0.12710012
-0.34512746 0.3028087 0.08445799 0.0610353 0.018253285 0.13311945 0.21125863 -0.18216157
0.014715973 -0.05945028 -0.008380553 0.13723926 0.114988856 0.2958821 -0.14686637 0.2561066
0.27165952 0.3478551 -0.30161873 0.18934779 0.3691812 -0.3373007 -0.13343233 0.39211166
-0.11955275 -0.2846304 0.048847277 -0.28276744 0.30988735 0.19731763 -0.032212194 0.23510107
0.12531906 -0.23464838 -0.40383938 -0.099705815 -0.3271816 0.067800805 0.12294275 -0.17663662
0.036311854 -0.31838173 0.062874444 -0.1831462 -0.13066965 0.28244054 -0.08556581 0.10685767
-0.18064807 0.047412552 0.060171816 -0.30324236 -0.25595605 -0.08279472 0.19567254 -0.12102026
0.22952768 0.3337151 0.32447982 -0.27548632 0.23822409 -0.34343255 -0.25667477 -0.08101137
-0.13328283 -0.088024326 0.39170557 -0.05042567 0.113394596 -0.2116153 -0.08347464 0.013217127
-0.3674597 -0.08087315 -0.20221916 0.2953617 0.29906523 0.07841936 -0.23386572 0.32140225
-0.41755733 0.10414093 -0.17580624 -0.40571335 -0.07081334 -0.14644803 -0.26429245 -0.26916403
-0.21860492 -0.070015594 0.3241733 -0.3480785 -0.047006205 0.25752392 -0.29401115 -0.22146377
0.31078374 -0.11215639 -0.12952624 0.31558904 -0.026172377 -0.34260112 -0.2979584 -0.32810277
0.11742396 -0.32343373 -0.016763637 0.048088584 -0.007362829 0.09025775 0.011468943 0.077119134
0.22460511 -0.32068866 0.33985537 0.035833262 0.05005831 -0.2046947 0.12541017 -0.24632972
0.37922 -0.2557554 0.17643628 -0.2607411 -0.23847969 -0.18898882 -0.053105615 -0.17596962
-0.14962569 0.28040504 0.21432169 -0.2534591 0.006880588 -0.13562663 0.31772482 -0.080103874
0.16709368 0.40566924 0.028681112 0.1641742 -0.34538975 -0.087875605 0.24934703 -0.14062093
0.35994208 0.214672 0.10670739 0.40122873 -0.25116694 -0.078115195 0.24093485 -0.13929345
-0.17615037 -0.044797264 -0.37478012 0.09076914 -0.3751443 -0.3504161 -0.2037157 -0.32330325
0.10120549 -0.033662908 0.17432594 -0.31139165 -0.013233592 -0.21441326 -0.3426029 -0.37889305
0.32017162 0.23469914 0.25634262 -0.36447874 -0.08555282 0.28919712 0.391213 -0.21238688
0.31197602 -0.48369205 -0.08285102 0.2575035 -0.029993175 -0.34613988 0.0086601935 -0.1816549
-0.016210293 -0.058991157 0.10641836 0.09239725 0.25077334 0.1189748 0.2914085 0.39733312
0.3233551 -0.1346471 -0.21086198 -0.0072426107 0.37040374 0.39267656 0.39216235 -0.22909665
0.20692198 -0.1251266 -0.35837263 0.054245736 -0.30914226 -0.05772635 0.2593497 0.32659146
0.34018323 0.07075436 -0.09483284 0.33483654 -0.26893032 0.08181862 0.15879402 -0.14458583
00000000: 70fd a6be c306 1a3f a2a4 663e 6111 be3d
00000010: fb49 693d 3ce3 b03d 53ff 3fbe 5702 973e
00000020: e917 083c fd90 f33c 96b3 34bd 5166 b23e
00000030: 7c48 0dbd c8ec 80be edcd 2cbe a987 19be
00000040: a20d 22be 8370 08be c419 d4bd f54e 3bbe
00000050: 63f8 023e 2762 90be 9102 8dbd 146b e8bd
00000060: bcda f0bd 70ff 123d 71b1 07be c625 853e
00000070: dce5 1e3d 51db 933e 468a 213c 010c 9fbe
00000080: 649c 8b3e 3352 b8be 932f 5fbd 3393 763e
00000090: 9e86 89be 30c9 203e 138c 8bbc 8926 02be
000000a0: 8cb4 b0be be09 9b3e 50f8 ac3d 2700 7a3d
000000b0: ea87 953c 7750 083e 2f54 583e 9088 3abe
000000c0: 441b 713c 2382 73bd 964e 09bc 7388 0c3e
000000d0: 477f eb3d dc7d 973e 2364 16be 6720 833e
000000e0: f516 8b3e 101a b23e c56d 9abe 63e4 413e
000000f0: 5105 bd3e adb2 acbe 7ca2 08be dcc2 c83e
00000100: 12d8 f4bd 13bb 91be 1514 483d e5c6 90be
00000110: 8ea9 9e3e a20d 4a3e eff0 03bd 56be 703e
00000120: a453 003e aa47 70be 09c4 cebe 9032 ccbd
00000130: 5984 a7be 26db 8a3d 69c9 fb3d 3be0 34be
00000140: bdbb 143d ee02 a3be 51c4 803d ad8a 3bbe
00000150: 44ce 05be 0c9c 903e 213d afbd 32d8 da3d
00000160: cffb 38be aa33 423d b976 763d 9542 9bbe
00000170: ac0c 83be 4790 a9bd 625e 483e 78d9 f7bd
00000180: 4e09 6b3e b5dc aa3e 3822 a63e 8b0c 8dbe
00000190: 04f1 733e 64d6 afbe e06a 83be 4ae9 a5bd
000001a0: 4b7b 08be 1946 b4bd a28d c83e 268b 4ebd
000001b0: 6d3b e83d aeb1 58be c1f4 aabd a68c 583c
000001c0: ae23 bcbe d2a0 a5bd 8a12 4fbe a639 973e
000001d0: 141f 993e 549a a03d 7f7a 6fbe d68e a43e
000001e0: 13ca d5be d747 d53d 8d06 34be a9b9 cfbe
000001f0: 9606 91bd 79f6 15be 5751 87be decf 89be
00000200: f8d9 5fbe 5664 8fbd 0bfa a53e 5837 b2be
00000210: 9489 40bd 2dda 833e a188 96be 66c7 62be
00000220: 0c1f 9f3e 40b2 e5bd 87a2 04be e394 a13e
00000230: 7467 d6bc 6a69 afbe 018e 98be 16fd a7be
00000240: f97b f03d 1b99 a5be e553 89bc 89f8 443d
00000250: e343 f1bb 0ed9 b83d 3ce8 3b3c a3f0 9d3d
00000260: e2fe 653e 4e31 a4be 8601 ae3e e6c5 123d
00000270: f109 4d3d 7d9b 51be 866b 003e dc3d 7cbe
00000280: 2029 c23e 5ff2 82be b6ab 343e dc7f 85be
00000290: 0534 74be 4986 41be 4685 59bd 6131 34be
000002a0: 7a37 19be 4091 8f3e 2577 5b3e 64c5 81be
000002b0: 8e76 e13b b5e1 0abe d4ac a23e 800d a4bd
000002c0: 9b1a 2b3e e1b3 cf3e a7f4 ea3c 481d 283e
000002d0: edd6 b0be 20f8 b3bd d454 7f3e effe 0fbe
000002e0: 544a b83e fad2 5b3e 6789 da3d da6d cd3e
000002f0: f498 80be dcfa 9fbd a0b7 763e f1a2 0ebe
00000300: c360 34be 567d 37bd 2ee3 bfbe 2ce5 b93d
00000310: ea12 c0be bd69 b3be d99a 50be 0188 a5be
00000320: d344 cf3d 1ee2 09bd 8082 323e ba6e 9fbe
00000330: b5d1 58bc 268f 5bbe a669 afbe 45fe c1be
00000340: 89ed a33e f954 703e 573f 833e f59c babe
00000350: 5136 afbd a511 943e 124d c83e f27b 59be
00000360: 52bb 9f3e 7ca6 f7be ccad a9bd 80d7 833e
00000370: 3fb4 f5bc 3f39 b1be 7ce3 0d3c be03 3abe
00000380: 73cb 84bc b6a0 71bd def1 d93d c53a bd3d
00000390: 5d65 803e 0fa9 f33d 7f33 953e 3f6f cb3e
000003a0: cd8e a53e eee0 09be 34ec 57be 6c53 edbb
000003b0: 8fa5 bd3e e70c c93e 81c9 c83e 5098 6abe
000003c0: 5be3 533e 3021 00be 9e7c b7be c730 5e3d
000003d0: e547 9ebe 7772 6cbd 7cc9 843e ff36 a73e
000003e0: 7f2c ae3e a9e7 903d b837 c2bd b26f ab3e
000003f0: 3cb1 89be 8590 a73d e69a 223e 4f0e 14be

0.bias f4 [128]
-0.28223145 -0.37923086 0.36685792 -0.31082493 0.16672476 0.036274113 0.40961692 0.3446867
-0.044520855 -0.25693825 -0.07506048 0.06653743 -0.2782923 0.31951827 -0.17341489 -0.1438785
-0.37519613 0.13840362 0.3844545 -0.17755833 0.45168525 -0.3269768 -0.08067515 -0.06865854
-0.0109398 0.38340896 0.16590692 0.36547673 -0.21280289 0.47635946 0.24037948 -0.23868974
-0.22342108 0.27290374 0.31414053 0.34308934 -0.032110665 -0.3565747 -0.03605717 -0.11574233
-0.05966071 -0.27706063 0.3336778 -0.29937464 0.39283156 0.23012887 -0.39762193 0.2251421
0.2180604 -0.1020866 0.18134786 -0.07663377 0.07803548 0.31716412 0.49842322 0.2524891
-0.35010284 -0.33229107 0.39349487 0.32518604 -0.22796309 0.4824063 0.36525846 0.24745272
-0.11462439 -0.02185989 0.38647783 0.13144326 -0.18978491 -0.33181763 0.3804896 -0.27015674
-0.23571405 -0.166385 -0.20023805 0.48442993 0.5023423 -0.093381226 0.32980973 -0.016983507
-0.3042662 0.009851057 0.07084639 -0.36389783 -0.016128113 -0.24702707 -0.07796505 -0.20826401
0.2696141 -0.27431008 0.16314243 -0.41556743 0.37987533 0.50386256 0.2850445 0.48978978
-0.078390546 0.22349013 -0.296118 -0.15592441 0.4005111 -0.23071517 0.35027766 0.374936
0.20209773 -0.39718992 0.19065773 0.41901198 -0.026663821 0.081448555 0.3365923 -0.07376339
0.1833764 -0.38757315 -0.26528636 -0.16342853 -0.09446161 0.44001076 -0.22719043 0.14213462
-0.24701886 0.12397861 -0.34923822 -0.42571947 -0.079713315 -0.3325632 0.4062208 0.48746106
00000000: a480 90be 8c2a c2be cdd4 bb3e 7224 9fbe
00000010: e5b9 2a3e 2a94 143d 4fb9 d13e c67a b03e
00000020: 805b 36bd 698d 83be 4fb9 99bd c744 883d
00000030: 547c 8ebe e697 a33e ac93 31be e354 13be
00000040: b519 c0be aeb9 0d3e 38d7 c43e dad1 35be
00000050: 4a43 e73e 8169 a7be 0339 a5bd d99c 8cbd
00000060: d93c 33bc 2e4e c43e 81e3 293e c41f bb3e
00000070: 00e9 59be 63e5 f33e 0a26 763e 156b 74be
00000080: 7fc8 64be 0aba 8b3e 07d7 a03e 68a9 af3e
00000090: 7986 03bd f690 b6be afb0 13bd 510a edbd
000000a0: ca5e 74bd e4da 8dbe d1d7 aa3e a247 99be
000000b0: 3821 c93e e7a6 6b3e 1a95 cbbe a78b 663e
000000c0: 3a4b 5f3e c812 d1bd 41b3 393e 2af2 9cbd
000000d0: 11d1 9f3d 5663 a23e 5431 ff3e 4046 813e
000000e0: ae40 b3be 0e22 aabe 2978 c93e c97e a63e
000000f0: 286f 69be f5fd f63e 2803 bb3e 3f64 7d3e
00000100: 31c0 eabd 8313 b3bc 6ce0 c53e 1099 063e
00000110: fa56 42be 00e4 a9be 88cf c23e fc51 8abe
00000120: 065f 71be d460 2abe 340b 4dbe 3307 f83e
00000130: 8199 003f a83e bfbd d2dc a83e ff20 8bbc
00000140: c8c8 9bbe 5466 213c ea17 913d d150 babe
00000150: 1b1f 84bc aaf4 7cbe 24ac 9fbd 2943 55be
00000160: dc0a 8a3e 5f72 8cbe cf0e 273e 41c5 d4be
00000170: 057f c23e 23fd 003f 5af1 913e bac5 fa3e
00000180: 398b a0bd 99da 643e c79c 97be a6aa 1fbe
00000190: ca0f cd3e 9940 6cbe 9857 b33e 9df7 bf3e
000001a0: b5f2 4e3e 7a5c cbbe c83b 433e bd88 d63e
000001b0: 166e dabc 80ce a63d d355 ac3e 4311 97bd
000001c0: 06c7 3b3e fd6f c6be 9dd3 87be cf59 27be
000001d0: 1775 c1bd 1749 e13e 9ca4 68be bd8b 113e
000001e0: 83f2 7cbe 7fe8 fd3d 5acf b2be e7f7 d9be
000001f0: bc40 a3bd b945 aabe 2cfc cf3e 7f94 f93e

2.weight f4 [128, 128]
-0.040097203 0.014845321 -0.01637515 -0.02546244 0.043188095 0.051497895 0.05065057 0.049017943
0.073666945 0.017200245 0.010609699 -0.08690246 0.0671263 -0.093568146 0.041299213 0.085221834
0.04073441 0.026757037 -0.006261551 0.03891872 -0.072493784 -0.07325259 0.01893712 0.05494109
-0.069735214 -0.0666593 0.03195978 -0.088044375 0.016494107 -0.040912155 0.038838673 -0.006083455
0.03486346 0.011544228 -0.0060596173 0.010985588 0.05572263 0.06919822 -0.023355898 -0.080607146
-0.0065341312 -0.009004896 0.043032277 -0.06884392 -0.0019381437 0.019990755 0.042030945 0.016464982
-0.08339822 -0.02453231 0.06112436 -0.03232163 0.024682604 0.020796703 -0.07567662 0.047805697
-0.053572774 -0.08813139 -0.076913595 -0.04896745 0.018569974 0.065892816 -0.014440961 -0.071920805
-0.07145667 0.06198086 -0.035630107 0.047113553 -0.026318103 -0.06364333 -0.015359839 -0.016016772
-0.040331163 0.035187855 -0.080256015 -0.0062363604 0.010374779 0.030016674 -0.06492448 -0.040607836
-0.0534143 -0.005146952 0.010950794 -0.033358872 0.02553725 0.0737478 0.008136418 0.012389224
0.044128697 0.006099934 -0.005026125 -0.055740356 0.042335957 -0.0076246588 0.046610255 0.039143916
0.08441599 -0.06726863 -0.05726686 -0.068827935 0.02106483 -0.021265581 0.032754026 0.03228495
-0.03781784 -0.017317623 0.05203747 -0.009485432 -0.030019987 -0.030096306 0.06248072 -0.0017658897
-0.04675769 -0.025751924 -0.0068892185 -0.022057405 0.020210281 0.07672065 0.0077083423 0.0061991536
-0.014163585 -0.056419436 -0.05796592 -0.085928716 -0.051847767 -0.017816769 -0.090536304 -0.06227567
0.017862286 -0.06566243 0.033059414 -0.06971071 0.0672818 -0.0008881395 0.050797157 -0.017533716
-0.080129735 0.0074808653 -0.06447078 0.03325026 -0.02830027 -0.00071910676 -0.03191393 -0.043512005
0.013625307 -0.054132383 -0.04791846 -0.0040033334 0.037550155 -0.06507897 -0.049032442 -0.034270015
0.057095587 0.020508153 -0.0605458 -0.025204763 0.02006525 0.018292869 0.054475155 -0.086186595
0.0045430297 -0.020710375 0.054400913 -0.074267134 0.07257182 0.025328064 -0.043255962 -0.027997855
0.06579058 0.0038171452 -0.08863755 0.079318516 -0.0405837 0.06406714 0.0090158 -0.0130948145
0.02036721 -0.040445864 -0.08337007 0.036000878 0.006986557 -0.052112635 -0.08806856 -0.0011635484
-0.031214429 -0.027234513 -0.055073123 0.026244488 0.04816622 0.05079083 -0.02096334 -0.08809444
0.057785753 -0.07492224 -0.03657164 -0.04908096 -0.061369054 0.051201973 0.05159244 0.08837194
0.036920596 -0.019507153 0.039314613 0.060565047 0.01980826 0.052281175 -0.044489983 -0.067196056
0.08795591 -0.058568925 -0.043639448 0.013304706 0.04574134 -0.07680177 0.03654572 -0.045888677
0.069120355 0.042447712 -0.080873616 0.056563493 0.027911466 -0.057567794 -0.07832731 0.05228949
0.018558143 0.033630215 0.074875064 0.045681916 0.022193136 -0.03739633 0.009641638 0.025476873
-0.0020809788 -0.0028667338 -0.016852519 -0.021299755 -0.08689196 -0.010575866 -0.008789482 0.011327756
-0.024606457 -0.06458379 -0.020593887 0.047033332 0.050211076 0.037010275 0.051276393 -0.008031461
0.04778483 0.035041533 0.086664684 -0.0073279883 0.051430028 -0.020108303 -0.006335714 0.02337395
00000000: f73c 24bd ca39 733c 2e25 86bc 9b96 d0bc
00000010: 00e6 303d 75ef 523d f976 4f3d 0ac7 483d
00000020: b2de 963d 87e7 8c3c 4ed4 2d3c ebf9 b1bd
00000030: 8379 893d a8a0 bfbd 5d29 293d c988 ae3d
00000040: 20d9 263d 9331 db3c b22d cdbb 3c69 1f3d
00000050: 9f77 94bd 7405 96bd 0522 9b3c e909 613d
00000060: 56d1 8ebd ac84 88bd 42e8 023d 9c50 b4bd
00000070: a61e 873c 8193 27bd 4d15 1f3d b857 c7bb
00000080: fdcc 0e3d 0024 3d3c c18f c6bb e5fc 333c
00000090: 6a3d 643d ccb7 8d3d de54 bfbc 5c15 a5bd
000000a0: 441c d6bb 4589 13bc 9d42 303d 0bfe 8cbd
000000b0: 5009 feba a7c3 a33c a428 2c3d 92e1 863c
000000c0: b0cc aabd fcf7 c8bc 895d 7a3d af63 04bd
000000d0: 2c33 ca3c d95d aa3c 58fc 9abd e8cf 433d
000000e0: 206f 5bbd 3b7e b4bd e084 9dbd 1892 48bd
000000f0: 0f20 983c d0f2 863d c899 6cbc 374b 93bd
00000100: e057 92bd a4df 7d3d e0f0 11bd 24fa 403d
00000110: 1099 d7bc 6f57 82bd d6a7 7bbc 9b35 83bc
00000120: 4a32 25bd 2421 103d 445d a4bd 625a ccbb
00000130: fafa 293c 87e5 f53c 20f7 84bd 6754 26bd
00000140: f4c8 5abd c3a7 a8bb f66a 333c 50a3 08bd
00000150: 7f33 d13c 1609 973d 9c4e 053c 2cfc 4a3c
00000160: 4bc0 343d f5e1 c73b 31b2 a4bb 0050 64bd
00000170: 7868 2d3d 46d8 f9bb 65ea 3e3d 5f55 203d
00000180: 4ae2 ac3d 23c4 89bd a890 6abd a9f5 8cbd
00000190: 2690 ac3c 2835 aebc 1629 063d 393d 043d
000001a0: e1e6 1abd b0dd 8dbc 3e25 553d c968 1bbc
000001b0: 7aec f5bc 878c f6bc c9eb 7f3d 6d75 e7ba
000001c0: fe84 3fbd b3f5 d2bc f4be e1bb bbb1 b4bc
000001d0: 0890 a53c b71f 9d3d 4396 fc3b 4522 cb3b
000001e0: 620e 68bc 1118 67bd ac6d 6dbd 65fb afbd
000001f0: 535e 54bd 79f4 91bc 196b b9bd c614 7fbd
00000200: ee53 923c 067a 86bd 4f69 073d 7dc4 8ebd
00000210: 0acb 893d 08d2 68ba ae10 503d dea2 8fbc
00000220: 0f1b a4bd 0c22 f53b 4209 84bd 6d31 083d
00000230: f8d5 e7bc 7082 3cba 2eb8 02bd a539 32bd
00000240: ae3c 5f3c ebb9 5dbd 2646 44bd 652e 83bb
00000250: 31ce 193d 1f48 85bd 3ed6 48bd b75e 0cbd
00000260: 10dd 693d b700 a83c dffe 77bd 387a cebc
00000270: e15f a43c edda 953c 5721 5f3d 9982 b0bd
00000280: b2dd 943b cea8 a9bc 7ed3 5e3d 5e19 98bd
00000290: 89a0 943d cd7c cf3c 2a2d 31bd c25b e5bc
000002a0: 36bd 863d 1229 7a3b 9b87 b5bd bf71 a23d
000002b0: 183b 26bd a235 833d 02b7 133c a28b 56bc
000002c0: 23d9 a63c 90aa 25bd edbd aabd a875 133d
000002d0: 7def e43b 0f74 55bd 4a5d b4bd 3582 98ba
000002e0: 67b5 ffbc ea1a dfbc 5b94 61bd aefe d63c
000002f0: f149 453d 0c0a 503d 4fbb abbc dc6a b4bd
00000300: c1b0 6c3d d570 99bd 25cc 15bd 1e09 49bd
00000310: 1e5e 7bbd 29b9 513d 9852 533d 59fc b43d
00000320: 0d3a 173d 77cd 9fbc 5c08 213d 0e13 783d
00000330: ef44 a23c c924 563d 213b 36bd 169e 89bd
00000340: 3a22 b43d f8e5 6fbd 47bf 32bd fbfb 593c
00000350: 455b 3b3d 3f4a 9dbd f7b0 153d c4f5 3bbd
00000360: f98e 8d3d a7dd 2d3d 11a1 a5bd 1faf 673d
00000370: 96a6 e43c 35cc 6bbd 126a a0bd 812d 563d
00000380: 3f07 983c d6bf 093d 1958 993d f61c 3b3d
00000390: 61ce b53c e52c 19bd f6f7 1d3c e0b4 d03c
000003a0: 0861 08bb d0df 3bbb 4b0e 8abc d37c aebc
000003b0: 69f4 b1bd 6646 2dbc c201 10bc 0d98 393c
000003c0: 7b93 c9bc 8244 84bd 83b4 a8bc 06a6 403d
000003d0: 21aa 4d3d 1698 173d 3207 523d 6496 03bc
000003e0: 07ba 433d b687 0f3d 417d b13d 9f1f f0bb
000003f0: 4ba8 523d 2bba a4bc d29b cfbb ba7a bf3c

2.bias f4 [128]
-0.02519389 -0.010795962 0.004320747 0.18257932 0.1798075 0.0015144031 0.15309128 -0.05330939
0.17936361 -0.05062476 0.07789288 -0.08109888 0.039395593 -0.09229606 0.05700516 0.022268314
0.027514959 0.114196874 -0.003978315 -0.03402185 0.04086785 -0.034177966 0.16721573 0.07659688
0.0053847446 -0.054091286 -0.005748904 0.038748425 0.031335343 -0.0074709337 0.1027685 0.049988918
0.17916378 0.0128392605 -0.03569736 -0.07875344 0.0770685 -0.0483525 0.09525245 -0.06294553
0.06710375 0.044030063 0.013310501 0.07955406 -0.046567325 0.0049579516 0.0164889 -0.03946279
0.17753083 0.10689465 -0.064583324 -0.088119164 0.05610864 0.045485787 0.051702585 0.07228907
0.1699549 0.07158314 0.042730045 -0.066724375 0.090522386 -0.060028587 -0.027052777 -0.09879685
-0.07036831 0.0016819121 -0.04611253 0.12097527 -0.032416034 -0.013692805 0.12186784 0.0015016511
0.13443911 0.04684483 0.14836723 -0.08346737 0.07063052 0.006456307 0.07163775 0.09572943
0.14372271 0.13099335 -0.016612243 -0.07096299 0.006109073 0.14927179 -0.057433024 0.11842655
-0.08152603 0.0797023 0.05943706 0.13959187 0.055961967 -0.030734366 0.032616585 0.1765309
0.040189948 0.11534088 -0.076816805 -0.060671236 0.070052974 0.08761417 0.1279644 0.026998363
-0.08139679 0.03133568 0.06693074 0.005151683 -0.04479938 0.17407285 0.17116232 0.024909306
-0.040894315 0.13791245 0.04182815 0.17668088 0.16360852 0.074836195 -0.04307157 0.049246557
0.08088309 0.041081514 0.017469574 0.0022426127 -0.023359887 -0.035087377 0.1514311 0.011280382
00000000: 6b63 cebc 8ce1 30bc 0e95 8d3b 13f6 3a3e
00000010: 751f 383e f07e c63a f6c3 1c3e f25a 5abd
00000020: 18ab 373e e95b 4fbd 4d86 9f3d 2b17 a6bd
00000030: 465d 213d b705 bdbd 3e7e 693d 0a6c b63c
00000040: 0d67 e13c 0de0 e93d 865c 82bb 7f5a 0bbd
00000050: 0c65 273d 32fe 0bbd 9a3a 2b3e d3de 9c3d
00000060: 8372 b03b d38e 5dbd 4d61 bcbb abb6 1e3d
00000070: 7d59 003d bcce f4bb 4b78 d23d 2ec1 4c3d
00000080: b676 373e c35b 523c 6537 12bd 7c49 a1bd
00000090: 17d6 9d3d 450d 46bd b713 c33d 96e9 80bd
000000a0: b16d 893d de58 343d 4a14 5a3c 3ded a23d
000000b0: 61bd 3ebd 5076 a23b bb13 873c bca3 21bd
000000c0: a4ca 353e 95eb da3d 4344 84bd d277 b4bd
000000d0: 2cd2 653d 4e4f 3a3d 17c6 533d 4b0c 943d
000000e0: a808 2e3e 2e9a 923d b305 2f3d caa6 88bd
000000f0: cd63 b93d 89e0 75bd c99d ddbc 0156 cabd
00000100: 431d 90bd 9b73 dc3a 7ee0 3cbd e2c1 f73d
00000110: adc6 04bd c957 60bc d995 f93d 0dd3 c43a
00000120: 68aa 093e 5de0 3f3d 94ed 173e f1f0 aabd
00000130: bca6 903d 6e8f d33b d0b6 923d cb0d c43d
00000140: 0c2c 133e 1f23 063e 6616 88bc 0b55 91bd
00000150: 9e2e c83b b4da 183e e43e 6bbd 9e89 f23d
00000160: 1ff7 a6bd f63a a33d 4674 733d 2cf1 0e3e
00000170: 6038 653d a3c6 fbbc f898 053d 84c4 343e
00000180: 379e 243d d737 ec3d 2152 9dbd 6782 78bd
00000190: ef77 8f3d 0f6f b33d 1a09 033e ac2b dd3c
000001a0: 5cb3 a6bd d859 003d fc12 893d 73cf a83b
000001b0: 8e7f 37bd 2740 323e 2d45 2f3e 9a0e cc3c
000001c0: cc80 27bd ec38 0d3e ff53 2b3d d5eb 343e
000001d0: fe88 273e b843 993d d16b 30bd c2b6 493d
000001e0: 09a6 a53d 1745 283d 5a1c 8f3c ccf8 123b
000001f0: 3c5d bfbc c8b7 0fbd c110 1b3e 5ad1 383c

4.weight f4 [1, 128]
0.061405048 0.05887091 0.063757546 -0.0963313 -0.09363904 0.061542615 -0.1132615 -0.0752217
-0.08473932 -0.07844325 -0.14503823 0.039403953 -0.12576473 -0.008229932 -0.0062698596 -0.07480521
0.041751537 -0.03609397 0.014495123 0.021043332 0.0010951648 0.021207988 -0.15249199 -0.1361458
0.018267887 -0.051916327 -0.00891213 -0.0309349 0.021740295 -0.0106481835 -0.112105176 -0.125631
-0.103677705 0.02002567 -0.00017405835 -0.0033485382 0.043621194 -0.013192227 -0.09197673 0.07146158
0.042069066 -0.029476937 -0.0520636 0.010937824 -0.06472597 0.027003538 0.004341094 0.06551771
-0.073535904 -0.15049839 0.01269671 0.027633887 -0.0041222717 -0.15010409 0.055033173 0.0026536537
-0.14621201 -0.029566593 0.057025306 0.04088444 -0.14897576 0.019469062 0.006321922 0.01957332
-0.08269087 0.018908087 0.04475812 -0.13825108 0.03935399 0.0819545 -0.11471335 -0.0054410226
-0.15233748 0.028382277 -0.13734569 -0.06610617 0.050677612 -0.055371433 0.06494142 -0.12215392
-0.1414259 -0.050575074 0.0598854 0.040329825 0.0019600417 -0.11195349 0.058923915 -0.08040417
-0.08030268 0.019037731 0.05618972 -0.093720764 -0.10796007 0.0038347836 -0.069072105 -0.08025126
-0.07892048 -0.13288604 -0.0100314235 0.0012162502 0.004323308 -0.10996523 -0.13059337 -0.11929334
-0.012559677 -0.0008487725 0.027620004 -0.083619155 0.0306463 -0.09968212 -0.13867491 0.0629306
-0.041327495 -0.15785599 -0.092113495 -0.104756586 -0.13840754 0.056400448 -0.047412105 -0.007105993
0.07487121 -0.012097357 0.052602638 0.045399826 0.057013687 -0.06881088 -0.056744117 0.06570476
00000000: dc83 7b3d a022 713d 5193 823d 5849 c5bd
00000010: d3c5 bfbd 1c14 7c3d a5f5 e7bd d60d 9abd
00000020: cf8b adbd dba6 a0bd e784 14be 0a66 213d
00000030: 78c8 00be d6d6 06bc 6573 cdbb 7933 99bd
00000040: a903 2b3d 45d7 13bd f47c 6d3c 1163 ac3c
00000050: a28b 8f3a 60bc ad3c dc26 1cbe ce69 0bbe
00000060: 89a6 953c 37a6 54bd 2f04 12bc 306b fdbc
00000070: b418 b23c b875 2ebc 6697 e5bd 6aa5 00be
00000080: fa54 d4bd e00c a43c 6f83 36b9 2673 5bbb
00000090: 23ac 323d 3624 58bc 4c5e bcbd 735a 923d
000000a0: 9d50 2c3d 9e79 f1bc a440 55bd 8f34 333c
000000b0: 0d8f 84bd 8636 dd3c bc3f 8e3b 262e 863d
000000c0: fe99 96bd 401c 1abe dd05 503c 7660 e23c
000000d0: 1f14 87bb e3b4 19be 776a 613d ece8 2d3b
000000e0: 9ab8 15be a435 f2bc 5e93 693d 7176 273d
000000f0: 1a8d 18be 957d 9f3c 2028 cf3b 3a58 a03c
00000100: d559 a9bd 22e5 9a3c 4a54 373d b191 0dbe
00000110: a631 213d c3d7 a73d d5ee eabd 9b4a b2bb
00000120: 5bfe 1bbe f381 e83c 59a4 0cbe ac62 87bd
00000130: 5493 4f3d 28cd 62bd 0200 853d d62b fabd
00000140: f3d1 10be cf27 4fbd 654a 753d e330 253d
00000150: 0b74 003b df47 e5bd 345a 713d f1aa a4bd
00000160: bb75 a4bd 04f5 9b3c 3127 663d acf0 bfbd
00000170: 2b1a ddbd fe50 7b3b ad75 8dbd c65a a4bd
00000180: 10a1 a1bd 4713 08be d75a 24bc 966a 9f3a
00000190: 89aa 8d3b 7335 e1bd 45ba 05be 1150 f4bd
000001a0: 1ac7 4dbc 2980 5eba 5943 e23c 8540 abbd
000001b0: f30d fb3c 2426 ccbd cc00 0ebe c2e1 803d
000001c0: 0547 29bd 00a5 21be 00a6 bcbd 9f8a d6bd
000001d0: b5ba 0dbe 2804 673d 3233 42bd 64d9 e8bb
000001e0: 1456 993d fe33 46bc dd75 573d 2bf5 393d
000001f0: 2f87 693d b8ec 8cbd 856c 68bd 3890 863d

exp_avg f4 [128, 6]
-7.256612e-06 9.758312e-08 0.0 0.0 0.0 0.0 0.0 0.0
0.0 0.0 0.0 0.0 4.3172226 0.1683933 0.0 0.0
0.0 0.0 0.0 0.0 0.0 0.0 0.0 0.0
2.874985 0.112138785 0.0 0.0 0.0 0.0 0.86575454 0.033768732
0.0 0.0 0.0 0.0 3.9327781 0.1533981 0.0 0.0
0.0 0.0 5.2033153 0.20295538 0.0 0.0 0.0 0.0
0.0 0.0 0.0 0.0 0.0 0.0 0.0 0.0
0.0 0.0 0.0 0.0 -0.68526435 -0.026729329 0.0 0.0
0.0 0.0 -1.7233067 -0.06721762 0.0 0.0 0.0 0.0
0.0 0.0 0.0 0.0 0.0 0.0 4.5263934 0.17655203
0.0 0.0 0.0 0.0 0.0 0.0 0.0 0.0
0.0 0.0 0.0 0.0 0.0 0.0 0.0 0.0
0.0 0.0 0.0 0.0 0.0 0.0 0.980243 0.038234368
0.0 0.0 0.0 0.0 4.6935487 0.18307194 0.0 0.0
0.0 0.0 -1.8579636e-06 1.2835446e-08 0.0 0.0 0.0 0.0
3.574993 0.13944267 0.0 0.0 0.0 0.0 -6e-45 -6e-45
0.0 0.0 0.0 0.0 -1.5272206e-05 -7.853499e-08 0.0 0.0
0.0 0.0 4.318318e-06 -1.7887346e-06 0.0 0.0 0.0 0.0
0.35752192 0.013945442 0.0 0.0 0.0 0.0 4.518926 0.17626081
0.0 0.0 0.0 0.0 3.2874749 0.12822801 0.0 0.0
0.0 0.0 4.299581 0.16770518 0.0 0.0 0.0 0.0
0.0 0.0 0.0 0.0 0.0 0.0 4.02315 0.15692295
0.0 0.0 0.0 0.0 1.9945332 0.07779679 0.0 0.0
0.0 0.0 0.0 0.0 0.0 0.0 0.0 0.0
-6e-45 -6e-45 0.0 0.0 0.0 0.0 2.3219175 0.0905664
0.0 0.0 0.0 0.0 4.008028 0.15633318 0.0 0.0
0.0 0.0 4.346978 0.16955392 0.0 0.0 0.0 0.0
-0.56557846 -0.022060478 0.0 0.0 0.0 0.0 0.0 0.0
0.0 0.0 0.0 0.0 0.5372662 0.020956108 0.0 0.0
0.0 0.0 -3.4483478e-06 -1.2386075e-06 0.0 0.0 0.0 0.0
-0.9970524 -0.038891934 0.0 0.0 0.0 0.0 0.0 0.0
0.0 0.0 0.0 0.0 2.5658033 0.10007925 0.0 0.0
00000000: d37d f3b6 e38e d133 0000 0000 0000 0000
00000010: 0000 0000 0000 0000 0000 0000 0000 0000
00000020: 0000 0000 0000 0000 0000 0000 0000 0000
00000030: b026 8a40 4b6f 2c3e 0000 0000 0000 0000
00000040: 0000 0000 0000 0000 0000 0000 0000 0000
00000050: 0000 0000 0000 0000 0000 0000 0000 0000
00000060: c1ff 3740 05a9 e53d 0000 0000 0000 0000
00000070: 0000 0000 0000 0000 17a2 5d3f 1551 0a3d
00000080: 0000 0000 0000 0000 0000 0000 0000 0000
00000090: a3b2 7b40 6414 1d3e 0000 0000 0000 0000
000000a0: 0000 0000 0000 0000 8f81 a640 89d3 4f3e
000000b0: 0000 0000 0000 0000 0000 0000 0000 0000
000000c0: 0000 0000 0000 0000 0000 0000 0000 0000
000000d0: 0000 0000 0000 0000 0000 0000 0000 0000
000000e0: 0000 0000 0000 0000 0000 0000 0000 0000
000000f0: 7c6d 2fbf 77f7 dabc 0000 0000 0000 0000
00000100: 0000 0000 0000 0000 5095 dcbf 64a9 89bd
00000110: 0000 0000 0000 0000 0000 0000 0000 0000
00000120: 0000 0000 0000 0000 0000 0000 0000 0000
00000130: 0000 0000 0000 0000 37d8 9040 0eca 343e
00000140: 0000 0000 0000 0000 0000 0000 0000 0000
00000150: 0000 0000 0000 0000 0000 0000 0000 0000
00000160: 0000 0000 0000 0000 0000 0000 0000 0000
00000170: 0000 0000 0000 0000 0000 0000 0000 0000
00000180: 0000 0000 0000 0000 0000 0000 0000 0000
00000190: 0000 0000 0000 0000 35f1 7a3f a49b 1c3d
000001a0: 0000 0000 0000 0000 0000 0000 0000 0000
000001b0: 8d31 9640 3677 3b3e 0000 0000 0000 0000
000001c0: 0000 0000 0000 0000 255f f9b5 e382 5c32
000001d0: 0000 0000 0000 0000 0000 0000 0000 0000
000001e0: afcc 6440 0fca 0e3e 0000 0000 0000 0000
000001f0: 0000 0000 0000 0000 0400 0080 0400 0080
00000200: 0000 0000 0000 0000 0000 0000 0000 0000
00000210: d01c 80b7 11a7 a8b3 0000 0000 0000 0000
00000220: 0000 0000 0000 0000 12e6 9036 7414 f0b5
00000230: 0000 0000 0000 0000 0000 0000 0000 0000
00000240: 1d0d b73e 6c7b 643c 0000 0000 0000 0000
00000250: 0000 0000 0000 0000 0b9b 9040 b77d 343e
00000260: 0000 0000 0000 0000 0000 0000 0000 0000
00000270: fd65 5240 344e 033e 0000 0000 0000 0000
00000280: 0000 0000 0000 0000 2b96 8940 e8ba 2b3e
00000290: 0000 0000 0000 0000 0000 0000 0000 0000
000002a0: 0000 0000 0000 0000 0000 0000 0000 0000
000002b0: 0000 0000 0000 0000 a5bd 8040 69b0 203e
000002c0: 0000 0000 0000 0000 0000 0000 0000 0000
000002d0: dd4c ff3f ec53 9f3d 0000 0000 0000 0000
000002e0: 0000 0000 0000 0000 0000 0000 0000 0000
000002f0: 0000 0000 0000 0000 0000 0000 0000 0000
00000300: 0400 0080 0400 0080 0000 0000 0000 0000
00000310: 0000 0000 0000 0000 4c9a 1440 e07a b93d
00000320: 0000 0000 0000 0000 0000 0000 0000 0000
00000330: c441 8040 ce15 203e 0000 0000 0000 0000
00000340: 0000 0000 0000 0000 721a 8b40 8b9f 2d3e
00000350: 0000 0000 0000 0000 0000 0000 0000 0000
00000360: c0c9 10bf 2db8 b4bc 0000 0000 0000 0000
00000370: 0000 0000 0000 0000 0000 0000 0000 0000
00000380: 0000 0000 0000 0000 0000 0000 0000 0000
00000390: 478a 093f 25ac ab3c 0000 0000 0000 0000
000003a0: 0000 0000 0000 0000 2a6a 67b6 3b3e a6b5
000003b0: 0000 0000 0000 0000 0000 0000 0000 0000
000003c0: d33e 7fbf 264d 1fbd 0000 0000 0000 0000
000003d0: 0000 0000 0000 0000 0000 0000 0000 0000
000003e0: 0000 0000 0000 0000 0000 0000 0000 0000
000003f0: 1f36 2440 5af6 cc3d 0000 0000 0000 0000

exp_avg_sq f4 [128, 6]
6.8868538e-09 1.8750636e-11 0.0 0.0 0.0 0.0 0.0 0.0
0.0 0.0 0.0 0.0 3.2508695 0.0041856365 0.0 0.0
0.0 0.0 0.0 0.0 0.0 0.0 0.0 0.0
1.5077777 0.001920534 0.0 0.0 0.0 0.0 0.18362595 0.00021979095
0.0 0.0 0.0 0.0 2.7228591 0.003497878 0.0 0.0
0.0 0.0 4.6453123 0.006005247 0.0 0.0 0.0 0.0
0.0 0.0 0.0 0.0 0.0 0.0 0.0 0.0
0.0 0.0 0.0 0.0 0.050643925 7.503734e-05 0.0 0.0
0.0 0.0 0.39762658 0.00054981385 0.0 0.0 0.0 0.0
0.0 0.0 0.0 0.0 0.0 0.0 3.5565066 0.0045845066
0.0 0.0 0.0 0.0 0.0 0.0 0.0 0.0
0.0 0.0 0.0 0.0 0.0 0.0 0.0 0.0
0.0 0.0 0.0 0.0 0.0 0.0 0.22117375 0.00026792008
0.0 0.0 0.0 0.0 3.8405313 0.0049454123 0.0 0.0
0.0 0.0 1.01170805e-07 6.246888e-11 0.0 0.0 0.0 0.0
2.2630167 0.0029030833 0.0 0.0 0.0 0.0 5.5198773e-11 1.2655618e-13
0.0 0.0 0.0 0.0 3.465518e-07 1.1740697e-10 0.0 0.0
0.0 0.0 1.12658576e-07 3.5523115e-10 0.0 0.0 0.0 0.0
0.05574812 6.12567e-05 0.0 0.0 0.0 0.0 3.5473156 0.004571853
0.0 0.0 0.0 0.0 1.9424411 0.0024829188 0.0 0.0
0.0 0.0 3.2392294 0.004165969 0.0 0.0 0.0 0.0
0.0 0.0 0.0 0.0 0.0 0.0 2.8626945 0.0036733823
0.0 0.0 0.0 0.0 0.76649064 0.000964049 0.0 0.0
0.0 0.0 0.0 0.0 0.0 0.0 0.0 0.0
1.2437406e-12 1.5792875e-15 0.0 0.0 0.0 0.0 0.9973135 0.0012661658
0.0 0.0 0.0 0.0 2.8331056 0.0036379313 0.0 0.0
0.0 0.0 3.3159702 0.004263125 0.0 0.0 0.0 0.0
0.032977305 4.9635186e-05 0.0 0.0 0.0 0.0 0.0 0.0
0.0 0.0 0.0 0.0 0.085352235 9.888522e-05 0.0 0.0
0.0 0.0 1.11685374e-07 5.3668187e-10 0.0 0.0 0.0 0.0
0.11703291 0.0001684071 0.0 0.0 0.0 0.0 0.0 0.0
0.0 0.0 0.0 0.0 1.2037449 0.00153242 0.0 0.0
00000000: 68a1 ec31 aeee a42d 0000 0000 0000 0000
00000010: 0000 0000 0000 0000 0000 0000 0000 0000
00000020: 0000 0000 0000 0000 0000 0000 0000 0000
00000030: 3f0e 5040 aa27 893b 0000 0000 0000 0000
00000040: 0000 0000 0000 0000 0000 0000 0000 0000
00000050: 0000 0000 0000 0000 0000 0000 0000 0000
00000060: dcfe c03f 6dba fb3a 0000 0000 0000 0000
00000070: 0000 0000 0000 0000 7108 3c3e af77 6639
00000080: 0000 0000 0000 0000 0000 0000 0000 0000
00000090: 5343 2e40 a83c 653b 0000 0000 0000 0000
000000a0: 0000 0000 0000 0000 66a6 9440 aac7 c43b
000000b0: 0000 0000 0000 0000 0000 0000 0000 0000
000000c0: 0000 0000 0000 0000 0000 0000 0000 0000
000000d0: 0000 0000 0000 0000 0000 0000 0000 0000
000000e0: 0000 0000 0000 0000 0000 0000 0000 0000
000000f0: 0170 4f3d 5d5d 9d38 0000 0000 0000 0000
00000100: 0000 0000 0000 0000 b695 cb3e 6221 103a
00000110: 0000 0000 0000 0000 0000 0000 0000 0000
00000120: 0000 0000 0000 0000 0000 0000 0000 0000
00000130: 0000 0000 0000 0000 ce9d 6340 a139 963b
00000140: 0000 0000 0000 0000 0000 0000 0000 0000
00000150: 0000 0000 0000 0000 0000 0000 0000 0000
00000160: 0000 0000 0000 0000 0000 0000 0000 0000
00000170: 0000 0000 0000 0000 0000 0000 0000 0000
00000180: 0000 0000 0000 0000 0000 0000 0000 0000
00000190: 0000 0000 0000 0000 5f7b 623e a077 8c39
000001a0: 0000 0000 0000 0000 0000 0000 0000 0000
000001b0: 44cb 7540 200d a23b 0000 0000 0000 0000
000001c0: 0000 0000 0000 0000 3d43 d933 da5e 892e
000001d0: 0000 0000 0000 0000 0000 0000 0000 0000
000001e0: 44d5 1040 a841 3e3b 0000 0000 0000 0000
000001f0: 0000 0000 0000 0000 4bc4 722e 567d 0e2a
00000200: 0000 0000 0000 0000 0000 0000 0000 0000
00000210: b70d ba34 2017 012f 0000 0000 0000 0000
00000220: 0000 0000 0000 0000 b5ee f133 574a c32f
00000230: 0000 0000 0000 0000 0000 0000 0000 0000
00000240: 2458 643d f176 8038 0000 0000 0000 0000
00000250: 0000 0000 0000 0000 3807 6340 7ccf 953b
00000260: 0000 0000 0000 0000 0000 0000 0000 0000
00000270: e9a1 f83f 77b8 223b 0000 0000 0000 0000
00000280: 0000 0000 0000 0000 894f 4f40 ae82 883b
00000290: 0000 0000 0000 0000 0000 0000 0000 0000
000002a0: 0000 0000 0000 0000 0000 0000 0000 0000
000002b0: 0000 0000 0000 0000 6336 3740 21bd 703b
000002c0: 0000 0000 0000 0000 0000 0000 0000 0000
000002d0: bb38 443f 3cb8 7c3a 0000 0000 0000 0000
000002e0: 0000 0000 0000 0000 0000 0000 0000 0000
000002f0: 0000 0000 0000 0000 0000 0000 0000 0000
00000300: 7a0a af2b 6d99 e326 0000 0000 0000 0000
00000310: 0000 0000 0000 0000 f04f 7f3f 79f5 a53a
00000320: 0000 0000 0000 0000 0000 0000 0000 0000
00000330: 9a51 3540 5c6a 6e3b 0000 0000 0000 0000
00000340: 0000 0000 0000 0000 db38 5440 afb1 8b3b
00000350: 0000 0000 0000 0000 0000 0000 0000 0000
00000360: 3613 073d 602f 5038 0000 0000 0000 0000
00000370: 0000 0000 0000 0000 0000 0000 0000 0000
00000380: 0000 0000 0000 0000 0000 0000 0000 0000
00000390: 27cd ae3d 9960 cf38 0000 0000 0000 0000
000003a0: 0000 0000 0000 0000 afd7 ef33 a185 1330
000003b0: 0000 0000 0000 0000 0000 0000 0000 0000
000003c0: f3ae ef3d 7096 3039 0000 0000 0000 0000
000003d0: 0000 0000 0000 0000 0000 0000 0000 0000
000003e0: 0000 0000 0000 0000 0000 0000 0000 0000
000003f0: 5014 9a3f 7cdb c83a 0000 0000 0000 0000

exp_avg f4 [128]
6.609898e-06 0.0 9.959286 0.0 6.6322265 1.9971856 9.072423 12.003391
0.0 0.0 -1.5808328 -3.9754508 0.0 10.441818 0.0 0.0
0.0 2.2612963 10.827423 1.6327957e-06 8.247057 6e-45 1.28834845e-05 -2.446767e-05
0.8247653 10.424592 7.583789 9.918589 0.0 9.280897 4.6011357 0.0
6e-45 5.3563695 9.246015 10.027928 -1.3047215 0.0 1.2394073 -1.0766182e-05
-2.3001163 0.0 5.9189854 0.0 7.106487 7.2070007 0.0 5.864112
10.229092 0.0 5.252929 0.0 6.376696e-05 8.713069 8.980261 4.3348427
0.0 0.0 6.349094 9.608642 0.0 8.400302 7.446132 8.011773
0.0 -2.9004002 10.075799 3.6332898 4.2433738e-05 0.0 10.619727 0.0
0.0 0.0 0.0 7.645457 12.532032 5.0257067e-06 10.549178 6e-45
0.0 1.3123761 -0.3826749 -1.3791569e-06 -2.8539143e-05 0.0 0.0 0.0
10.606508 0.0 6.1886444 6e-45 8.421892 10.600943 2.0196633 10.12747
0.0 9.486726 0.0 0.0 8.028635 0.0 5.190217 6.3161883
6.4917073 6e-45 5.317754 10.761367 1.1583167 1.3803458 9.428905 0.0
5.3940744 6.0241524e-07 0.0 0.0 6e-45 10.849317 9.054764e-06 6.1022286
6e-45 0.4729792 0.0 6e-45 0.0 0.0 14.876625 10.941534
00000000: 97ca dd36 0000 0000 3c59 1f41 0000 0000
00000010: 333b d440 c7a3 ff3f a528 1141 e40d 4041
00000020: 0000 0000 0000 0000 bb58 cabf c96d 7ec0
00000030: 0000 0000 b011 2741 0000 0000 0000 0000
00000040: 0000 0000 14b9 1040 203d 2d41 6f26 db35
00000050: f2f3 0341 0400 0000 2526 5837 ec3f cdb7
00000060: d223 533f 21cb 2641 66ae f240 8ab2 1e41
00000070: 0000 0000 8e7e 1441 813c 9340 0000 0000
00000080: 0400 0000 6167 ab40 adef 1341 6572 2041
00000090: 1d01 a7bf 0000 0000 e6a4 9e3f 66a0 34b7
000000a0: 1b35 13c0 0000 0000 5468 bd40 0000 0000
000000b0: 5768 e340 c09f e640 0000 0000 cea6 bb40
000000c0: 5caa 2341 0000 0000 ff17 a840 0000 0000
000000d0: a0ba 8538 bb68 0b41 26af 0f41 08b7 8a40
000000e0: 0000 0000 0000 0000 c72b cb40 ffbc 1941
000000f0: 0000 0000 a367 0641 b746 ee40 3930 0041
00000100: 0000 0000 28a0 39c0 7936 2141 d287 6840
00000110: e1fa 3138 0000 0000 67ea 2941 0000 0000
00000120: 0000 0000 0000 0000 0000 0000 95a7 f440
00000130: 3483 4841 7ea2 a836 6fc9 2841 0400 0000
00000140: 0000 0000 f1fb a73f f7ed c3be 781b b9b5
00000150: 5867 efb7 0000 0000 0000 0000 0000 0000
00000160: 42b4 2941 0000 0000 6009 c640 0400 0000
00000170: 12c0 0641 769d 2941 2a42 0140 1e0a 2241
00000180: 0000 0000 a1c9 1741 0000 0000 0000 0000
00000190: 4a75 0041 0000 0000 4216 a640 371e ca40
000001a0: 11bc cf40 0400 0000 0a2b aa40 8f2e 2c41
000001b0: b943 943f 2caf b03f cbdc 1641 0000 0000
000001c0: 429c ac40 a9b5 2135 0000 0000 0000 0000
000001d0: 0400 0000 cd96 2d41 eae9 1737 7545 c340
000001e0: 0400 0000 542a f23e 0000 0000 0400 0000
000001f0: 0000 0000 0000 0000 a806 6e41 8610 2f41

exp_avg_sq f4 [128]
8.959996e-09 0.0 16.832409 0.0 7.7941856 0.94053805 14.093585 24.067486
0.0 0.0 0.26827794 2.0821416 0.0 18.418228 0.0 0.0
0.0 1.1348219 19.885904 2.2213375e-07 11.710923 4.4584322e-11 4.1215108e-07 1.8197902e-07
0.28217542 18.37014 10.046483 16.769243 0.0 14.81483 3.9546874 0.0
9.255551e-13 5.1528697 14.663243 17.165579 0.17516834 0.0 0.4351595 2.5464334e-07
0.6168864 0.0 6.222021 0.0 8.777225 9.068624 0.0 6.1830487
17.727985 0.0 5.064881 0.0 6.769892e-09 13.012902 13.860496 3.5165956
0.0 0.0 7.1218834 15.740475 0.0 12.114681 9.636628 11.131854
0.0 1.0271196 17.25733 2.592422 4.092907e-06 0.0 19.132002 0.0
0.0 0.0 0.0 10.202818 26.25862 4.3030504e-08 18.781723 1.7250504e-15
0.0 0.49285415 0.039237846 2.7125905e-08 1.01904234e-07 0.0 0.0 0.0
19.192684 0.0 6.79733 1.2803872e-14 12.2588 18.952082 0.9176057 17.322592
0.0 15.390575 0.0 0.0 11.087738 0.0 4.8709803 7.0760617
7.3990607 8.848063e-11 5.12572 19.558218 0.38953552 0.52499175 15.130033 0.0
5.319471 1.8659243e-08 0.0 0.0 7.050243e-10 19.890343 2.3929218e-08 6.6478815
1.495307e-16 0.15958764 0.0 4.5785094e-11 0.0 0.0 22.13162 20.233828
00000000: 7bee 1932 0000 0000 c6a8 8641 0000 0000
00000010: f869 f940 1ac7 703f 537f 6141 368a c041
00000020: 0000 0000 0000 0000 ba5b 893e cf41 0540
00000030: 0000 0000 8858 9341 0000 0000 0000 0000
00000040: 0000 0000 d841 913f 5516 9f41 a983 6e34
00000050: f15f 3b41 7c15 442e 9d45 dd34 0366 4334
00000060: 4c79 903e 0cf6 9241 65be 2041 6927 8641
00000070: 0000 0000 8b09 6d41 9919 7d40 0000 0000
00000080: a342 822b 4fe4 a440 a59c 6a41 1b53 8941
00000090: 545f 333e 0000 0000 3acd de3e eab5 8834
000000a0: 44ec 1d3f 0000 0000 cc1a c740 0000 0000
000000b0: 836f 0c41 1519 1141 0000 0000 89db c540
000000c0: ead2 8d41 0000 0000 8113 a240 0000 0000
000000d0: 9a9c e831 d934 5041 97c4 5d41 e70f 6140
000000e0: 0000 0000 0000 0000 78e6 e340 fcd8 7b41
000000f0: 0000 0000 bcd5 4141 a12f 1a41 131c 3241
00000100: 0000 0000 a878 833f 030f 8a41 3eea 2540
00000110: ce55 8936 0000 0000 570e 9941 0000 0000
00000120: 0000 0000 0000 0000 0000 0000 be3e 2341
00000130: a711 d241 8ad0 3833 f840 9641 209b f826
00000140: 0000 0000 6157 fc3e ddb7 203d 7f02 e932
00000150: 72d6 da33 0000 0000 0000 0000 0000 0000
00000160: 9e8a 9941 0000 0000 ba83 d940 70a7 6628
00000170: 0b24 4441 dd9d 9741 35e8 6a3f ab94 8a41
00000180: 0000 0000 cc3f 7641 0000 0000 0000 0000
00000190: 6067 3141 0000 0000 12df 9b40 196f e240
000001a0: 1bc5 ec40 2b92 c22e e605 a440 3b77 9c41
000001b0: 3371 c73e dc65 063f 9d14 7241 0000 0000
000001c0: 1b39 aa40 1c48 a032 0000 0000 0000 0000
000001d0: adcb 4130 6c1f 9f41 e88c cd32 72bb d440
000001e0: ac65 2c25 f16a 233e 0000 0000 6f5d 492e
000001f0: 0000 0000 0000 0000 8f0d b141 e1de a141

exp_avg f4 [128, 128]
0.0 0.0 6e-45 0.0 6e-45 0.0 6e-45 6e-45
0.0 0.0 0.0 0.0 0.0 6e-45 0.0 0.0
0.0 6e-45 6e-45 6e-45 6e-45 0.0 6e-45 0.0
0.0 6e-45 6e-45 6e-45 0.0 6e-45 6e-45 0.0
0.0 6e-45 6e-45 6e-45 0.0 0.0 0.0 0.0
0.0 0.0 6e-45 0.0 6e-45 6e-45 0.0 6e-45
6e-45 0.0 6e-45 0.0 6e-45 6e-45 6e-45 6e-45
0.0 0.0 6e-45 6e-45 0.0 6e-45 6e-45 6e-45
0.0 0.0 6e-45 6e-45 0.0 0.0 6e-45 0.0
0.0 0.0 0.0 6e-45 6e-45 6e-45 6e-45 0.0
0.0 0.0 0.0 0.0 6e-45 0.0 0.0 0.0
6e-45 0.0 6e-45 0.0 6e-45 6e-45 6e-45 6e-45
0.0 6e-45 0.0 0.0 6e-45 0.0 6e-45 6e-45
6e-45 0.0 6e-45 6e-45 0.0 0.0 6e-45 0.0
6e-45 0.0 0.0 0.0 6e-45 6e-45 0.0 6e-45
0.0 0.0 0.0 0.0 0.0 0.0 6e-45 6e-45
0.0 0.0 6e-45 0.0 6e-45 0.0 6e-45 6e-45
0.0 0.0 0.0 0.0 0.0 6e-45 0.0 0.0
0.0 6e-45 6e-45 -6e-45 6e-45 0.0 6e-45 0.0
0.0 6e-45 6e-45 6e-45 0.0 6e-45 6e-45 0.0
0.0 6e-45 6e-45 6e-45 0.0 0.0 0.0 0.0
0.0 0.0 6e-45 0.0 6e-45 6e-45 0.0 6e-45
6e-45 0.0 6e-45 0.0 6e-45 6e-45 6e-45 6e-45
0.0 0.0 6e-45 6e-45 0.0 6e-45 6e-45 6e-45
0.0 0.0 6e-45 6e-45 0.0 0.0 6e-45 0.0
0.0 0.0 0.0 6e-45 6e-45 6e-45 6e-45 0.0
0.0 0.0 0.0 0.0 6e-45 0.0 0.0 0.0
6e-45 0.0 6e-45 0.0 6e-45 6e-45 6e-45 6e-45
0.0 6e-45 0.0 0.0 6e-45 0.0 6e-45 6e-45
6e-45 0.0 6e-45 6e-45 0.0 0.0 6e-45 0.0
6e-45 0.0 0.0 0.0 6e-45 6e-45 0.0 6e-45
0.0 0.0 0.0 0.0 0.0 0.0 6e-45 6e-45
00000000: 0000 0000 0000 0000 0400 0000 0000 0000
00000010: 0400 0000 0000 0000 0400 0000 0400 0000
00000020: 0000 0000 0000 0000 0000 0000 0000 0000
00000030: 0000 0000 0400 0000 0000 0000 0000 0000
00000040: 0000 0000 0400 0000 0400 0000 0400 0000
00000050: 0400 0000 0000 0000 0400 0000 0000 0000
00000060: 0000 0000 0400 0000 0400 0000 0400 0000
00000070: 0000 0000 0400 0000 0400 0000 0000 0000
00000080: 0000 0000 0400 0000 0400 0000 0400 0000
00000090: 0000 0000 0000 0000 0000 0000 0000 0000
000000a0: 0000 0000 0000 0000 0400 0000 0000 0000
000000b0: 0400 0000 0400 0000 0000 0000 0400 0000
000000c0: 0400 0000 0000 0000 0400 0000 0000 0000
000000d0: 0400 0000 0400 0000 0400 0000 0400 0000
000000e0: 0000 0000 0000 0000 0400 0000 0400 0000
000000f0: 0000 0000 0400 0000 0400 0000 0400 0000
00000100: 0000 0000 0000 0000 0400 0000 0400 0000
00000110: 0000 0000 0000 0000 0400 0000 0000 0000
00000120: 0000 0000 0000 0000 0000 0000 0400 0000
00000130: 0400 0000 0400 0000 0400 0000 0000 0000
00000140: 0000 0000 0000 0000 0000 0000 0000 0000
00000150: 0400 0000 0000 0000 0000 0000 0000 0000
00000160: 0400 0000 0000 0000 0400 0000 0000 0000
00000170: 0400 0000 0400 0000 0400 0000 0400 0000
00000180: 0000 0000 0400 0000 0000 0000 0000 0000
00000190: 0400 0000 0000 0000 0400 0000 0400 0000
000001a0: 0400 0000 0000 0000 0400 0000 0400 0000
000001b0: 0000 0000 0000 0000 0400 0000 0000 0000
000001c0: 0400 0000 0000 0000 0000 0000 0000 0000
000001d0: 0400 0000 0400 0000 0000 0000 0400 0000
000001e0: 0000 0000 0000 0000 0000 0000 0000 0000
000001f0: 0000 0000 0000 0000 0400 0000 0400 0000
00000200: 0000 0000 0000 0000 0400 0000 0000 0000
00000210: 0400 0000 0000 0000 0400 0000 0400 0000
00000220: 0000 0000 0000 0000 0000 0000 0000 0000
00000230: 0000 0000 0400 0000 0000 0000 0000 0000
00000240: 0000 0000 0400 0000 0400 0000 0400 0080
00000250: 0400 0000 0000 0000 0400 0000 0000 0000
00000260: 0000 0000 0400 0000 0400 0000 0400 0000
00000270: 0000 0000 0400 0000 0400 0000 0000 0000
00000280: 0000 0000 0400 0000 0400 0000 0400 0000
00000290: 0000 0000 0000 0000 0000 0000 0000 0000
000002a0: 0000 0000 0000 0000 0400 0000 0000 0000
000002b0: 0400 0000 0400 0000 0000 0000 0400 0000
000002c0: 0400 0000 0000 0000 0400 0000 0000 0000
000002d0: 0400 0000 0400 0000 0400 0000 0400 0000
000002e0: 0000 0000 0000 0000 0400 0000 0400 0000
000002f0: 0000 0000 0400 0000 0400 0000 0400 0000
00000300: 0000 0000 0000 0000 0400 0000 0400 0000
00000310: 0000 0000 0000 0000 0400 0000 0000 0000
00000320: 0000 0000 0000 0000 0000 0000 0400 0000
00000330: 0400 0000 0400 0000 0400 0000 0000 0000
00000340: 0000 0000 0000 0000 0000 0000 0000 0000
00000350: 0400 0000 0000 0000 0000 0000 0000 0000
00000360: 0400 0000 0000 0000 0400 0000 0000 0000
00000370: 0400 0000 0400 0000 0400 0000 0400 0000
00000380: 0000 0000 0400 0000 0000 0000 0000 0000
00000390: 0400 0000 0000 0000 0400 0000 0400 0000
000003a0: 0400 0000 0000 0000 0400 0000 0400 0000
000003b0: 0000 0000 0000 0000 0400 0000 0000 0000
000003c0: 0400 0000 0000 0000 0000 0000 0000 0000
000003d0: 0400 0000 0400 0000 0000 0000 0400 0000
000003e0: 0000 0000 0000 0000 0000 0000 0000 0000
000003f0: 0000 0000 0000 0000 0400 0000 0400 0000

exp_avg_sq f4 [128, 128]
0.0 0.0 9.67048e-18 0.0 1.7362438e-18 0.0 2.475119e-17 4.3835055e-18
0.0 0.0 0.0 0.0 0.0 2.8111034e-18 0.0 0.0
0.0 6.9849745e-18 5.5390185e-18 7.611158e-20 3.960405e-17 0.0 3.1126974e-20 0.0
0.0 9.007302e-18 3.4531296e-19 3.95363e-18 0.0 6.0478558e-18 1.3942008e-17 0.0
0.0 1.150079e-17 6.3098623e-18 9.338861e-19 0.0 0.0 0.0 0.0
0.0 0.0 1.9808995e-17 0.0 2.8889432e-17 3.362853e-18 0.0 6.422696e-18
4.903416e-19 0.0 4.502954e-18 0.0 7.478008e-19 1.0177623e-17 3.5194034e-17 1.7186778e-17
0.0 0.0 3.2167257e-17 1.4028329e-18 0.0 3.6732292e-17 2.462506e-17 4.226094e-18
0.0 0.0 2.091345e-18 1.5753185e-18 0.0 0.0 6.534431e-18 0.0
0.0 0.0 0.0 4.0111153e-17 3.9324807e-18 3.0313864e-18 3.0986943e-18 0.0
0.0 0.0 0.0 0.0 1.7977414e-18 0.0 0.0 0.0
2.084002e-18 0.0 2.0081055e-19 0.0 2.0167515e-17 1.8225236e-17 1.2915315e-18 8.237873e-18
0.0 1.4997253e-18 0.0 0.0 2.0551766e-17 0.0 2.552152e-17 2.4931627e-17
5.1988e-18 0.0 4.3929643e-18 1.6076616e-17 0.0 0.0 8.311158e-19 0.0
5.901613e-18 0.0 0.0 0.0 2.783727e-19 5.215875e-18 0.0 1.7214852e-18
0.0 0.0 0.0 0.0 0.0 0.0 1.9038267e-18 1.5153654e-17
0.0 0.0 3.0730637e-17 0.0 6.7214157e-18 0.0 8.658112e-17 1.463696e-17
0.0 0.0 0.0 0.0 0.0 8.54871e-18 0.0 0.0
0.0 2.4212867e-17 1.7101752e-17 5.399527e-19 1.3804944e-16 0.0 1.6447831e-19 0.0
0.0 3.0073382e-17 9.280102e-19 1.1701918e-17 0.0 1.7565303e-17 4.892429e-17 0.0
0.0 3.727719e-17 2.0217685e-17 2.6257256e-18 0.0 0.0 0.0 0.0
0.0 0.0 6.768886e-17 0.0 9.616759e-17 1.051239e-17 0.0 2.0197231e-17
1.5856454e-18 0.0 1.6071825e-17 0.0 2.628731e-18 3.6392466e-17 1.2058454e-16 6.2169035e-17
0.0 0.0 1.1097238e-16 4.2565838e-18 0.0 1.2297494e-16 8.759198e-17 1.34046e-17
0.0 0.0 5.9325257e-18 5.969752e-18 0.0 0.0 2.0606616e-17 0.0
0.0 0.0 0.0 1.3743569e-16 1.1391722e-17 1.09878545e-17 1.00034624e-17 0.0
0.0 0.0 0.0 0.0 6.9316648e-18 0.0 0.0 0.0
7.453258e-18 0.0 8.1688025e-19 0.0 6.933226e-17 6.0120824e-17 3.6619013e-18 2.5926403e-17
0.0 4.393209e-18 0.0 0.0 6.893973e-17 0.0 8.4668705e-17 8.754643e-17
1.9948999e-17 0.0 1.4722702e-17 5.729753e-17 0.0 0.0 2.76095e-18 0.0
2.2100102e-17 0.0 0.0 0.0 6.9070165e-19 1.576468e-17 0.0 6.0757884e-18
0.0 0.0 0.0 0.0 0.0 0.0 7.253219e-18 4.7858308e-17
00000000: 0000 0000 0000 0000 8d63 3223 0000 0000
00000010: b81c 0022 0000 0000 184a e423 0ab9 a122
00000020: 0000 0000 0000 0000 0000 0000 0000 0000
00000030: 0000 0000 3e6c 4f22 0000 0000 0000 0000
00000040: 0000 0000 9cd9 0023 8d5a cc22 a1b6 b31f
00000050: 36a4 3624 0000 0000 34fe 121f 0000 0000
00000060: 0000 0000 c827 2623 38d6 cb20 fbdc 9122
00000070: 0000 0000 6220 df22 a397 8023 0000 0000
00000080: 0000 0000 f226 5423 f7ca e822 38d1 8921
00000090: 0000 0000 0000 0000 0000 0000 0000 0000
000000a0: 0000 0000 0000 0000 abb4 b623 0000 0000
000000b0: 9f3a 0524 7f22 7822 0000 0000 a6f4 ec22
000000c0: 2ab9 1021 0000 0000 3321 a622 0000 0000
000000d0: 3bb6 5c21 77be 3b23 c84d 2224 2285 9e23
000000e0: 0000 0000 0000 0000 6558 1424 8705 cf21
000000f0: 0000 0000 d665 2924 4720 e323 54ea 9b22
00000100: 0000 0000 0000 0000 6450 1a22 da79 e821
00000110: 0000 0000 0000 0000 f513 f122 0000 0000
00000120: 0000 0000 0000 0000 0000 0000 e4fa 3824
00000130: 3b15 9122 45ad 5f22 aea4 6422 0000 0000
00000140: 0000 0000 0000 0000 0000 0000 0000 0000
00000150: 60a6 0422 0000 0000 0000 0000 0000 0000
00000160: afc5 1922 0000 0000 4413 6d20 0000 0000
00000170: 3303 ba23 1f19 a823 ae98 be21 41f6 1723
00000180: 0000 0000 0552 dd21 0000 0000 0000 0000
00000190: 7c8e bd23 0000 0000 fc64 eb23 24f4 e523
000001a0: 47cd bf22 0000 0000 6012 a222 d647 9423
000001b0: 0000 0000 0000 0000 564d 7521 0000 0000
000001c0: 29bb d922 0000 0000 0000 0000 0000 0000
000001d0: 7e52 a420 8c6e c022 0000 0000 df0b fe21
000001e0: 0000 0000 0000 0000 0000 0000 0000 0000
000001f0: 0000 0000 0000 0000 457a 0c22 8ec4 8b23
00000200: 0000 0000 0000 0000 55b8 0d24 0000 0000
00000210: faf9 f722 0000 0000 79a4 c724 8b00 8723
00000220: 0000 0000 0000 0000 0000 0000 0000 0000
00000230: 0000 0000 24b2 1d23 0000 0000 0000 0000
00000240: 0000 0000 0453 df23 5fbc 9d23 ac5d 1f21
00000250: 0129 1f25 0000 0000 852e 4220 0000 0000
00000260: 0000 0000 62b0 0a24 3cf3 8821 bfdc 5723
00000270: 0000 0000 e602 a223 9b9f 6124 0000 0000
00000280: 0000 0000 23e9 2b24 a979 ba23 8ebe 4122
00000290: 0000 0000 0000 0000 0000 0000 0000 0000
000002a0: 0000 0000 0000 0000 7314 9c24 0000 0000
000002b0: 53bf dd24 5ceb 4123 0000 0000 5d49 ba23
000002c0: fdff e921 0000 0000 863c 9423 0000 0000
000002d0: 53f7 4122 a4d4 2724 4606 0b25 1f5a 8f24
000002e0: 0000 0000 0000 0000 88e2 ff24 4c0a 9d22
000002f0: 0000 0000 ccc7 0d25 2ef9 c924 6f45 7723
00000300: 0000 0000 0000 0000 1fdf da22 b73e dc22
00000310: 0000 0000 0000 0000 ff0f be23 0000 0000
00000320: 0000 0000 0000 0000 0000 0000 db73 1e25
00000330: e323 5223 adb0 4a23 0488 3823 0000 0000
00000340: 0000 0000 0000 0000 0000 0000 0000 0000
00000350: b9bb ff22 0000 0000 0000 0000 0000 0000
00000360: 047d 0923 0000 0000 ba19 7121 0000 0000
00000370: 8bde 9f24 12a1 8a24 ae19 8722 fd20 ef23
00000380: 0000 0000 b014 a222 0000 0000 0000 0000
00000390: d5f6 9e24 0000 0000 953b c324 4ade c924
000003a0: 3eff b723 0000 0000 ffca 8723 7e1e 8424
000003b0: 0000 0000 0000 0000 dfb8 4b22 0000 0000
000003c0: 64d6 cb23 0000 0000 0000 0000 0000 0000
000003d0: f1db 4b21 4c67 9123 0000 0000 3328 e022
000003e0: 0000 0000 0000 0000 0000 0000 0000 0000
000003f0: 0000 0000 0000 0000 5ccc 0523 1eb5 5c24

exp_avg f4 [128]
6e-45 6e-45 0.0 2.0907536 2.0328028 6e-45 2.4554036 0.0
1.8411946 0.0 3.139575 6e-45 2.7245204 6e-45 6e-45 6e-45
6e-45 0.79315716 0.0 6e-45 0.0 6e-45 3.3003435 2.9482365
0.0 0.0 0.0 6e-45 -0.44966573 6e-45 2.4303186 2.7218068
2.248967 6e-45 7.567197e-07 6e-45 -0.91902494 0.0 1.9968301 6e-45
6e-45 0.0 0.0 0.0 7.5456286e-05 6e-45 0.0 0.0
1.5997111 3.2571743 6e-45 0.0 6e-45 3.248705 6e-45 6e-45
3.165006 0.0 0.0 6e-45 3.224501 0.0 0.0 6e-45
0.0 0.0 0.0 2.9933875 6e-45 0.0 2.4865406 1.31e-42
3.2967725 0.0 2.9739645 0.0 0.0 0.0 6e-45 2.6468217
3.0619187 1.1050292 0.0 0.0 6e-45 2.4272563 0.0 1.7475582
6e-45 0.0 6e-45 2.0344753 2.340948 0.0 1.5036122 1.744473
1.7157824 2.8779855 0.0 6e-45 6e-45 2.3843591 2.8285851 2.5851278
0.0 6.8229385e-12 6e-45 0.0 0.0 2.1629603 3.002584 6e-45
6e-45 3.4158142 1.9999101 2.272091 2.9968174 6e-45 6e-45 6e-45
6e-45 0.0 0.0 0.0 6e-45 0.0 1.2379805 6e-45
00000000: 0400 0000 0400 0000 0000 0000 e8ce 0540
00000010: 7119 0240 0400 0000 5525 1d40 0000 0000
00000020: 44ac eb3f 0000 0000 ccee 4840 0400 0000
00000030: 8b5e 2e40 0400 0000 0400 0000 0400 0000
00000040: 0400 0000 590c 4b3f 0000 0000 0400 0000
00000050: 0000 0000 0400 0000 d438 5340 e8af 3c40
00000060: 0000 0000 0000 0000 0000 0000 0400 0000
00000070: 963a e6be 0400 0000 578a 1b40 1532 2e40
00000080: 13ef 0f40 0400 0000 6221 4b35 0400 0000
00000090: 3845 6bbf 0000 0000 2198 ff3f 0400 0000
000000a0: 0400 0000 0000 0000 0000 0000 0000 0000
000000b0: 493e 9e38 0400 0000 0000 0000 0000 0000
000000c0: 55c3 cc3f 8b75 5040 0400 0000 0000 0000
000000d0: 0400 0000 c8ea 4f40 0400 0000 0400 0000
000000e0: 758f 4a40 0000 0000 0000 0000 0400 0000
000000f0: 395e 4e40 0000 0000 0000 0000 0400 0000
00000100: 0000 0000 0000 0000 0000 0000 a993 3f40
00000110: 0400 0000 0000 0000 7b23 1f40 a703 0000
00000120: 52fe 5240 0000 0000 6f55 3e40 0000 0000
00000130: 0000 0000 0000 0000 0400 0000 8765 2940
00000140: 7af6 4340 9971 8d3f 0000 0000 0000 0000
00000150: 0400 0000 2b58 1b40 0000 0000 fdaf df3f
00000160: 0400 0000 0000 0000 0400 0000 d834 0240
00000170: 18d2 1540 0000 0000 5d76 c03f e44a df3f
00000180: c29e db3f ea30 3840 0000 0000 0400 0000
00000190: 0400 0000 5799 1840 8a07 3540 bc72 2540
000001a0: 0000 0000 910f f02c 0400 0000 0000 0000
000001b0: 0000 0000 f16d 0a40 562a 4040 0400 0000
000001c0: 0400 0000 b39c 5a40 0efd ff3f f069 1140
000001d0: dbcb 3f40 0400 0000 0400 0000 0400 0000
000001e0: 0400 0000 0000 0000 0000 0000 0000 0000
000001f0: 0400 0000 0000 0000 2576 9e3f 0400 0000
